proj5/task1/results/model.pth (torch, 89871 bytes, 8 tensors)

conv1.weight f4 [10, 1, 5, 5]
000000 2f 1a fd 3d 8a a5 72 3e 6f 4f b7 3d 96 50 aa 3e
       0.1235851 0.2369596 0.08950698 0.33264607
000010 45 1f ac bc d7 af 0b bd 42 72 5d 3d 33 3e c4 3e
       -0.021011004 -0.03410324 0.054064043 0.38328704
000020 17 02 95 3e b9 7c 4d be f3 31 34 3e f2 5d 72 3e
       0.29103157 -0.20067109 0.17597179 0.2366865
000030 ba e9 d0 3e ed 30 c2 3d 5a d8 a5 3d f0 d6 f4 3b
       0.4080332 0.09481988 0.080979064 0.0074719116
000040 4d e5 8a 3e 11 4e 3b 3e 08 39 2f 3c 52 a1 de 3d
       0.27128068 0.18291499 0.01069475 0.10870613
000050 bd e1 ec bd ee 9a 20 bc e6 c5 13 3d a6 49 81 3e
       -0.11566494 -0.009802563 0.036077403 0.25251502
000060 b1 29 da bd bb ae 0c be d4 31 30 be 10 f8 65 be
       -0.10652483 -0.1373853 -0.17206508 -0.2245791
000070 00 b3 a4 bd 44 3d 9a be 3a d5 1c 3e 6e 86 84 be
       -0.08041954 -0.30124867 0.15315714 -0.25883812
000080 05 bd 4c 3d bd 95 bf bd 0c 6c 4d be da 83 43 3e
       0.04998495 -0.09354732 -0.20060748 0.19093266
000090 71 c4 11 3e cb 5f a6 3e 22 ad 06 3e d1 9a 64 bd
       0.14235093 0.3249496 0.13151982 -0.055811707
0000a0 ad 1e ea 3d 76 52 0e 3e ea b0 c6 3e 18 6b d8 3e
       0.11431632 0.13898644 0.3880685 0.42269206
0000b0 a3 fd 6d 3e 19 f2 29 be 7a 3c 2c 3e 05 6c 10 3e
       0.23241286 -0.16596259 0.16819945 0.14103706
0000c0 06 b6 77 3e 37 31 1c 3d f6 b6 14 be 44 6d e0 3d
       0.2419053 0.038132872 -0.14522919 0.10958341
0000d0 49 23 92 3d 8a 95 70 3e 71 f4 06 3d 87 e9 cc 3d
       0.07135636 0.23494545 0.03294796 0.10005479
0000e0 0b 3b 81 3e 9e 25 2c 3e 30 08 13 3e fb de 85 be
       0.2524036 0.16811225 0.14358592 -0.26146683
0000f0 55 68 30 3e 30 d6 44 3e 4c 21 7c 3e a8 33 11 be
       0.172273 0.19222331 0.24622077 -0.14179862
000100 da 7d 0f be d7 9e 3c 3e 09 3a e2 3e 76 6e 03 bd
       -0.14012852 0.18419968 0.44184902 -0.032087766
000110 a1 1e 76 be c8 d1 9a be d8 18 bb 3e f2 b9 7c 3e
       -0.24035122 -0.30238175 0.36542392 0.24680308
000120 9c a0 1a 3e 30 c7 b7 be 52 68 da be 72 9c 97 be
       0.1510033 -0.35894156 -0.42657715 -0.29611546
000130 07 f7 6a be cb 3c 7c 3d e9 44 3d 3e 97 4a ad 3e
       -0.22945796 0.061581414 0.18483318 0.3384597
000140 e3 0a 8c be fa 0f 53 be ab 95 24 3e 54 b2 cc 3d
       -0.27352056 -0.20611563 0.16072719 0.09994951
000150 4c e7 8e 3e 3d bd 58 be b6 8f da 3d b9 53 b1 3b
       0.2791084 -0.21165939 0.10671942 0.005411592
000160 07 ef 03 3e c5 03 24 3e 64 a0 90 bd 23 f2 2d bd
       0.1288415 0.16017063 -0.07061842 -0.042467248
000170 bb 7a 66 3e c4 59 8c 3e 12 3b bd bd 69 b4 b5 bd
       0.22507755 0.27412236 -0.092397824 -0.08872301
000180 ff 2d 7c 3e 3c c4 5d 3d a8 e0 53 3d 27 28 0a be
       0.24626921 0.05414222 0.05172792 -0.1349188
000190 af dd 30 be 6c 72 01 ba ce 5c 79 bd 5c d8 35 be
       -0.17272066 -0.00049380097 -0.06087952 -0.17758316
0001a0 ab 89 16 bd fc ff 4f be c7 b4 6d be 1a bc 24 be
       -0.036752384 -0.20312494 -0.23213492 -0.1608738
0001b0 0d b6 65 be df ae 32 be 6b 99 d2 3d 00 e3 50 bd
       -0.22432728 -0.1744952 0.102831684 -0.050997734
0001c0 5f 7d fb bb 9d 8a 78 be 4b 27 3b be 18 58 eb bd
       -0.0076748575 -0.24271627 -0.18276708 -0.11491412
0001d0 65 f2 85 bc e2 63 6a be 54 47 0d be 84 31 33 be
       -0.016350934 -0.22889665 -0.13796741 -0.17499357
0001e0 ac 99 91 3c d1 f7 9a bd ab bc 33 bd dd c2 41 be
       0.017773472 -0.075667985 -0.0438811 -0.1892199
0001f0 df d0 4a be 55 d7 f2 bd 22 91 a9 bd fc 08 32 be
       -0.1980624 -0.118574776 -0.08279635 -0.1738624
000200 a7 0f 09 3e 5b 8e 4b bc 14 01 10 3e 6d bb a8 bc
       0.13384877 -0.012424077 0.14062911 -0.020597184
000210 a7 2d 8c be c7 48 09 3d 4d 5e 8e bd c5 f3 9e bd
       -0.2737858 0.03351667 -0.0695158 -0.07761339
000220 24 19 5c be 3a 14 93 be 39 27 16 bd 8a 8b 04 bd
       -0.21493965 -0.2872637 -0.0366585 -0.032359637
000230 d8 a3 2d 3e 03 c7 9d bd bc 75 39 3e c9 9d 0b be
       0.16957033 -0.07703974 0.18111318 -0.13634409
000240 94 8d 98 3c 34 91 48 3e ac 53 a2 3e 29 f5 ab 3e
       0.018622197 0.1958664 0.31704462 0.3358548
000250 05 f5 8b 3e f1 f5 cf bd a7 eb 02 3d ab 3e f7 bd
       0.27335373 -0.101543315 0.031963017 -0.120725
000260 f1 83 b8 bd b2 3e 43 be cf 84 54 3e d7 71 2f be
       -0.09009541 -0.19066885 0.20753787 -0.1713327
000270 5a d9 0f 3e 63 e8 dd 3d f1 96 0e 3e 28 c5 14 bd
       0.14047757 0.1083534 0.13924767 -0.036320835
000280 cd 5b 83 3e 91 39 34 3e c5 43 12 3e c8 e2 01 be
       0.25655976 0.17600085 0.14283665 -0.12684166
000290 c9 44 06 3e 70 8c 03 bd b6 64 3d bd d4 b0 84 3e
       0.13112177 -0.032116354 -0.046238624 0.2591616
0002a0 5e 44 40 3d 0d c6 f5 bd 16 b2 48 be 54 9b 98 bc
       0.0469402 -0.12000666 -0.19599184 -0.018628754
0002b0 a6 96 2e 3e c3 9a 66 bd 05 ca 03 be 09 49 05 be
       0.17049655 -0.056299936 -0.12870033 -0.13016142
0002c0 6b 30 0d be 88 85 e9 3d 50 66 34 3e a5 15 6f be
       -0.13788001 0.11402422 0.17617154 -0.233481
0002d0 f5 88 85 3d 71 4e 5e 3e 21 04 e2 3d 06 0a 08 be
       0.06520263 0.2170961 0.11035944 -0.13285074
0002e0 c5 e6 9e bd 5d f5 1e 3e 43 d6 41 3e 51 db a5 3d
       -0.077588595 0.15523286 0.1892939 0.08098472
0002f0 64 88 a0 bd 66 51 9f bd 2f 52 3b bd ef 33 8e bb
       -0.078385144 -0.077791974 -0.045732673 -0.004339687
000300 ee 59 98 3e fa f1 b6 3e 00 b8 c4 3d f6 f0 ff bd
       0.2975611 0.35731488 0.09605408 -0.124971315
000310 86 8b 5a bd 30 69 d4 3c 47 43 51 3e 9a 8c 86 3e
       -0.053355716 0.025929064 0.2043582 0.26279145
000320 7d 95 60 be e5 ce 28 be b4 bb 8d 3d bb e1 23 3d
       -0.21932025 -0.16485174 0.06920567 0.040010195
000330 84 88 97 bc 27 83 11 be 45 62 96 be 34 bc a8 be
       -0.018497713 -0.14210187 -0.2937185 -0.32956088
000340 d0 ba 0e be bd be cf 3b ba 99 6c 3e d4 90 03 3d
       -0.13938451 0.0063398764 0.23105517 0.03212054
000350 e0 13 89 be 50 f1 64 be 10 f6 1e be f6 83 ae 3e
       -0.26772976 -0.22357678 -0.15523553 0.34085053
000360 12 8e 1d 3e 1c a5 1a bd d6 2d 2d bb 5e 8c 3c be
       0.15386227 -0.037755117 -0.0026425025 -0.18412921
000370 03 4a 21 bc 7e 1f 9d 3e 62 9d ae 3c d4 12 22 bc
       -0.009844306 0.3068809 0.02131528 -0.009892184
000380 70 1e 76 be df 57 84 3e 34 55 c6 3e 3e 67 cb 3e
       -0.24035048 0.2584829 0.3873688 0.39727205
000390 4c ba 6f 3e 09 70 29 3e d7 f3 bf 3c 08 87 c9 3e
       0.2341091 0.16546644 0.023431702 0.39360833
0003a0 44 ad b6 3e 63 3f dd 3e 2e 98 a7 3e 60 1c 0e 3d
       0.35679066 0.43212423 0.3273329 0.03469503
0003b0 ed c0 a1 bd 5a 71 81 be cf 76 7b be 1a 02 70 be
       -0.07898126 -0.25281793 -0.2455704 -0.23438302
0003c0 31 61 ea bd d5 05 b0 be 7d e7 9c be aa 6f 92 be
       -0.11444319 -0.3437945 -0.30645362 -0.28600818
0003d0 08 2c 3b be 76 76 bc be d4 17 be be 27 84 1d be
       -0.18278515 -0.3680913 -0.37127554 -0.15382443
0003e0 51 23 1a be d9 d6 44 bc
       -0.15052535 -0.012014114

conv1.bias f4 [10]
000000 3d 85 c8 3d ff c1 99 3d d8 0e 5e bd 8e 28 08 be
       0.09791038 0.07507705 -0.054213375 -0.1329672
000010 89 52 4e 3d d4 cc fe bd 1e ee 2a 3e 40 9c 46 bc
       0.05037168 -0.124414116 0.16692397 -0.012122214
000020 49 3c 00 3e 86 c9 70 3d
       0.12522997 0.058785938

conv2.weight f4 [20, 10, 5, 5]
000000 3a d4 7b 3d 44 fa 25 bd a1 d6 82 bc f2 7a fc bc
       0.061481692 -0.040521875 -0.015971484 -0.030820344
000010 44 53 a6 bd e2 d5 cd 3c 81 94 a1 bc 65 bb 82 bd
       -0.081213504 0.025126401 -0.019724132 -0.06383399
000020 cf a8 33 bd cc 08 0f be e5 20 5b 3d 3f 0a 2d 3c
       -0.04386216 -0.139682 0.053498168 0.010561525
000030 2c 1d 6e 3d 96 c8 d6 3d 92 33 c3 3d 4b f0 db 3b
       0.05813329 0.104874775 0.09531321 0.0067119948
000040 d7 59 f8 bd b7 6d 7a bd 5a fe 9f 3a 7c ee 8c bd
       -0.121265106 -0.06113979 0.001220654 -0.06881425
000050 61 03 f7 bb 6b 93 11 be c6 68 4e be 5d 78 59 be
       -0.0075382446 -0.14216392 -0.20157155 -0.21237321
000060 af de c0 bd 23 48 61 bd 81 40 bf bd 77 d3 b9 bc
       -0.094174735 -0.055000436 -0.09338475 -0.022683842
000070 b5 04 15 3d e7 1c ac bd e9 bc a8 bc 11 4b 20 3c
       0.036381442 -0.0840395 -0.020597892 0.009783522
000080 ff 9b a1 bd fb c6 e1 bc f9 fd 24 3d e2 77 bd 3b
       -0.07891082 -0.027560702 0.04028127 0.0057821134
000090 55 1f 8e bb 47 10 3a 3d ab a5 ab 3d b3 5e a0 3d
       -0.004337231 0.04542568 0.08381208 0.078305624
0000a0 64 42 7e bc 81 d6 f3 bd cf 4d 1c be 65 f6 ce bd
       -0.015518758 -0.11906148 -0.15264057 -0.1010559
0000b0 c5 a0 51 bd cd d2 62 3e f1 5d b1 3d 07 d2 b7 3c
       -0.051178712 0.22150727 0.08660496 0.022439016
0000c0 25 23 08 bc 4f 99 b3 bc 22 1b df 3c 25 57 c5 3c
       -0.00830916 -0.02192369 0.027234618 0.024089405
0000d0 b8 2e 75 bb 6d 3f 14 3d f3 71 f5 3d 53 c5 2a 3c
       -0.003741188 0.0361933 0.11984625 0.010423022
0000e0 8e 5d 5b 3d 02 a8 da 3d 2e e3 68 bc b3 27 09 3c
       0.053556018 0.10676576 -0.01421432 0.008371281
0000f0 68 56 36 bd ee c1 20 bd d4 b9 e2 bc ee b1 72 bd
       -0.044515997 -0.039247446 -0.0276765 -0.05925172
000100 4b 8f ef bd f7 d0 80 bd f5 be aa bd ce f9 10 be
       -0.11697253 -0.06289857 -0.083372034 -0.14157793
000110 f2 9c 44 be 79 2f 10 be 28 7a 40 ba a1 f9 85 3d
       -0.19200495 -0.1408061 -0.00073424214 0.065417536
000120 a4 0a fb bc 1b 82 ba bd 49 e4 3b 3d e7 9c 9a bd
       -0.030644722 -0.09106847 0.045872007 -0.07549458
000130 24 b3 e2 bc d6 45 00 3d 60 e6 ff 3c dc c3 b5 bc
       -0.027673312 0.0313166 0.031237781 -0.02218812
000140 c7 73 fb bc 67 56 cd bc 98 25 40 bd 86 b6 51 bd
       -0.030694855 -0.025065614 -0.046910852 -0.05119946
000150 fd cb df bd cb 56 68 bd f1 7d ec 3c 35 91 1f bd
       -0.109275796 -0.056723397 0.028868647 -0.03895684
000160 60 e8 09 bd d5 07 4b bd 42 9b 88 bd 4c a5 f2 3c
       -0.033668876 -0.049568016 -0.06670238 0.029619835
000170 92 80 a8 3d 05 fe 0d 3d d2 68 e4 bd 0f bd bb bd
       0.08227648 0.03466608 -0.111528054 -0.091669194
000180 62 ef 19 bc ae 94 2e bd 61 a1 29 bd 57 b4 93 3d
       -0.009395452 -0.04262226 -0.04141367 0.072121315
000190 5e 4a d9 bc f6 8b f0 bc 82 2e 7c bd de 98 77 bc
       -0.026524719 -0.029363614 -0.06156779 -0.01511213
0001a0 45 cb 9c 3c cf 53 a8 3b 69 4c f3 bb 53 c8 ad bd
       0.019139895 0.005136944 -0.0074248803 -0.084854744
0001b0 e0 a7 b7 bd 70 68 33 bc 3f 42 4b 3d 8f 37 4d 3c
       -0.089675665 -0.010950193 0.049623724 0.012525453
0001c0 17 1e 94 bd 3c 10 6c bd 83 cf 9b bd 39 8c b3 bc
       -0.07232302 -0.05763267 -0.07607939 -0.02191745
0001d0 c5 29 d2 3c 6b 6d 70 3d 7d d7 51 3d a4 52 44 bd
       0.025654683 0.0586981 0.051230896 -0.047930375
0001e0 5e 1c 23 3d 98 56 ab bc 84 0e 63 3d 71 ce 80 3d
       0.039821975 -0.020915315 0.055433765 0.062893756
0001f0 b9 95 1b 3d b0 fc fb 3c 42 2d 90 bd 18 a4 00 bd
       0.037984584 0.03076014 -0.07039882 -0.031406492
000200 2d 55 f4 3c 8d ba dc 39 b7 a4 c8 3c c2 f5 53 39
       0.029825771 0.0004210066 0.024492605 0.0002021408
000210 f0 57 c6 3d 5f 3a ae 3d 9c f1 a9 3d 78 aa 46 bc
       0.096847415 0.08507227 0.082980365 -0.012125604
000220 45 22 6f bd d1 96 18 3c c8 32 67 3d 2c 1b 7e 3c
       -0.05838229 0.009313301 0.056444913 0.015509408
000230 2c 92 a1 3c db 75 9b 3d 30 5f 06 ba 76 8e 02 bc
       0.01972302 0.075908385 -0.00051258784 -0.007968536
000240 5b 89 7b bc 29 89 e6 3c 25 7c 1d 3d de 31 60 3d
       -0.015352572 0.028141575 0.03844847 0.054735057
000250 9e 20 55 3d cd 42 90 3d 05 2b 07 bd f6 99 ee bb
       0.05203306 0.07043991 -0.03300001 -0.007281537
000260 36 d9 44 3d 6b 72 1d 3d 02 8c 08 3d 74 30 8b bd
       0.04805871 0.038439196 0.033336647 -0.06796351
000270 34 c9 6d bc 43 27 95 3c 53 e9 d8 bc 20 b8 b5 bc
       -0.014513303 0.018207198 -0.026478445 -0.022182524
000280 41 a7 2c 3c 58 52 41 3b 07 59 61 bc eb b3 a1 3d
       0.010537923 0.0029498544 -0.013754136 0.07895645
000290 79 8e f1 3d 63 45 7c 3c c8 5a 0e bd 03 50 c3 bd
       0.11794753 0.015397402 -0.034754544 -0.095367454
0002a0 cd 8b 59 bd ec 80 fc 3c d2 a5 8d 3d 30 98 53 3a
       -0.05311184 0.030823193 0.06916393 0.0008071689
0002b0 eb c6 8f bd 3d 1a a5 bc 7c 6c 94 bd ba c9 c1 3c
       -0.070203625 -0.020154113 -0.07247254 0.023655761
0002c0 f3 bc 54 bd 6c 25 38 bd 87 30 60 bc 31 7d 2c bd
       -0.05193801 -0.044957563 -0.013683445 -0.04211158
0002d0 6d f4 f5 bc 9e da 7f 3d 08 c5 11 bc 39 4e b1 3d
       -0.030023778 0.06246435 -0.008897074 0.08657498
0002e0 9d 37 8a 3d 3b 81 c8 bc 4d 80 b7 bc df ac 8f 3d
       0.06748889 -0.024475684 -0.022400046 0.070153944
0002f0 0a 56 e2 3d b4 a5 31 3c 94 4e 81 ba 83 18 00 be
       0.11051567 0.010842729 -0.0009865337 -0.1250935
000300 22 81 14 be 72 3a f5 bc f0 c0 14 bb 51 83 bd 3d
       -0.14502385 -0.029935095 -0.0022698008 0.09253562
000310 9b fe 07 bb 7b 26 c7 3c 9a a3 fa bc 16 ae fe bd
       -0.0020751122 0.024310341 -0.03059559 -0.12435548
000320 9a 2b e0 bc 59 42 6c b9 2d 2e a8 3b c8 ba b8 bd
       -0.02736454 -0.0002253143 0.0051324577 -0.09020001
000330 32 d9 2c bc 8f b5 2d bd 6c 89 4b bd e2 74 28 bc
       -0.01054983 -0.042409476 -0.049691603 -0.010281773
000340 9e d4 86 3d 62 bc 4f 3d 96 63 8b 3d f0 e3 5b 3d
       0.06583522 0.050716765 0.06806104 0.053684175
000350 94 47 8b 3d c0 66 c9 3c 51 e9 ec 3b b2 3a a3 3d
       0.06800762 0.024585128 0.007229962 0.079701796
000360 ed 96 d1 3c 46 6e 04 bc f5 37 5b bc ae 1a 95 3c
       0.025584662 -0.008082932 -0.01338004 0.018201198
000370 66 4c d0 3d d1 23 d2 3d aa 0c 5c 3d f9 63 1e 3d
       0.10170822 0.10260738 0.053723015 0.03866956
000380 4c 7e bc bc 15 44 02 3d c8 7f ed 3c 77 77 6b bd
       -0.023009442 0.03180321 0.028991595 -0.057486977
000390 0e 35 fd 3c 22 d6 94 3d d3 4a ac 3b 8a f8 df 3c
       0.030909088 0.07267405 0.005257943 0.027340192
0003a0 ee b0 d2 3c 1a bb 00 3b 1f aa 1d bc 7c f5 c3 bc
       0.025719132 0.0019642771 -0.00962308 -0.023920767
0003b0 6e ba 31 3d fc 1c c3 3d c3 89 11 3d c7 4d 9e 3d
       0.043390684 0.09527013 0.03553177 0.077296786
0003c0 2a 0d 01 3d 7d aa 94 3c 8a f4 01 3e da b9 65 3e
       0.031506695 0.018147701 0.1269094 0.22434178
0003d0 3e bc 6d 3e 9b 5c 34 3d cd 24 52 bd 97 e3 37 3c
       0.2321634 0.044033628 -0.051304627 0.011223695
0003e0 c6 34 91 3c 51 79 1f bc ca 2c a7 bc 4c d3 a0 bd
       0.01772536 -0.009733514 -0.0204071 -0.07852802
0003f0 32 d0 80 3c 98 21 65 3c 9d 81 26 bd e5 9b 84 3b
       0.015724275 0.01398506 -0.040650953 0.0040469044

conv2.bias f4 [20]
000000 6a 58 86 3d 6a ed 71 bd 19 e6 1e bd 75 c1 86 bd
       0.065598324 -0.059064306 -0.038793657 -0.06579868
000010 7a 4f 68 bd 56 2f 26 3c 0f ee ed 3c 7d 6e 2c bd
       -0.05671642 0.010143122 0.02904418 -0.042097557
000020 0e f0 6f 3c 1e 03 86 bd 80 b8 bf 3b e3 b3 f0 3c
       0.014644636 -0.06543563 0.0058508515 0.029382652
000030 57 60 05 bd 12 13 2e bc 7e 2e 85 3d 60 17 2b bd
       -0.03256258 -0.010624664 0.06503008 -0.04177034
000040 36 0d 30 bc 94 33 5a bd 88 3b f7 3c cf f4 07 bc
       -0.010745337 -0.053271845 0.030179754 -0.008298113

fc1.weight f4 [50, 320]
000000 43 04 53 bd 6c 82 d6 bb 66 60 26 3c 90 d8 b3 3b
       -0.051517736 -0.006546309 0.010154819 0.0054884627
000010 b0 c3 d9 bd 3b bf cd bd 51 a8 7f bc b4 06 39 3c
       -0.106330276 -0.1004624 -0.015604095 0.011293102
000020 05 ff 22 be 60 d5 3f 3b 26 eb 71 bd 61 f3 e3 3c
       -0.15917595 0.0029271469 -0.059062146 0.027826013
000030 52 6c 1e bd db f5 7e 3d fd 1b 92 3d c4 54 0d 3e
       -0.03867752 0.062246185 0.071342446 0.13801867
000040 d1 12 54 bc f5 07 af 3a 90 91 4d bd d3 12 88 bd
       -0.012943939 0.0013353812 -0.050187647 -0.066442154
000050 e5 b3 04 bd da 23 46 bd cc 67 44 bd 7f db 85 3c
       -0.032398123 -0.048374034 -0.04795055 0.016340015
000060 bc 61 a1 bc d6 cb 9c bc b5 8f 50 bc 9f 4b d1 3c
       -0.019699924 -0.019140165 -0.012729575 0.025548754
000070 d3 e1 13 3c 29 e1 a3 bc f8 92 8b 3d 1f 44 85 3d
       0.009026009 -0.020004826 0.068151414 0.06507134
000080 13 09 4c 3c bf 53 6b 3d a1 25 86 3d e0 57 83 bc
       0.012453335 0.057452913 0.06550146 -0.016033113
000090 08 13 6c bd fe f9 c3 bc 5b 80 a1 bc 30 17 22 3d
       -0.057635337 -0.023922917 -0.019714525 0.039572895
0000a0 21 4d 92 3d df 19 5d 3c ed 46 e6 bc c5 9e cf 3c
       0.071436174 0.013494938 -0.028109992 0.025344262
0000b0 a4 88 b9 bc e6 61 28 3d 89 09 ae bc 19 46 8c bd
       -0.022648163 0.04110899 -0.021244781 -0.068493076
0000c0 07 8b 2d 3d 47 f5 9f 3c 85 33 5a 3d aa 8c d8 ba
       0.042368915 0.019526137 0.05327179 -0.0016521413
0000d0 f8 9c 0f 3d 20 16 95 3c a7 6f 71 3d 9d 1f 3f bd
       0.035061806 0.018199027 0.05894437 -0.04666101
0000e0 5e 72 32 bd e9 9b a7 3a 88 35 cb 38 6f 2a 2a bd
       -0.0435661 0.0012787554 9.689765e-05 -0.041544374
0000f0 b3 a1 3b bd 9f e3 99 3b ac 36 11 bd 2e ce 55 3d
       -0.045808505 0.004696324 -0.03545253 0.05219858
000100 11 28 6b 3c 20 69 8a 3d 82 f0 e9 3d 92 5a 58 3d
       0.014352814 0.06758332 0.11422826 0.05282075
000110 40 7c 3c 3d 4b c1 05 3d 8e 42 2f 3d b8 b8 b8 bc
       0.04601693 0.03265504 0.04278808 -0.022549018
000120 c9 b6 20 bd ef 74 a9 3b 3a d7 93 3d a5 4f df 3c
       -0.039236818 0.0051714103 0.072187856 0.027259657
000130 50 24 93 3c 69 8e 63 3b 8c 1e 20 bd 3a e5 7c bd
       0.017961651 0.0034722334 -0.03909163 -0.061742045
000140 83 2e 9f bb cf 38 2f 3d 8f bf c1 3d 0f fb 50 bd
       -0.0048578396 0.042778786 0.09460365 -0.051020678
000150 f4 ed b5 bc 68 99 bb bc 20 b9 22 bd 42 a5 1a be
       -0.022208191 -0.022900298 -0.03972733 -0.15102103
000160 6a b1 bf bd 91 de 16 bd 2e 01 5c 3c f2 79 12 bd
       -0.09360011 -0.03683335 0.013428016 -0.035760827
000170 d0 60 c7 3c c6 58 fd 3d 1a ba e1 3c e4 d8 57 bd
       0.024338156 0.12370448 0.02755456 -0.052697077
000180 94 e2 20 bd 72 ee ad ba cf 79 09 3b b7 f8 08 ba
       -0.03927858 -0.0013269915 0.0020977145 -0.00052250497
000190 ef d9 8a 3d e8 a8 76 3d 4c 59 00 bd b6 4e 00 3c
       0.06779849 0.060219675 -0.03133516 0.007831266
0001a0 be 80 ec 3c e2 1c bf 3b 3c 98 cf 3c 15 06 98 3c
       0.028869983 0.0058323005 0.025341146 0.018557588
0001b0 39 b6 0e 3c 86 9d bd 3c 8c 99 19 3d 62 b5 5a 3c
       0.008710437 0.023146402 0.03749995 0.013348909
0001c0 21 77 9f bc 15 8f 6a bd 41 a4 73 3d b5 51 87 bc
       -0.019465985 -0.05726536 0.059482817 -0.016518453
0001d0 ae 5b 85 bd 2b 52 3e 3d 5e 1b 8a 3d be 69 e6 3c
       -0.06511627 0.04646508 0.06743501 0.028126594
0001e0 2d c8 08 bd 0a 13 40 3d 7c 01 89 3d 2a 4f c0 3a
       -0.033394028 0.046893157 0.06689736 0.001467203
0001f0 62 db 25 bd 84 f9 20 bd a3 2d fb bc 41 56 d9 3c
       -0.040492423 -0.039300457 -0.03066141 0.026530387
000200 f8 3d 4f bd ff ed 31 3d 13 39 ee 3c 03 2c 45 bc
       -0.050596207 0.04343986 0.02907995 -0.012034419
000210 1a 3f dc 3b 72 79 9e bc 61 00 99 ba 9d 38 46 bc
       0.0067213895 -0.019345019 -0.0011673087 -0.012098459
000220 7d 88 4a bc c2 35 85 bd 32 a4 75 bd b5 b9 df ba
       -0.012361643 -0.06504394 -0.059971042 -0.0017068895
000230 bd 0c d1 3c c3 19 22 bc 63 5c 73 3d 79 f3 38 3d
       0.02551877 -0.009893837 0.05941428 0.04515407
000240 6a 4f 9a bd e7 f3 cf bc ec aa cc bc 95 04 98 bd
       -0.07534678 -0.025384856 -0.024983846 -0.07422749
000250 9b 88 62 bd 71 9f b4 bc 15 30 2a bd ef 44 1f bd
       -0.05530606 -0.022048684 -0.04154976 -0.0388841
000260 91 55 81 bd b1 97 f8 bc c1 d4 f7 3b 85 a3 3c 3b
       -0.063151486 -0.03034577 0.007563204 0.0028783989
000270 86 a8 81 3a ff 97 3b 3d 4e 49 55 3d a1 1a 8f 3d
       0.0009892143 0.04579925 0.052071862 0.06987501
000280 95 9b 73 bd 10 0d 51 bd 12 17 05 bd 8b 2f 23 bd
       -0.059474546 -0.051037848 -0.032492705 -0.039840262
000290 7e 03 1c 3d cf db 91 bc d3 0e e2 bc 89 f2 ff bc
       0.038089268 -0.017805008 -0.02759496 -0.03124358
0002a0 be bb ba 3c 06 e6 cd 3b ab 53 4e 3c de 5b 3f 3d
       0.0227946 0.0062835244 0.01259319 0.04671847
0002b0 f6 1c e6 3b f7 4b 55 bb f6 e0 18 bc 9b c5 06 3e
       0.0070224954 -0.00325465 -0.009330979 0.13161318
0002c0 b8 72 f0 ba 95 bd eb 3c 7d c8 91 3d 78 ec 6f bd
       -0.0018344736 0.028776923 0.07118318 -0.058575124
0002d0 6e d5 b3 bc af 46 2f bd 2a a2 c3 3c 33 49 cf 3c
       -0.021952357 -0.04279202 0.023881037 0.025303459
0002e0 9e 3d bc b9 eb 28 89 ba bb 77 96 3d d6 05 a7 3c
       -0.00035904063 -0.0010464465 0.073470555 0.020388525
0002f0 6b d6 25 bd d0 95 be bc 15 cb be bd e8 56 1c 3d
       -0.040487688 -0.023264796 -0.093160786 0.038168818
000300 1b 7d 00 3d 7a 96 85 3c 05 63 4b bc 88 99 57 bd
       0.03136931 0.016307104 -0.012413745 -0.052636653
000310 e8 db 5a bb 74 f3 af 3c f4 da 84 bc 7a 0c 32 3d
       -0.0033395234 0.021478392 -0.016217686 0.04346893
000320 a1 9c 54 3c 1f e1 2f bb 60 ce b6 3c 32 ce ea 3c
       0.012976796 -0.0026837063 0.022315204 0.028662775
000330 fa e0 27 bd b5 a9 8b 3c f5 e6 50 bd aa 4e 55 bc
       -0.04098604 0.017048696 -0.051001508 -0.013019243
000340 4b d2 2b bc 7c 3a 82 3d 9d 5c 32 bc 84 ca 1a bd
       -0.0104871495 0.06358811 -0.010886339 -0.03779079
000350 e6 b4 2d bd d0 1d 21 3d bf c3 22 3d 7c 17 df 3c
       -0.042408846 0.039335072 0.03973746 0.027232878
000360 e3 f7 e6 3c 0d 4a 01 3d cc 2d 00 bd e9 3f 54 bd
       0.028194373 0.03156476 -0.031293675 -0.051818762
000370 34 10 ba bb f2 4a d4 38 3f 39 61 bd 60 61 11 bd
       -0.005678201 0.000101229074 -0.054986235 -0.035493255
000380 dc 5d dc 3b fc 5b 01 3d 03 4d 70 3d 77 3e 20 3c
       0.006725056 0.031581864 0.058667194 0.009780518
000390 01 0a 84 3d 8b dc 59 bc 15 3e ff 3c f6 24 ad bc
       0.064472206 -0.01329721 0.031157533 -0.021135788
0003a0 22 cc 75 3c dd 87 44 3d 3d 90 1a 3d 3f fd e5 bc
       0.015002282 0.04798113 0.037735213 -0.028074859
0003b0 bf 6d 02 bd fe e6 0a 3d 63 7c 15 bd de 79 06 be
       -0.031842943 0.033911698 -0.036495578 -0.13132426
0003c0 51 02 50 3c f1 cf fc bc b4 6a d1 bc c7 d3 d4 3c
       0.012695865 -0.030860873 -0.025563575 0.02597989
0003d0 80 54 f4 bb 38 31 1a 3d cb 93 68 bc 9e 4c f4 bb
       -0.0074563622 0.037644595 -0.014195393 -0.0074554225
0003e0 ab bc 8b bd 6e 91 ea bc 7d d6 53 bc 04 bd 1c bb
       -0.06823095 -0.0286338 -0.012929556 -0.0023916373
0003f0 eb d9 a5 bd 94 ca a9 3b bf 5b b9 3d 80 e9 da 3d
       -0.08098205 0.00518162 0.09050702 0.10689068

fc1.bias f4 [50]
000000 3c 87 fe 3c 41 21 a3 3c d9 55 8a 3d 50 e8 79 bc
       0.031070344 0.019913318 0.067546554 -0.0152531415
000010 05 bb e3 3c bd f5 a7 3c c4 1d 62 3d b5 fa 06 bc
       0.027799139 0.02050292 0.055204168 -0.008238484
000020 9e 2e 6f 3d c4 c2 30 3d 69 dd 8b 3d 51 6d 53 bd
       0.058394067 0.043154493 0.0682934 -0.051617924
000030 87 d9 77 3b 04 ba 5f bb 42 38 96 bc 69 86 82 3c
       0.0037818865 -0.0034137974 -0.018337373 0.015933232
000040 d7 9c 33 bd 21 1a d6 3c 1b 85 6c 3d 2e 61 fd 3b
       -0.043850746 0.026135506 0.057744127 0.007732532
000050 c6 ec 56 3d 28 e5 14 3d f5 0f 53 3d 64 b5 da 3c
       0.0524719 0.036351353 0.05152889 0.026697822
000060 97 2d bd bc c1 c1 3b bd 79 1b 24 3d 32 37 8e bb
       -0.023093028 -0.045839075 0.040065262 -0.004340076
000070 b5 5a 46 3d d1 6c c8 3c cc cb 3c bc 42 f2 18 bd
       0.04842635 0.02446595 -0.011523198 -0.03734041
000080 6b f1 bc 3c bf 2f 90 3c 3a da af 3d ba 85 b2 ba
       0.023064336 0.017600892 0.08586545 -0.0013620176
000090 4a 9d 98 bc 54 f3 05 bd c4 84 db 3c ae 20 4f 39
       -0.018629689 -0.03270276 0.026796706 0.00019753232
0000a0 6e 57 f7 3b 2a 8d 79 3d e9 74 c2 ba e7 73 c2 3d
       0.007548264 0.06092564 -0.0014835867 0.09494763
0000b0 83 f6 b2 3d 47 7e ed 3b b0 c4 52 3d d0 60 46 bb
       0.08738425 0.0072477194 0.051457107 -0.0030270107
0000c0 ef 2b 7d 3d 32 74 10 bc
       0.061809476 -0.008816766

fc2.weight f4 [10, 50]
000000 0e 49 43 3d 89 62 2b 3e 8e 93 4b 3c c6 99 c5 bd
       0.047677092 0.16736807 0.0124253165 -0.096484706
000010 a4 4a 13 3e a5 38 4c 3e 20 0b 4d be d4 da 51 3e
       0.14383942 0.19943483 -0.20023775 0.20493633
000020 c9 d4 d0 bd 62 8d 44 be be 61 65 3e 49 ad f8 3c
       -0.101968355 -0.19194558 0.22400567 0.030356066
000030 8e 50 74 be df ca 03 be 00 dd 4a be de 7e 3d 3e
       -0.23858854 -0.12870358 -0.19810867 0.18505427
000040 c8 1d 36 3e b9 dc 49 be cf 33 ce bd 1b 6b 4d 3e
       0.17784798 -0.19713105 -0.100684755 0.20060389
000050 cf c1 33 bd c1 0d 39 3e 87 24 8d be f8 b7 6d bd
       -0.043886002 0.18071653 -0.2756693 -0.058036774
000060 7a a6 11 be dc 88 89 bd 5d 5c 65 be 70 12 3d be
       -0.14223662 -0.06715557 -0.22398515 -0.18464065
000070 c3 65 44 be ae 54 79 be 46 9d 65 3e 4a 97 70 3d
       -0.19179444 -0.24348709 0.22423276 0.05873803
000080 2a 53 5e be 12 a3 36 be f9 ba 18 be 19 09 24 3e
       -0.21711412 -0.17835644 -0.14915074 0.16019095
000090 8d 1e 7c be 9f 0c 2e 3e 0b 94 3f bd 07 d7 ec 3d
       -0.24621029 0.16997002 -0.046772044 0.11564451
0000a0 83 25 b4 bd c0 90 14 be 76 5b 3a 3e 4a 97 76 3e
       -0.08796217 -0.14508343 0.18198952 0.2408115
0000b0 e6 07 46 be 35 ff 25 3e 1f 7a 04 3e 7b 94 8c 3e
       -0.1933895 0.16210635 0.1293721 0.27457032
0000c0 2b ae 1e be a8 45 16 3e 56 da 3b 3e db 87 38 3e
       -0.15496127 0.14675009 0.18345007 0.18020575
0000d0 fa ed 06 3e a0 38 9a 3e 50 07 06 be c5 3d 94 bd
       0.13176718 0.30121326 -0.13088727 -0.07238344
0000e0 d5 85 db 3c 85 cd 88 bd 1a c0 32 3e e4 38 60 3e
       0.026797215 -0.06679825 0.17456093 0.21896702
0000f0 92 9f 1e be f5 77 4f be b7 8b 84 3e 09 6b 6f bd
       -0.15490559 -0.20260604 0.25887844 -0.058451686
000100 de ad 32 bd 6c c4 07 be a4 c7 d7 bd 57 3b df bd
       -0.043622844 -0.13258523 -0.10536125 -0.1089999
000110 dd 0d 81 bd 68 a7 11 be 9d 59 46 be 43 b3 c8 3d
       -0.06301472 -0.14224017 -0.19370122 0.097998165
000120 b7 0b 29 3e 0f c9 be 3d 7c 99 bc bd c2 9f d0 bc
       0.16508375 0.09315693 -0.09208962 -0.025466803
000130 0a 4d 72 3d 5a eb 31 3e 7e 69 62 bd a9 23 ce 3d
       0.0591555 0.17374936 -0.055276386 0.100653954
000140 de 1c 09 3e 6b ee f5 bd 0b 12 03 be bf 31 ea 3d
       0.13389918 -0.12008365 -0.12799852 0.114352696
000150 d3 64 38 3e 3c 13 29 be 15 3e 67 bd 20 d3 86 be
       0.18007211 -0.16511244 -0.05645569 -0.2633295
000160 b1 fe 05 3e 8c 61 ec 3d c7 50 77 be 05 10 a3 bc
       0.13085438 0.11542043 -0.24151908 -0.0199051
000170 fd 31 1d be 2e 36 57 3e 71 b2 48 3e af 2f 2a 3e
       -0.153511 0.21016762 0.1959932 0.16619752
000180 69 14 8b be 54 b4 1a 3e ef 66 83 3e 93 f7 2a be
       -0.2716401 0.15107852 0.2566447 -0.16696005
000190 da f3 3b 3e b5 6b 77 bd e0 9f 8a 3e 2c 41 a6 bd
       0.1835474 -0.06040545 0.270751 -0.08117899
0001a0 00 fe 2b be ab 35 a3 bd 65 2f 7f bd d0 8c 98 bd
       -0.16796112 -0.07969221 -0.06230106 -0.07448733
0001b0 0c df 39 be 3c 67 23 be 07 4b 62 3e 3a d8 c9 bd
       -0.18151492 -0.1595735 0.22098933 -0.09855695
0001c0 df ec 0d be af 08 3f be 5f c9 f7 bd 25 e1 2e bd
       -0.1385989 -0.18655656 -0.12098955 -0.042695183
0001d0 51 45 a0 bd ce 82 13 3e 10 7d ca 3d 52 f8 12 3e
       -0.07825721 0.14405367 0.09887135 0.14352539
0001e0 4b 58 78 be 4a 0f 3d 3d ac 7a a8 bd 9a fe 0d be
       -0.24252431 0.04615716 -0.08226523 -0.13866654
0001f0 db 67 02 3e c4 7d 0a bc 3d 05 30 be d4 5a 15 3e
       0.1273493 -0.008452836 -0.17189498 0.1458543
000200 60 6d b4 bd 8b 71 1f 3e 80 69 88 bc cd d8 21 3d
       -0.08809924 0.15570657 -0.016651869 0.039513398
000210 6b a1 7f be 12 49 20 3e 7b 72 37 3e 02 dc 02 3e
       -0.2496392 0.15652874 0.17914765 0.12779239
000220 74 43 0f be 62 d2 3b 3e a5 be b4 bd 9d e0 5d 3d
       -0.13990575 0.18341973 -0.08825425 0.054169286
000230 a1 f8 85 3d c1 87 11 3e c8 f6 af 3b d8 4b db bc
       0.06541563 0.14211942 0.005369995 -0.026769564
000240 40 21 59 3e c9 94 2d be e4 f2 ef 3d 2d ff 49 3e
       0.2120409 -0.16951288 0.117162496 0.19726248
000250 15 07 88 3e a7 04 db 3d 27 eb 54 be 2c 8f 53 3e
       0.26567903 0.10694247 -0.20792829 0.20660084
000260 e1 7c 6e 3e 37 3a e1 bd 1c 70 a5 bd 9b c3 ef bd
       0.23289825 -0.10997432 -0.08078024 -0.11707231
000270 89 80 80 3e be dd b3 bd 37 bc a3 bd ad 27 81 be
       0.25098065 -0.08782528 -0.079948835 -0.25225583
000280 7f 0d 36 bd c8 c1 42 3e 4a 65 0f be 1a e6 5a 3e
       -0.044446465 0.19019234 -0.14003482 0.2137684
000290 3c 3c f5 bd 77 d2 e8 bc b9 88 8c bd 08 ed 23 3e
       -0.119743794 -0.02842067 -0.06862015 0.16008389
0002a0 ba 3b 15 3e 51 86 11 3e c3 d2 2c be e9 ed a6 3d
       0.14573565 0.14211394 -0.16877274 0.081508465
0002b0 95 77 2f bc 7a a6 56 be d2 c1 22 3e b7 44 e5 3a
       -0.010709663 -0.20961943 0.15894249 0.0017491792
0002c0 0a 71 c2 3d 3d 3a 41 3e 99 ba 9e bd 56 aa 0b 3e
       0.09494217 0.18869872 -0.077504344 0.13639197
0002d0 2c c6 f6 bd fc a9 18 3d 57 ff 41 3e 6b 4b 1e 3e
       -0.12049517 0.037271485 0.1894506 0.15458457
0002e0 c7 bd 71 be 97 62 fd 3d a5 6e 10 3e 56 21 58 3d
       -0.2360755 0.1237232 0.14104708 0.052766167
0002f0 89 c0 0f be 66 c8 e5 3d 70 77 17 be 03 f8 24 bd
       -0.1403829 0.112198636 -0.14791656 -0.040275585
000300 44 bd cf bc 4e 70 2a be 5c d0 a6 bd 31 d9 77 bd
       -0.025358804 -0.16644403 -0.0814521 -0.060509864
000310 20 c0 35 be 99 db f5 bd d3 68 cf 3d 35 57 29 3e
       -0.17749071 -0.120047756 0.101274155 0.16537173
000320 2e e4 6b 3c 34 c8 42 be d7 f8 17 be 0a 9e ae bd
       0.014397664 -0.19021684 -0.14841019 -0.08526237
000330 c4 c5 2b be bf 2c 82 3e 9f d0 a5 bd 0a 64 a4 bd
       -0.1677466 0.25424764 -0.08096432 -0.080268934
000340 59 60 33 3e e5 32 30 3e 72 25 37 bd bc 72 28 3e
       0.17517222 0.17206915 -0.044713445 0.16450018
000350 35 2c 8c 3e 23 87 13 bd 17 0c bf bd a5 d4 2d be
       0.27377477 -0.03601755 -0.09328478 -0.16975649
000360 df 61 c5 3c ff 02 ab bd f8 92 6f 3e ba 0e 5b bd
       0.02409452 -0.08350181 0.23395908 -0.05348084
000370 d3 fb db 3d 38 02 80 3d 46 d0 65 bd a6 57 8f 3e
       0.10741391 0.06250423 -0.05610683 0.27996558
000380 ec 85 42 3e a8 94 0c be 61 56 c2 3d 47 19 48 be
       0.189964 -0.13728583 0.09489132 -0.19540893
000390 ea cd 84 3e 62 cf f2 bc cc 15 0c bc e0 2a 93 3e
       0.2593835 -0.029639903 -0.008550119 0.2874365
0003a0 44 db d6 3d 25 58 03 be dd ab 28 3e 95 51 34 be
       0.1049104 -0.12826593 0.1647181 -0.17609246
0003b0 e6 0a 33 3e 26 5b 70 be 61 2f 5f 3e 67 09 3e be
       0.17484626 -0.2347227 0.21795417 -0.18558274
0003c0 18 89 f9 3d f0 98 f0 3d 37 54 b3 bd af bc 28 be
       0.12184352 0.117479205 -0.08756297 -0.16478227
0003d0 bb 81 f1 bd 72 35 08 bd 9c 83 ef 3d 5d a9 87 3d
       -0.11792322 -0.033254094 0.11695024 0.066241
0003e0 f5 6e 18 be 96 11 38 be f4 ce 2d bd cc df 33 3e
       -0.14886077 -0.17975459 -0.042433694 0.1756584
0003f0 54 0c a4 bd 63 3d 7a 3b 5c 8a 2b 3e e9 6d 9c bd
       -0.08010164 0.0038183562 0.16751999 -0.07638151

fc2.bias f4 [10]
000000 b4 61 08 3d 50 25 ed 3d d8 c4 83 bd c8 d6 a5 bd
       0.033296302 0.115793824 -0.06434029 -0.08097607
000010 c3 b7 03 bd 9a c1 07 3e 67 8e d5 3d aa 52 04 be
       -0.03215767 0.13257447 0.10427552 -0.12922159
000020 2a 5a 94 3d 51 ba 0a be
       0.0724376 -0.13547637
