proj5/task4/results/2.pth (torch, 152207 bytes, 8 tensors)

conv1.weight f4 [10, 1, 2, 2]
00000000: 9a83 1a3f 8fb6 7a3f 5843 9d3c e211 4c3f
00000010: 96be f0bd ad55 443e 94c6 22be 271e 033f
00000020: f05b 253f bd8b 1abf aa37 563f f6e2 953e
00000030: ca63 3c3f 2b38 a53e 408b 243f 79be 733d
00000040: 96cb 353f 22fb cb3e ea92 c6be c1db 0b3e
00000050: 26fc 6bbe c3ef d2bb 6dad 76be 53ed 9d3e
00000060: b126 11bf 42dd c2be 04aa 92be 4ac1 e0be
00000070: d70d f23e 57ab 0bbf 99eb 3d3f fea7 21bf
00000080: 6146 103f 77f8 863e 0bce a93d 8d8a 153f
00000090: 46eb 923e 2f13 0d3f b020 5dbe 32dc 0cbf
0.6035706 0.9793481 0.019197151 0.79714787 -0.117551014 0.19173308 -0.15896064 0.51217884
0.6459341 -0.60369474 0.83678687 0.2927472 0.73589766 0.32269415 0.6427498 0.05950782
0.7101377 0.39840037 -0.38783962 0.13658048 -0.23045406 -0.006437273 -0.24089594 0.30845127
-0.56699663 -0.3805943 -0.28645337 -0.43897468 0.47276184 -0.5455832 0.7418762 -0.6314696
0.5635739 0.2636144 0.08291253 0.58414537 0.28695124 0.55107397 -0.215945 -0.5502349

conv1.bias f4 [10]
00000000: cb79 903e 151a bfbd 276a 5f3e 6ae7 fb3e
00000010: f18d b83e 0519 67be 4e4c 353f 1df9 223d
00000020: 401d ab3e 50a7 6bbe
0.2821792 -0.09331147 0.21817838 0.49199992 0.36045793 -0.22568138 0.70819557 0.039788354
0.33420753 -0.23013043

conv2.weight f4 [20, 10, 2, 2]
00000000: c890 a53c 1c69 8bbe 9f5f 8bbe 9794 323c
00000010: 2ef3 443d e6d6 5a3d 8140 d3bc 04d6 df3b
00000020: 1371 aa3e bce5 27be 8fa3 04bb cf45 8fbe
00000030: b7ab a43e 13be 46be b7be c33d 01a7 4fbe
00000040: cfbc 213e fc54 47be be81 7bbd b167 16be
00000050: c4df 113e 37fc 653d dd73 133e 847b e7bd
00000060: 4ec5 3dbe f126 acbd ede7 4bbd b41a ce3d
00000070: 9c1a 8a3e d708 173e a33a f73b e4a8 3abe
00000080: eba3 4b3e a48b 29be 2dcc 423d e9ac ffbd
00000090: fb66 8d3d 077c 46be d4d4 84bd d590 0d3d
000000a0: 30ea 083d be1e 25bd 7e04 c13d 4a22 dc3d
000000b0: d9d2 eabd 2fe0 acbd e940 143e 6e88 5abd
000000c0: d698 65bd 73a9 1cbe c470 b9bd 0cc8 213d
000000d0: 78f7 aabc ec0d ebbd c00f 733b 8e31 ddbd
000000e0: dc5c 09be 6650 b2bd 52b4 0dbe cf2f cebd
000000f0: 65d8 213e d8a4 f43c 2893 473d 7702 17be
00000100: b8ac d4bd a491 57bd e88a ca3c 8377 0ebe
00000110: 2c86 8bbd f5db c1bd 00ba e539 a4fc 70bd
00000120: 6083 33bc 9d6d dbbd 3e44 debd 62ea bcbd
00000130: 02af 5dbd 2f95 ffbd 69c1 073e 3c88 00bd
00000140: fc40 343e a8b8 c63d 4a10 bbbd 9107 193b
00000150: 4cc2 f2bc c69f 8fbd 33bf 22be 0ea5 50be
00000160: 778f 9b3d 2777 4a3d efb1 45bc e366 38be
00000170: ef92 3c3e 2726 9a3c af2d 463c c2f1 063d
00000180: f133 a03d 3457 423e 8ba0 6a3e d51d a5bd
00000190: 898a 493d 3103 9dbd 0621 0abd 1610 03be
000001a0: f190 883d f8be 2ebe d8f1 493d 43b3 123d
000001b0: 8cb6 cabb 0c09 abbd 020f cf3d 2731 333d
000001c0: 4944 a43c 5f04 d8bd ff39 a13d 94e1 92bd
000001d0: 9de1 93bd 072d 373e 2cf7 de3d 8592 733c
000001e0: 65a4 4dbd b9d9 87be 7909 283e 9ebf 6f3d
000001f0: e7e0 bbbd fda9 ecbd 1655 e7bd 7606 863d
00000200: a1b8 af3e ab07 3fbd 5d4a dd3d b9ee 8d3e
00000210: a4a9 1d3d 2256 15be 25b8 b63c 10bb de3d
00000220: fadb 303d 1d24 1ebe 96ff 7b3d 5a68 d83d
00000230: 14ff bebd 9eb0 9cbd fc44 ac3c c891 983d
00000240: d14b 65be be6d 59be 4b06 59be dc47 82be
00000250: 1669 153e 7c37 103e 63b2 79be fbb4 ccbd
00000260: ca22 373e b59f a9bd 1633 853c 673a eebc
00000270: 3a79 2abe 1028 35be 0ae6 18bc 2fec cf3d
00000280: c8e9 a03e 8fbb 9b3e d4af 6cbe ba83 a3be
00000290: 8f24 aeba 4fe4 f53d b6f0 aebb caf9 0bbe
000002a0: 766f ee3b c599 2ebc f715 97be 9a65 80bd
000002b0: 955a 3ebc 92c9 1b3e b975 95be 355d 03bd
000002c0: e2d1 983e bada 703e 4571 ecbd 7e4b 2fbe
000002d0: 771f 07be b664 a23d 3b84 883d 7e4a da3d
000002e0: a8c3 b33d bda5 0a3d 6928 273d 6c90 36bd
000002f0: d4a6 8fbe 0be4 48be 5abc 7ebd 8f56 e1bd
00000300: c3b9 853d c2b6 103d c9c1 e2bd 60b3 70be
00000310: f669 0cbd e74b 353e 10d3 eb3b a361 2f3e
00000320: baf5 f23d 8684 aabe 45a9 803c 73ad 3ebe
00000330: ddde 38bb 2e57 3cbe e674 df3d b71f bebd
00000340: c4ba 623e 4411 933d a661 973e 88fb 18be
00000350: ef23 6e3e 3522 1cbe 3ccf 533e d39b 5e3d
00000360: 4f18 6dbc cdb5 b9bd f5a5 82bd d9ed 61be
00000370: e5d9 a63d 9376 1bbe dbd2 e53d f0d1 0b3e
00000380: 552e 37bd aecb 10be 726e 92be 90e3 9ebd
00000390: f46e 523e 4c16 fabc da70 0d3e 6136 1abd
000003a0: 03ab 9c3d 945c 3dbe 5aee ebbc c556 edbd
000003b0: e096 7cbe 5703 8d3d 3b42 623d 212f b4bd
000003c0: 9b49 b6bc 61c1 ecbd 1fa3 13be 30ba 08be
000003d0: 7343 793d 4784 ccbd f80e d1bd eea4 dfbb
000003e0: 14a9 5dbd b044 64bd a993 bcbb ef65 0dbd
000003f0: 4584 63bd aded bdbd 6b04 08be 1ee9 0f3e
0.020210639 -0.2722863 -0.2722139 0.010899684 0.048083477 0.0534276 -0.025787594 0.0068309326
0.33289394 -0.1639623 -0.002023909 -0.27982947 0.32162258 -0.19408445 0.0955786 -0.2027855
0.15794681 -0.19466013 -0.06140303 -0.14687993 0.14245516 0.056148734 0.14399667 -0.113028556
-0.18532297 -0.08405865 -0.04978173 0.10063687 0.26973426 0.14749466 0.007544832 -0.18228489
0.19886748 -0.16557175 0.047558 -0.12484152 0.069044076 -0.1938325 -0.06485906 0.03456195
0.033426464 -0.04031252 0.09424685 0.107487276 -0.11465997 -0.08441197 0.14477886 -0.053352766
-0.05605396 -0.15299015 -0.090547115 0.03949742 -0.020869955 -0.11477265 0.0037088245 -0.108004674
-0.1341433 -0.08706741 -0.13838318 -0.100677125 0.15805204 0.02986376 0.048724324 -0.14747034
-0.10384506 -0.052629128 0.024724439 -0.13912778 -0.06812701 -0.094657816 0.00043816864 -0.058834687
-0.010956615 -0.107142664 -0.1085286 -0.092243925 -0.05412198 -0.124796264 0.13257374 -0.031379923
0.17602915 0.09703189 -0.09133966 0.0023350457 -0.029633664 -0.07012896 -0.15893249 -0.20375463
0.07595723 0.04943004 -0.012066348 -0.18007998 0.18415426 0.01881702 0.012095853 0.032945402
0.07822407 0.18978578 0.22912805 -0.08062331 0.049204383 -0.07666624 -0.0337229 -0.12799105
0.066682704 -0.17065036 0.049302906 0.03581549 -0.006186312 -0.08351335 0.101102844 0.043748047
0.020052092 -0.10547709 0.0787239 -0.07171932 -0.07220767 0.1788827 0.10886988 0.014866476
-0.050205607 -0.26533297 0.16409864 0.05853235 -0.09173756 -0.1155586 -0.11295526 0.06544201
0.34320548 -0.046638172 0.10805199 0.27721193 0.03849186 -0.14583638 0.022304604 0.10875523
0.043178536 -0.15443464 0.061523043 0.105667785 -0.09325996 -0.076508746 0.021028988 0.074496806
-0.22392203 -0.2123327 -0.21193807 -0.2544545 0.14590868 0.14083666 -0.24384455 -0.09995457
0.17884365 -0.08282415 0.016259711 -0.029080583 -0.16647807 -0.17691064 -0.009332189 0.1015247
0.3142836 0.30416533 -0.23113948 -0.31936437 -0.0013286042 0.12006437 -0.0053387536 -0.13669506
0.007276471 -0.010656779 -0.29508945 -0.06269379 -0.011618276 0.15213612 -0.29191378 -0.03207131
0.29847628 0.23520938 -0.11545042 -0.17118642 -0.13195597 0.07929365 0.06665846 0.106587395
0.08777553 0.033849467 0.040810023 -0.044571325 -0.28056967 -0.19618241 -0.062191345 -0.11002838
0.06529572 0.03533054 -0.11072118 -0.23505926 -0.03428074 0.17704736 0.0071967915 0.17127089
0.11863275 -0.33304232 0.015705714 -0.18620853 -0.0028209009 -0.18392631 0.109109685 -0.09283393
0.22141558 0.071810275 0.29566687 -0.14939702 0.23255895 -0.15247424 0.20684522 0.054347824
-0.014471128 -0.09067879 -0.0637931 -0.22063388 0.08147029 -0.15181951 0.11221858 0.13654304
-0.04472192 -0.14140198 -0.28599888 -0.07758248 0.20550138 -0.03052821 0.1381258 -0.037649516
0.076498054 -0.18492347 -0.028800178 -0.115888156 -0.24666929 0.06885403 0.055238944 -0.087980516
-0.022251895 -0.115603216 -0.14417695 -0.13352275 0.06085534 -0.099861674 -0.10207933 -0.006825081
-0.054116324 -0.055729568 -0.005754907 -0.03452104 -0.055546064 -0.09273849 -0.13282935 0.14053771

conv2.bias f4 [20]
00000000: 109b a13d 9e25 7fbd ef5a 33be 5cad d3bd
00000010: 8be8 68bd 2ad0 f9bc 832e 6e3e 38f4 d43d
00000020: f7fb 063e 8a67 b93d 7b88 2b3d 7362 46be
00000030: a92b 053d bf99 99bd f9e0 0cbe 4ddc 823d
00000040: 9bba 8cbb 5117 d2bc 6d86 d63c 2b5f 9fbd
0.07890904 -0.062291734 -0.17515157 -0.103358 -0.056862395 -0.030494768 0.2325993 0.103981435
0.13182054 0.09052952 0.041878205 -0.19373493 0.03251234 -0.07500028 -0.13757695 0.06389675
-0.004294706 -0.025645884 0.026187146 -0.07781824

fc1.weight f4 [50, 720]
00000000: 58da 7fbb 18c1 0a3d e9b4 2dbc 9c44 0fbd
00000010: 98f3 64bd acf9 3ebd f753 b73c a285 303b
00000020: b791 f63c 0cb5 1fbc a1d8 8939 5513 e3ba
00000030: 6c01 d33b 90b0 173d 758b 123d feb4 953d
00000040: 0b0d a03d 8bf2 a63c 264c 07bd 0dc0 0abc
00000050: 9e12 8bbd 634e babc 0006 a43c d185 0f3c
00000060: d839 df3c e231 bcbc 6d28 cbbd 908a 7fbd
00000070: 0b08 c9bc e17f 4abd 1be9 093d 8941 2b3c
00000080: a2c1 b03c 7194 3a3c 6301 abbc 928c b73c
00000090: 847d 10bd b018 5a3b 005f 23bb 9d2a abbc
000000a0: 20e5 ecbc dd22 073d 2e3a f83c f87e 8d3c
000000b0: 49aa 113d d6c8 77bc 6ced d2bb d02e 673c
000000c0: f4c5 c9bb e8a3 efbb f058 fcbc 1c0b 243c
000000d0: f27f b8bc 00a4 b13a 37d4 143d 60f3 3bbc
000000e0: 6874 40bc aa30 b83c cc7c 60bc e0be 51bb
000000f0: bf88 0e3d 0454 7abc c669 dabc a7db aabc
00000100: f448 29bc 0add 90bc c16d 9ebc 90a5 763c
00000110: c886 cf3b 9e6d 43bc 7a30 edbc 8840 40bc
00000120: f9a4 81bc a768 a3bc 703e 0ebd d549 aa3b
00000130: 5c2c 96bd f45a 97bd 51d6 87bc 5505 453c
00000140: 6348 a93c db51 173c 05bd df3c a367 3bba
00000150: 05be 6a3c 8914 84bd c6f3 eb3a b939 35bd
00000160: f43d 423d 26e9 af39 c38c 39bd ef53 a5bb
00000170: d598 3f3c 58ef 6bbd 17e8 2dbc 57bc f83c
00000180: 9084 4f3d 7ada 053d d882 f5bb 58fd ce3b
00000190: 4c74 963d 72d8 a7ba 28bc 263d 3322 953b
000001a0: 21a4 5a3b 8d8e 1cbd 74d7 94bc 54c2 953c
000001b0: 5a1c 173d b906 903d 817f 763d b442 673d
000001c0: 432b 893c 93fb 61bb 2d50 05bd b7e5 1bbd
000001d0: 5a99 1ebd abe8 213d cb10 8e3d 50fe cbbc
000001e0: 5ff2 68bc bc59 19bd 8e4b 84bd f5f2 c2bd
000001f0: 6e76 cd3c cbb1 0ebd 03b2 c83c 3469 ed3c
00000200: 4cc0 a83d 972a 23bd 873c 2cbc 0e42 02bd
00000210: e576 c83c 3796 5c3d 2400 51bd 6a2c 6abd
00000220: f34e 313d a25a f9bb 416d 00bb f4db 5ebc
00000230: ddb2 aebb 20e5 6cbd 8dd9 673c c3f7 653b
00000240: 53e3 863b 9d62 b63c f32e 62bc 0d25 983c
00000250: 28da 833c 7dfb 883c d037 babc 2e4d fb3c
00000260: 44e5 d53c 1a17 6cbd 4cd2 5cbd 2498 81bd
00000270: df8a 9a3b 21ca 08bd d3bd 923c 91a6 05bd
00000280: 8817 85bd 0b26 abbd 266a 19bd 63ee 14bd
00000290: 5e2f 943d fb8b 633d aa6d d9bc 958a 54bc
000002a0: fe6c b43c 5d19 b23c cab8 0e3b 631b 313c
000002b0: 28bb 54bd c876 b1b9 36e5 923b f49b 10b9
000002c0: fac9 c8bc 03a6 d1bc 882a 94bc 27e0 11bc
000002d0: 4843 123d 71e5 55bc ac1f eebc 01b3 9c3c
000002e0: be14 07bc b091 04bd 2e7d ebbb 4891 18bd
000002f0: 7e23 c0bc 024b 233d 7d71 683d 0e7a 143d
00000300: e274 ee3c f003 b037 3731 74bd e6de 683b
00000310: 0343 763d 6ae1 213d 7ad9 e13c ec71 27bc
00000320: 5c04 c43b 9e11 8fbc 60f6 a0bc 218a ebbc
00000330: dc94 49bc b62d 16bd dcb8 9fbd cf41 a8bc
00000340: 0818 26bd 8ade d9bc fe0f 9dbc 852a 19bd
00000350: 8d6e 6dbd 87b2 9bbc 3d29 6dbc 4601 db3c
00000360: 9244 233d e2ee d03c 0442 e2bc 3765 0dbd
00000370: 9185 ef3c b992 093d eee4 e7bc 65a0 a03c
00000380: 4c1d d03c 71d7 f5bc 4dc8 1bbd d9f2 dd3c
00000390: 37d7 ed3c 593b 273d a424 b7bc 4008 b63c
000003a0: 2df5 03bd a00d 3e3d 90d7 61bc e61c 543b
000003b0: bcdb b0bc 19cc 9d3c 353e 2cbc 8d3c d43c
000003c0: 6bd1 c1bc 5ea9 01bd dd7b 593c 7162 d13c
000003d0: 2451 3bbc 1706 3d3c d6a8 3ebc 2c2b 043d
000003e0: 6b60 f43b 9112 ba3c 7d8b ddbc 13d8 eebc
000003f0: 3f7d c03a c768 b8bc 5698 e93c 41af 15bd
-0.0039040055 0.033875555 -0.010602214 -0.03497754 -0.05589637 -0.046624824 0.022378905 0.002693512
0.03009878 -0.009747755 0.00026292077 -0.0017324487 0.0064393785 0.037033617 0.035777528 0.07309912
0.07814988 0.020379325 -0.033031605 -0.00846864 -0.0679066 -0.022742456 0.020022392 0.008759932
0.027249262 -0.022973005 -0.0991982 -0.062388003 -0.024539968 -0.04943836 0.033669572 0.0104526365
0.021576706 0.01138793 -0.020874685 0.022405896 -0.03527595 0.0033278875 -0.002492845 -0.020894343
-0.028917849 0.032992233 0.03030118 0.017272457 0.035562787 -0.015123567 -0.0064369943 0.014110282
-0.006157631 -0.0073132403 -0.030804127 0.010012414 -0.022521947 0.0013552904 0.036335196 -0.011471599
-0.011746503 0.022484142 -0.013701629 -0.003200464 0.03479838 -0.01527882 -0.026661765 -0.020856692
-0.010332335 -0.017683525 -0.019339444 0.015054122 0.006333206 -0.01192799 -0.02895378 -0.011734135
-0.015825735 -0.019947363 -0.034727514 0.0051967897 -0.0733268 -0.07390395 -0.016581686 0.012025197
0.0206644 0.009235824 0.027311811 -0.0007148927 0.014327531 -0.06449229 0.0018001727 -0.0442445
0.047422364 0.0003355231 -0.045300256 -0.005045406 0.011694153 -0.057601303 -0.010614417 0.030363245
0.05066353 0.03267906 -0.0074924044 0.006316822 0.073464006 -0.0012805595 0.040706784 0.004551196
0.0033361989 -0.038221885 -0.018169142 0.01828114 0.036892273 0.07032532 0.06018019 0.056460097
0.016744262 -0.0034482225 -0.032547165 -0.03806087 -0.038720466 0.03952853 0.06936797 -0.02490154
-0.014217942 -0.037439093 -0.064597234 -0.095189966 0.025080886 -0.034837525 0.024498945 0.028980829
0.08239803 -0.03983554 -0.010512478 -0.031801276 0.024470756 0.053854194 -0.051025525 -0.057171263
0.043288182 -0.007609681 -0.001959637 -0.013602246 -0.0053313808 -0.057835698 0.014150989 0.0035090304
0.0041164546 0.02226382 -0.013805139 0.018572355 0.016095236 0.016721481 -0.022731692 0.03067645
0.026110299 -0.05763922 -0.053911492 -0.06327847 0.0047162618 -0.03339589 0.01791278 -0.032629553
-0.06498629 -0.083568655 -0.037454747 -0.036360156 0.07235597 0.055553418 -0.02654155 -0.012972494
0.022024628 0.02174061 0.0021777623 0.010809752 -0.0519363 -0.0003384857 0.0044828905 -0.00013791007
-0.024510372 -0.025591856 -0.018086687 -0.00890354 0.035708696 -0.013055191 -0.029067837 0.019128324
-0.008244691 -0.0323655 -0.0071865534 -0.037247926 -0.023454424 0.039866455 0.056748856 0.036249213
0.029108468 2.0982669e-05 -0.059617247 0.0035533248 0.0601225 0.039521612 0.027569521 -0.010220032
0.005981965 -0.017464455 -0.01964873 -0.028752388 -0.012303557 -0.036664687 -0.07798931 -0.020539192
-0.04055026 -0.026595373 -0.019172665 -0.037394065 -0.057966758 -0.019006027 -0.014475164 0.026734006
0.039860316 0.025504533 -0.02761937 -0.034520354 0.029238494 0.03358719 -0.028307404 0.019607732
0.025404595 -0.030009957 -0.03803282 0.027093338 0.029033286 0.040828083 -0.022356339 0.02222073
-0.03221624 0.046399713 -0.013784304 0.0032365858 -0.021589153 0.01926236 -0.010512878 0.02590778
-0.023659429 -0.03165566 0.01327416 0.025559636 -0.01143292 0.011537096 -0.011636933 0.032267734
0.007457783 0.022713931 -0.027044052 -0.029155767 0.0014685764 -0.0225109 0.028515022 -0.03654409

fc1.bias f4 [50]
00000000: 048f 693c 817d c5ba a678 4e3d 2eeb b43d
00000010: 25ba 233c 02c7 783d 02a1 013d 2e7b 153c
00000020: ad81 c1bc d621 c23c 1eaa af3d 3636 e13c
00000030: 1a69 803d 0d33 2a3d 4e94 a63d 67bf 9fbc
00000040: 0584 5a3d f9e9 89bb 153a 173d 00fe ce3d
00000050: 0fc2 6a3c dcda cb3b e6af 9abb 8cbf 4fbd
00000060: 65c8 bb3a 9c6a 063c a47a 99bc 0024 433d
00000070: 23fd 43bd 1333 cf3c 5642 5dbc ef68 dbbc
00000080: f19b f73b ef96 173d 6125 853d fb8a 663d
00000090: f66c 923d cadb 80bb 8dff 3fbb a2c1 893d
000000a0: 47d6 273c d8f4 8e3c 7d3e 133c d95b 833d
000000b0: ce46 6e3c 2685 3e3d c300 043c 6af0 e93c
000000c0: f29a 8dbb cd10 943c
0.014255289 -0.001506731 0.050408028 0.088339195 0.009993111 0.060736664 0.03164769 0.009123607
-0.023621405 0.023697775 0.08577369 0.02749167 0.062700465 0.041552592 0.081337556 -0.019500447
0.05334856 -0.0042088 0.036920626 0.101070404 0.014328494 0.0062211584 -0.0047206758 -0.050719783
0.001432669 0.008204129 -0.018735237 0.047641754 -0.04784883 0.025292909 -0.013504585 -0.026783435
0.0075564315 0.037009176 0.0650127 0.056284886 0.07149689 -0.003932451 -0.0029296607 0.06726386
0.010243959 0.017450735 0.008987066 0.06414003 0.014543248 0.0465137 0.008056822 0.028557021
-0.0043214494 0.018074417

fc2.weight f4 [10, 50]
00000000: e66c 933d 6568 1cbe c11e 1dbe 0d60 54be
00000010: 5a13 343e bf42 45be ee0d 1f3e 1046 cb3d
00000020: b2e8 5d3e a3bb 293e 32a1 3cbe 6ad4 a3bd
00000030: be78 fabd 76ba 74be 70b7 9c3e 9a13 49be
00000040: a9fb 9ebd ce27 063e 4262 4bbe 49a1 1bbe
00000050: f5d4 a1bd ca4a 573e 00e4 273e c427 fd3d
00000060: 80d4 d23c f6bd 4a3e e3e6 c1bb b380 07be
00000070: 14cb c03d 630f 67be 85ff ebbd 8236 2bbe
00000080: 8395 4c3e 0c9f 98bd db12 59be dc84 a53d
00000090: 6ae2 4e3d ea3b 163e 2301 49bd 01bb 64bc
000000a0: 0ee2 93bd cdb8 5cbd 02cd 0f3d 4390 e73d
000000b0: e513 403e 9ad2 353e fe99 733e bd53 76bd
000000c0: 8ac8 abbd b489 8dbe 6e3f 2dbe d224 273e
000000d0: a0bb 4ebe d41d 8d3e 76d6 47be a78b 83bd
000000e0: a406 93be 8da7 9bbe c8f8 04be 76ad 3ebe
000000f0: eb73 273e 5fce 213e d8fd 8e3e cd6e d63d
00000100: 9c07 34be 1849 01be 522c 1d3e 84d1 4fbe
00000110: e329 42be c02f 963e 35b0 8b3d 5752 a8bc
00000120: 9649 dabd c96e 26be e884 413e 8189 a73d
00000130: 439e d7bd 5be9 603d 92ac 1fbe 6d29 903e
00000140: 2e21 fabd 7854 d4bd f146 32be e073 69be
00000150: 7aac 303e a417 0f3e f3f5 a8bd fa97 eabd
00000160: 65c2 743e c93d 6f3e c5f7 01be 4bf7 423e
00000170: acfa 3dbd 1a6f 7bbe 6e5a 05be e644 5ebd
00000180: 26b5 343e dba0 903e 828a 36be 5427 523d
00000190: 61d6 213e a242 24be 0c13 f3bc 0d57 993e
000001a0: 4c15 533e 9fc9 b6bd 5d0b 86bd 9f77 0fbe
000001b0: 81d8 293d 1ab5 15be c1d1 3ebe cdbb 1c3e
000001c0: c270 0bbe 7cbc 223e cd41 1bbd 9002 b7bd
000001d0: 85b2 c13d 63cd 3c3e 0aa0 603c 79d9 0cbe
000001e0: 28ec 24be 9336 23be cae3 1f3e a4aa f03d
000001f0: 72e8 b03d a92a 31be 3777 19bd 74fe febc
00000200: dde6 64bd 5ffb 0cbe 322f 5cbd a7c1 97bd
00000210: 1823 36bd f965 4b3e 8566 4a3e 975d f23d
00000220: 8f61 4b3e 414e b6bd bd75 51be 8913 2c3e
00000230: 4077 48bd 710c 503e 1660 ff3c 48fa 08be
00000240: 117e 2f3e bb26 0a3e ef3b 573e 5194 31be
00000250: 9db4 c7bd 9832 3b3e 3fa0 403e d20f 84be
00000260: 518b 37be 9994 b9bd fa5b 783d 2f3f a43c
00000270: df22 163e df8d 55be 6846 efbd 01ac f43d
00000280: cd6c 813c 54a2 d5bc f67e 96bd b49e 333e
00000290: 35c3 d3bd 1364 29be 146a 103e 8488 b83c
000002a0: 5fed 2e3e 8481 8ebd 6b71 f43d 560a 14be
000002b0: 1040 88bd 1294 fe3d bb69 02be cc3e 82be
000002c0: 4cf2 9b3e d1fd 19bd b608 073e 6f90 8c3e
000002d0: 56e1 763e 831d 2e3e 7ca5 6cbd 5aa1 42bd
000002e0: 443e 483e ac0c 253e 82ce d3bd 4d04 173e
000002f0: 85b3 343d 5348 33be b037 c8bd 76e0 363e
00000300: a89f 26bc c3fc 72bd d9a2 34be 8fab 32be
00000310: 9139 d1bd 5498 01be 0aad d7bd ccf9 403e
00000320: af48 143e c2ec 2e3e e987 523e 7975 08bc
00000330: 1f0e 3c3e f4a8 373e aff6 34be f9cc e53c
00000340: 6ae8 58bd 682e 70be dbcb 1e3e d863 50be
00000350: 02e2 833e d7e3 82be ee46 d1bc 9026 b33d
00000360: e945 2e3e 1103 15be fd1f 2f3e 292b 52be
00000370: 956e 653d f2d5 edbb 1425 aa3d c95c 88be
00000380: cf60 55be 1dac 553e fc9e 10be 9be5 743e
00000390: 5e76 b3be dbce ffbd ebb8 b8bd 19fc 413e
000003a0: f3cf 8bbe d5f6 9abd 350e 50bd 10a2 79be
000003b0: b1ce 623e afda 16be bf23 9d3d 0aaf 473e
000003c0: 7937 983e 4cee 7abe 0247 5bbd 6b46 123e
000003d0: 731a 663d 1f51 68be 3700 9fbd 92d5 babd
000003e0: 7755 2e3e 6d32 1d3e be9a a1bd 913a 0a3e
000003f0: a3ab 87be 0633 c7bd 0af3 1dbd f6ee 403e
0.07198505 -0.15274198 -0.15343763 -0.20739765 0.17585507 -0.19263743 0.15532658 0.09925473
0.21670797 0.16575484 -0.18420866 -0.07999499 -0.12230061 -0.23899254 0.30608702 -0.19636384
-0.07762844 0.13101122 -0.19861701 -0.15198244 -0.079019465 0.21024624 0.16395569 0.123611
0.025736094 0.19799027 -0.0059174164 -0.13232689 0.09413734 -0.22564463 -0.11523346 -0.16720012
0.19978909 -0.07452211 -0.21198599 0.080819815 0.050508894 0.14671293 -0.04907335 -0.013960601
-0.07220851 -0.053887177 0.03510762 0.113068126 0.18757589 0.1775612 0.23789212 -0.060138453
-0.08387859 -0.27644122 -0.16918728 0.1632264 -0.20188761 0.2756182 -0.19515404 -0.06423121
-0.28716004 -0.3040127 -0.12985528 -0.18620858 0.16352813 0.1580138 0.27928042 0.10470352
-0.17581028 -0.1262554 0.15348938 -0.20294768 -0.18961291 0.29333305 0.06820718 -0.020547075
-0.10658567 -0.16253199 0.18898356 0.08180524 -0.10528233 0.054910045 -0.15593174 0.28156605
-0.1221336 -0.10367674 -0.17409874 -0.22798109 0.17253295 0.13973862 -0.08250036 -0.114547685
0.2390228 0.23363413 -0.12692173 0.19039647 -0.046381637 -0.245541 -0.13022777 -0.054264925
0.17647228 0.28247723 -0.17826274 0.051307037 0.15804435 -0.16041043 -0.029672168 0.29949227
0.20613593 -0.08925175 -0.06545136 -0.14010476 0.04146624 -0.14619866 -0.18634702 0.15306015
-0.13617232 0.15892214 -0.03790455 -0.08936036 0.09457878 0.18437724 0.013710031 -0.13754834
-0.16105711 -0.15938787 0.15614238 0.11751297 0.086380854 -0.1730143 -0.037467208 -0.031127192
-0.05588423 -0.13767765 -0.053755946 -0.07409983 -0.04446706 0.19863118 0.1976567 0.11834257
0.19861434 -0.089016445 -0.2045507 0.16804327 -0.04894185 0.20317246 0.031173747 -0.13376725
0.17137934 0.13491337 0.21018957 -0.17341734 -0.09751246 0.18281019 0.18811129 -0.2579332
-0.17924239 -0.09061546 0.06063459 0.02004966 0.1466174 -0.20854901 -0.11683351 0.1194687
0.01579895 -0.02607838 -0.073484346 0.17541009 -0.10339967 -0.16542082 0.14102966 0.022526033
0.17082737 -0.06958297 0.11935695 -0.14457068 -0.06652844 0.12430586 -0.12735645 -0.25438535
0.30458295 -0.037595574 0.13186917 0.27453944 0.24109396 0.17003445 -0.057775006 -0.047517158
0.19555002 0.16118115 -0.103421226 0.14747734 0.044116516 -0.17508058 -0.097762465 0.17859063
-0.010169901 -0.059323084 -0.17640246 -0.17448257 -0.10216058 -0.12655765 -0.105310515 0.1884529
0.14480852 0.17082503 0.20559658 -0.008328789 0.18364762 0.17935544 -0.17672227 0.02805184
-0.052956022 -0.23455203 0.15507452 -0.20350587 0.25758368 -0.25564453 -0.025546517 0.087475896
0.17018856 -0.14551951 0.17102046 -0.20524277 0.056013662 -0.0072581703 0.08307853 -0.2663329
-0.20837711 0.20866437 -0.14123148 0.23915713 -0.35051244 -0.124906264 -0.09019645 0.18943824
-0.2730709 -0.07566611 -0.0507948 -0.24378228 0.22149159 -0.14731859 0.07672834 0.19500366
0.29729822 -0.24504966 -0.053534515 0.14284675 0.056177568 -0.22687195 -0.07763713 -0.091227666
0.1702479 0.15351267 -0.07890843 0.13498904 -0.26498136 -0.09726529 -0.03856186 0.18841156

fc2.bias f4 [10]
00000000: 8758 16be 89b1 723e b1e6 febd 465a e23c
00000010: 303f 46bd e9c6 6b3d 6f0a 82bc 0e5a 87bd
00000020: a7a9 643e 092e cc3d
-0.14682208 0.23700537 -0.12446345 0.027630936 -0.048400104 0.057562742 -0.015874116 -0.066089734
0.22330342 0.09969718
