proj5/task4/results/4.pth (torch, 82255 bytes, 8 tensors)

conv1.weight f4 [10, 1, 4, 4]
0	0x3dc9d316	0.098547146
1	0x3e83d663	0.25749502
2	0x3ca0f27e	0.01964688
3	0x3eac3af5	0.3363873
4	0xbe78e418	-0.24305761
5	0x3dafb556	0.08579509
6	0x3dfc08e3	0.123063825
7	0x3edb5b8e	0.42843288
8	0x3e3ac66f	0.18239759
9	0x3de31435	0.110878386
10	0x3f22d641	0.63608176
11	0x3ec16655	0.37773386
12	0x3e90f8be	0.28314775
13	0x3e8d08d6	0.27545804
14	0x3ea2bf14	0.31786406
15	0x3e0a353d	0.13496871
16	0x3ec02dc8	0.37534928
17	0x3eb27592	0.34855324
18	0x3e83fa11	0.25776723
19	0x3ebc9ef4	0.36840022
20	0xbd1298ff	-0.03579044
21	0x3e3214cc	0.17390746
22	0x3db0a93c	0.08626029
23	0x3e948151	0.2900491
24	0xbe9d980f	-0.30780074
25	0xbe2fa488	-0.17152607
26	0xbe60753a	-0.21919718
27	0xbe8b1045	-0.2716085
28	0xbe14c7d2	-0.1452935
29	0xbecaa8f1	-0.39582017
30	0xbd7a1b16	-0.061060987
31	0xbeb94e96	-0.3619277
32	0x3ede8729	0.43462494
33	0x3e65bdef	0.22435735
34	0xbe560111	-0.20898844
35	0xbe39e534	-0.1815384
36	0x3e6d3744	0.23165613
37	0x3f030624	0.51181245
38	0x3e5291ea	0.20563474
39	0xbdec0850	-0.11525023
40	0x3ca53cd2	0.020170603
41	0x3ddffb18	0.10936564
42	0x3edbbd99	0.4291809
43	0x3f057bed	0.5214222
44	0xbdd3afb6	-0.103362486
45	0xbe487753	-0.19576769
46	0x3e741b71	0.23838593
47	0x3ed823a5	0.42214695
48	0x3e3176da	0.17330495
49	0xbe24d81f	-0.16098069
50	0xbeaf7149	-0.34266117
51	0xbe25548e	-0.16145536
52	0xbe0f316d	-0.13983698
53	0x3e8a2c2c	0.26986825
54	0x3dc1c24a	0.09460886
55	0x3e0825a1	0.13295604
56	0x3da13709	0.07871825
57	0x3db773a2	0.08957602
58	0x3e93ebd5	0.28890863
59	0xbe0d3d5d	-0.1379294
60	0xbcb3ff1c	-0.021972232
61	0xbe169c96	-0.1470817
62	0x3dfa58bb	0.12223955
63	0xbd21e1ee	-0.039522104
64	0x3dda2aaa	0.10652669
65	0x3cd32c02	0.02577782
66	0x3e6552f8	0.22394931
67	0xbdfd99a7	-0.123828225
68	0xbe03bc9b	-0.12864916
69	0xbe2fccae	-0.17167923
70	0x3e2218e5	0.15829809
71	0x3dc3f122	0.09567477
72	0x3e55b3bc	0.20869344
73	0xbe8ff07d	-0.28113165
74	0xbeb0c1bb	-0.34522805
75	0xbe13d4aa	-0.14436594
76	0xbe383e1a	-0.1799244
77	0x3e06020e	0.13086721
78	0x3e2334fe	0.15938184
79	0x3eb68a68	0.3565247
80	0xbbf67691	-0.0075214584
81	0x3e19ea6a	0.15030828
82	0x3ec17d74	0.37791026
83	0xbe160ae2	-0.14652589
84	0x3e730521	0.23732425
85	0x3e3d2471	0.18470933
86	0x3e7b92be	0.24567696
87	0xbedd7964	-0.43256676
88	0x3da278a0	0.07933164
89	0x3ead7031	0.33874658
90	0x3d3cf49d	0.04613172
91	0xbeb8bd42	-0.36081892
92	0x3ea5b668	0.32365727
93	0x3ed185f5	0.40922514
94	0xbe3566cf	-0.17715
95	0xbec36926	-0.3816616
96	0x3eaef826	0.34173697
97	0xbd9c16ed	-0.0762156
98	0xbe075ff8	-0.13220203
99	0xbe9ed65f	-0.31022927
100	0xbdf612e5	-0.120153226
101	0x3c03870c	0.008027803
102	0xbdc99b9d	-0.09844134
103	0xbe6129ab	-0.21988551
104	0xbd02be96	-0.03192004
105	0xbe82bedc	-0.2553624
106	0xbe932a15	-0.28743044
107	0xbe07671d	-0.13222928
108	0xbe9f43c8	-0.311064
109	0xbe76a1f4	-0.24085218
110	0x3e55a12a	0.2086226
111	0x3dda8cde	0.106713995
112	0x3e4cdea7	0.2000681
113	0xbe91894c	-0.28425062
114	0xbe80982f	-0.25116107
115	0xbe41240f	-0.18861412
116	0x3db42915	0.08796898
117	0xbe8ea230	-0.27858114
118	0xbe2ff5a4	-0.17183548
119	0xbe636476	-0.22206292
120	0xbd106c1d	-0.035259355
121	0xbe340e7e	-0.17583653
122	0xbdb57436	-0.08860056
123	0xbe5f9078	-0.21832454
124	0xbe856d90	-0.26060152
125	0xbe73d26d	-0.2381074
126	0xbe244f9c	-0.16045994
127	0xbe6c089a	-0.23050156
128	0x3ec3cf5b	0.38244137
129	0x3e8246d7	0.25444672
130	0x3ef70c42	0.4825154
131	0x3edc4382	0.43020254
132	0xbe699bd2	-0.22813347
133	0x3e7c6cc8	0.24650872
134	0xbcd2409f	-0.02566558
135	0x3d00b026	0.03141799
136	0xbec97e9e	-0.39354414
137	0xbecb92b3	-0.3976036
138	0xbe215e87	-0.15758716
139	0xbe250084	-0.16113478
140	0xbb88abf3	-0.0041708886
141	0xbebdd87f	-0.37079236
142	0xbe01c151	-0.126714
143	0xbeb55bb0	-0.35421515
144	0xbd86e7a1	-0.065871485
145	0x3e7a735e	0.24458072
146	0x3ec3cec9	0.38243702
147	0x3eb50ceb	0.35361418
148	0x3e802667	0.250293
149	0x3c9b9a43	0.018994456
150	0x3e968128	0.29395413
151	0xbd3112ec	-0.043230936
152	0x3da4d7ea	0.08048995
153	0x3d0224fc	0.031773552
154	0x3ec0db77	0.37667438
155	0xbe3d79c8	-0.18503487
156	0x3e29d26a	0.16584173
157	0x3e397f7e	0.1811504
158	0x3de2b222	0.110691324
159	0xbe7bf282	-0.24604228

conv1.bias f4 [10]
0	0x3eeeb5a3	0.46622953
1	0x3dbbc336	0.09168093
2	0x3e4d8137	0.20068823
3	0xbe3f5ba3	-0.186873
4	0x3e030304	0.12794119
5	0xbd801524	-0.06254032
6	0x3b9c7f60	0.0047759265
7	0x3eb59318	0.35463786
8	0x3dd4a484	0.10382941
9	0xbd9c4d36	-0.07631914

conv2.weight f4 [20, 10, 4, 4]
0	0xbe39f66a	-0.18160406
1	0xbd58baed	-0.05291264
2	0x3e12e3ec	0.14344758
3	0x3d6bdcce	0.057583623
4	0xbe85e3b7	-0.26150295
5	0xbe51e525	-0.20497568
6	0xbe4f16cf	-0.20223545
7	0xbe682ca5	-0.2267328
8	0xbcb57165	-0.022148797
9	0xbe0a6b10	-0.13517404
10	0xbc97e562	-0.018541995
11	0x3d4f406a	0.05059854
12	0x3da88b69	0.082297154
13	0x3e043673	0.12911396
14	0x3e168b39	0.14701547
15	0x3ddb5560	0.10709643
16	0x3da0d823	0.07853725
17	0x3b8a52ac	0.004221281
18	0xbb5ae5be	-0.0033401097
19	0x3d874895	0.06605641
20	0x3d299448	0.041401178
21	0x3d869172	0.0657071
22	0x3e23f797	0.16012417
23	0x3e0b158f	0.13582443
24	0xbb8b7b4b	-0.004256641
25	0xbc3227fb	-0.01087379
26	0x3c8f84cc	0.017519377
27	0x3aad0cc4	0.0013202657
28	0x3d183ecf	0.037169274
29	0x3d6ca685	0.057775993
30	0xbbe3c5ba	-0.006951061
31	0x3d97ebda	0.07418032
32	0x3c04bbe0	0.0081014335
33	0x3d50c3d3	0.050968003
34	0x3d6a395b	0.057183605
35	0xbd99161a	-0.07474919
36	0xbe529eaa	-0.20568338
37	0xbe5f5b48	-0.21812165
38	0xbe00650f	-0.12538551
39	0xbdbf46f1	-0.09339703
40	0xbc3055fa	-0.010762686
41	0x3d119ad1	0.035548035
42	0xbdbc025c	-0.091801375
43	0xbcaf72f6	-0.021417122
44	0x3c6fef44	0.014644448
45	0x3e2b15e7	0.16707574
46	0x3d7dd919	0.06197462
47	0x3cc937d4	0.024562754
48	0x3cb0a018	0.021560714
49	0xbd0eb7e6	-0.034843348
50	0xbd461211	-0.048357073
51	0x3d62f42c	0.05540864
52	0xbd28ca9e	-0.041208856
53	0xbcd7ff20	-0.02636677
54	0xbda919d9	-0.08256883
55	0x3d35841e	0.04431545
56	0x3da6d48d	0.081460096
57	0x3d662d28	0.056195408
58	0xbd1623fe	-0.03665542
59	0xbd14ccda	-0.036328174
60	0xbd6d92d3	-0.05800135
61	0x3db53a2e	0.088489875
62	0x3d8d9ef7	0.06915086
63	0x3dd76ced	0.10518823
64	0x3d06fcfa	0.0329561
65	0x3c8226f7	0.01588772
66	0xbbe0bccb	-0.0068584434
67	0xbdb9c904	-0.09071544
68	0xbd3bdc7a	-0.04586456
69	0xbd49f88b	-0.049309295
70	0x3d655194	0.055986002
71	0xbbdbfbe2	-0.0067133764
72	0x3bb7b1fa	0.0056059333
73	0xbc9adab2	-0.01890311
74	0x3d08ee9c	0.03343068
75	0xbcb72951	-0.022358568
76	0xbc407608	-0.011746891
77	0x3d36aa5d	0.044596065
78	0xbce6d79b	-0.02817898
79	0x3d08e038	0.033416957
80	0xbe197b0c	-0.14988345
81	0xbe1097d9	-0.14120425
82	0xbda5386e	-0.08067404
83	0x39365fd1	0.00017392567
84	0xbe335738	-0.1751374
85	0xbe474380	-0.19459343
86	0xbda06954	-0.0783259
87	0xbe106548	-0.14101136
88	0xbd641c1a	-0.055690862
89	0xbc9bd07d	-0.019020313
90	0xbc9b43c4	-0.018953212
91	0xbded3abb	-0.115834676
92	0x3d5aa815	0.05338295
93	0x3c9d9787	0.019237293
94	0x3dc41e76	0.095761225
95	0x3dae2b3d	0.08504341
96	0xbb8fb3fa	-0.0043854686
97	0x3ae74e69	0.0017647269
98	0xbc7f932c	-0.015599053
99	0xbda263df	-0.07929205
100	0x3d63e03c	0.05563377
101	0xbda22d8b	-0.07918843
102	0x3d6da82f	0.05802172
103	0x3dbf8f57	0.09353512
104	0x3dd88b9c	0.105735034
105	0x3bfee1ed	0.0077783973
106	0xbcfbd511	-0.030741246
107	0x3d3752e5	0.04475679
108	0x3d7d68b3	0.061867427
109	0xbd902e0a	-0.07040031
110	0xbcb1da16	-0.021710437
111	0xbd43adba	-0.0477731
112	0x3cbf6359	0.023362802
113	0xbcb35d44	-0.021895058
114	0xbcd9c895	-0.026584903
115	0xbd16a070	-0.0367741
116	0xbd29a5ec	-0.041418
117	0x3db30738	0.08741611
118	0x3d986458	0.07441014
119	0x3c7a9d3e	0.0152962785
120	0x3a6698e1	0.00087965844
121	0xbcd9c888	-0.026584879
122	0xbd998ff3	-0.07498159
123	0xbdbf1063	-0.093292974
124	0x3c95b31b	0.01827388
125	0xbd92af1f	-0.07162308
126	0xbd9d8a22	-0.07692362
127	0xbd153f79	-0.036437485
128	0x3ccf99b5	0.025341848
129	0x3a2369ba	0.0006233711
130	0x3d027150	0.031846344
131	0x3d786f64	0.060653105
132	0x3d027899	0.031853292
133	0x3d6cd951	0.057824437
134	0x3d6b83c6	0.057498716
135	0x3e124c34	0.14286882
136	0xbcdbfe3b	-0.026854625
137	0x3d020e07	0.03175166
138	0x3b24e7db	0.002516261
139	0x3c42b910	0.011884943
140	0x3dbde8bb	0.092729054
141	0x3d8a0f0b	0.067411505
142	0xbaeb8b9b	-0.0017970683
143	0x3e0b0059	0.13574351
144	0x3b4a73b3	0.0030891716
145	0xbcc8726e	-0.024468627
146	0x3d9b5948	0.075853884
147	0x3e341047	0.17584334
148	0xbe0503d9	-0.12989749
149	0xbd9438e8	-0.072374165
150	0xbd9b062d	-0.07569537
151	0xbdb3b9e2	-0.08775689
152	0xbd239717	-0.039939012
153	0xbd834321	-0.06409288
154	0xbe0e2d43	-0.13884453
155	0xbe22c52f	-0.15895532
156	0xbcc85e66	-0.024459075
157	0xbbbe66d2	-0.005810597
158	0x3d0db562	0.03459681
159	0x3d91df33	0.0712265
160	0x3d15d3d1	0.036578957
161	0xba9dcc87	-0.0012039103
162	0xbd9741b3	-0.07385578
163	0xbd9068ff	-0.070512764
164	0x3d426e86	0.047468685
165	0xbd3b593e	-0.045739405
166	0x3b20b644	0.0024522701
167	0x3d3877f0	0.045036256
168	0xbca93ff1	-0.020660372
169	0x3b89859f	0.004196837
170	0x3c216c87	0.009852535
171	0xbc8d5fc6	-0.017257582
172	0xbd10c746	-0.035346292
173	0xbd983374	-0.07431689
174	0xbd8ecc8d	-0.06972609
175	0xbd4375b9	-0.04771969
176	0x3d9e7d85	0.07738785
177	0xbd2b754a	-0.041859902
178	0xbd6de860	-0.05808294
179	0x3c862ba0	0.016378224
180	0x3c974660	0.018466175
181	0x3d177d4f	0.036984738
182	0x3d5dca7e	0.05414819
183	0x3d2491a2	0.04017795
184	0xbd93ef03	-0.07223322
185	0x3c7a67d5	0.015283545
186	0x3d77b7e2	0.0604781
187	0x3bdb622d	0.006695053
188	0xbd19806f	-0.037476
189	0x3db24594	0.08704677
190	0xbc075ce8	-0.008261897
191	0xbce84315	-0.0283523
192	0xbda8f784	-0.08250335
193	0xbbe4435a	-0.0069660367
194	0x3cbc8c8b	0.023016235
195	0x3bc45112	0.0059911096
196	0x3cadd099	0.021217631
197	0xbd585326	-0.05281367
198	0xbd851d17	-0.06499689
199	0x3a0953df	0.0005238633
200	0x3da56da8	0.08077556
201	0x3d638f83	0.055556785
202	0xbcebcba2	-0.028783623
203	0xbb5fe96a	-0.0034166225
204	0xbd5a37f9	-0.053276036
205	0xbd238704	-0.039923683
206	0x3becb549	0.0072237593
207	0x3d3eb8ec	0.046563074
208	0x3d83186b	0.06401142
209	0xbd9737d7	-0.073836975
210	0x3d50da7b	0.05098961
211	0xbd685ff9	-0.05673215
212	0x3d029f83	0.031890403
213	0x3d8de26f	0.069279544
214	0x3b3333ed	0.0027344183
215	0x3d96f546	0.07371001
216	0xbd856243	-0.065128826
217	0xbceafb99	-0.028684424
218	0x3d4c3c85	0.049862403
219	0xbc5a3fd6	-0.013320884
220	0xbc7f1c38	-0.015570693
221	0xbd0a20ef	-0.033722814
222	0x3d56b232	0.052416034
223	0x3d19f5fb	0.0375881
224	0x3ce3395b	0.02773731
225	0xbd319bf5	-0.043361623
226	0xbd80a7ae	-0.06281982
227	0x3c058d79	0.0081514055
228	0x3cc81337	0.024423225
229	0xbd10998f	-0.035302695
230	0xbc97de4f	-0.018538622
231	0x3d55fb6e	0.052241735
232	0x3be71a45	0.007052692
233	0x3b840fc4	0.0040301997
234	0xbca72dfb	-0.020407667
235	0xbd92541b	-0.07144948
236	0xbd988e9c	-0.074490756
237	0xbd1b15a7	-0.037862446
238	0xbd057e16	-0.032590948
239	0x3d0f6ed5	0.035017807
240	0xbd045580	-0.0323081
241	0xbd1e323a	-0.03862212
242	0x3d904a6c	0.07045445
243	0x3c954a2a	0.01822384
244	0x3d50642e	0.05087679
245	0xbd200617	-0.039068308
246	0xbcf72bd8	-0.030172274
247	0x3cfb6470	0.03068754
248	0xbd42d390	-0.047565043
249	0xbd4060a3	-0.04696716
250	0xbb1476c0	-0.0022653788
251	0xbcc54722	-0.02408177
252	0xbd649f12	-0.055815764
253	0x3d491876	0.049095593
254	0x3d7ff451	0.062488858
255	0x3bf5d807	0.007502559

conv2.bias f4 [20]
0	0x3d22e255	0.03976663
1	0xbcdefe0a	-0.027220745
2	0xbd4b6b2a	-0.049662746
3	0xbd89ffa2	-0.06738211
4	0x3d000a02	0.031259544
5	0xbb981542	-0.004641206
6	0xbd58bb6e	-0.052913122
7	0x3d748ff5	0.0597076
8	0x3d1bee67	0.038069155
9	0x3bd4ff51	0.0065001626
10	0x3cfdd044	0.030983098
11	0xbc9f58ef	-0.019451587
12	0x3c39183e	0.011297284
13	0x3d8e7c22	0.0695727
14	0xbde2e6f7	-0.11079209
15	0xbcc4301f	-0.023948727
16	0xbc98f0a7	-0.01866944
17	0xbc0186d0	-0.007905677
18	0xbd5a633c	-0.053317294
19	0xbce44563	-0.027865117

fc1.weight f4 [50, 320]
0	0x3bdc8e0c	0.0067308005
1	0xbc57aec2	-0.013164224
2	0x3cd74ebf	0.026282666
3	0x3c8c4381	0.017122032
4	0x3ccac282	0.024750952
5	0x3c5c4b6e	0.013445718
6	0x3c4a5e9f	0.012351661
7	0xbd28b396	-0.04118689
8	0xbd4d9964	-0.050195113
9	0x3d0bad55	0.03410085
10	0xbbe4c5ba	-0.0069815787
11	0xbd850a34	-0.06496087
12	0x3d1a3b28	0.037654072
13	0x3d39b620	0.045339704
14	0x3cb24407	0.021760954
15	0xbb8b5b35	-0.004252816
16	0x3c8ae022	0.016952578
17	0xbc6cceb5	-0.01445358
18	0x3be857fd	0.007090567
19	0xbd408049	-0.046997342
20	0xbd495147	-0.049149778
21	0x3d56f94f	0.052483853
22	0xbd49e378	-0.049289197
23	0xbd3f1f5e	-0.046660773
24	0xbc818ded	-0.015814746
25	0x3c298b31	0.010348127
26	0x3c6a5832	0.014303254
27	0xbce82686	-0.028338682
28	0xb97b5b75	-0.00023971296
29	0xbc2f3e4b	-0.010696004
30	0x3d3ecb00	0.046580315
31	0x3d40e534	0.047093585
32	0x3d3b582b	0.04573838
33	0xbc16ff53	-0.0092161475
34	0xbb53b17f	-0.003230184
35	0xbd689c36	-0.0567896
36	0x3d2e0d4c	0.04249315
37	0x3bb93555	0.0056521096
38	0x3ca4e5a9	0.020129042
39	0xbd07dc27	-0.033168938
40	0x3d5b5bdb	0.053554397
41	0xbb91a525	-0.0044447356
42	0x3d6ab358	0.05729994
43	0x3cf6542e	0.030069437
44	0x3c842c02	0.016134266
45	0xbdbdb9e5	-0.09263972
46	0x3d21ec22	0.039531834
47	0xbda203b7	-0.07910865
48	0x3bfa62dd	0.00764118
49	0x3d8cdf32	0.068785086
50	0x3ca8d8e8	0.020611241
51	0x3b7eb571	0.0038865472
52	0xbd5a2218	-0.05325517
53	0x3d0c7d4b	0.034299176
54	0x3ca918c6	0.020641696
55	0x3dda1370	0.10648239
56	0x3b1647aa	0.0022930899
57	0x3d2d0734	0.042243198
58	0xbce9507a	-0.028480757
59	0xbd61f4df	-0.055165168
60	0xbb68ad49	-0.0035503677
61	0xbe233f8c	-0.1594221
62	0xbe1552b7	-0.14582334
63	0xbdc33f3f	-0.095335476
64	0xbdde3903	-0.10850718
65	0xbd3d3a65	-0.046198267
66	0xbc08c209	-0.008347043
67	0x3cbd1a59	0.023083853
68	0x3c5ac145	0.013351743
69	0x3d099578	0.03358981
70	0x3de5ce88	0.11221033
71	0x3d94b70e	0.072614774
72	0x3c45111b	0.012028004
73	0xbbca9fc0	-0.0061835945
74	0x3d58fad5	0.052973587
75	0xbcbfda40	-0.0234195
76	0xbe2c734c	-0.16840857
77	0xbdde3d90	-0.10851586
78	0x3c81e389	0.015855568
79	0x3c5912de	0.013249127
80	0x3d685a2a	0.056726612
81	0x3d2a83d0	0.041629612
82	0xbabd48ff	-0.001444131
83	0x3c337051	0.010952071
84	0x3d094df7	0.03352162
85	0x3be1cd07	0.0068908962
86	0xbb568e46	-0.003273861
87	0x3d85dcec	0.06536278
88	0xbdc644f9	-0.09681124
89	0x3af5026a	0.0018692736
90	0x3c52a866	0.012857532
91	0xbd4763fb	-0.048679333
92	0x3d20c735	0.03925248
93	0xbdc5b225	-0.09653119
94	0xbe18e6c0	-0.14931774
95	0xbd2be7a4	-0.041968957
96	0x3d2d6628	0.042333752
97	0xba9f8d9d	-0.0012172941
98	0x3c50fb5b	0.01275524
99	0xbba314e7	-0.004976857
100	0xbc966d9f	-0.018362818
101	0xbc5ad7fe	-0.013357161
102	0x3db34b80	0.08754635
103	0x3d484908	0.048897773
104	0xbb81fcf2	-0.003966921
105	0xbc7c1200	-0.015385151
106	0x3c89b99c	0.016812138
107	0xbce7aa4b	-0.028279444
108	0xbd6a8d09	-0.057263408
109	0xbc57c1ed	-0.013168794
110	0xbcc2b076	-0.023765784
111	0x3d1ef1c1	0.038804773
112	0xbd45fc98	-0.048336595
113	0x3cf5bf13	0.029998338
114	0xbd87d811	-0.06633008
115	0xbd1ef7a5	-0.03881039
116	0x3d0de1c5	0.03463914
117	0xbcf262ab	-0.029588064
118	0x3cac185a	0.021007705
119	0x3dbc5f8d	0.09197912
120	0x3c44e20e	0.012016786
121	0x3dab6317	0.08368509
122	0xbd2d0abf	-0.042246576
123	0x3d042d81	0.03226996
124	0x3c764f5a	0.015033567
125	0xbe00ac70	-0.1256578
126	0xbd939af3	-0.072072886
127	0xbbc4257f	-0.005985915
128	0xbd2ccd93	-0.04218824
129	0xbd1278ec	-0.03575985
130	0xbbfe63f6	-0.007763381
131	0x3d530e38	0.051527232
132	0xbcb7ff9d	-0.022460753
133	0xbd548e06	-0.051893257
134	0x3a053ffb	0.0005083081
135	0xbbe42f31	-0.0069636335
136	0x3d871557	0.06595867
137	0x3cde6b8e	0.027150895
138	0x3b031075	0.0019998823
139	0x3bac6cdf	0.005262002
140	0xbd5ab442	-0.053394563
141	0x3bc57402	0.006025792
142	0x3db49eca	0.08819349
143	0x3d8b38e2	0.06797959
144	0x3d64229b	0.055697065
145	0x3d06e681	0.03293467
146	0xbc00e3ef	-0.007866844
147	0x3b9970eb	0.0046826503
148	0x3d089231	0.033342544
149	0xbd0347b0	-0.03205079
150	0xbcba5290	-0.022744447
151	0x3bb29afe	0.0054506054
152	0x3d444267	0.04791489
153	0x3d835344	0.06412366
154	0xbd8918ae	-0.066941604
155	0xbd04961d	-0.03236972
156	0x3c235417	0.009968779
157	0xbd7cc89a	-0.061714746
158	0xbd2aa81f	-0.04166424
159	0xbb9b5784	-0.0047406573
160	0x3d2a1aa4	0.041529313
161	0x3ca16880	0.01970315
162	0x3c0bf7fb	0.00854301
163	0x3d22c736	0.039740764
164	0xbd8101ac	-0.06299147
165	0xbc5f34da	-0.013623441
166	0xbcdb81e2	-0.026795331
167	0x3d72fc23	0.059322488
168	0xbd881072	-0.06643762
169	0xbca0e60e	-0.019640949
170	0x3c36bf11	0.011153952
171	0xbca32816	-0.019916575
172	0x3d21d5c5	0.039510507
173	0x3b704a3d	0.0036665343
174	0xbe348e6e	-0.17632458
175	0xbda307aa	-0.07960446
176	0xbd0fdee3	-0.03512467
177	0x3d1be571	0.03806061
178	0x3cb79a1b	0.02241235
179	0x3d58b99f	0.052911397
180	0xbd35c059	-0.04437289
181	0xbd0715d0	-0.032979786
182	0x3d35172e	0.04421156
183	0xbd92105b	-0.07132026
184	0xbd44d9ce	-0.048059277
185	0x3c18c490	0.009324208
186	0xbd4f151c	-0.05055724
187	0xbc9e7326	-0.019342016
188	0x3cd291e7	0.025704337
189	0x3d47171d	0.048606027
190	0xbc2bea75	-0.010492911
191	0xbd6f9587	-0.05849221
192	0xbbd8d220	-0.0066168457
193	0xbb497d28	-0.0030744765
194	0xbd5baac2	-0.053629644
195	0x3bee32ca	0.007269238
196	0xbd347e2d	-0.044065643
197	0x3c40a07c	0.011757012
198	0x3d1596a7	0.036520626
199	0xbaad59bb	-0.0013225594
200	0xbcf8d26e	-0.030373778
201	0xbd452e4b	-0.04813985
202	0x3d4f5f8f	0.05062824
203	0xbbe14c67	-0.006875563
204	0xbd5ddad5	-0.054163773
205	0x3dc28e9f	0.09499859
206	0x3d42d4f4	0.04756637
207	0xbd310c80	-0.04322481
208	0x3b67a850	0.0035348125
209	0xbc5631ad	-0.013073367
210	0x3c8c1edd	0.01710456
211	0x3c1738c7	0.009229845
212	0x3d15d3c5	0.036578912
213	0x3d0382c1	0.03210712
214	0xbbd0a4e6	-0.0063673137
215	0xbcf20f64	-0.029548354
216	0xbc5f6e48	-0.013637133
217	0x3cd9183a	0.02650081
218	0xbd832aa2	-0.06404616
219	0xbd9d9b1b	-0.076956
220	0x3ca3fbda	0.020017553
221	0xbc0cab6b	-0.008585791
222	0xbddea5a1	-0.10871435
223	0xbdb33d14	-0.08751884
224	0x3c283cde	0.010268418
225	0x3cfd11d6	0.030892294
226	0x3bd717b6	0.006564106
227	0x3d325bdb	0.04354463
228	0xbd869a33	-0.0657238
229	0x3c41eed6	0.011836728
230	0xbd00555e	-0.031331412
231	0x3ca77f21	0.020446362
232	0x3c825b02	0.015912537
233	0x3d47c7b9	0.048774455
234	0x3cef7e2d	0.02923497
235	0xbd23a008	-0.03994754
236	0xbd902c44	-0.07039693
237	0xbdb50eb6	-0.088406965
238	0xbe1e65e0	-0.1546855
239	0xbd1a2064	-0.037628546
240	0x3cf2d031	0.029640289
241	0xbd3f36f1	-0.046683256
242	0xbce6ceb2	-0.028174732
243	0xbd8e6d39	-0.06954426
244	0x3d9a22f6	0.075261995
245	0xbc8276a1	-0.015925707
246	0xbc877a0e	-0.016537692
247	0xbdb7c839	-0.08973736
248	0x3bb57aa2	0.0055383006
249	0x3d8b8752	0.0681292
250	0xbb828bbb	-0.0039839423
251	0xbd3764a3	-0.04477371
252	0x3d175a68	0.036951452
253	0x3d8d9365	0.06912879
254	0xbce7d408	-0.028299347
255	0x3c671553	0.014104205

fc1.bias f4 [50]
0	0xbc13f57f	-0.009030699
1	0x3c9c586f	0.019085137
2	0xbc98eb85	-0.018666992
3	0x3d4ac820	0.04950726
4	0x3b1d42ad	0.002399604
5	0xbcc4e314	-0.02403406
6	0xbc2ff6b7	-0.010739974
7	0x3d078461	0.03308523
8	0xbd047926	-0.0323421
9	0x3d50554b	0.05086259
10	0x3d5859f7	0.052820172
11	0xb9fdc729	-0.00048404306
12	0xbd2356bb	-0.039877634
13	0x3d22f693	0.039785933
14	0x3cd0cdf1	0.025488826
15	0xbd42f77b	-0.047599297
16	0x3ddf83b4	0.10913792
17	0xbca8344f	-0.020532755
18	0x3d1254de	0.035725467
19	0x3ca1a0a1	0.019729914
20	0xbcca6d00	-0.024710178
21	0x3b2b6ef5	0.0026158665
22	0x3cc11627	0.023570133
23	0xbd2c9cbd	-0.042141665
24	0x3d3bb515	0.04582699
25	0x3d4cc7dc	0.04999529
26	0xbc964f33	-0.018348312
27	0x3df50c25	0.11965207
28	0xbd53f8a4	-0.051750794
29	0xbccf332b	-0.025292953
30	0xbc7d09c6	-0.015444225
31	0x3d53fdfc	0.05175589
32	0xbcfabf47	-0.030608786
33	0x3dcd1947	0.10014587
34	0x3db7493f	0.089495175
35	0x3d48bc41	0.049007658
36	0x3d2fc26d	0.04291003
37	0x3d5ce6a6	0.0539309
38	0xbcae4257	-0.021271868
39	0x3d54a9ec	0.051919863
40	0x3d9f669f	0.07783245
41	0x3ba2f3a2	0.004972891
42	0xbd2c3108	-0.042038947
43	0x3d394dfe	0.045240395
44	0x3d27229f	0.0408045
45	0x3d669d51	0.056302372
46	0x3c9a600c	0.018844627
47	0xbd2d424a	-0.042299546
48	0x3d8ce048	0.06878716
49	0xbd0a4576	-0.03375765

fc2.weight f4 [10, 50]
0	0xbe3223e0	-0.17396498
1	0x3e4cdd28	0.2000624
2	0xbda3b5b0	-0.079936385
3	0x3e4eadaa	0.20183435
4	0x3e5aac82	0.21354869
5	0xbe5363bd	-0.20643516
6	0xbca16507	-0.019701494
7	0x3e4c54a2	0.1995416
8	0xbcbd8eac	-0.02313932
9	0xbc8e67d7	-0.0173835
10	0xbd00cea0	-0.031447053
11	0xbe33f88e	-0.17575285
12	0xbd40b824	-0.04705061
13	0xbe67c12f	-0.22632287
14	0xbe613182	-0.21991542
15	0xbdc1da0a	-0.09465416
16	0x3dc9d890	0.09855759
17	0x3d3f2026	0.04666152
18	0xbe141f6c	-0.14465111
19	0x3e2610d7	0.16217361
20	0x3d0e2d77	0.034711327
21	0x3e24164f	0.16024135
22	0x3dfc54f6	0.123208925
23	0x3dd735d8	0.10508317
24	0xbdc30014	-0.09521499
25	0xbde2c777	-0.11073201
26	0xbd1291a0	-0.03578341
27	0x3d27b79d	0.04094659
28	0xbe3682d4	-0.17823344
29	0x3e6177bf	0.22018336
30	0xbd60f36f	-0.054919656
31	0xbe1c15dd	-0.15242715
32	0x3cf245ef	0.029574363
33	0xbdc83c1b	-0.09777089
34	0x3d55597d	0.052087296
35	0xbe55a588	-0.20863926
36	0xba820834	-0.0009920658
37	0xbe4b3809	-0.19845594
38	0xbe0dd6a1	-0.13851406
39	0x3df8325b	0.121189795
40	0xbe04e204	-0.12976843
41	0x3e26582b	0.16244571
42	0xbe2fa506	-0.17152795
43	0xbe7cbdfc	-0.24681848
44	0xbe4aa33b	-0.1978883
45	0x3e08d705	0.13363273
46	0xbe441271	-0.1914766
47	0x3e993c11	0.2992864
48	0x3e8b29f7	0.27180454
49	0x3e84f8fc	0.2597121
50	0xbe39aacb	-0.18131559
51	0xbe47489c	-0.19461292
52	0x3e0c936f	0.13728116
53	0xbd201c7d	-0.03908967
54	0x3c14b1de	0.00907561
55	0x3db8c440	0.09021807
56	0xbe7b8fb8	-0.24566543
57	0xbe1d00bd	-0.15332313
58	0x3e042ec1	0.1290846
59	0xbe759717	-0.23983417
60	0x3dc681c0	0.096927166
61	0x3e913f22	0.2836848
62	0xbdfe970b	-0.12431153
63	0x3e182048	0.14856064
64	0x3e4ccf0a	0.20000854
65	0x3d542a26	0.05179801
66	0x3e593590	0.21211839
67	0xbe79b951	-0.24387099
68	0x3d7373bd	0.05943655
69	0xbdbf053e	-0.09327172
70	0x3e5a169e	0.2129769
71	0xbe270a0a	-0.16312423
72	0xbe74ead0	-0.23917699
73	0xbe3f0b79	-0.1865672
74	0x3e3db05e	0.1852431
75	0x3e3b17e7	0.18270837
76	0x3cbede31	0.023299308
77	0x3e629406	0.22126779
78	0xbdc02da5	-0.09383706
79	0xbe3fc568	-0.18727648
80	0x3e60590e	0.21908972
81	0xbd594af2	-0.05304999
82	0x3d9c468b	0.076306425
83	0x3e9d6ab0	0.3074546
84	0xbdeb1485	-0.11478523
85	0xbdff306e	-0.12460409
86	0xbd935abd	-0.07195041
87	0x3e046a09	0.12931074
88	0x3d959978	0.073046625
89	0x3e602fc6	0.21893224
90	0x3eaaf111	0.33387044
91	0xbe9c4574	-0.3052174
92	0xbdab7197	-0.08371275
93	0xbdec6053	-0.1154181
94	0x3de4376b	0.11143383
95	0xbe203604	-0.15645605
96	0xbdf61420	-0.12015557
97	0xbd821bd3	-0.06352963
98	0xbe48dc9d	-0.19615407
99	0xbe08a09c	-0.13342518
100	0xbe1226b1	-0.14272572
101	0xbd7c8b87	-0.0616565
102	0x3e33b229	0.17548431
103	0xbd5b4c5f	-0.05353963
104	0x3e0937fc	0.13400263
105	0xbe7da453	-0.24769716
106	0x3e019a43	0.12656502
107	0xbd9990c6	-0.074983165
108	0xbdedfbbc	-0.1162028
109	0xbda9b1ab	-0.082858406
110	0xbdb9703e	-0.090546116
111	0xbcf00d08	-0.029303089
112	0x3e3039f7	0.17209612
113	0x3e1dc6bb	0.15407841
114	0x3e678da7	0.2261263
115	0x3e51b8db	0.20480673
116	0xbe75551c	-0.23958248
117	0xbe4bff96	-0.19921717
118	0x3e1a2da6	0.15056476
119	0x3e2132c0	0.15742016
120	0x3c445a65	0.011984442
121	0x3df4dc04	0.11956027
122	0x3dc160b8	0.09442276
123	0x3dc655d5	0.0968434
124	0xbe705430	-0.23469615
125	0x3e3f9baa	0.18711725
126	0xbe53c584	-0.20680815
127	0xbe477276	-0.19477257
128	0x3df1ea48	0.11812264
129	0xbc67e980	-0.014154792
130	0x3e46ea26	0.19425258
131	0xbc2d39f6	-0.010572901
132	0x3e14458b	0.14479654
133	0x3d6d814d	0.05798464
134	0xbe713bbb	-0.23557942
135	0xbc94b226	-0.018151354
136	0x3c8629df	0.016377388
137	0x3dab8c49	0.08376367
138	0xbe754a1a	-0.23954049
139	0xbe479340	-0.19489765
140	0x3dc7b174	0.097506434
141	0x3d253358	0.04033217
142	0xbdfd5995	-0.12370602
143	0xbe2b3da9	-0.1672274
144	0x3e229a29	0.1587912
145	0xbda7a7bb	-0.08186289
146	0xbd822085	-0.06353859
147	0x3e80dc05	0.25167862
148	0xbdbe8d30	-0.09304273
149	0x3c98e496	0.018663686
150	0x3df738d6	0.120713875
151	0xbc521caf	-0.0128242215
152	0x3e3c7e5e	0.1840758
153	0xbe25ed50	-0.16203809
154	0xbda5ca8f	-0.080952756
155	0x3e236d83	0.15959744
156	0xbdfd8342	-0.12378551
157	0x3e2c8053	0.16845827
158	0xbdc016a8	-0.09379321
159	0xbce9af4d	-0.028525973
160	0x3e2ab725	0.16671427
161	0x3e3ac308	0.18238461
162	0xbe1015ef	-0.14070867
163	0x3e1bf18e	0.15228865
164	0xbdb2b875	-0.08726589
165	0x3c77f84b	0.015134881
166	0xbe2ac221	-0.16675617
167	0x3db35d7a	0.087580636
168	0x3df409f1	0.11915959
169	0x3e1003ba	0.14063922
170	0xbe278015	-0.16357453
171	0xbddd2507	-0.10798078
172	0xbd3c09c3	-0.045907747
173	0x3db8c012	0.090210095
174	0xbe6aa254	-0.22913486
175	0xbe2a7170	-0.16644835
176	0x3ccf9b45	0.025342593
177	0xbe8d1136	-0.27552193
178	0x3ddf51c1	0.10904265
179	0xbdd3a32d	-0.10333858
180	0x3e6ed8db	0.23324911
181	0xbd206e11	-0.039167468
182	0xbcac1689	-0.02100684
183	0xbd661e2f	-0.05618113
184	0xbcc3fead	-0.02392515
185	0xbd4bdd55	-0.049771626
186	0x3ea3783b	0.31927666
187	0xbdf60e7b	-0.12014481
188	0xbe5201c1	-0.20508482
189	0x3e24fdee	0.16112491
190	0xbe2d3c3f	-0.16917513
191	0x3e090f53	0.13384752
192	0xbda6c10e	-0.08142291
193	0x3e150f96	0.14556727
194	0x3e1afb16	0.15134844
195	0xbd77b401	-0.0604744
196	0xbd0ed558	-0.03487143
197	0xbd39e092	-0.045380183
198	0xbccd5065	-0.02506275
199	0xbe1c14d4	-0.1524232
200	0x3e4c6e45	0.1996394
201	0xbd53cdc5	-0.05170991
202	0xbdd98763	-0.10621526
203	0xbbd3eb33	-0.006467247
204	0xbdc7d290	-0.097569585
205	0x3e1363a9	0.14393486
206	0x3e549ae5	0.20762213
207	0xbdfb9f05	-0.1228619
208	0xbc193464	-0.00935087
209	0x3e231753	0.15926866
210	0x3e223320	0.15839815
211	0x3c992b6b	0.018697461
212	0x3e2c7c21	0.16844226
213	0xbe6617f9	-0.22470082
214	0xbe3ab177	-0.1823176
215	0x3e50ddd8	0.20397127
216	0xbe2a86e3	-0.16653018
217	0xbe2aee54	-0.16692477
218	0xbe461044	-0.19342142
219	0xbe5c4b87	-0.21513186
220	0x3e8a6088	0.27026772
221	0x3e2da810	0.16958642
222	0xbe109cae	-0.14122269
223	0xbec4ef98	-0.38464046
224	0x3e37ed0c	0.1796152
225	0xbdc7a146	-0.09747557
226	0x3e07d32f	0.13264154
227	0x3d6a7131	0.057236854
228	0xbb6eae14	-0.0036419677
229	0xbdf45f66	-0.11932258
230	0xbd41c6b4	-0.04730864
231	0x3e4f8af3	0.20267849
232	0x3e127251	0.14301421
233	0xbe55ef1c	-0.20891994
234	0x3ddf2f06	0.10897641
235	0x3e1cdf12	0.1531947
236	0x3d8fc639	0.0702023
237	0xbdf7accd	-0.12093506
238	0x3ddcf82a	0.10789521
239	0xbe45172a	-0.19247118
240	0x3ea75aa2	0.32686335
241	0xbe8a0457	-0.26956436
242	0x3dd3f5fd	0.10349653
243	0x3de3003e	0.110840306
244	0xbe146b95	-0.14494164
245	0x3e2f144c	0.17097586
246	0x3e6fb31b	0.23408167
247	0xbdd5eee8	-0.104459584
248	0x3b1c2ac1	0.0023829194
249	0xbe1994c1	-0.14998151
250	0xbddb7d6a	-0.1071728
251	0x3e4dd799	0.20101775
252	0xbe69a1c7	-0.2281562
253	0x3d49ddeb	0.049283903
254	0xbe32edde	-0.17473552
255	0x3e21ba3c	0.15793699

fc2.bias f4 [10]
0	0x3b636241	0.0034696015
1	0x3e80b31c	0.2513665
2	0xbce30568	-0.027712539
3	0x3db6dec9	0.08929212
4	0x3b3893d5	0.0028164287
5	0x3d119482	0.03554202
6	0xbd2d9d70	-0.042386472
7	0xbe1b9e89	-0.15197195
8	0xbb8ce589	-0.0042998237
9	0x3cf507af	0.02991089
