proj5/task4/results/5.pth (torch, 89871 bytes, 8 tensors)

conv1.weight f4 [10, 1, 5, 5]
000000 7d 2d df 3d 7b 1a 6d 3e 89 43 b1 3d d8 79 a5 3e
       0.10897348 0.23154633 0.086554594 0.32319522
000010 e8 52 dc bc 75 9c bd bc 91 21 a0 3d e7 ea cd 3e
       -0.026895002 -0.023145894 0.07818902 0.4021828
000020 43 5e 9c 3e e8 31 45 be 61 15 48 3e 3b f9 81 3e
       0.30540666 -0.19257319 0.19539405 0.2538546
000030 eb 61 d4 3e 31 76 f6 3d c7 73 cb 3d f1 58 8c 3a
       0.41480955 0.12034262 0.09934192 0.0010707659
000040 02 f1 7c 3e a3 68 2a 3e 43 b4 d6 3c 6a 3f 16 3e
       0.24701312 0.16641478 0.026209002 0.14672628
000050 4d 3f 06 be 3c 2b f5 bc 80 66 09 bb 26 00 87 3e
       -0.13110085 -0.029927842 -0.0020965636 0.263673
000060 33 ae 5d bd 4b 3b 04 be d4 cf 0d be 64 6e 46 be
       -0.054121207 -0.12913243 -0.13848811 -0.19378048
000070 46 f2 5c bd 1d c5 93 be c8 22 22 3e fd 27 62 be
       -0.053941987 -0.28861323 0.1583358 -0.22085567
000080 ff c5 96 3d ad 5b e4 bd 27 20 6a be 0f 1b 35 3e
       0.073619835 -0.11150298 -0.22863828 0.17686103
000090 34 a0 19 3e 84 78 a9 3e ad 5e f7 3d 58 12 87 bd
       0.15002519 0.3309976 0.12078605 -0.06595296
0000a0 af 95 de 3d ef ab ef 3d 9e 81 c7 3e 59 ed d8 3e
       0.10868394 0.117027156 0.38966078 0.42368582
0000b0 b4 92 79 3e ef f9 20 be 10 78 01 3e f9 61 06 3e
       0.24372369 -0.15720342 0.12643456 0.13123311
0000c0 fb 30 81 3e 7d 33 2e 3d 20 ee 13 be b1 b4 fa 3d
       0.25232682 0.04252957 -0.14446306 0.122414954
0000d0 7c 61 8c 3d f5 f7 83 3e 75 e6 75 3d df f9 bb 3d
       0.06854531 0.25775114 0.060034234 0.091785185
0000e0 15 b8 8c 3e bb 23 52 3e 69 3f 29 3e 4c a4 76 be
       0.27484193 0.20521443 0.16528095 -0.24086112
0000f0 c5 37 17 3e d7 ab 6b 3e 43 35 91 3e 4e 71 08 be
       0.14767368 0.2301477 0.28360948 -0.13324472
000100 ad 90 11 be d5 2d 30 3e 00 60 f2 3e 9c 13 57 bb
       -0.14215346 0.17204984 0.47338867 -0.0032818085
000110 2d 70 7a be 8d b5 93 be c9 a2 bb 3e f6 64 91 3e
       -0.24456854 -0.2884945 0.36647633 0.2839734
000120 91 46 2b 3e 87 f5 b9 be c5 b8 d3 be 9c c1 93 be
       0.16726138 -0.36320135 -0.41351905 -0.2885865
000130 45 d4 6f be 69 48 48 3d 86 51 31 3e df 42 a6 3e
       -0.23420818 0.04889718 0.17316255 0.32472894
000140 eb 4b 84 be 27 20 49 be b2 3f 34 3e fd 80 c5 3d
       -0.2583917 -0.19641171 0.17602423 0.09643743
000150 31 7d 8d 3e 41 41 4a be d9 08 f1 3d 70 a4 04 3c
       0.27634576 -0.19751455 0.11769266 0.008095846
000160 08 2e f9 3d 8f db 1a 3e 37 1b 63 bd 62 95 f4 bc
       0.12166983 0.15122817 -0.055445876 -0.029856388
000170 89 f2 63 3e f9 28 82 3e 4d 76 d5 bd fb 67 bb bd
       0.22260489 0.25421885 -0.10422955 -0.09150692
000180 96 53 74 3e 4d 93 18 3d 1f 97 1c 3d 4c 3e 0b be
       0.2386001 0.037249852 0.038230058 -0.13597983
000190 1d 34 38 be e5 1d 8c bb cd 45 86 bd 9f ba 37 be
       -0.1798863 -0.0042760246 -0.06556282 -0.17942284
0001a0 14 88 f0 bc 15 a3 4c be 01 44 66 be 30 85 21 be
       -0.029361762 -0.19984086 -0.22486879 -0.15773463
0001b0 6f e6 61 be ae 6b 2b be 13 1f d2 3d 91 4f 25 bd
       -0.2206056 -0.16740295 0.10259833 -0.040359084
0001c0 83 bd 17 bb 5e f1 74 be 8c ea 36 be 63 28 e9 bd
       -0.002315373 -0.239202 -0.1786291 -0.11384656
0001d0 f9 b0 31 bc 9d 88 65 be 83 d4 09 be ad fb 30 be
       -0.010845416 -0.22415395 -0.13459973 -0.17283507
0001e0 ba 61 1b 3c 19 68 98 bd f0 a5 28 bd ea 90 3f be
       0.009483749 -0.0744173 -0.041173875 -0.18707624
0001f0 33 a5 49 be 8f ed 12 be 4d 7d c1 bd 23 b8 2e be
       -0.19691925 -0.14348434 -0.09447727 -0.1706243
000200 5f fb 08 3e c2 d0 7d bc 36 66 f9 3d dd 98 a1 bc
       0.1337714 -0.015491666 0.12177698 -0.019726211
000210 26 14 86 be 30 40 01 3d 4e a3 9f bd ef 33 a2 bd
       -0.26187247 0.031555355 -0.0779482 -0.07920062
000220 7c 41 5b be 5b e6 8f be 11 5f 22 bd 96 f2 0f bd
       -0.21411699 -0.28105435 -0.039641444 -0.035143457
000230 c8 26 39 3e 72 c9 83 bd d4 61 47 3e de 98 fe bd
       0.180812 -0.06434907 0.19470912 -0.12431501
000240 ce af f8 3c 51 84 52 3e b4 f3 a4 3e d2 ea ac 3e
       0.030357268 0.20558287 0.3221718 0.33772904
000250 e4 f0 8e 3e ee 44 b8 bd 85 c8 f4 3c 2f f8 14 be
       0.2791816 -0.08997522 0.029880771 -0.145478
000260 a2 f6 dd bd 4a 2c 48 be ce 04 56 3e 4b 2c 1b be
       -0.10838057 -0.19548145 0.2090027 -0.15153615
000270 a2 8d 23 3e 90 a5 01 3e d9 ba 22 3e f1 c7 9f bc
       0.15971997 0.12660813 0.15891589 -0.01950452
000280 91 6b 8d 3e 54 37 49 3e dc 8b ff 3d 45 0e 1b be
       0.2762113 0.19650012 0.12477848 -0.15142162
000290 10 b2 07 3e 40 f2 36 bd 07 6d a2 bd 07 c4 52 3e
       0.13251519 -0.04466462 -0.079309516 0.20582591
0002a0 e8 7e df 3c 31 09 f5 bd ca 4a 67 be 12 1b 6d bd
       0.027282193 -0.11964644 -0.22587124 -0.057887144
0002b0 38 e5 02 3e e2 e2 4a bd f1 ea ee bd 6e fb f9 bd
       0.12782753 -0.04953278 -0.11665905 -0.122061595
0002c0 b9 9a 04 be 85 39 eb 3d 40 05 26 3e f8 b3 7e be
       -0.12949647 0.1148558 0.1621294 -0.2487334
0002d0 4e 8c 9b 3d 4a 19 60 3e 6b 90 f2 3d 43 b1 16 be
       0.0759512 0.21884647 0.11843952 -0.14716057
0002e0 71 4b 9f bd 4d 45 22 3e 27 34 4e 3e 63 5a d3 3d
       -0.07778061 0.15846749 0.20137082 0.10319974
0002f0 a6 de 40 bd 7f 6b 5c bd 78 c0 30 bd ca 9b e3 bb
       -0.047087334 -0.053813454 -0.043152303 -0.0069460617
000300 03 42 9b 3e 65 52 c1 3e 84 b1 c1 3d e7 f3 01 be
       0.303238 0.37758175 0.094576865 -0.12690698
000310 03 f2 9b bd d9 55 5c 3a de c6 40 3e dc e5 87 3e
       -0.076145194 0.0008405126 0.18825862 0.26542556
000320 45 2f 47 be b4 87 17 be 51 7c a8 3d 29 13 5b 3d
       -0.19451626 -0.1479786 0.082268365 0.05348507
000330 db 3a c5 bc 83 35 e7 bd 02 47 89 be 73 d8 9e be
       -0.024075916 -0.112895034 -0.26811987 -0.31024513
000340 a5 e1 07 be 2c f0 fb b9 55 af 7b 3e ab a8 73 3d
       -0.1326967 -0.00048053393 0.24578603 0.059487026
000350 67 f0 84 be 63 10 58 be 2e 78 1b be bc d9 b1 3e
       -0.25964662 -0.21100001 -0.15182564 0.3473643
000360 22 66 20 3e 7f dc 18 bd 8a 24 ec 3b 38 74 36 be
       0.1566396 -0.037319656 0.0072065042 -0.17817771
000370 fd 4d 35 bc e9 c2 9e 3e 46 50 91 3c b4 4d 3f bc
       -0.011065957 0.3100808 0.017738473 -0.011676241
000380 10 6b 70 be 02 eb 8b 3e ef 71 c4 3e 0c 64 c9 3e
       -0.23478341 0.27327734 0.38368174 0.39334142
000390 18 49 62 3e 35 a6 18 3e a3 5a ee 3c 12 86 c5 3e
       0.22098196 0.14907153 0.029095953 0.3857885
0003a0 c0 f6 bc 3e fe dc e3 3e 23 c0 b1 3e 4d 9f 2c 3d
       0.36907005 0.4450454 0.347169 0.04214411
0003b0 e5 a6 9b bd c6 b6 6b be 6a ba 5c be 20 a6 47 be
       -0.07600192 -0.23018941 -0.21555486 -0.19496965
0003c0 3d 78 08 be d8 8d b2 be 55 74 9a be 64 24 95 be
       -0.13327117 -0.34873843 -0.3016688 -0.29129326
0003d0 b4 c4 31 be 7b 82 c7 be 76 c2 c3 be b5 b8 2e be
       -0.17360193 -0.38966736 -0.382343 -0.17062648
0003e0 21 0c 2e be f3 64 9a bc
       -0.16996814 -0.018846964

conv1.bias f4 [10]
000000 8a 5d dc 3d 44 c1 7b 3d c9 10 81 bd 89 49 f3 bd
       0.10760029 0.06146361 -0.0630203 -0.1187926
000010 ba 57 31 3d fd c6 02 be ce bf 24 3e 66 4b 42 bc
       0.043296553 -0.1277122 0.16088793 -0.011858797
000020 7c 6a ff 3d 79 56 77 3d
       0.12471482 0.0603852

conv2.weight f4 [20, 10, 5, 5]
000000 5c 4f a2 3d 16 6f 4d bd cc de dd bc a5 2e 4d bd
       0.07925293 -0.050154768 -0.027083777 -0.05009331
000010 db 89 ba bd f9 5f 2c 3d 3e 7d f2 bc 04 b9 4c bd
       -0.09108325 0.042083714 -0.029600736 -0.049981132
000020 c5 7c 75 bd 52 8d 17 be 88 5e 44 3d 0c 9b 55 3c
       -0.059933443 -0.14800003 0.047941715 0.013037454
000030 fa 25 ae 3d a5 bb fa 3d 15 8c fb 3d ba 8d 2c 3b
       0.08503337 0.122428216 0.12282578 0.0026329593
000040 ec 88 00 be be 9c 7b bd dd 20 4a 3c f1 a5 96 bd
       -0.12552232 -0.061428778 0.012336937 -0.073558696
000050 cb 3a fa 3c ad 93 05 be 5f 27 5e be c0 8a 5c be
       0.030545613 -0.13044615 -0.21694706 -0.21537304
000060 4b b7 c5 bd 6d f5 2d bd 21 de c1 bd 84 20 4c bc
       -0.09654101 -0.042470384 -0.09466196 -0.012458924
000070 38 3b d1 3c 9a 03 c2 bd 70 50 fb bc 45 c2 a8 3c
       0.025540933 -0.09473343 -0.030678004 0.020600447
000080 75 c2 6a bd 78 3b 8d bc 3c 3e 2d 3d 78 64 4f bc
       -0.057314355 -0.017240271 0.04229568 -0.012658231
000090 9e e3 da bc d5 40 24 3d 62 27 8d 3d 55 4f 61 3d
       -0.026719864 0.04010089 0.06892277 0.055007298
0000a0 38 ff e3 3b fc 39 fe bd 22 56 32 be a0 b0 05 be
       0.0069579147 -0.124134034 -0.1741567 -0.13055658
0000b0 94 02 8e bd be 97 6b 3e e3 c6 ae 3d 26 c9 54 3d
       -0.069340855 0.23007104 0.085340284 0.051949643
0000c0 e9 a2 cd 3c 62 43 32 3c 48 bb fa 3c ee 3a 2a 3c
       0.025102096 0.010880323 0.03060688 0.0103900265
0000d0 e7 46 e9 bc 9d 41 5e 3d 65 a2 c8 3d 87 e7 06 3c
       -0.028476192 0.054261792 0.09796599 0.008233911
0000e0 e4 f9 ff 3c 02 cc cd 3d 4b 44 00 bc f1 26 c2 3b
       0.031247087 0.10048677 -0.007828782 0.0059250523
0000f0 f5 d0 2b bd 56 97 20 bd d7 70 20 bd 7a 6a 45 bd
       -0.041947324 -0.039206825 -0.039170112 -0.048197247
000100 e2 25 c8 bd 2c 32 57 bd d9 b7 97 bd 25 b9 23 be
       -0.097728506 -0.052538082 -0.07408113 -0.15988596
000110 4c c8 4d be d4 81 0f be 93 4e 1d 3c f3 67 46 3d
       -0.20095938 -0.14014369 0.009601253 0.048438977
000120 18 99 70 bd 01 57 c3 bd f8 6f 86 3d 4f 13 98 bd
       -0.05873975 -0.09538079 0.06564325 -0.07425558
000130 50 3a 3b bd 70 4e 1a 3d 81 82 03 3d 52 0a d6 39
       -0.045709908 0.03767246 0.03210688 0.0004082495
000140 19 06 dc bc f4 87 ec bc c3 ef 52 bd e9 ae 41 bd
       -0.026858376 -0.028873421 -0.051498186 -0.047285948
000150 4f ac c8 bd ef 4a 6c bd 3e 65 9a 3c 0a 73 27 bd
       -0.0979849 -0.05768865 0.018847104 -0.040881194
000160 d3 28 f9 bc d5 36 8c bc 7e 81 5e bd bb 10 b5 3c
       -0.030414974 -0.01711599 -0.054322712 0.022102704
000170 7b 0e ad 3d 13 84 47 3d 3c c4 ce bd 5b f5 cd bd
       0.084500276 0.04870994 -0.100960225 -0.100565635
000180 59 cb b7 bc b6 12 2b bd 2c 74 1d bd c2 4c 96 3d
       -0.02243583 -0.04176589 -0.03844087 0.07338859
000190 c9 e5 17 bd d0 fd ee bc 8a 21 84 bd 1f 5d 98 bc
       -0.037084375 -0.029173762 -0.064517096 -0.018599091
0001a0 c4 ae 40 3c df e8 d9 3b f2 a0 8b bb c1 c8 b6 bd
       0.011760417 0.006650075 -0.0042611295 -0.089250095
0001b0 a9 df c1 bd 6b 4e 82 bc 5e fc 53 3d a4 ec 1e 3c
       -0.09466488 -0.015906533 0.051754348 0.009699974
0001c0 ab 1d ad bd 0c 03 85 bd 78 9d 97 bd 27 92 a4 bc
       -0.08452924 -0.06494722 -0.07403082 -0.020089222
0001d0 c1 7c 91 3c 56 5f 47 3d 7c f4 3b 3d 4e fe 4e bd
       0.017759683 0.048674904 0.045887455 -0.050535493
0001e0 de ff 0d 3d 50 4d f4 bc 1e d6 5a 3d a4 aa 87 3d
       0.034667842 -0.029822022 0.053426854 0.06624344
0001f0 32 bc 1e 3d 4b f3 1a 3d 12 d7 7b bd 11 0c 75 bc
       0.038753696 0.03782968 -0.061484404 -0.01495649
000200 3e 62 18 3d 80 1a ec 3b e9 ac bf 3c bf 8d c3 ba
       0.037203066 0.0072053075 0.02339788 -0.0014919563
000210 96 9d be 3d a8 22 a5 3d 8f 78 af 3d ba 5c 00 bc
       0.09307401 0.08063251 0.085679166 -0.007834608
000220 ab 0e 60 bd f5 e1 5b 3c 2d 89 74 3d 00 cc 88 3c
       -0.05470149 0.013420572 0.059701134 0.016698837
000230 d1 00 db 3c ae 31 a9 3d e3 26 12 3c d5 77 d9 ba
       0.026733788 0.08261429 0.008920404 -0.0016591499
000240 4a 1b 16 bc 47 d5 1c 3c 70 9f c1 3c 66 31 4e 3d
       -0.00916178 0.009572334 0.023635596 0.05034008
000250 f5 9e 68 3d c3 bc 97 3d 61 9f d9 bc 57 a7 f6 bb
       0.05679222 0.0740905 -0.026565256 -0.0075272727
000260 9b 63 4b 3d 13 60 03 3d c1 5a ef 3c dd 34 80 bd
       0.049655538 0.032074045 0.02921808 -0.06260083
000270 30 9c 7b bc 00 fa ff 3c bc 3f 95 bc 18 95 25 bc
       -0.015357062 0.031247139 -0.018218867 -0.0101063475
000280 8c a6 b9 3b 6d cf 06 3c 66 da c9 3b 4b 81 ce 3d
       0.005665606 0.008228165 0.0061600683 0.100832544
000290 0f f3 0b 3e f4 8c da 3c a3 95 ee bc 4e bf a1 bd
       0.13666938 0.02667854 -0.029124087 -0.078978166
0002a0 5f 23 f1 bc 22 7c 24 3d 3f 67 8d 3d d1 78 07 b9
       -0.029435812 0.040157445 0.06904458 -0.00012919611
0002b0 2c 12 9a bd e4 6c c7 bc 55 27 a7 bd 25 d8 14 3d
       -0.07522997 -0.024343915 -0.08161799 0.036338944
0002c0 a9 ce 58 bd 4b 55 2f bd f9 5f 0a bd 46 72 3a bd
       -0.05293146 -0.04280595 -0.033782933 -0.045519136
0002d0 f1 a6 20 bd 41 63 85 3d 63 6f 9b bb 79 88 a8 3d
       -0.039221708 0.06513072 -0.004743503 0.08229155
0002e0 c0 00 55 3d 36 2d 02 bd 65 7a f6 bc d8 f6 a1 3d
       0.05200267 -0.031781398 -0.03008766 0.0790841
0002f0 5f 03 e4 3d c1 2a c9 bb 2a 2d 16 3c 34 11 06 be
       0.111334555 -0.00613913 0.009166041 -0.130925
000300 4b 00 1a be fb ae 37 bd 09 d9 07 bb fc cf d8 3d
       -0.15039174 -0.04484461 -0.0020728728 0.10586545
000310 11 01 67 3c 52 99 29 3d 9c 73 86 bc cc bc ea bd
       0.014099375 0.041405983 -0.016412549 -0.114617914
000320 26 68 00 bd c3 14 fa ba 7c 88 7c 3c fd fc bd bd
       -0.031349324 -0.0019079674 0.0154134 -0.09276769
000330 72 a3 04 bc 7b a5 37 bd be 92 53 bd 32 b6 97 bb
       -0.008095609 -0.04483555 -0.051653616 -0.0046298737
000340 4c e7 9b 3d 0b fb 58 3d a2 c3 83 3d aa b8 43 3d
       0.07612476 0.05297379 0.064337984 0.04778353
000350 c4 b8 93 3d 76 e9 df 3c 01 45 c2 3b 03 f8 93 3d
       0.072129756 0.027333003 0.005928636 0.07225039
000360 d8 2b d1 3c d4 90 59 bc 4f 9f de bc cd c2 1f 3c
       0.025533602 -0.013279159 -0.027175574 0.009751034
000370 67 d3 b0 3d aa 2f bb 3d be 5b 50 3d 72 78 1d 3d
       0.08634072 0.091399506 0.050868742 0.038444944
000380 b0 cb d1 bc c9 11 31 3d 25 a7 ae 3c f1 e5 89 bd
       -0.025609821 0.043229852 0.021319935 -0.06733311
000390 97 f3 81 3c 82 09 7b 3d 0d e6 03 3c a4 20 1c 3c
       0.015863223 0.061288364 0.008050454 0.0095292665
0003a0 2a 30 77 3c 3e f3 ae 38 12 69 37 bc 55 c7 e6 bb
       0.015087167 8.342274e-05 -0.011194484 -0.007042805
0003b0 82 ea 61 3d 77 ab d8 3d f4 16 4f 3d 87 a8 a3 3d
       0.055155285 0.10579579 0.050559 0.079911284
0003c0 fc b7 54 3c e0 b5 89 3c f1 44 16 3e 42 ca 70 3e
       0.012983318 0.016810358 0.14674737 0.23514655
0003d0 b7 cf 63 3e 74 30 46 3d f6 d5 86 bd 60 48 79 bb
       0.22247206 0.048386052 -0.065837786 -0.0038037524
0003e0 41 6a ab ba 18 47 36 bd 56 1c 03 3c 7c 6b 96 bd
       -0.0013077931 -0.044501394 0.008002361 -0.0734472
0003f0 2c f1 71 3c 03 10 ca bc 58 03 5d bd e7 e1 83 3c
       0.0147669725 -0.024665838 -0.053958267 0.01609893

conv2.bias f4 [20]
000000 87 5e 82 3d 8e 49 7a bd 46 01 0d bd a0 db 7d bd
       0.06365686 -0.061105303 -0.034425043 -0.06197703
000010 d0 93 82 bd dc 42 d4 3b 52 4c e4 3c 41 b5 33 bd
       -0.06375849 0.006477697 0.027868424 -0.04387403
000020 7c 08 8a 3c b7 1c 84 bd 41 c8 23 3c 8e d3 f0 3c
       0.016849749 -0.064507894 0.009996475 0.029397752
000030 85 54 06 bd 3a 94 0b bc 0f 49 78 3d 1d 4a 26 bd
       -0.032795448 -0.008519227 0.06061655 -0.040598024
000040 be 17 7b bc 0d ad 55 bd 47 ad e2 3c d0 bf c8 bb
       -0.015325485 -0.052166987 0.027670516 -0.0061263815

fc1.weight f4 [50, 320]
000000 56 01 91 bc 2f 90 cb 3c 06 0f 86 bc 79 c2 f3 3b
       -0.017700832 0.024849026 -0.016364586 0.0074389544
000010 c0 9d b2 bd 30 29 ab bd 28 ba 5d bc 0d 8f 9b 3c
       -0.08721495 -0.08357465 -0.013533153 0.01898911
000020 12 3c 0e be cd 9e cc bc 4f fc 9b bd 9a 0e 1c 3d
       -0.13890103 -0.024978066 -0.076164834 0.038099863
000030 66 79 2c bd 7f 26 9a 3d 1e 51 92 3d aa a5 d3 3d
       -0.042107962 0.07526874 0.07144378 0.10334332
000040 c6 c0 ea bc 82 41 fb bc 41 0e be bd 34 87 b2 bd
       -0.028656375 -0.030670885 -0.092800625 -0.08717194
000050 8f 10 24 bd 5c 9b 7f bd 8a d4 9b bc 40 fe d3 3c
       -0.040054854 -0.06240402 -0.019022245 0.025878072
000060 61 69 d4 bc 94 bd 55 bd 17 58 fd bc f1 7e 33 3c
       -0.025929155 -0.05218275 -0.030925794 0.010955558
000070 2f 9d 2f bc 8d 53 a5 bb 56 e0 fd 3d 54 63 7c 3d
       -0.010718628 -0.0050453604 0.12396304 0.061618164
000080 d9 d8 bf 3c f0 78 58 3d 53 ce 0f 3d 79 a6 de bc
       0.02341883 0.05284971 0.035108875 -0.02717899
000090 06 88 3c bd 13 a7 b1 3c 40 40 66 bd f2 25 93 3c
       -0.04602816 0.021686113 -0.056213617 0.01796243
0000a0 f1 52 aa 3d 95 a3 3d bb eb 1e 0f bd d3 56 a8 3c
       0.08316601 -0.0028936614 -0.034941595 0.020549214
0000b0 0e ee e1 bc 0b 10 07 3d 2a d3 9f bc fe 62 b3 bd
       -0.027579334 0.032974284 -0.01950987 -0.08759116
0000c0 2f a4 af 3c a6 7e 04 bc 8f e5 04 3d 92 6a 3e bb
       0.021440594 -0.008086836 0.032445487 -0.002905522
0000d0 48 d6 0d 3d d5 da b0 bc 8d d8 cf 3c 44 b8 4b bd
       0.034628183 -0.021588722 0.025371814 -0.049736276
0000e0 a6 30 39 bd 01 0f b6 bc da c5 a8 3b bd f0 74 bc
       -0.04521241 -0.022223951 0.005150539 -0.014949975
0000f0 6d f7 0a bc 92 4e af 3c bf 0e 46 bd a6 60 5a 3d
       -0.0084818425 0.02139977 -0.048353907 0.053314827
000100 a7 67 2f 3c fa cd 8a 3d 5b 4c e6 3d db 3b 51 3d
       0.010705865 0.06777568 0.112450324 0.051082473
000110 8d 9b 28 3d 71 4c 07 3d ba 97 b4 3c 49 b6 2c bd
       0.04116397 0.033031885 0.022045005 -0.04216603
000120 95 af 11 bd d0 62 11 bb f7 23 76 3d 3c 89 5f bc
       -0.03556784 -0.002218414 0.060092892 -0.013643559
000130 37 f2 fb 3b 02 78 1d bc b5 42 37 bc cd fc 97 bd
       0.0076887864 -0.009611132 -0.011185338 -0.07421265
000140 2a 3b 93 3c 29 cc 77 3d 25 bb c3 3d 35 7c c3 bc
       0.017972548 0.060497437 0.09557179 -0.023862937
000150 d3 78 c0 39 8a 4d 15 bc d5 1a 51 bd 47 c2 f9 bd
       0.00036711115 -0.009112725 -0.05105098 -0.121952586
000160 b2 f6 aa bd b1 0f ff bc 06 fe 1a 3b 73 36 2e bd
       -0.08347835 -0.031135412 0.0023649945 -0.042532396
000170 c2 53 66 3d 5e 3e 05 3e e9 79 42 3b 72 7d 40 bd
       0.05623222 0.13012072 0.0029674715 -0.046994634
000180 77 66 36 bd 94 a3 79 3c 0b 8c 29 3b 5b e0 2d bc
       -0.04453131 0.015236754 0.0025870826 -0.010612573
000190 da 54 85 3d e1 a4 b3 3d ea c9 09 bd 8b c8 90 bb
       0.06510325 0.087716825 -0.033639826 -0.004418438
0001a0 59 21 30 3d 71 12 d7 3c 29 ec a9 3c e4 6a 31 3c
       0.043000553 0.02625391 0.020742493 0.010828707
0001b0 2c c4 65 3c 2e d4 07 3d e3 9b 1a 3d 09 55 5f 3c
       0.014023822 0.033161335 0.03774632 0.013631114
0001c0 43 4e 19 bd f7 d1 96 bd e4 e1 53 3d fe ec 07 bd
       -0.03742815 -0.07364266 0.051729098 -0.033184998
0001d0 f0 8d 6e bd 84 2e 2c 3d 01 1e c6 3d 91 87 14 3d
       -0.05824083 0.04203655 0.096736915 0.0362621
0001e0 0c cd 83 bc 40 9a 96 3d c9 af 89 3d b6 c0 46 bc
       -0.016088985 0.073536396 0.067229815 -0.012130907
0001f0 88 41 1b bd 01 e0 49 bd 7b 0c de bc ba de 1d 3d
       -0.037904292 -0.049285892 -0.02710556 0.038542487
000200 b0 eb eb bc 49 42 6a 3d c6 d7 9f 38 86 c0 05 bb
       -0.028798908 0.05719212 7.621902e-05 -0.0020408942
000210 d0 06 cd 3c bd 60 26 bb e5 2c 32 bd 3d 17 15 bd
       0.025027663 -0.002538725 -0.043499846 -0.036399115
000220 ac 7d 00 bd 8b 9b 8a bd f5 9d 90 bd 01 22 ac bc
       -0.03136985 -0.06767949 -0.07061378 -0.021012308
000230 84 b3 44 3c d2 d1 21 bc 0b 27 1e 3d ac 85 d7 3c
       0.0120056905 -0.009876685 0.038611453 0.026308857
000240 a7 91 8b bd a3 04 e0 bc 51 d4 0f bd 62 a9 bf bd
       -0.0681489 -0.027345961 -0.03511459 -0.09358479
000250 30 70 2a bd bc 3f 28 bc ae d9 fb bb f4 b0 ba bc
       -0.041610897 -0.010269102 -0.0076858616 -0.022789456
000260 c4 11 28 bd 83 eb 15 bd c4 fc 13 3d 59 9a df bc
       -0.041032568 -0.036601555 0.036129728 -0.027295278
000270 f8 75 a6 bb 95 86 b3 3d 75 1c 5e 3d 20 74 96 3c
       -0.005079981 0.08765904 0.054226357 0.01836592
000280 02 88 65 bd 40 d7 2c bd 9b c0 35 bd eb 6d 8a bd
       -0.05603791 -0.042197466 -0.044373136 -0.067592464
000290 f2 76 28 3c 00 b8 09 bd fc de 34 bc 88 ac 2c b9
       0.010282265 -0.03362274 -0.011039492 -0.00016467471
0002a0 45 a8 9f 3c 3d 5d 41 bc c5 f7 06 bd e0 20 bb 3c
       0.019489417 -0.011802015 -0.032951135 0.022842824
0002b0 40 96 bf 3c c8 d6 5a 3c 6a cd be 3c 99 80 11 3e
       0.023387074 0.013356872 0.023291308 0.14209212
0002c0 43 79 9d bb 55 f1 4e 3c 8b e6 be 3d 31 ee b8 bc
       -0.0048057153 0.01263078 0.09321316 -0.022574516
0002d0 fc cd 30 bc 53 eb 3f bd 69 f9 33 3d 6b 57 2b 3d
       -0.010791298 -0.046855282 0.043939028 0.041831415
0002e0 70 ce 3c 3c 87 82 70 ba d0 79 83 3d 38 83 0d bc
       0.011523828 -0.00091747235 0.06419718 -0.008637242
0002f0 ba b2 e8 bc f2 0d 49 bd 89 39 b4 bd ee e2 93 3c
       -0.028405536 -0.049085565 -0.088000365 0.018052544
000300 b3 43 00 3d f8 5c 85 3c 0d 33 4c bc 29 cb 53 bd
       0.031314563 0.016279683 -0.012463343 -0.05170742
000310 ab 44 5f bb e0 4e af 3c b8 c7 84 bc a2 53 35 3d
       -0.003406803 0.021399915 -0.016208515 0.04426921
000320 4b 55 51 3c 81 f0 39 bb 0c 74 b5 3c b4 25 ec 3c
       0.012776683 -0.0028372111 0.022150062 0.028826572
000330 ae 25 28 bd 20 03 8b 3c 01 00 50 bd fd a2 54 bc
       -0.04105156 0.016969264 -0.050781254 -0.012978313
000340 01 22 85 3b 67 a3 99 3d 9a 4d 2c bc de 61 2f bd
       0.0040628915 0.0750187 -0.0105165485 -0.042817943
000350 ce 3c 0f bd d9 1f 16 3d 99 c2 77 3c c2 de 3c bd
       -0.034970097 0.036651466 0.015122079 -0.046110876
000360 fd 66 05 3d a9 72 42 3d fc 3e 7b bc 4e 49 b3 bd
       0.03256892 0.04747263 -0.015334841 -0.08754216
000370 e5 0c e8 3b e4 99 b6 3c 58 a1 dd bc 89 dd 58 bd
       0.0070816153 0.022290178 -0.027054474 -0.052945647
000380 01 40 84 bb b4 68 0c 3d 85 3e 87 3d 09 af a0 3c
       -0.00403595 0.03427954 0.066037215 0.019614713
000390 77 94 5c 3d 64 5f b4 bc 25 92 a7 3c 75 e9 4d bd
       0.053852525 -0.022018142 0.02045543 -0.05027147
0003a0 db 64 98 bb 63 9c a2 3c fa fc 03 3d 6e ea 68 bd
       -0.004650695 0.019849962 0.03222368 -0.056864195
0003b0 32 02 19 bd 5e db 0e 3d 14 c0 f0 bc 24 f3 e9 bd
       -0.03735561 0.034877174 -0.029388465 -0.114233285
0003c0 7e da b4 3c d1 9b fc 3b 77 47 2b bd 3a 9c a0 3b
       0.022076841 0.0077090045 -0.0418162 0.004901436
0003d0 8b d8 2b bc 09 18 f3 3c 3c aa da bc 15 e5 9f bc
       -0.01048864 0.029674547 -0.026692502 -0.019518415
0003e0 4e b9 83 bd a2 ad 3a bd f7 ef 39 bd 65 a2 50 bb
       -0.064318284 -0.045575745 -0.045394864 -0.0031835076
0003f0 4f 3c 43 bd 65 89 6e 3c 2e 6e 9f 3d b4 d6 cc 3d
       -0.047664937 0.014559125 0.07784687 0.10001889

fc1.bias f4 [50]
000000 71 d8 ef 3c e1 e3 ce 3c 7f 17 82 3d 90 53 09 bc
       0.029278012 0.025255146 0.06352138 -0.008381739
000010 de 1a 06 3d 67 34 36 3c 46 b0 36 3d 1c 44 95 bb
       0.032740466 0.011120892 0.0446017 -0.0045552384
000020 3f 0a 7d 3d 05 22 27 3d e1 ba 90 3d 8e 62 51 bd
       0.06177735 0.040803928 0.07066894 -0.05111938
000030 5c 5c 23 3b 20 6b b1 3b a8 14 c1 bc b6 31 96 3c
       0.0024926877 0.0054143816 -0.02356942 0.01833425
000040 10 c6 4a bd 8b 9c bf 3c ad a6 64 3d 78 46 58 3c
       -0.049505293 0.023390075 0.055823017 0.013200395
000050 82 a2 6e 3d f0 1d 1c 3d b0 41 27 3d 74 93 af 3c
       0.05826045 0.038114488 0.04083413 0.021432616
000060 f6 f5 bd bc 26 ed 30 bd 7a 0b c3 3c 8a 0f e5 bb
       -0.023188572 -0.043194912 0.023809183 -0.006990378
000070 79 cc 53 3d eb 35 88 3c 48 18 ad bc 69 0e 20 bd
       0.051708672 0.016627273 -0.021129742 -0.039076243
000080 f4 81 d0 3c 3f 0c 9c 3c 69 12 a3 3d 32 42 f7 bb
       0.025452591 0.019048808 0.07962496 -0.007545733
000090 cf 30 3c bc 04 13 18 bd 1c f9 fe 3c 4d d4 a8 bb
       -0.011486246 -0.03712751 0.031124644 -0.0051522614
0000a0 73 a5 dc 3b 67 0b 73 3d 59 71 a7 3b e1 b4 c4 3d
       0.0067335903 0.059337046 0.0051099476 0.096048124
0000b0 a1 ba a2 3d 20 d5 90 3c 83 de 42 3d 5c 58 0b bc
       0.07945753 0.01767975 0.047575485 -0.008504953
0000c0 f9 11 76 3d 15 93 a4 bb
       0.060075734 -0.0050224164

fc2.weight f4 [10, 50]
000000 e1 c9 79 bd da 67 20 3e 09 42 19 bc 96 b9 a8 bd
       -0.060983542 0.15664616 -0.009354123 -0.08238523
000010 0a a5 1e 3e a9 30 0c 3e 8f 14 1d be 5a bc 62 3e
       0.15492645 0.13690437 -0.15339874 0.22142163
000020 e2 d4 f1 bd ec 2e 36 be c5 96 67 3e 83 21 25 bc
       -0.11808182 -0.17791337 0.22616108 -0.010078791
000030 da 46 6d be 79 63 18 be 35 91 21 be 1a 12 56 3e
       -0.23171559 -0.14881696 -0.15778048 0.20905343
000040 31 54 6e 3d ab be 43 be 2a fc b9 bd 13 50 37 3e
       0.05818576 -0.19115703 -0.090812996 0.1790164
000050 a5 c8 b9 bc b3 cd 25 3e dc 44 80 be a0 28 d4 bc
       -0.022678683 0.1619175 -0.25052536 -0.025898278
000060 77 8c 04 be 35 57 9a bd 90 0f 6e be 47 2e 12 be
       -0.12944208 -0.07536165 -0.23248124 -0.14275466
000070 2f f2 4a be 48 16 6c be 27 63 85 3e 30 16 f6 3d
       -0.19818948 -0.23055375 0.2605221 0.12015951
000080 5e 3a 5d be ca c5 59 be 37 db 19 be 8d ae 21 3e
       -0.21604297 -0.21266857 -0.1502503 0.15789242
000090 3e c1 7c be 26 5f 59 3e b9 0b 7e bd 4c 75 13 3e
       -0.24683091 0.21227702 -0.0620229 0.14400214
0000a0 67 fc a3 bd a6 04 30 be 38 01 4b 3e af 5b 77 3e
       -0.08007126 -0.17189273 0.19824684 0.24156068
0000b0 13 2c 66 be 6c de 12 3e 36 ce 19 3e 49 40 48 3e
       -0.2247775 0.1434266 0.1502007 0.19555773
0000c0 da 8a 16 be 3f ec 1c 3e 8f 5d 54 3e 27 a4 47 3e
       -0.14701405 0.15324496 0.20738815 0.19496213
0000d0 82 05 32 3e 91 99 bb 3e 20 4e 0a be 9e 84 22 3d
       0.17384914 0.366406 -0.13506365 0.039677255
0000e0 d2 16 7f bd 85 65 b8 bd 16 24 58 3e c6 e9 6e 3e
       -0.062277623 -0.09003738 0.21107516 0.23331365
0000f0 60 43 d4 bd 83 09 29 be 45 dc 87 3e a2 e4 1a bd
       -0.10364413 -0.16507535 0.2653524 -0.037815697
000100 b1 4b ca bd 1c 07 f9 bd 00 00 a7 bd 31 68 c7 bd
       -0.09877718 -0.12159559 -0.08154297 -0.0973667
000110 c0 39 5b bd df 4b 0f be 45 df 47 be 02 de ae 3c
       -0.05352187 -0.13993786 -0.19518764 0.021346096
000120 6c db 2f 3d ca 05 a9 bd 33 fc 09 be b0 07 05 bd
       0.042933866 -0.08253057 -0.13475113 -0.032478034
000130 1d 43 04 be 9d c1 2d 3e c2 f3 7e bd 7d 04 9e 3d
       -0.12916227 0.16968389 -0.062244184 0.077157
000140 44 67 be 3d 1d a1 d3 bd 0a 49 1c be 65 e4 0c 3e
       0.0929704 -0.10333464 -0.15262237 0.13759
000150 72 80 45 3e 29 63 26 be bc ec 29 3e c8 55 6f be
       0.19287279 -0.16248764 0.16594213 -0.23372567
000160 fb 98 44 3e f3 e8 e2 3d 02 bd 6b be d0 57 22 bd
       0.19198982 0.11079588 -0.2302132 -0.039634526
000170 95 9c 09 be f2 1c 60 3e 12 e6 30 3e 12 21 45 3e
       -0.13438638 0.21886042 0.17275265 0.19250897
000180 96 83 8b be ed d7 25 3e 1f 27 85 3e 55 c7 39 be
       -0.2724883 0.1619565 0.2600641 -0.18142445
000190 51 c9 50 3e a8 08 3a bd 7a a5 5d 3e 75 b9 ea bd
       0.20389296 -0.04541841 0.21645156 -0.11461154
0001a0 aa 89 39 be c1 13 0b be 7f b7 40 3c b8 65 89 bd
       -0.18118921 -0.13581754 0.011762499 -0.067088544
0001b0 86 42 39 be 58 19 ce bd f0 55 5a 3e 10 9a bf bd
       -0.18091783 -0.10063428 0.21321845 -0.09355557
0001c0 9c 25 02 be d4 70 43 be 2d 57 09 bd 8e cd 22 bc
       -0.1270966 -0.1908601 -0.033530403 -0.009936703
0001d0 3f 02 8e bd 39 82 13 3e 09 15 06 3e fe 60 2a 3e
       -0.06934022 0.14405145 0.13093962 0.16638562
0001e0 50 0d 40 be 8d b6 71 bc ab 1f cd bd 53 d7 a2 bd
       -0.18755078 -0.014752996 -0.10015806 -0.07951226
0001f0 ec a9 03 3e b1 6f f4 3c 0d f3 0d be 51 c9 43 3e
       0.12857789 0.029838415 -0.13862248 0.19119765
000200 4d 82 a5 bd 05 fa 73 bd 4b de 90 bd 65 c1 8b 3b
       -0.080814935 -0.05956461 -0.07073649 0.004264998
000210 d5 fa 79 be 69 9a 1b 3e fa 82 18 3e 3d a4 ef 3d
       -0.24412091 0.15195622 0.14893714 0.11701248
000220 78 07 80 be 1f 05 46 3e 4b 7c fc bd 3e f9 e7 bb
       -0.25005698 0.19337891 -0.123283945 -0.0070792725
000230 60 d9 99 3d a2 2f 13 3e 52 87 79 bc 62 66 b7 3d
       0.07512164 0.14373639 -0.015230017 0.08955075
000240 27 6b 3d 3e 27 70 1f be 72 ef e5 3d c6 ab 40 3e
       0.18497907 -0.15570126 0.11227311 0.18815526
000250 8d 11 93 3e 36 b0 06 3e b8 35 48 be d0 c7 2e 3e
       0.28724328 0.13153157 -0.19551742 0.1706841
000260 bb 8d 7d 3e 27 2f 9c bd 29 d8 b8 bd af 44 61 bd
       0.24761097 -0.07626181 -0.09025604 -0.054997142
000270 08 5e 85 3e 7f 43 c8 bd b9 f1 b9 bd 1a 5c 8f be
       0.26048303 -0.09778499 -0.09079308 -0.27999955
000280 52 d2 58 ba 4e 4d 18 3e 79 02 05 be 53 e7 51 3e
       -0.0008271086 0.1487324 -0.12989224 0.204984
000290 68 a8 b3 bd 9d 1b bb 3d 32 28 13 bd 44 c9 15 3e
       -0.08772355 0.09136126 -0.035927005 0.14627558
0002a0 69 ff 77 3d e9 71 08 3e 07 b9 4d be e8 b0 7a bc
       0.060546312 0.13324703 -0.20090114 -0.015300967
0002b0 3a 18 12 bd 6b be 27 be c2 74 d8 3d a3 54 a7 3c
       -0.035667636 -0.16381232 0.10569145 0.0204261
0002c0 42 91 36 3e 74 36 4b 3e 05 a4 88 bd 51 f0 14 3e
       0.17828849 0.19844991 -0.06671909 0.14544798
0002d0 f0 fa db bd db 6d 25 3e 7b ee 34 3e 64 2e 25 3e
       -0.10741222 0.16155188 0.17669098 0.16130978
0002e0 72 72 6b be ff 73 e4 3d de 10 e2 3d ae 57 d8 3b
       -0.22992876 0.11154937 0.110383734 0.006602249
0002f0 4a 12 1c be 66 0c ed 3d 83 aa 20 be 0c 8c 5d bd
       -0.15241352 0.115746304 -0.15690045 -0.054088637
000300 cc 14 45 bd 6b fe 25 be 9c 09 df 3d 1a fd bb bd
       -0.048115537 -0.16210334 0.10890505 -0.09179135
000310 52 f5 34 be 6a ac b9 bd 7e 85 3c 3e 3d cc f7 3d
       -0.17671707 -0.090660885 0.18410298 0.12099502
000320 7f d2 02 bd 6a 4f 58 be c1 ef 18 be 74 b7 ed bd
       -0.031939026 -0.21124044 -0.14935209 -0.116072565
000330 8a 83 0d be 3d b8 22 3e fb b3 6a bd 9c fe eb bd
       -0.1381971 0.15890594 -0.05730055 -0.11523172
000340 96 3f 49 3e 60 31 20 3e bf 29 87 bd df c2 33 3e
       0.19653162 0.15643835 -0.06599759 0.17554806
000350 e5 c5 7e 3e 1d eb 9c bd 4b 5f 24 be 4b 0c 52 be
       0.24880178 -0.07662032 -0.16051976 -0.20512502
000360 01 93 02 3d 82 78 d7 bd b5 49 84 3e a4 51 aa bd
       0.031878475 -0.10521032 0.25837484 -0.08316353
000370 ca 6a bf 3d ed ef 75 3e 87 92 c0 bd 85 72 91 3e
       0.0934654 0.24017306 -0.09402948 0.28407684
000380 d2 c4 41 3e 11 b1 2e be 63 54 fa 3d 3c 88 49 be
       0.18922737 -0.17059733 0.12223127 -0.19680876
000390 67 13 68 3e 6d 05 85 3d a1 b7 a2 bc 1b 86 21 3e
       0.22663651 0.064951755 -0.019862952 0.15773813
0003a0 54 0f ba 3d ca 74 bb bd 11 a8 33 3e af 6e 53 be
       0.09084955 -0.09153135 0.17544581 -0.20647691
0003b0 e2 56 08 3e 06 32 40 be ab 31 55 3e ed d4 52 be
       0.13314393 -0.18769082 0.20819728 -0.20589037
0003c0 17 fc f6 3d a1 26 fc 3d da e9 9a bd d9 e1 2e be
       0.12059801 0.123120554 -0.07564135 -0.17078342
0003d0 2f 1e 42 be ef 22 8d bd ad 54 06 3e a4 1b a0 3d
       -0.18956827 -0.06891429 0.13118239 0.07817772
0003e0 6f 93 1c be 76 36 13 be ef e2 a0 bc b1 ae 48 3e
       -0.15290616 -0.14376244 -0.01963946 0.1959789
0003f0 4a 49 61 bd 72 18 a5 bc 6f ee 26 3e 70 5f c7 bd
       -0.055001535 -0.020153258 0.16301893 -0.09735

fc2.bias f4 [10]
000000 d2 49 57 3d b3 df 00 3e 11 ee 60 bd e5 43 fd bd
       0.052560635 0.12585334 -0.054914538 -0.123664655
000010 ea 31 55 bd 4a 40 1c 3e 67 e9 04 3e c5 01 21 be
       -0.052049555 0.152589 0.12979661 -0.15723331
000020 56 1b a5 3d 7a a5 0c be
       0.080618545 -0.13735
