proj5/task4/results/6.pth (torch, 71119 bytes, 8 tensors)

conv1.weight f4 [10, 1, 6, 6]
000000 9f 40 1b 3e 14 cb 5d 3e bd 5a 97 3d a8 c8 91 3e
       0.1516137 0.216595 0.07390354 0.284734
000010 30 f4 d8 3d af 76 c0 3d 6e c5 50 bd 18 24 7b 3e
       0.1059345 0.09397637 -0.050969534 0.24525487
000020 25 d3 a4 3e 81 0e 26 3e a5 07 bc 3e c3 f1 fd 3d
       0.3219234 0.1621647 0.36724582 0.12399628
000030 b4 14 a1 3d 01 63 77 3d 83 31 37 3e 84 ab 19 3e
       0.07865277 0.06039715 0.17889981 0.15006834
000040 64 fb 77 3e db fc 16 3e f6 a4 87 be fe 22 72 bd
       0.24216992 0.14744894 -0.26493043 -0.059115402
000050 83 db 0e be 24 86 cc bd d2 08 de bd 14 fc 3f 3e
       -0.13950925 -0.09986523 -0.10841526 0.18748504
000060 b8 60 db be db 13 a3 be ff ab ab be 7a 68 bf be
       -0.42847228 -0.31851086 -0.3352966 -0.37384397
000070 32 66 1b be cd 65 0f be c1 c4 b8 bc 4f 12 87 be
       -0.15175703 -0.14003678 -0.022554757 -0.26381156
000080 12 cf 86 bd d7 08 d9 bd 01 8f ca bd d2 d1 88 3d
       -0.06582464 -0.10597389 -0.09890557 0.06680645
000090 d8 63 c4 3d 35 97 90 3e d7 2d 06 3e 6b 60 e3 bd
       0.09589356 0.28240362 0.13103424 -0.11102375
0000a0 ed 58 82 bd 3a 02 c3 bc 69 ff 26 3e 6f cf 9a 3e
       -0.063646175 -0.023804773 0.16308369 0.30236384
0000b0 cc f3 12 3e 8f 05 29 be e8 83 20 3d 54 34 1c 3e
       0.14350814 -0.16506027 0.039188296 0.15254337
0000c0 a5 1d 6d 3e 8d a4 b4 3d 9a ac cb bd 87 88 e7 bd
       0.2315584 0.08820448 -0.099450305 -0.113053374
0000d0 15 ef 11 be c9 a3 64 3e 31 d1 19 3e a4 fd 35 3e
       -0.14251359 0.22328104 0.15021206 0.17772537
0000e0 54 40 c7 3d e9 7f 6e bd 8e ba cb 3d 70 8f d9 bd
       0.097290665 -0.058227453 0.09947692 -0.10623062
0000f0 3b df f3 3d 2d a2 e2 3c 9e b8 f8 3d ec 30 75 bd
       0.11907812 0.027665222 0.12144588 -0.05986111
000100 cc db 57 3c dd 61 86 bd a8 a4 86 3e b7 bb a0 3d
       0.013174962 -0.06561635 0.26297498 0.07848304
000110 a4 a7 dd 3b a9 cc 67 bd 2e 31 fb 3d c7 11 16 3c
       0.006764369 -0.056591664 0.1226524 0.009159512
000120 0b f9 9d 3e ad 75 8c bd 8f 71 42 be 63 77 4b be
       0.30854067 -0.068583824 -0.18988632 -0.19869761
000130 80 c9 69 be 4b 47 7b bd bc 1c 5c 3e 80 b5 84 3e
       -0.22830772 -0.061347287 0.21495336 0.25919724
000140 a3 91 cd bd 8f c5 60 be f6 b2 9b bd d2 be 4a be
       -0.100375436 -0.21950363 -0.076024935 -0.19799355
000150 30 5e 9a 3e 84 45 e6 3d 38 5b 7c 3c d1 b6 94 be
       0.30149984 0.11243728 0.015402608 -0.29045728
000160 c0 64 73 be ed 41 24 bd da 5b 85 3e d0 43 b5 3d
       -0.23768902 -0.040101934 0.2604664 0.08850825
000170 a8 f3 0d 3c c2 d3 72 bd 54 b3 5d be d8 db de bd
       0.008664049 -0.05928398 -0.2165044 -0.108817756
000180 0c 9e af 3e 6f 30 77 3d 08 05 b5 bd 3b a9 76 be
       0.34300268 0.060348924 -0.0883885 -0.24087994
000190 52 a4 0a be e3 62 5e 3d f8 25 41 3e e3 84 d6 bc
       -0.13539246 0.054293524 0.1886214 -0.026186412
0001a0 f1 6b c6 bc 47 19 21 be ee 3a 12 be 52 da 12 bd
       -0.024221392 -0.15732299 -0.14280292 -0.035852738
0001b0 6f 13 53 be 62 3e 19 be dc f5 c6 3d 8a 56 46 bc
       -0.20612882 -0.14965203 0.09714863 -0.012105593
0001c0 c6 0f 20 3d a3 34 3e be b8 2b 37 be 49 f5 0d be
       0.039077543 -0.18574767 -0.17887771 -0.138631
0001d0 85 13 8e bd 9d 8c 42 be a8 78 d0 bd 45 09 10 be
       -0.06937317 -0.18998952 -0.10179263 -0.14066036
0001e0 ac c5 5b bd 84 72 09 be be 98 bf bd ff 3a 25 be
       -0.05365531 -0.1342259 -0.09355305 -0.16135786
0001f0 a5 db 2d be 47 17 25 be 4b 6d 74 bd 99 35 36 be
       -0.16978319 -0.16122161 -0.059674542 -0.17793883
000200 c8 80 4d 3d d3 56 e8 bd 6d d3 38 3d 25 aa 0f bd
       0.050171643 -0.113446854 0.045123506 -0.03507437
000210 76 76 ce bd 97 d3 b3 3d b5 0d dc bd a2 ad ea bd
       -0.100811884 0.08780592 -0.10744802 -0.11458899
000220 63 0c 46 be 53 71 6a be 5c c3 08 3e b5 3b 12 bc
       -0.19340663 -0.22894792 0.13355774 -0.008925368
000230 32 90 92 3d 84 c9 16 be 48 e3 7c 3d e0 6d 5e be
       0.07156409 -0.1472531 0.06174019 -0.21721601
000240 df 6b 86 bd 4c 4d 03 3d fb 69 0e 3e 02 98 88 3e
       -0.065635435 0.032056138 0.13907616 0.26678473
000250 6d 6b 4f 3e ab 24 73 be 18 43 25 bd a9 26 d9 bd
       0.20255823 -0.23744456 -0.04034719 -0.10603077
000260 d5 2d 8a 3c 62 ec 7b 3d 6b 94 ba 3e 47 00 06 be
       0.016867558 0.06150473 0.3644136 -0.13086043
000270 3e 80 95 bb fa e6 22 3b 47 e2 5b 3d 79 c0 6e 3d
       -0.004562407 0.002485691 0.05368259 0.058289025
000280 48 25 c4 3e 77 3d f0 3d 0a 68 83 bd 85 71 37 be
       0.38309693 0.117304735 -0.06416328 -0.17914398
000290 80 8d ba 3d 1b 24 7f 3d d6 19 a9 3d 2e c6 86 3e
       0.0910902 0.062290292 0.08256881 0.26323074
0002a0 a6 62 04 be 7b 00 2e be 3a 32 e8 bd 11 79 34 3b
       -0.12928256 -0.16992371 -0.11337705 0.0027537982
0002b0 df f9 31 3e 08 f7 2c 3e 98 5e 85 be 3c ff 1e be
       0.17380475 0.1689111 -0.26048732 -0.15527052
0002c0 83 5d 4d be c9 19 3c bc 97 d4 35 3e 07 6a 53 3d
       -0.20055203 -0.011480757 0.17756878 0.051614787
0002d0 cd 5c 84 3d aa dc 49 3e 94 90 49 3e 5e 74 1b 3e
       0.06463013 0.19713083 0.19684058 0.1518111
0002e0 28 d6 78 3e 7c 61 55 3e 64 5c 14 3e 97 95 27 3e
       0.24300444 0.20837969 0.14488369 0.16365658
0002f0 15 04 1e 3e 9a ce 03 3e 04 d7 ea bb 6a dd 69 bd
       0.15431245 0.12871781 -0.007166745 -0.057095923
000300 6d e2 94 3e 5b d0 a8 3e cc 97 42 3d 50 08 b9 bd
       0.29079 0.32971463 0.047508046 -0.090347886
000310 3e 07 e3 bd 7b 99 e4 bd 55 05 82 3e 5a 27 f7 3d
       -0.11085366 -0.111620866 0.25394693 0.120680526
000320 2e a2 3b be 8b 49 1b be 6a 13 34 3c a3 17 85 bd
       -0.18323585 -0.15164773 0.010990957 -0.06498649
000330 2b c0 db 3d 4b 57 e7 bd 5d 6e 2e be a7 a6 5c be
       0.107300125 -0.11295947 -0.17034288 -0.21547948
000340 39 9c 1b be 78 02 56 bd 80 4d bf 3c c9 55 19 bd
       -0.15196313 -0.052248448 0.023352385 -0.037435327
000350 6c b2 67 be 65 84 23 be 8c d9 17 be 6f 42 9f 3c
       -0.22626656 -0.15968473 -0.14829081 0.019440858
000360 d9 84 3b bc 13 39 2d bd 86 15 25 3e 65 3a c9 3d
       -0.011445248 -0.04229076 0.16121492 0.09825591
000370 9a c3 75 3c 90 c6 26 3e 3e fd f4 bd 77 86 fa bc
       0.015000248 0.16286683 -0.119623646 -0.030581696
000380 b8 5b f2 bd c4 8e 36 3e ad 36 4c 3e b8 b4 24 3e
       -0.118339 0.17827898 0.19942732 0.16084564
000390 54 bd 5f be d4 9b 7e be a8 d9 73 be ec 28 b5 3c
       -0.21849567 -0.24864131 -0.23813498 0.02211424
0003a0 87 b4 7e 3d ae 60 7c 3e 05 39 1e bd 5a f5 f1 bd
       0.062183883 0.24646255 -0.038628597 -0.11814375
0003b0 96 13 3e be 04 64 9a be 96 65 82 be 63 89 32 be
       -0.18562159 -0.3015443 -0.2546813 -0.17435221
0003c0 45 34 f1 bc f9 eb 4f be f7 ad 46 be 8e 89 95 be
       -0.02944387 -0.2030486 -0.194023 -0.29206508
0003d0 d8 a8 6c be fd 61 92 be 28 e3 d7 bd dd f4 90 3d
       -0.23111284 -0.28590384 -0.105413735 0.07077954
0003e0 33 54 b8 bd f3 17 32 bc e5 94 34 be bf 7b 70 be
       -0.09000435 -0.010869968 -0.17634924 -0.23484705
0003f0 37 4e aa bb a2 12 38 be fa 6e 8b be 77 7c b1 be
       -0.005197312 -0.17975858 -0.27233106 -0.34665272

conv1.bias f4 [10]
000000 f3 f1 38 3c 81 7b 10 be 7c bc 71 be e3 98 b3 3d
       0.011288154 -0.14109613 -0.23607057 0.08769395
000010 c1 d9 d8 3c b9 0f 5e 3c b7 29 da 3d 89 0b e8 bd
       0.02647102 0.013553553 0.10652488 -0.11330325
000020 63 dc 4d bd 58 4e a6 bc
       -0.050259005 -0.02030103

conv2.weight f4 [20, 10, 6, 6]
000000 c6 02 d5 3c 6d 55 e3 bc db fb be bd 7a e6 5a bb
       0.026002299 -0.027750695 -0.09325381 -0.0033401535
000010 5e b1 10 bb 17 cf d3 3c b2 96 bd 3b 00 de 2d 3d
       -0.0022078375 0.025855584 0.0057857865 0.042448044
000020 c9 f9 bc 3d 74 a8 1f bd 14 08 f6 3c 99 1f 82 bd
       0.0922733 -0.03897901 0.030033149 -0.06353683
000030 b2 c4 c5 3d b9 84 cd 3d 34 aa 77 3d f8 8b 9a 3d
       0.09656657 0.100350805 0.060465053 0.07546228
000040 16 83 6e bd 15 4e a5 bd 4d a9 ed 3d 90 25 83 3d
       -0.058230482 -0.080715336 0.11604557 0.06403649
000050 eb fb 10 3d 8d 9f c3 bc 60 83 da bb f3 db 3a bd
       0.035396498 -0.02387979 -0.006668493 -0.045619916
000060 49 f2 15 bd 73 5b 7f bd 13 8e 8d bd f8 72 8d bd
       -0.036608014 -0.062343072 -0.06911864 -0.06906694
000070 30 50 72 bd 13 23 9c bd 62 3a 39 3b 47 47 40 3d
       -0.059158504 -0.076238774 0.0028263559 0.046942975
000080 54 63 47 3d fe 47 92 3c 46 25 dd bc 03 00 ba bd
       0.04867871 0.017856594 -0.026995312 -0.090820335
000090 9f 29 53 bd 4d 82 3c bc a3 05 14 bd 9f 29 26 bc
       -0.051553365 -0.0115056755 -0.036138188 -0.010141759
0000a0 07 a5 03 bd fb c0 8a bd 11 a2 72 3d 6b 7d 18 3d
       -0.032139804 -0.06775089 0.05923659 0.037228983
0000b0 fa 83 02 3d 59 b6 c2 bc bd 58 d0 bc 39 d0 fd bb
       0.031864144 -0.02376859 -0.025432939 -0.0077457693
0000c0 31 7e 72 bd fa c9 de bc 9c fb 72 bd 96 b7 22 bd
       -0.059202377 -0.02719592 -0.059321985 -0.039725862
0000d0 3d 1a 9c bd 0b 2a 04 3d 34 f0 d0 bc 1c fd bd bc
       -0.07622192 0.032266658 -0.025505163 -0.023191981
0000e0 25 3f 1b bd bb 17 82 bd 77 cc fa bc 6b 35 9e 3c
       -0.037902016 -0.063521825 -0.030615075 0.019312581
0000f0 7c 32 3e bd 06 9b 7c bd e3 27 f8 bc d3 36 db bb
       -0.046434864 -0.06167128 -0.030292457 -0.006689885
000100 cd 67 6c bd 41 7c 89 3a 37 5c 1e bd fb e6 89 3c
       -0.05771618 0.0010489301 -0.03866216 0.016833773
000110 fe 05 3e 3c 20 c8 91 bc 7f 9a 0f bb 35 2d 1a 3c
       0.011598108 -0.017795622 -0.0021912155 0.009410192
000120 53 47 ae bc e2 94 07 3d 7b 2e 45 3d 42 75 b5 bb
       -0.021274244 0.03310097 0.04814003 -0.00553766
000130 a9 fa 14 bd de 28 a6 3c 59 4a 49 3c da 61 4b bd
       -0.03637186 0.020283159 0.012285792 -0.049653865
000140 5c 6d 25 3a d5 41 a9 ba 11 fa d4 bc 99 11 0c 3d
       0.00063105463 -0.0012913296 -0.025998147 0.03419647
000150 ca af 12 bd 8b a3 f2 bc 9b 68 0c 3b fa 85 e1 3d
       -0.035812177 -0.029618999 0.0021424654 0.11011882
000160 20 e1 5a 3d 3d ad 1d 3d d7 bb a3 bd c9 c2 ff bc
       0.053437352 0.03849529 -0.07994812 -0.03122081
000170 8c 9c e1 3c 7b e4 9e 3c bb eb 69 3d 22 45 5d 3d
       0.027540468 0.019396057 0.057109576 0.05402101
000180 f2 75 c4 bd d7 9d 00 bd 0c 98 84 3d 8b 32 2a 3d
       -0.09592809 -0.031400528 0.06474313 0.041552108
000190 79 92 22 3d 9f 28 55 3d c7 fe 4f 3d 77 05 c8 3c
       0.03969047 0.052040692 0.050780084 0.024416668
0001a0 31 a7 79 bd 65 06 71 bd 0f fc b6 bd c2 e2 b8 bd
       -0.06095046 -0.05884399 -0.08934795 -0.090276256
0001b0 4a 1b 57 bb 4b 86 71 3c 99 e1 aa 3c 60 11 e7 bc
       -0.0032822662 0.014741491 0.020859526 -0.028206527
0001c0 fd 45 61 bc 6a 34 29 3d 40 1a 10 bc 58 f6 24 bc
       -0.013749597 0.04130975 -0.008795321 -0.010068499
0001d0 70 53 36 3d b2 66 95 bb 0b 53 ae 3d 24 41 bb 3d
       0.044513166 -0.0045593614 0.08511933 0.09143284
0001e0 cc 23 26 3d 09 45 35 3d 32 d2 1b 3d 11 9a 99 3c
       0.040561482 0.04425529 0.038042255 0.018750222
0001f0 c3 51 fa 3c 47 11 d4 3c 9f 04 ad 3c 93 e2 89 3d
       0.030556565 0.025887145 0.021120368 0.06732669
000200 3f 0f 13 bb 47 6d ce ba 9a 0b 5a 3b 16 3b c7 bc
       -0.0022439507 -0.001574912 0.0033271075 -0.024320167
000210 36 a0 86 bc 70 a9 bd 3c 92 39 17 3d 74 4f 33 3d
       -0.016433816 0.023152083 0.036920138 0.043776944
000220 dd 94 10 bd 99 b3 34 bd a7 54 4a bd 7e b6 11 bd
       -0.035298217 -0.04411659 -0.049397137 -0.03557443
000230 22 d9 a0 3b a3 7b ba bc 17 31 46 3c c5 40 4c bd
       0.0049086967 -0.022764033 0.012096665 -0.049866457
000240 31 f4 0a bc df fc 94 bd bf 34 ec bb 13 54 9e bd
       -0.008481071 -0.07274794 -0.0072084363 -0.0773088
000250 b8 fd a6 3c 10 30 d0 bc ab 46 1c bc bc 9f e2 3c
       0.020384654 -0.025413543 -0.009538333 0.027664058
000260 55 f1 23 3b 8e bc 59 3d b8 10 8d 3d f9 70 ec bc
       0.0025015671 0.053158335 0.068879545 -0.028862463
000270 a9 0d 61 3d 7b 92 1e 3d 2c 07 18 3d 36 41 59 3d
       0.054944668 0.038713913 0.037116215 0.053040706
000280 69 66 77 3d 85 72 4b 3c 68 be 24 bc 91 9a 9e 3c
       0.0604004 0.01241744 -0.010055162 0.019360812
000290 52 b6 15 3c b1 34 95 bc 1f 93 58 bd 48 9d e1 3b
       0.009137707 -0.018213602 -0.05287468 0.0068852045
0002a0 90 51 b5 bd 82 b0 e9 bb cb 2d 9e bd f9 6e 99 bd
       -0.088534474 -0.007131637 -0.07723578 -0.074918695
0002b0 55 02 9f bd 22 ca 06 bd cf b6 f4 3c 49 c9 33 bc
       -0.07764117 -0.032907613 0.029872326 -0.010973283
0002c0 13 88 0d 3d f3 af a8 3c fe f7 27 3c 13 80 63 bd
       0.0345536 0.020591712 0.010251997 -0.055542063
0002d0 11 50 90 bd 8a f2 98 3c ca 66 3d 3c a2 03 cd 3d
       -0.070465215 0.01867034 0.011560151 0.100104585
0002e0 42 45 27 3d 94 04 3f bd 18 f2 3f bc 83 55 d6 3c
       0.040837534 -0.046635225 -0.0117154345 0.026163822
0002f0 e6 f0 7e 3d ec a1 b0 3d 7d 8e 2b 3c e4 0d e9 bc
       0.062241457 0.08624634 0.010470984 -0.028449006
000300 db 7c 25 bc c6 4f 99 bc 86 de 92 bd 16 1b 23 bd
       -0.010100569 -0.018714797 -0.07171349 -0.039820753
000310 ca 01 f9 bd 02 b7 a1 bd f1 93 63 bd aa 43 71 bd
       -0.12158544 -0.07896234 -0.05556101 -0.05890242
000320 f0 1e 89 bd c8 56 ec bd 58 ad a7 bd eb db 13 bc
       -0.06695354 -0.1153999 -0.081873596 -0.0090246005
000330 c2 80 89 3d 07 5f e5 3c fa e7 39 bc 06 20 0f bd
       0.06714012 0.027999414 -0.011346811 -0.03494265
000340 14 5a 4c bd a7 42 4c bd d9 c7 db 3d 08 f6 0d 3d
       -0.049890593 -0.049868252 0.10731477 0.03465846
000350 51 36 70 3d 10 75 d8 3c c0 61 b6 3b 88 81 00 bd
       0.05864555 0.026423007 0.005565852 -0.03137353
000360 db 35 17 bc 93 e8 22 3d c3 f5 0f 3d d8 79 96 3c
       -0.009229149 0.03977258 0.035146486 0.018368647
000370 33 43 2b 3d 55 81 a1 3d 49 68 df bc 31 8b 62 3d
       0.041812133 0.07885996 -0.027271407 0.055308525
000380 a6 3e 40 3c 05 f4 2c bd 3e ae 08 bc 97 94 12 bd
       0.011733687 -0.042224903 -0.008342324 -0.035786238
000390 98 7d 8d 3d 9c e9 88 3d 59 b9 c7 3c 07 ab 58 3d
       0.06908721 0.066851825 0.024380373 0.05289748
0003a0 4f 60 3b bd 9c dc 06 bd 0d e4 22 3c c2 de c5 bc
       -0.045746144 -0.032925233 0.009942067 -0.02415407
0003b0 8a a0 7b bb 2a 98 b8 3c 62 9d 44 3d a7 63 02 3d
       -0.003839525 0.022533495 0.048001654 0.031833317
0003c0 f3 e7 76 bc c4 d7 8f bd 8b b1 46 bd e5 85 65 3d
       -0.015069949 -0.07023576 -0.048509162 0.056035895
0003d0 5b e2 95 3c 25 15 3a bc f3 ee 6f bb b5 29 38 bd
       0.018296411 -0.01135758 -0.003661093 -0.04496165
0003e0 26 e8 38 3a 57 b4 6e 3d dc 93 58 bc 39 d2 53 bc
       0.0007053636 0.058277454 -0.013218846 -0.012928539
0003f0 af 83 23 bd 42 bd d1 bc 5d e4 b8 3c 98 b7 82 bc
       -0.039920505 -0.02560294 0.02256983 -0.015956685

conv2.bias f4 [20]
000000 d5 98 d2 3c 40 d7 fd bc a3 5a f5 3c 7e 6a 45 bc
       0.025707642 -0.030986428 0.029950446 -0.0120493155
000010 1a a8 f8 3c e4 62 2f 3c e6 b4 6d bc ca 3b fa 3b
       0.030353595 0.01070473 -0.014508462 0.007636522
000020 99 a1 52 bd 73 b3 1a 3d f2 af 45 3d 67 92 59 3d
       -0.051423643 0.037768792 0.048263498 0.053118136
000030 52 f6 d5 bc c4 cc c1 bc a6 7b cf bc 04 17 ca 3b
       -0.026118431 -0.02365721 -0.025327515 0.0061672945
000040 2b bc 3f bd a6 fa 08 bd ee c7 d8 bc 7f 66 3c 3d
       -0.04681031 -0.033442162 -0.026462521 0.045996185

fc1.weight f4 [50, 180]
000000 fd 08 7b 3c 01 d0 ec bd 36 39 d9 bc 00 72 de bd
       0.015321967 -0.11563111 -0.026516538 -0.108615875
000010 ca 5e 63 bd cd e0 bd bb 06 80 d7 bd f0 a5 d6 bd
       -0.05551032 -0.0057946206 -0.105224654 -0.10480869
000020 fa e9 12 3e 33 90 46 bc 5c 83 95 3a 01 09 d2 3a
       0.14347067 -0.012119341 0.0011406946 0.0016024412
000030 92 08 dc 3d 45 02 a6 bd a9 50 5f bc 6c 21 58 bd
       0.10743822 -0.08105902 -0.013630071 -0.05276625
000040 db de 68 bd 37 5e 89 bd 3b 3a b0 bc e2 eb 9f bd
       -0.056853157 -0.06707423 -0.021512141 -0.07808663
000050 2e b6 e7 bc 52 06 c5 bd 5b 28 c9 bd be 90 3f bc
       -0.028285112 -0.09620346 -0.0982215 -0.011692224
000060 27 03 42 3d 0d 02 03 bd fc 5b de 3d c0 fd 44 bd
       0.047366288 -0.031984378 0.108573884 -0.048093557
000070 a9 43 ba bc 36 34 7d 3d 07 22 2d bd 8b 27 2a bd
       -0.022737341 0.06181737 -0.04226878 -0.041541617
000080 5c 59 d8 3c 7c c1 fe bc b3 62 e5 3d f6 ed 1a bd
       0.026409797 -0.03109812 0.11200466 -0.037824593
000090 93 83 8a bd 7e 6a 69 bd fa b6 f5 3d 8f ab d5 bd
       -0.06763377 -0.056986324 0.11997791 -0.10433113
0000a0 42 a0 f4 3b 57 2d 03 bd fd 99 d4 3c 4a 42 cc bc
       0.0074653933 -0.03202566 0.025952334 -0.024933953
0000b0 17 97 e4 3a 51 79 73 3d fd 0c b8 3b bd fe f8 bc
       0.0017440048 0.05944187 0.0056167827 -0.030394906
0000c0 76 f2 fb bd 05 52 9e bd df 83 bb 3d 2c 26 8c bd
       -0.12302105 -0.07730488 0.09156012 -0.06843218
0000d0 a6 c4 86 3c 8c b3 0e 3c ff 6f a8 bd 70 3d 6a 3c
       0.016451191 0.0087097995 -0.082244866 0.014296874
0000e0 37 19 ac bb 2d 10 be 3d cc 56 93 3d 78 c8 94 bd
       -0.0052520293 0.09280429 0.071942896 -0.07264799
0000f0 a2 28 7a 3d 85 9d 4d 3a 77 6b d1 bc be 1a ae 3d
       0.061073907 0.00078436016 -0.025563939 0.085011944
000100 07 9c 14 bd 10 c5 ea 3b 7d 1d 07 be 27 bd 2d bd
       -0.03628161 0.007164605 -0.13194843 -0.042416718
000110 bb 1e 98 3c 46 4f 51 3d bf a5 fb 3c d5 08 70 bd
       0.01856934 0.05110099 0.030718682 -0.058602173
000120 9b a3 f0 3d e2 19 8b 3c 93 74 c0 3c 5f 92 9d 3c
       0.11749955 0.016980115 0.023493087 0.019234834
000130 3e af fe bc 4c 73 fa bd 48 19 59 3d ee 36 c6 bc
       -0.031089421 -0.122290224 0.053002626 -0.024196114
000140 66 52 56 3c 2f 95 74 3b 32 ec 3a bd f4 db de bb
       0.013081169 0.0037320366 -0.04563541 -0.006801123
000150 e6 ea 98 3c f6 79 0c 3d d3 a7 15 bd 70 41 fd 3c
       0.018666696 0.034296 -0.036537003 0.030914992
000160 f6 2a 2a be b1 09 48 3c d2 32 46 bd c9 5f 09 3c
       -0.16617951 0.012209342 -0.04838831 0.008384653
000170 e0 e2 ce 3c 3e 16 59 bd f7 e9 d6 bd 50 0d 37 3d
       0.025254667 -0.052999727 -0.10493844 0.04469043
000180 d9 76 57 bc 2b 03 0b 3e 74 f8 ae bd 0e b8 76 bd
       -0.013150894 0.13575427 -0.085434824 -0.060234122
000190 a4 08 97 bd 2d 14 4c 3d b7 5e 33 bd f9 90 dc bd
       -0.07374695 0.04982393 -0.0437915 -0.10769839
0001a0 cf b9 85 3d 52 e9 81 bd f3 db 42 3d cf 7d a2 bc
       0.06529581 -0.063433304 0.04757304 -0.01983538
0001b0 cb aa 91 3c 49 2f 71 bd 09 3d ff 3d ec 11 25 bd
       0.017781636 -0.058882985 0.124628134 -0.040300295
0001c0 bd 00 61 bc 7a 9a d5 bd be 09 23 3e 7f 0d 19 be
       -0.013733086 -0.10429855 0.15921685 -0.14946555
0001d0 46 ed a6 bd fc af 85 3c 88 b6 1f bd 78 f8 3b bc
       -0.08150725 0.016319267 -0.038992435 -0.011472814
0001e0 48 75 6e bd 04 d8 4b 3c 40 e1 cc 3c ad 9d 9d bd
       -0.058217317 0.012441639 0.025009751 -0.0769609
0001f0 01 70 ed 3d 72 5b db bd 92 0a 15 bb d0 90 3c bd
       0.11593629 -0.10710801 -0.0022741896 -0.04603654
000200 8b 89 2f bd f7 ae b8 3d 9b a4 35 bd df 96 b3 bb
       -0.04285578 0.09017747 -0.044346433 -0.0054806317
000210 25 aa 34 3b 10 34 e6 bd f5 35 12 bd fe bd 85 bd
       0.0027567234 -0.11240399 -0.03569599 -0.06530379
000220 1c 96 86 3c cc bd 41 3d 9e 86 50 bd 64 c5 0a 3c
       0.016429 0.047300145 -0.05090963 0.008469913
000230 11 9a f0 3d 03 43 d4 bd 1b 87 ac 3c 66 62 84 bc
       0.11748136 -0.10364344 0.021060517 -0.016160201
000240 32 7c 1b bd b3 c8 bf 3c 8d 85 05 3b 6e 7c 05 3d
       -0.03796024 0.02341113 0.0020373792 0.03258937
000250 37 89 45 3d f8 9f 1a 3a fa 7a 20 bd 97 c8 cf 3b
       0.04822656 0.0005898471 -0.03917978 0.006341051
000260 13 b7 b6 3a e9 07 84 ba 77 ac 04 3c 0b f7 e5 3c
       0.0013940058 -0.0010073158 0.008097759 0.0280719
000270 fe bf 27 3c b2 b4 55 bd 54 06 05 3d bb 36 8d bb
       0.010238646 -0.052174278 0.032476738 -0.004309503
000280 48 d5 0e bd 92 dc e2 3c 98 35 49 bc 60 3b f9 3c
       -0.03487137 0.027693067 -0.012280844 0.03042382
000290 38 3c df bc 73 0f d1 3d b0 88 73 bd 46 41 d2 bc
       -0.027250394 0.10208025 -0.059456527 -0.02566589
0002a0 8e fb 01 bd 97 e2 90 3c f0 ce 9e 3c 90 82 d4 3c
       -0.031734042 0.017686171 0.019385785 0.025941163
0002b0 7d 58 7d bd 12 c4 25 bd b2 e1 b7 3d ac 8a 90 3c
       -0.061851967 -0.04047019 0.08978595 0.017644249
0002c0 ed ce 85 bd fd 90 87 3c 99 c2 1d bd 36 0f 0d bd
       -0.065336086 0.016548628 -0.03851566 -0.034438334
0002d0 6e 31 05 bd 19 5d 04 3d 26 cb d1 3d ef c4 29 bd
       -0.032517843 0.032315347 0.102438256 -0.041447576
0002e0 77 7e 16 3d 55 30 28 bd f1 fd 93 bd 9e 5e 91 bd
       0.0367417 -0.041061718 -0.0722617 -0.07098125
0002f0 5e 39 a6 bd d7 9b 26 3d 52 67 76 3d 97 4b 25 3d
       -0.08116411 0.040675964 0.060157128 0.04035529
000300 e1 10 a5 bd d1 bd 73 bd a9 f3 50 bd 23 65 2c bd
       -0.0805986 -0.059507195 -0.051013622 -0.04208864
000310 7e 47 69 bd b0 f8 13 3d cf 12 14 3d d9 ee 23 3d
       -0.056952946 0.03612584 0.03615075 0.040022705
000320 02 18 7e 3c 13 51 6f 3c 57 39 1a bd 5a a0 97 3c
       0.015508654 0.014606732 -0.03765234 0.018509079
000330 18 31 96 bd 9d 28 94 bd 74 57 93 bd ca 59 1a 3c
       -0.07333583 -0.07234309 -0.07194415 0.009420821
000340 d3 f4 3b bd b2 01 62 3c 53 90 16 bd ce 3b 5c 3d
       -0.04588778 0.0137943495 -0.036758732 0.05376797
000350 86 e8 57 3d 15 13 39 3c 98 43 3d bd c6 30 08 bc
       0.052711986 0.011296053 -0.04620704 -0.00831241
000360 45 86 c5 bd 9d a0 1c be a7 a9 0f be 07 77 fd 3c
       -0.096447505 -0.15295644 -0.14029561 0.030940546
000370 02 48 63 3d 47 cf 9b 3b 4a 17 83 3d e9 a8 df 3c
       0.055488594 0.004754934 0.064009264 0.027302222
000380 4e f7 02 3e a1 04 46 3d 51 99 46 ba 08 4e ed ba
       0.12789652 0.04834426 -0.00075759465 -0.001810492
000390 ad 27 f7 bc f8 c1 10 bb 5d 31 21 bd 21 db e5 bc
       -0.030170286 -0.002208827 -0.039353717 -0.02805859
0003a0 66 34 51 3d 0b 3f 1a 3c 10 52 74 3c c0 94 b3 3c
       0.05107536 0.009414445 0.014912143 0.021921515
0003b0 d5 77 ed 3b ae 52 2e bd a4 2d 82 bd 26 b2 f0 3c
       0.007246951 -0.04255932 -0.063563615 0.029381823
0003c0 74 48 a3 bd c1 9e 5c 3b b8 ea 0b 3d 84 47 0c bd
       -0.07972804 0.003366396 0.034159392 -0.03424789
0003d0 e8 ab df bc d5 7a be bd 8f 59 35 bb b8 c5 23 bd
       -0.027303651 -0.09300772 -0.002767179 -0.03998348
0003e0 01 0c 2b bd df 50 2c 3d f4 e3 ad 3d 7a 1f b0 3d
       -0.041759495 0.042069312 0.08490744 0.08599754
0003f0 1f ab 0a 3d dc f1 ea 3c db 4b 48 3d 1a 4d 80 3d
       0.0338546 0.02867978 0.048900466 0.06264706

fc1.bias f4 [50]
000000 c8 a3 96 3d 6a d7 55 3b 2c e3 71 bd fc 18 36 3d
       0.073554575 0.0032629617 -0.05905454 0.04445742
000010 e2 69 ad 3d 35 c8 fa 3b 3c 97 be bb 57 2e 21 bd
       0.08467461 0.007653261 -0.0058163684 -0.039350834
000020 3c ac 85 bd bb 96 dc bc c8 59 82 3d 63 71 78 3d
       -0.06526992 -0.026927343 0.06364781 0.06065501
000030 21 9d f2 3c 65 d7 37 3d 28 d2 b4 bc 31 2d b9 3b
       0.02961594 0.04488315 -0.022072867 0.005651139
000040 db b0 93 bd d5 bd a4 3d 58 87 98 3c 35 6f ec bc
       -0.07211467 0.0804402 0.018619224 -0.028861621
000050 bd 05 a1 3c b5 07 4b 3c ed b3 eb 3c 4c a3 11 bc
       0.019656057 0.012391974 0.028772319 -0.008889031
000060 e8 a9 1e 3d 39 1e 6e bd bc 1c c0 bc e7 5b 46 bd
       0.038736254 -0.05813429 -0.023451202 -0.04842749
000070 88 d3 79 3b 6c e5 c6 3d 84 f2 81 bd 99 05 01 3c
       0.0038120467 0.097117275 -0.06345084 0.00787487
000080 72 dd b0 3c df 3d 9e 3d 41 3f fd 3c f5 fb 99 bb
       0.021589968 0.07726645 0.03091395 -0.004699225
000090 6a 18 01 3d 4a 59 85 bd 53 4f 29 bc 41 56 9b bd
       0.031517424 -0.06511171 -0.010333854 -0.07584811
0000a0 df 41 10 3d ab 89 36 3d 0d 68 7d 3d e5 d6 a4 bc
       0.03521907 0.044564884 0.06186681 -0.020122001
0000b0 e9 8e f0 bb 5b 81 24 3e 4e 8d 20 3c ad 9f a2 bc
       -0.007341255 0.1606497 0.009799315 -0.01985153
0000c0 03 f0 ba 3d e8 f2 99 3d
       0.0912781 0.07517034

fc2.weight f4 [10, 50]
000000 3f 7b f7 bd 88 87 0e bd d3 9c 32 be 14 25 0a be
       -0.12084054 -0.03479722 -0.17442636 -0.13490707
000010 11 f9 26 3e 7d 6a e8 bd 99 ca 3d 3e 49 24 03 3e
       0.16305949 -0.11348436 0.18534316 0.1280681
000020 9c 37 5f 3d 98 02 61 3c 2d ba 53 be eb 9f 59 be
       0.054496393 0.013733529 -0.20676489 -0.2125241
000030 7b 82 db bd ad 15 54 be 12 5a ae bd 24 a6 0c be
       -0.107182465 -0.20711394 -0.08513273 -0.13735253
000040 a1 8b fd bd 6e 20 bd bd e6 36 86 3e 42 76 33 be
       -0.12380148 -0.09234701 0.2621376 -0.1752558
000050 c0 e4 28 be 01 15 c6 3d 86 53 08 bc 0c a5 83 3e
       -0.16493511 0.09671975 -0.008320695 0.25711858
000060 a0 da f4 bd 10 5d 7d bd e1 22 3f bd 37 fe 9a 3e
       -0.11955762 -0.06185633 -0.046664122 0.30272076
000070 d5 ec 5c be 30 74 1d 3e 58 f1 dd 3d 8a 2f c1 3d
       -0.21574719 0.15376353 0.10837048 0.094328955
000080 38 e1 a5 bd 8b 3f 12 3e 3e 4f 19 be d8 47 03 3e
       -0.08099598 0.14282052 -0.14971635 0.12820375
000090 77 aa 1c bd 1d e4 67 bd 72 d1 61 3e 75 28 e2 bd
       -0.038248505 -0.05661403 0.22052553 -0.11042873
0000a0 8d f3 0f be 66 55 6c 3e 24 2f 96 3e eb fd 70 3e
       -0.14057751 0.23079452 0.2933284 0.23534362
0000b0 aa 08 11 be d7 ca a0 bd 04 3e 24 3e 50 6e 64 be
       -0.14163461 -0.07851189 0.16039282 -0.22307706
0000c0 35 5e 8d 3c 14 7a 67 be d9 ed 92 3e 4b 86 8f bd
       0.017256835 -0.22605163 0.28697088 -0.07008036
0000d0 58 59 5d bd 7c 4a c7 3c 97 d7 5a be 8b 25 d3 bc
       -0.054040283 0.02432751 -0.21371303 -0.025774738
0000e0 a5 42 25 3c 78 ea 43 be 81 3b c0 bc 77 aa d1 3d
       0.01008669 -0.19132411 -0.023465874 0.10237592
0000f0 c1 66 1a 3e f8 f9 1e be c0 36 71 3e 7e 4b 21 3e
       0.1507826 -0.15525043 0.23556042 0.15751454
000100 76 23 ac bd 52 f3 0e be 63 39 e5 bd 3d 70 9e bc
       -0.08405201 -0.13960007 -0.11192586 -0.019340629
000110 c0 02 39 be 94 00 e1 bd 28 c4 40 be 2e d1 0c be
       -0.18067455 -0.109864384 -0.18824828 -0.1375167
000120 04 3c 43 be df 98 22 be 5a 82 96 3e e6 58 f9 bd
       -0.19065863 -0.15878628 0.29396325 -0.12175159
000130 38 2a 5b be 51 52 00 be af 85 72 3e c1 9b 1d 3e
       -0.21402824 -0.12531401 0.23683809 0.15391447
000140 b8 67 20 be 2c 67 6f 3e 16 dd 86 3e 42 91 32 3e
       -0.15664566 0.233792 0.2634055 0.17438224
000150 dc e1 5b 3e 08 07 c6 3d 8e db 84 be 9a e1 7f be
       0.21472877 0.0966931 -0.25948757 -0.24988404
000160 36 16 cd bd f2 10 2e be cc d5 12 3c d2 3d 90 bd
       -0.10014002 -0.16998652 0.008962106 -0.07043041
000170 71 b9 cf bb 68 41 da bc 5d 9a f2 bd 3c e9 72 3e
       -0.006339245 -0.026642516 -0.11845849 0.23721784
000180 5d 3b 87 be 57 a7 80 3e f5 60 37 3e 97 a5 7f be
       -0.26412478 0.2512767 0.1790808 -0.24965511
000190 66 f0 14 be 19 c2 7e 3e a7 d3 2f 3e bd 32 ce 3d
       -0.1454483 0.2487873 0.17170583 0.10068271
0001a0 42 a5 79 3d 4a 83 25 3e 04 c4 16 3e d9 0e ac 3d
       0.060948618 0.16163364 0.14723212 0.084012695
0001b0 e7 73 33 3e de c1 ea bd ab 0d 2f 3e bd fc ce bd
       0.17524682 -0.114627585 0.17095058 -0.101068
0001c0 8e 07 14 3e 29 a0 8d be f0 07 25 be 69 9a c6 bd
       0.14456007 -0.27661255 -0.16116309 -0.0969742
0001d0 30 0a 44 bd 92 13 de bd 9b fd d8 bd da be d4 bd
       -0.047861278 -0.108435765 -0.105952464 -0.103879645
0001e0 1f 5c 05 3d 4d ff be 3d 38 16 50 bc cd d2 cd bc
       0.032558557 0.093260385 -0.01270061 -0.025124932
0001f0 0c 75 cd bd 71 42 47 be 5d 55 cb bd 96 91 4a bc
       -0.100320905 -0.19458939 -0.09928391 -0.012363812
000200 81 32 91 bd 04 b1 3f 3e 77 92 33 3e 21 d0 85 3d
       -0.07089711 0.1871987 0.1753634 0.06533838
000210 84 4b 84 3e 79 05 3f 3e 18 06 d6 bd 9b 18 1f 3e
       0.25838864 0.18654431 -0.10450381 0.1553673
000220 70 c5 64 be 4e a1 5d 3c 92 45 11 be fb be 01 3e
       -0.22340941 0.013527228 -0.14186695 0.1267051
000230 63 b5 3b be 2c 7c cc bd 0c ac 8a 3e e1 05 8a bd
       -0.18330912 -0.099846214 0.27084386 -0.067394026
000240 e4 fb 43 3e 13 b0 0e be d3 0f 69 be f7 e8 98 3d
       0.19139057 -0.13934354 -0.22759943 0.074663095
000250 0a 1e ce 3d 17 0d a3 bd 47 27 5c be b1 c2 88 bc
       0.10064323 -0.07961481 -0.21499358 -0.016694399
000260 3a be 34 3e fc 12 a9 3c 8d a2 2d be 5e c4 18 3e
       0.1765069 0.020638935 -0.1695654 0.14918658
000270 46 0d 1d be e9 3a c0 3d 34 8d 1c 3e 97 78 61 3e
       -0.15337095 0.09386236 0.1528824 0.22018658
000280 01 a1 16 3e 61 4b c1 bd 57 f9 0f be 7b f6 1b 3e
       0.14709856 -0.094382055 -0.1405996 0.15230744
000290 5d 42 f0 3d fe 22 fe 3b f7 75 63 3e 38 bc 1b be
       0.11731408 0.0077556362 0.22212969 -0.15208519
0002a0 dc ca b7 bd 1e 12 43 be ed 8e 0c be 11 d3 d4 3d
       -0.08974239 -0.1904988 -0.13726397 0.1039182
0002b0 b5 14 47 3e 08 77 84 bd fa b2 66 3e e3 24 0e be
       0.19441493 -0.06468016 0.22529212 -0.13881259
0002c0 9a 82 21 be 67 19 49 bd b4 86 0e be ac cc 27 3e
       -0.15772477 -0.04909649 -0.13918573 0.1638667
0002d0 41 76 0d 3e c1 53 3e be 68 81 f9 bc 62 2f 0d be
       0.13814642 -0.18586637 -0.030457214 -0.13787606
0002e0 92 e2 c3 bd fe 21 88 3d 24 17 54 3e 5d 99 43 3e
       -0.09564699 0.066471085 0.20711952 0.19101472
0002f0 1b bf ed bd 9e db e2 3d 32 df 0a be 32 90 85 bb
       -0.11608716 0.11077045 -0.13561705 -0.0040760273
000300 bd b0 ba bb 21 91 b4 bd a6 25 23 be b0 f3 4b be
       -0.0056973384 -0.08816744 -0.1593233 -0.19917178
000310 1c 9a 15 3e 72 7b 6b 3e 31 0c 1d be 71 86 2f 3d
       0.1460957 0.2299631 -0.15336682 0.042852823
000320 2b e2 c6 3c 47 f9 cc bd 98 75 58 3e 72 1a d3 bd
       0.024277767 -0.100084834 0.21138608 -0.103077784
000330 a4 72 32 3d 4e a9 c4 bd 11 6e 4f 3e 66 a0 7d be
       0.04356636 -0.09602605 0.20256831 -0.24768218
000340 33 3f 64 be f0 6e 5c 3e c5 29 35 be 4d ff 83 3e
       -0.22289734 0.21526694 -0.17691715 0.25780717
000350 32 6c 62 3e e0 b0 50 bc 58 68 50 bd bb 84 19 3e
       0.22111586 -0.012737483 -0.05088076 0.14992039
000360 b9 dd 12 be f0 e1 d1 3d 2a a9 26 be a5 29 46 3e
       -0.14342393 0.10248172 -0.16275468 0.19351824
000370 d0 c1 96 3e 78 ea ae 3d 2b d5 37 be 59 22 da bd
       0.29444742 0.08540815 -0.17952411 -0.106510825
000380 1a 51 24 3d 72 a9 b6 bc 1d 53 36 3e a6 85 d4 bd
       0.040116407 -0.022297595 0.17805143 -0.10377054
000390 d8 0d 65 bd f2 12 59 be 4a 5f 86 be b1 24 08 be
       -0.055921406 -0.21198633 -0.26244575 -0.13295247
0003a0 e2 bd d7 bd d7 5d 3d bd e6 0a 88 3e 3a df 54 be
       -0.10534264 -0.04623207 0.26570815 -0.20788279
0003b0 f7 d4 12 be 54 d1 3d be 5f 9c 8d bc a3 6e 24 3e
       -0.14339052 -0.18536884 -0.017286478 0.1605783
0003c0 89 e7 e8 bc d1 4c 3f be e3 94 ef bc 1d 3d ff bd
       -0.028430717 -0.18681647 -0.0292458 -0.12462828
0003d0 b9 be 87 3d 7d b5 67 3e 2e bb f7 3d 5d 59 24 3e
       0.06628174 0.22627826 0.120962486 0.16049714
0003e0 74 26 4f 38 ce a6 0e 3e e8 e2 66 bd 77 7a 1b 3d
       4.9388458e-05 0.13930818 -0.05636874 0.03795859
0003f0 cc 6f 16 3e ea f6 a1 be 01 63 b5 3d 1e ff 5e bd
       0.14691085 -0.31633693 0.08856774 -0.054442517

fc2.bias f4 [10]
000000 e8 03 28 3d dc 2c ab 3e 11 27 4a be 76 65 a2 bd
       0.04101935 0.33432662 -0.19741465 -0.079295084
000010 03 74 35 3d 90 e6 3a 3d 39 93 28 3e 4b ac db 3c
       0.04430009 0.045630038 0.16462411 0.026815554
000020 d7 6c 50 3d e4 37 68 bc
       0.050885048 -0.014173482
