proj5/task4/results/baseline.pth (torch, 89871 bytes, 8 tensors)

conv1.weight f4 [10, 1, 5, 5]
0.10952025 0.25590006 0.12984788 0.3400786 -0.00586617 -0.024936954 0.08305901 0.4030797
0.29622984 -0.2174313 0.17975934 0.2515751 0.41215518 0.08504966 0.04714479 -0.0027762125
0.27127695 0.18622726 0.0021075504 0.076835394 -0.12183185 -0.0036680407 0.046185937 0.2667389
-0.11305458 -0.14159349 -0.17394255 -0.26154894 -0.1053055 -0.29097185 0.19174471 -0.23198822
0.03715765 -0.117234886 -0.19692984 0.2299018 0.18729177 0.3283885 0.11628322 -0.03651447
0.13297461 0.158834 0.3825875 0.4144867 0.24774207 -0.17672797 0.14784114 0.1333438
0.22461611 0.03291411 -0.12931322 0.12910268 0.0586944 0.21120986 0.021604624 0.13023709
0.2632424 0.14898069 0.12225798 -0.27467 0.18823493 0.18513873 0.23486036 -0.16163367
-0.14102475 0.1896546 0.42774442 -0.049567778 -0.26325062 -0.30910352 0.3568145 0.2238415
0.13301834 -0.3730971 -0.43922448 -0.293372 -0.2243283 0.06396969 0.17152402 0.31373006
-0.2562287 -0.1859941 0.17034028 0.09070871 0.27687657 -0.19567509 0.110689305 -0.009273997
0.10621084 0.15739489 -0.055787824 -0.038584586 0.20888986 0.24735706 -0.11433222 -0.08896099
0.23834182 0.029765502 0.014659117 -0.16004708 -0.16847605 0.0060745548 -0.06386132 -0.17694098
-0.03277683 -0.19996847 -0.22762017 -0.1573744 -0.22022416 -0.16969909 0.11177631 -0.036116574
0.0018011088 -0.23834315 -0.17743234 -0.1065409 -0.0014300863 -0.22075525 -0.13404526 -0.16917925
0.029159525 -0.0632789 -0.03338194 -0.18557335 -0.1956794 -0.12439305 -0.09507956 -0.16430287
0.1447667 -0.022028841 0.14189205 -0.02950406 -0.26979983 0.030639557 -0.08589819 -0.060322657
-0.21668012 -0.3016593 -0.06372261 -0.07299754 0.2123616 -0.0503444 0.18354389 -0.14819527
0.002924113 0.21062848 0.33465773 0.3580853 0.30723214 -0.08896933 0.04178298 -0.116966434
-0.08598898 -0.18612206 0.20721911 -0.14095452 0.1617836 0.11038573 0.12273855 -0.056191217
0.2698984 0.18295142 0.12162431 -0.16684961 0.11765542 -0.04201973 -0.07090506 0.23239885
0.03982767 -0.11975955 -0.22558282 -0.057208456 0.16046475 -0.019012842 -0.09933312 -0.13010761
-0.11616341 0.1446326 0.19194825 -0.2175489 0.06180508 0.2366384 0.13309258 -0.12649542
-0.06617627 0.14724295 0.19400656 0.08681062 -0.07029378 -0.0711723 -0.04783415 -0.0037272852
0.29785132 0.3597262 0.10362261 -0.12004965 -0.058608495 0.021638177 0.19680826 0.27273822
-0.2018835 -0.14728533 0.08390355 0.05188457 -0.017326035 -0.13848461 -0.27814853 -0.31545132
-0.13632962 0.005748858 0.237541 0.052093267 -0.25255254 -0.21191637 -0.14809659 0.34106007
0.15524991 -0.035307165 0.011676413 -0.168225 -0.018975148 0.3033492 0.01792699 0.0001379741
-0.22630893 0.25973445 0.3967389 0.3896858 0.21150693 0.14591181 0.03847022 0.4079528
0.36892563 0.44043282 0.34685725 0.052188143 -0.09195238 -0.25633073 -0.23823076 -0.20698626
-0.1421275 -0.36482218 -0.30697706 -0.282909 -0.17182627 -0.38529563 -0.3727797 -0.13851798
-0.14803119 -0.014804395
00000000: 274c e03d 5505 833e d8f6 043e c81e ae3e
00000010: 0039 c0bb 9548 ccbc d81a aa3d 7660 ce3e
00000020: 70ab 973e 50a6 5ebe d512 383e 74ce 803e
00000030: 0106 d33e 842e ae3d e51a 413d 1ef1 35bb
00000040: d0e4 8a3e 5cb2 3e3e d41e 0a3b e05b 9d3d
00000050: fa82 f9bd 8363 70bb 772d 3d3d 0092 883e
00000060: 2989 e7bd e2fd 10be ff1d 32be bee9 85be
00000070: 69aa d7bd 43fa 94be ba58 443e 528e 6dbe
00000080: 9f32 183d d818 f0bd faa7 49be 616b 6b3e
00000090: 6ac9 3f3e 8a22 a83e e625 ee3d 3290 15bd
000000a0: 7f2a 083e 61a5 223e 82e2 c33e 9a37 d43e
000000b0: 19b0 7d3e 2df8 34be ab63 173e 478b 083e
000000c0: c401 663e f2d0 063d af6a 04be 7e33 043e
000000d0: 8a69 703d 6647 583e 2efc b03c df5c 053e
000000e0: b5c7 863e 658e 183e 6462 fa3d 8ca1 8cbe
000000f0: a8c0 403e 0295 3d3e 3c7f 703e 4c83 25be
00000100: cb68 10be d134 423e 5101 db3e 9507 4bbd
00000110: c9c8 86be d142 9ebe 64b0 b63e b536 653e
00000120: f635 083e 9506 bfbe 08e2 e0be db34 96be
00000130: 51b6 65be 8a02 833d fea3 2f3e 3aa1 a03e
00000140: 6830 83be 3d75 3ebe af6d 2e3e 7dc5 b93d
00000150: c4c2 8d3e 0d5f 48be 13b1 e23d f6f1 17bc
00000160: 1285 d93d 202c 213e c681 64bd df0a 1ebd
00000170: 39e7 553e 2b4b 7d3e 0327 eabd 2e31 b6bd
00000180: e10f 743e c8d6 f33c cb2c 703c 62e3 23be
00000190: fc84 2cbe 0f0d c73b b9c9 82bd 0430 35be
000001a0: ff40 06bd 89c4 4cbe 4315 69be c126 21be
000001b0: 7182 61be 99c5 2dbe faea e43d f9ee 13bd
000001c0: 2f13 ec3a 3a10 74be d3b0 35be 1e32 dabd
000001d0: bc71 bbba aa0d 62be 2943 09be 533d 2dbe
000001e0: f5df ee3c 5e98 81bd 80bb 08bd f106 3ebe
000001f0: 2e60 48be c9c1 febd 13b9 c2bd 033f 28be
00000200: b93d 143e d475 b4bc 264c 113e 80b2 f1bc
00000210: 3423 8abe cfff fa3c 64eb afbd e414 77bd
00000220: 65e1 5dbe 1673 9abe 0081 82bd bc7f 95bd
00000230: 5275 593e ee35 4ebd eef2 3b3e 80c0 17be
00000240: 7aa2 3f3b feae 573e 4258 ab3e f556 b73e
00000250: 884d 9d3e 8d35 b6bd a124 2b3d 198c efbd
00000260: fe1a b0bd c896 3ebe 3f31 543e 6256 10be
00000270: 9aaa 253e ea11 e23d 595e fb3d c328 66bd
00000280: 2030 8a3e 9e57 3b3e 2b16 f93d a0da 2abe
00000290: 53f5 f03d e11c 2cbd ac36 91bd f7f9 6d3e
000002a0: 5722 233d 7f44 f5bd 2fff 66be 6a53 6abd
000002b0: df50 243e d2c0 9bbc 2a6f cbbd ee3a 05be
000002c0: 15e7 edbd 911a 143e 158e 443e 24c5 5ebe
000002d0: 5327 7d3d 5651 723e 6c49 083e 0488 01be
000002e0: 6d87 87bd dbc6 163e a8a9 463e c4c9 b13d
000002f0: 2ff6 8fbd c8c2 91bd beed 43bd 7845 74bb
00000300: f87f 983e 082e b83e 1738 d43d 97dc f5bd
00000310: 760f 70bd 8c42 b13c 1b88 493e 58a4 8b3e
00000320: 8cba 4ebe f7d1 16be a0d5 ab3d ea84 543d
00000330: 54ef 8dbc e9ce 0dbe 7c69 8ebe d682 a1be
00000340: fe99 0bbe eb60 bc3b f33d 733e c05f 553d
00000350: 914e 81be 9b00 59be a2a6 17be 6d9f ae3e
00000360: d5f9 1e3e 3f9e 10bd 6d4e 3f3c 2d43 2cbe
00000370: c571 9bbc 9650 9b3e 9fdb 923c 24ad 1039
00000380: 87bd 67be eafb 843e 5c21 cb3e e684 c73e
00000390: 4695 583e e869 153e f392 1d3d 30df d03e
000003a0: d2e3 bc3e 6980 e13e 4697 b13e 3cc3 553d
000003b0: 8851 bcbd c83d 83be c4f2 73be 35f4 53be
000003c0: df89 11be f9c9 babe 192c 9dbe 73d9 90be
000003d0: 3af3 2fbe 7845 c5be fbdc bebe a8d7 0dbe
000003e0: 7d95 17be 228e 72bc

conv1.bias f4 [10]
0.09451826 0.07385157 -0.04253043 -0.11299166 0.040245954 -0.11880614 0.15976802 -0.014495281
0.12692337 0.07506006
00000000: ca92 c13d 7e3f 973d 6334 2ebd 2c68 e7bd
00000010: f1d8 243d a250 f3bd 3a9a 233e 9d7d 6dbc
00000020: 33f8 013e 17b9 993d

conv2.weight f4 [20, 10, 5, 5]
0.07197338 -0.02785237 -0.013059072 -0.046782948 -0.081107244 0.03277601 -0.019068886 -0.05305795
-0.049984526 -0.12145068 0.035053454 0.006579526 0.053972747 0.111693405 0.113996856 -0.0071372488
-0.1285898 -0.06131415 0.009998758 -0.06515377 -0.0071337754 -0.15612322 -0.19831705 -0.19605984
-0.08551109 -0.06213061 -0.09263841 -0.0051150955 0.027938418 -0.051465508 -0.032294445 0.0019359062
-0.07564764 -0.020147132 0.06280902 -0.0022379484 -0.0046040313 0.047886986 0.096758574 0.084138505
0.006695205 -0.121410675 -0.15394336 -0.10470474 -0.046772867 0.21053377 0.08877815 0.06953384
0.049061157 -0.016081916 0.02542185 0.03373135 -0.019155527 0.021688586 0.1083456 -0.001050915
0.05494019 0.09134796 -0.013016216 0.040226154 -0.061837584 -0.045959532 -0.048021734 -0.066744134
-0.10169548 -0.050256435 -0.08462133 -0.15565151 -0.18635094 -0.14821747 0.015250521 0.048732255
-0.055254515 -0.08642857 0.05740313 -0.06421006 -0.030246545 0.02196513 0.020792268 0.012660077
-0.023821263 -0.020138191 -0.059291672 -0.044145785 -0.06675938 -0.05949683 0.03455667 -0.028351104
-0.0325552 -0.027535599 -0.055848703 0.027511504 0.086649664 0.057043664 -0.100847885 -0.08738151
-0.0070098173 -0.04255442 -0.026396113 0.064046174 -0.02062955 -0.024817254 -0.05370113 -0.0049390243
0.013274863 0.011129836 -0.0031103506 -0.074190274 -0.08462747 -0.0077326377 0.061104387 0.023085427
-0.06312583 -0.050285287 -0.06861126 -0.008131765 0.030554518 0.063933045 0.055844158 -0.044346493
0.048320018 -0.015938874 0.06059684 0.07321707 0.045597583 0.02906488 -0.07608379 -0.02775908
0.027934706 -0.0053874715 0.017183498 0.0006743341 0.08868343 0.08398328 0.08684702 -0.005073792
-0.053061657 0.012826304 0.06464947 0.025129277 0.03818167 0.08436625 0.012590707 -0.0021114703
-0.022314517 0.015313718 0.027374994 0.05332649 0.05244569 0.06352686 -0.036022115 -0.0118226055
0.0569108 0.029980991 0.035690695 -0.059735995 -0.022633063 0.029171789 -0.028353605 -0.0119093135
-0.0097221 0.005565592 -0.012717096 0.07611277 0.12493731 0.01958223 -0.03384091 -0.08663361
-0.04601068 0.027588911 0.06595799 -0.009918062 -0.06898366 -0.0049541593 -0.08115279 0.029421888
-0.04280746 -0.041986857 -0.024231305 -0.037439696 -0.030869216 0.06646886 0.00033910538 0.09584663
0.06522872 -0.037285026 -0.021208327 0.065310895 0.12362102 0.011668612 -0.0029128157 -0.13303289
-0.14285891 -0.03743917 -0.0003877181 0.07236621 -0.0071396856 0.045613773 -0.005815181 -0.12012836
-0.031494055 -0.008049873 0.018599503 -0.08294936 -0.01760618 -0.05104113 -0.045504015 -0.003668365
0.06956264 0.063412204 0.0668803 0.057350393 0.07740939 0.026684878 0.0215631 0.08448078
0.021430288 -0.013293256 -0.013404318 0.017927952 0.09406967 0.09061109 0.03760939 0.034996882
-0.019592378 0.0127927065 0.009412383 -0.064610824 0.019376427 0.07951473 0.012778303 0.03396573
0.031353958 -0.0027719447 0.0037735878 0.004740559 0.056420274 0.10882434 0.042816542 0.09132625
0.029993584 0.0406858 0.14288495 0.23292293 0.22356233 0.05202499 -0.043222845 -0.0033848886
-0.0068822727 -0.035055522 -0.011442905 -0.11711992 0.005906295 0.003960155 -0.075298004 -0.0022424725
00000000: c866 933d a72a e4bc b8f5 55bc 7a9f 3fbd
00000010: 8e1b a6bd 2340 063d 5a36 9cbc 4b53 59bd
00000020: 93bc 4cbd 22bb f8bd 3694 0f3d 1099 d73b
00000030: 8712 5d3d 83bf e43d 2f77 e93d 95df e9bb
00000040: 0bad 03be 8c24 7bbd d5d1 233c 576f 85bd
00000050: 72c2 e9bb c4de 1fbe a013 4bbe e9c3 48be
00000060: 7020 afbd ab7c 7ebd 35b9 bdbd 889c a7bb
00000070: 1cdf e43c 7fcd 52bd 2e47 04bd 3cbe fd3a
00000080: 26ed 9abd 990b a5bc 04a2 803d 8baa 12bb
00000090: 6add 96bb 2525 443d 5c29 c63d cf50 ac3d
000000a0: 7363 db3b 29a6 f8bd 54a3 1dbe 706f d6bd
000000b0: e894 3fbd 2a96 573e 52d1 b53d c267 8e3d
000000c0: 5af4 483d 39be 83bc 7c41 d03c e229 0a3d
000000d0: 0dec 9cbc 43ac b13c 4ce4 dd3d dbbe 89ba
000000e0: f708 613d a414 bb3d f841 55bc 2ec4 243d
000000f0: 6849 7dbd 1040 3cbd 70b2 44bd 26b1 88bd
00000100: b845 d0bd b1d9 4dbd f34d adbd 1c63 1fbe
00000110: c8d2 3ebe 52c6 17be 52dd 793c 799b 473d
00000120: 8f52 62bd 7601 b1bd 8b1f 6b3d 9080 83bd
00000130: 9ac7 f7bc 37f0 b33c 8c54 aa3c 366c 4f3c
00000140: cf24 c3bc d9f8 a4bc d3db 72bd 36d2 34bd
00000150: 24b9 88bd f3b2 73bd 4b8b 0d3d 9340 e8bc
00000160: 9a58 05bd 5692 e1bc 9cc1 64bd ce5f e13c
00000170: 6175 b13d 9ea6 693d 5689 cebd 14f5 b2bd
00000180: 9cb2 e5bb 8b4d 2ebd a93c d8bc a42a 833d
00000190: 4dff a8bc 8e4d cbbc b7f5 5bbd 8ad7 a1bb
000001a0: d07e 593c ea59 363c 06d7 4bbb 12f1 97bd
000001b0: 2b51 adbd 1162 fdbb 9848 7a3d a61d bd3c
000001c0: 1d48 81bd f2f7 4dbd 0f84 8cbd 183b 05bc
000001d0: 784d fa3c 54ef 823d d8bc 643d aba4 35bd
000001e0: 36eb 453d 3e92 82bc 6434 783d d5f2 953d
000001f0: 88c4 3a3d 7919 ee3c d1d1 9bbd 0367 e3bc
00000200: 53d7 e43c 6389 b0bb 68c4 8c3c ccc5 303a
00000210: a89f b53d 6dff ab3d dadc b13d 0d42 a6bb
00000220: 2e57 59bd 6b25 523c f166 843d eadb cd3c
00000230: 6264 1c3d 36c8 ac3d 4149 4e3c 9860 0abb
00000240: efcc b6bc 63e6 7a3c 8641 e03c e16c 5a3d
00000250: 4bd1 563d 5f1a 823d ed8b 13bd 9ab3 41bc
00000260: 4d1b 693d b29a f53c 6830 123d bbad 74bd
00000270: f968 b9bc adf9 ee3c d245 e8bc 481f 43bc
00000280: 7149 1fbc 925f b63b 5e5b 50bc 03e1 9b3d
00000290: 22df ff3d ea6a a03c c49c 0abd f66c b1bd
000002a0: b275 3cbd 2402 e23c fc14 873d 5e7f 22bc
000002b0: 4e47 8dbd 8056 a2bb 6f33 a6bd 2c06 f13c
000002c0: e056 2fbd 69fa 2bbd bb80 c6bc 5e5a 19bd
000002d0: 70e1 fcbc d320 883d f4c9 b139 3d4b c43d
000002e0: a396 853d 2fb8 18bd 16bd adbc b8c1 853d
000002f0: 042d fd3d b52d 3f3c f0e4 3ebb c639 08be
00000300: 9b49 12be d159 19bd a446 cbb9 bc34 943d
00000310: 06f4 e9bb 82d5 3a3d 468d bebb dc05 f6bd
00000320: e9ff 00bd 9de3 03bc fc5d 983c 5be1 a9bd
00000330: d63a 90bc 8110 51bd 6b62 3abd f468 70bb
00000340: db76 8e3d 42de 813d 8af8 883d 3fe8 6a3d
00000350: d088 9e3d 3f9a da3c 19a5 b03c 4204 ad3d
00000360: 928e af3c f5cb 59bc c99d 5bbc a4dd 923c
00000370: 99a7 c03d 4f92 b93d 4e0c 1a3d e458 0f3d
00000380: 3280 a0bc 8098 513c 6536 1a3c ae52 84bd
00000390: 50bb 9e3c 9ed8 a23d 165c 513c a61f 0b3d
000003a0: 026d 003d 84a9 35bb 4c4e 773b b156 9b3b
000003b0: f218 673d 4cdf de3d 6660 2f3d 4209 bb3d
000003c0: 1bb5 f53c 27a6 263d 6f50 123e 5983 6e3e
000003d0: 86ed 643e 2818 553d 700a 31bd 02d5 5dbb
000003e0: b084 e1bb 6196 0fbd 067b 3bbc 92dc efbd
000003f0: 9889 c13b 30c4 813b d735 9abd 72f6 12bb

conv2.bias f4 [20]
0.07069424 -0.059024345 -0.030794807 -0.06524865 -0.052283045 0.005418595 0.026774226 -0.04683391
0.017030232 -0.067240655 0.009036291 0.029107701 -0.03205721 -0.014808924 0.061696615 -0.043092206
-0.014684865 -0.05598226 0.029055338 -0.009864681
00000000: 24c8 903d 83c3 71bd 6445 fcbc 16a1 85bd
00000010: bf26 56bd 788e b13b 9f55 db3c ead4 3fbd
00000020: fc82 8b3c 78b5 89bd f40c 143c 4673 ee3c
00000030: 6c4e 03bd 21a1 72bc 97b5 7c3d 7481 30bd
00000040: ca98 70bc a74d 65bd 7605 ee3c 799f 21bc

fc1.weight f4 [50, 320]
-0.030557714 -0.00070023915 -0.0068951934 0.0056496174 -0.070104495 -0.07753127 -0.007919553 0.007854737
-0.15105109 -0.016139818 -0.060579173 0.048171367 -0.030362738 0.06319277 0.09074589 0.1570287
-0.014583153 0.0011031049 -0.050096046 -0.06962339 -0.033224914 -0.05813803 -0.01966936 0.00852755
0.013397167 0.005449203 0.008846009 0.047418617 -0.016516427 -0.026479935 0.08875586 0.04422086
0.010329643 0.06214457 0.052158758 -0.021375945 -0.05237712 0.014820525 -0.022619875 0.040422235
0.075995676 0.026674522 -0.032169733 0.021071158 -0.017025862 0.030117279 -0.042562805 -0.09715432
0.017831406 -0.005095535 0.04166899 0.006001984 0.03861217 0.0048594438 0.030105436 -0.0649639
-0.015126763 -0.014181909 -0.013387309 -0.033069473 -0.054485664 -0.00035868047 -0.031443108 0.0814613
0.007925586 0.06143778 0.10379993 0.05166918 0.051666617 0.027672734 0.031449806 -0.04012437
-0.01911555 -0.0019726758 0.080537386 0.03248019 0.01291388 -0.012867611 -0.03890713 -0.09502941
0.012816482 0.06518838 0.103844665 -0.057163578 -0.004030725 -0.019976528 -0.072792776 -0.12183456
-0.078847334 -0.04789072 0.009901488 -0.025655568 0.0500489 0.121578164 0.05485678 -0.04895273
-0.03866259 0.014158905 0.00021065114 0.0036575352 0.047470752 0.06892138 -0.032209076 0.0034481813
0.038651075 0.020770648 0.024257436 0.014318639 0.031348746 0.03293109 0.041344058 0.014133098
-0.027002065 -0.06028097 0.0626751 -0.02833658 -0.06852563 0.035881016 0.09862293 0.023649558
-0.021470807 0.078202315 0.065694235 -0.0107027935 -0.042565078 -0.04411424 -0.030557264 0.026398415
-0.02162593 0.048070412 0.010069376 -0.017226242 0.0394092 -0.02761764 -0.03523192 -0.030067248
-0.015737984 -0.0641479 -0.091882996 0.0069980756 0.020430347 -0.015166049 0.05259725 0.06227898
-0.061365243 -0.011648157 -0.025535692 -0.050668567 -0.034321398 -0.013757132 -0.020234328 -0.07305351
-0.052686103 -0.04949903 -0.027595334 -0.039926615 -0.03046035 0.037673533 0.07379128 0.063315734
-0.07705449 -0.05146367 -0.04804925 -0.06267298 0.01892159 -0.00348113 -0.0028025724 -0.022003077
0.021221878 -0.00054751796 -0.024667153 0.021033477 0.009760465 0.0060736174 0.0011730609 0.13575654
0.004469653 0.03231275 0.08955702 -0.07909916 -0.0062623112 -0.0658766 0.014529161 -0.0012239999
0.00842241 -0.008401337 0.059889525 0.021318363 -0.009111539 -0.015286011 -0.08156508 0.014676261
0.031443454 0.016272975 -0.012258856 -0.051547244 -0.0032660142 0.02128629 -0.016182736 0.0447676
0.01341964 -0.0026329474 0.022252986 0.028537644 -0.04109374 0.016859604 -0.050942272 -0.012288497
-0.015379602 0.072446376 0.03208058 -0.016068324 -0.066739246 0.03819019 0.043350935 0.020225054
0.014347848 0.037796002 -0.026509922 -0.057643656 -0.0008545384 0.014087956 -0.070278205 -0.02444171
0.009683324 0.032961156 0.06166002 0.033486225 0.06988225 -0.0099797845 0.032753572 -0.017535144
0.013778139 0.032605175 0.029840248 -0.009300992 -0.033957522 0.032163106 -0.045092635 -0.10665774
-0.0055506555 -0.03868447 -0.008845184 0.024911368 -0.0095088575 0.013539045 -0.033332895 -0.020849423
-0.07720786 -0.03669595 -0.02867541 -0.003785855 -0.08466236 0.00813611 0.09341753 0.10547264
00000000: 2c54 fabc 4190 37ba 13f1 e1bb 6d20 b93b
00000010: f292 8fbd b7c8 9ebd 03c1 01bc 28b1 003c
00000020: 23ad 1abe a737 84bc de21 78bd 574f 453d
00000030: 47bb f8bc 366b 813d fbd8 b93d 22cc 203e
00000040: 2dee 6ebc 0f96 903a 8331 4dbd b596 8ebd
00000050: d916 08bd 2522 6ebd a321 a1bc 23b7 0b3c
00000060: cb7f 5b3c 3a8f b23b daee 103c 063a 423d
00000070: 754d 87bc 73ec d8bc a2c5 b53d ef20 353d
00000080: aa3d 293c 4e8b 7e3d 6ca4 553d 9b1c afbc
00000090: 6489 56bd cad1 723c 514d b9bc c991 253d
000000a0: 9fa3 9b3d 8784 da3c 69c4 03bd 6c9d ac3c
000000b0: d279 8bbc 83b8 f63c 5656 2ebd d8f8 c6bd
000000c0: 2b13 923c 72f8 a6bb 1aad 2a3d 4aac c43b
000000d0: cb27 1e3d f83b 9f3b ad9f f63c cb0b 85bd
000000e0: 3ed6 77bc 3d5b 68bc 7256 5bbc db73 07bd
000000f0: 5c2c 5fbd 470d bcb9 7dca 00bd 2fd5 a63d
00000100: 51da 013c 2ea6 7b3d 0f95 d43d 10a3 533d
00000110: 60a0 533d eeb1 e23c 83d1 003d 7459 24bd
00000120: 3798 9cbc 0248 01bb c9f0 a43d f309 053d
00000130: bd94 533c acd2 52bc 155d 1fbd c89e c2bd
00000140: 39fc 513c 7c81 853d 83ac d43d 5b24 6abd
00000150: 2c14 84bb d1a5 a3bc 6114 95bd 6684 f9bd
00000160: b67a a1bd 0f29 44bd da39 223c a02b d2bc
00000170: 1300 4d3d f9fd f83d 81b1 603d a882 48bd
00000180: aa5c 1ebd c0fa 673c 3ce2 5c39 42b3 6f3b
00000190: b170 423d a726 8d3d aaed 03bd e2fa 613b
000001a0: 9750 1e3d 3527 aa3c 88b7 c63c ba98 6a3c
000001b0: 8b67 003d c0e2 063d 6358 293d 828e 673c
000001c0: 6f33 ddbc 2ee9 76bd ce5b 803d 1e22 e8bc
000001d0: 2a57 8cbd f9f7 123d d2fa c93d b8bc c13c
000001e0: 8ce3 afbc 8928 a03d b38a 863d c55a 2fbc
000001f0: b858 2ebd 22b1 34bd 3a53 fabc 7d41 d83c
00000200: dd28 b1bc 7be5 443d 06fa 243c 0c1e 8dbc
00000210: 8b6b 213d 643e e2bc 594f 10bd 974f f6bc
00000220: f2ec 80bc f95f 83bd 272d bcbd 1d50 e53b
00000230: 8b5d a73c 057b 78bc 3770 573d 3e18 7f3d
00000240: 1f5a 7bbd e9d7 3ebc 3a30 d1bc d889 4fbd
00000250: 9894 0cbd 9865 61bc 76c2 a5bc 149d 95bd
00000260: 62cd 57bd 7fbf 4abd 9c0f e2bc 178a 23bd
00000270: fc87 f9bc 904f 1a3d e21f 973d aeab 813d
00000280: bfce 9dbd 92cb 52bd 4acf 44bd b15a 80bd
00000290: 7301 9b3c ac23 64bb 5dab 37bb cc3f b4bc
000002a0: 81d9 ad3c 4f87 0fba c512 cabc 664e ac3c
000002b0: 5bea 1f3c 3205 c73b 64c1 993a c303 0b3e
000002c0: 2b76 923b 605a 043d ac69 b73d befe a1bd
000002d0: 1334 cdbb 50ea 86bd b80b 6e3c 9f6e a0ba
000002e0: 26fe 093c c3a5 09bc b84e 753d d9a3 ae3c
000002f0: 9148 15bc 2d72 7abc 980b a7bd b374 703c
00000300: daca 003d e74e 853c 5ed9 48bc 3423 53bd
00000310: a00a 56bb 9660 ae3c a891 84bc 3b5e 373d
00000320: 0dde 5b3c 878d 2cbb e54b b63c c7c7 e93c
00000330: e951 28bd 271d 8a3c d8a8 50bd b155 49bc
00000340: bafa 7bbc c45e 943d ed66 033d b8a1 83bc
00000350: 96ae 88bd 516d 1c3d c090 313d 03af a53c
00000360: 3c13 6b3c fbcf 1a3d 562b d9bc c11b 6cbd
00000370: 1a03 60ba 2cd1 663c 05ee 8fbd fb39 c8bc
00000380: cea6 1e3c 4702 073d 388f 7c3d da28 093d
00000390: 6d1e 8f3d 4082 23bc 9c28 063d dda5 8fbc
000003a0: b4bd 613c 018d 053d 8973 f43c 3063 18bc
000003b0: 0b17 0bbd 76bd 033d 0eb3 38bd 606f dabd
000003c0: 46e2 b5bb 9b73 1ebd 64eb 10bc ed12 cc3c
000003d0: 0acb 1bbc dfd2 5d3c 1388 08bd 69cc aabc
000003e0: 281f 9ebd 7e4e 16bd b2e8 eabc 1b1c 78bb
000003f0: 7663 adbd 524d 053c b151 bf3d 0a02 d83d

fc1.bias f4 [50]
0.037496354 0.018895721 0.06267054 -0.0058063227 0.034007657 0.019802423 0.059256412 -0.0067720767
0.054033052 0.03819994 0.06855186 -0.04936249 0.0045996676 0.004412239 -0.018854085 0.014379799
-0.04451465 0.03225539 0.055116855 0.0077028833 0.05209608 0.033557843 0.052454717 0.02322017
-0.021856552 -0.04394684 0.0362218 -0.0072053648 0.047755547 0.016346134 -0.005213317 -0.03879685
0.028630627 0.019858312 0.07826547 -0.0071775126 -0.023258273 -0.034781024 0.037166182 -0.0046526426
0.0054836543 0.06113557 0.00045856688 0.08862854 0.07877296 0.006183004 0.049071044 -0.008652304
0.055808824 -0.006517297
00000000: c795 193d 33cb 9a3c 6959 803d f742 bebb
00000010: 9d4b 0b3d b138 a23c dab6 723d 4ce8 ddbb
00000020: c351 5d3d 8a77 1c3d eb64 8c3d 5330 4abd
00000030: cfb8 963b 8b94 903b e273 9abc 4099 6b3c
00000040: fe54 36bd 3a1e 043d 36c2 613d 7868 fc3b
00000050: b362 553d f373 093d c2da 563d 3a38 be3c
00000060: 830c b3bc 9a01 34bd 4f5d 143d fb1a ecbb
00000070: 529b 433d 54e8 853c 79d4 aabb 72e9 1ebd
00000080: c78a ea3c e6ad a23c a649 a03d 5731 ebbb
00000090: 2288 bebc 8c76 0ebd 913b 183d 3275 98bb
000000a0: 3ab0 b33b 4b69 7a3d ce6b f039 e182 b53d
000000b0: b853 a13d cc9a ca3b b8fe 483d 65c2 0dbc
000000c0: cb97 643d 0d8f d5bb

fc2.weight f4 [10, 50]
-0.029084023 0.16031638 0.014729537 -0.10313258 0.16616204 0.13429387 -0.20257184 0.21227022
-0.12605147 -0.1784415 0.22075045 0.058687992 -0.24195893 -0.13862914 -0.15474309 0.17658432
0.13672552 -0.19032748 -0.06513059 0.19955383 -0.028759621 0.21765214 -0.26673505 -0.041201815
-0.13818508 -0.07617697 -0.23393357 -0.13070223 -0.19258301 -0.24066404 0.2365125 0.014443437
-0.212333 -0.18743643 -0.13129942 0.16871643 -0.23479135 0.18449385 -0.0813138 0.11054204
-0.038104285 -0.14678465 0.20437944 0.22719799 -0.18130039 0.10068876 0.1606711 0.24215065
-0.15655935 0.1538499 0.21449712 0.18988603 0.16239896 0.3557186 -0.1051815 -0.024076842
0.005627714 -0.08472491 0.19743356 0.22317274 -0.13405141 -0.19364811 0.2460752 -0.043433152
-0.06947013 -0.13864665 -0.0991453 -0.12433107 -0.01371116 -0.13924642 -0.15458727 0.019238573
0.15391438 -0.034195762 -0.07951231 -0.005078891 -0.08882094 0.18684912 -0.09750031 0.005262401
0.16490348 -0.05480833 -0.100446254 0.1289263 0.1772881 -0.15434083 -0.07055298 -0.21724391
0.19487298 0.10675512 -0.2283477 -0.04606527 -0.13561003 0.21827105 0.19346116 0.18341461
-0.27931073 0.113574184 0.2630837 -0.13341111 0.21132302 -0.12646794 0.2433708 -0.101739325
-0.2022782 -0.08119178 0.038987763 -0.09064818 -0.19483054 -0.16223617 0.21394674 -0.07082011
-0.11688038 -0.17455685 -0.03740731 -0.023468846 -0.0949546 0.115080304 0.05445296 0.17043357
-0.21515816 0.0022689127 -0.091381155 -0.12759428 0.15655589 -0.016207298 -0.15857764 0.15061076
-0.032184646 0.08734958 -0.018690795 -0.060265906 -0.259 0.14324452 0.16275711 0.13952313
-0.15879647 0.13008325 -0.087141015 0.06955762 0.035119276 0.1585366 0.021101726 -0.0070322556
0.18147703 -0.12974489 0.12368225 0.22837853 0.28299478 0.12915727 -0.18341964 0.20214003
0.263865 -0.089186154 -0.11299187 -0.10012569 0.20284095 -0.07552384 -0.08792229 -0.26940328
-0.04302213 0.15522015 -0.14422351 0.23723036 -0.12921372 0.05671621 -0.073344745 0.16882318
0.20723052 0.15119813 -0.22400218 0.015168644 -0.056457993 -0.20412154 0.123274416 -0.035319284
0.13380621 0.16195132 -0.09731409 0.13396144 -0.1388542 0.22442238 0.17287359 0.12066068
-0.20805366 0.14047633 0.08615034 -0.0873053 -0.14583845 0.10984329 -0.16728179 -0.097133964
-0.040489387 -0.15988798 0.10710235 0.026702343 -0.1953594 -0.09523143 0.13648592 0.1375004
-0.0057407017 -0.199246 -0.18497455 -0.0919788 -0.18047985 0.26536757 -0.10809992 -0.07524467
0.21352148 0.14433277 0.0003022349 0.11387934 0.2680168 -0.075378194 -0.11056178 -0.1888342
0.06321226 -0.16525204 0.174033 -0.04734995 0.08597976 0.120116785 -0.061314277 0.31163234
0.18597259 -0.13635178 0.104823984 -0.20096584 0.25700602 0.1282978 -0.025833396 0.17180566
0.112948306 -0.059700895 0.18960366 -0.22603841 0.18375318 -0.17417698 0.19597997 -0.15554164
0.12658443 0.13849707 -0.106858954 -0.16071346 -0.16780697 -0.03704247 0.12382698 0.04731114
-0.13260332 -0.18737951 -0.073377565 0.17662798 -0.056169588 -0.014624316 0.17109732 -0.0836145
00000000: 9e41 eebc fa29 243e 2854 713c 2d37 d3bd
00000010: 6226 2a3e 5584 093e fe6e 4fbe 5d5d 593e
00000020: a313 01be 5eb9 36be 680c 623e d262 703d
00000030: 15c4 77be ccf4 0dbe f974 1ebe 85d2 343e
00000040: c601 0c3e 35e5 42be 3063 85bd d757 4c3e
00000050: 4c99 ebbc 34e0 5e3e 7f91 88be 3cc3 28bd
00000060: 6480 0dbe ac02 9cbd 488c 6fbe ced6 05be
00000070: 7b34 45be a270 76be 5530 723e 2aa4 6c3c
00000080: d26d 59be 56ef 3fbe 5b73 06be 00c4 2c3e
00000090: 256d 70be f5eb 3c3e d987 a6bd dd63 e23d
000000a0: 3d13 1cbd b74e 16be d848 513e 97a6 683e
000000b0: cfa6 39be e935 ce3d f786 243e 57f6 773e
000000c0: 1851 20be d48a 1d3e 22a5 5b3e 7c71 423e
000000d0: ea4b 263e c020 b63e 6669 d7bd cc3c c5bc
000000e0: b068 b83b 4184 adbd 062c 4a3e 6587 643e
000000f0: c644 09be b14b 46be 23fb 7b3e f6e6 31bd
00000100: 5b46 8ebd 63f9 0dbe b10c cbbd 4aa1 febd
00000110: c6a4 60bc 9d96 0ebe 204c 1ebe 369a 9d3c
00000120: bb9b 1d3e db10 0cbd 5ad7 a2bd d36c a6bb
00000130: c1e7 b5bd 6055 3f3e 3eae c7bd 3870 ac3b
00000140: 75dc 283e b37e 60bd c4b6 cdbd 4205 043e
00000150: 038b 353e 860b 1ebe 157e 90bd 3075 5ebe
00000160: c88c 473e 6ea2 da3d fbd3 69be f0ae 3cbd
00000170: 5bdd 0abe 7282 5f3e af1a 463e 0ad1 3b3e
00000180: d101 8fbe 9599 e83d e8b2 863e ec9c 08be
00000190: 1065 583e d080 01be 3236 793e b55c d0bd
000001a0: 0422 4fbe e047 a6bd a2b1 1f3d c1a5 b9bd
000001b0: a881 47be 3d21 26be db14 5b3e 220a 91bd
000001c0: fb5e efbd 08bf 32be 6838 19bd bd41 c0bc
000001d0: 8f77 c2bd 39af eb3d 110a 5f3d 2386 2e3e
000001e0: 6c52 5cbe 0ab2 143b 0b26 bbbd 13a8 02be
000001f0: 3050 203e 2bc5 84bc 2d62 22be b539 1a3e
00000200: 0cd4 03bd 56e4 b23d 701d 99bc 62d9 76bd
00000210: a69b 84be b1ae 123e cda9 263e 27df 0e3e
00000220: 8b9b 22be 8b34 053e fd76 b2bd 3a74 8e3d
00000230: 3bd9 0f3d 6b57 223e 87dd ac3c d66e e6bb
00000240: 1dd5 393e d8db 04be 1f4d fd3d 10dc 693e
00000250: b1e4 903e ce41 043e 5cd2 3bbe ccfd 4e3e
00000260: 5019 873e 3ba7 b6bd 4868 e7bd b30e cdbd
00000270: 8ab5 4f3e 3eac 9abd 9a10 b4bd 3aef 89be
00000280: f937 30bd 08f2 1e3e 54af 13be 84ec 723e
00000290: 9a50 04be 424f 683d c535 96bd fcdf 2c3e
000002a0: 3d34 543e afd3 1a3e d460 65be e785 783c
000002b0: 7f40 67bd 3d05 51be 4c77 fc3d f4aa 10bd
000002c0: 7f04 093e 91d6 253e 9c4c c7bd 302d 093e
000002d0: cc2f 0ebe fbce 653e c605 313e f21c f73d
000002e0: 050c 55be 07d9 0f3e 976f b03d 1fcd b2bd
000002f0: ad56 15be 85f5 e03d eb4b 2bbe 2cee c6bd
00000300: 33d8 25bd adb9 23be 7a58 db3d dfbe da3c
00000310: 4b0c 48be b208 c3bd f7c2 0b3e e8cc 0c3e
00000320: 7f1c bcbb 2507 4cbe f869 3dbe 625f bcbd
00000330: b6cf 38be 42de 873e 7e63 ddbd e119 9abd
00000340: 60a5 5a3e f8cb 133e 4875 9e39 9239 e93d
00000350: 7f39 893e e25f 9abd 376e e2bd c15d 41be
00000360: 6e75 813d d537 29be b535 323e 05f2 41bd
00000370: 2816 b03d caff f53d ae24 7bbd 468e 9f3e
00000380: 996f 3e3e cd9f 0bbe f5ad d63d fdc9 4dbe
00000390: 4b96 833e 8060 033e 8fa0 d3bc d3ed 2f3e
000003a0: 7151 e73d ed88 74bd 7627 423e 9d76 67be
000003b0: cb29 3c3e 735b 32be f9ae 483e 4f46 1fbe
000003c0: 599f 013e 2dd2 0d3e ded8 dabd 1292 24be
000003d0: 97d5 2bbe d8b9 17bd 0099 fd3d 53c9 413d
000003e0: 2ac9 07be 6ae0 3fbe fa46 96bd f7dd 343e
000003f0: 1512 66bd d49a 6fbc 2334 2f3e 143e abbd

fc2.bias f4 [10]
0.034638345 0.13614866 -0.066234015 -0.10420951 -0.03111319 0.12419171 0.12684667 -0.13213964
0.08366861 -0.15559027
00000000: f0e0 0d3d 8e6a 0b3e b3a5 87bd cc6b d5bd
00000010: 17e1 febc 3958 fe3d 18e4 013e 9d4f 07be
00000020: 735a ab3d 0e53 1fbe
