proj5/task4/results/exp2_11.pth (torch, 91983 bytes, 8 tensors)

conv1.weight f4 [11, 1, 5, 5]
0.13333292 0.257427 0.08438122 0.2947895 -0.05573789 -0.009146832 0.06721497 0.419676
0.31632033 -0.18505603 0.17911986 0.27930668 0.52822495 0.21704634 0.13434686 -0.01899563
0.25969476 0.21469422 0.05339472 0.10356269 -0.1916212 -0.063881606 -0.00030948198 0.2379925
-0.1284235 -0.026518784 -0.08894533 -0.2893146 -0.2537551 -0.4520655 0.2268131 -0.16969341
0.03627026 -0.21433306 -0.23129797 0.21518995 0.17526694 0.31878325 0.20905584 0.16165902
0.12968835 0.11415122 0.36021388 0.53550035 0.40934548 -0.17870738 0.052649017 0.031869665
0.13558482 -0.002338701 -0.27010006 -0.023318129 -0.039448187 0.23366325 0.07779411 0.0010523604
0.17726381 0.1928003 0.20852172 -0.23535751 0.053948484 0.114763044 0.2949878 -0.0712813
-0.13525161 0.12691267 0.3834845 -0.012707873 -0.19810665 -0.26540437 0.366523 0.21725658
0.13007611 -0.30330244 -0.3406595 -0.29870152 -0.20199016 0.13972844 0.24414411 0.37464654
-0.2130751 -0.102774926 0.25569716 0.114503 0.28906134 -0.13171943 0.1798843 0.011451462
0.0286007 0.114574626 0.00020025062 -0.00373534 0.19012906 0.17432685 -0.20469464 -0.08725539
0.1772437 -0.072040156 -0.09866529 -0.27385974 -0.17893451 -0.026390726 -0.083168805 -0.18991143
-0.048420552 -0.18506284 -0.25036892 -0.17795739 -0.23711143 -0.18951857 0.17502141 -0.04193656
-0.023290124 -0.2557579 -0.19876838 -0.028001385 0.019134192 -0.23462659 -0.15370226 -0.18299934
0.10128747 -0.039221644 -0.036502924 -0.19792075 -0.21002497 -0.13474631 -0.08617929 -0.18840401
0.09891339 -0.0381275 0.071834 -0.0146969035 -0.23666252 0.06369314 -0.0622331 -0.19906549
-0.230431 -0.22008088 0.08359878 0.004553253 -0.029208457 -0.1890586 0.23258525 -0.0024957405
0.07417366 0.06614286 0.24905786 0.3749006 0.35441333 -0.08941107 0.05616577 -0.08759443
-0.02601237 -0.18586645 0.20710294 -0.12981597 0.19590893 0.1669219 0.08594869 -0.05708971
0.24301593 0.15289634 0.11547658 -0.17396599 0.10033504 -0.08197739 -0.12453831 0.19070981
0.013609749 -0.13841447 -0.22604616 -0.08485228 0.104332365 -0.10323147 -0.16250376 -0.057136804
-0.04180821 0.22774594 0.2720338 -0.18794839 -0.017061245 0.16397113 0.21253376 0.034093563
0.030343426 -0.008137601 0.07602708 0.13336763 0.055905785 -0.086126454 -0.14224467 -0.08404073
0.28037483 0.35342544 -0.006039085 -0.11815067 -0.020219317 0.0795571 0.21848384 0.17205252
-0.24749474 -0.14815475 0.1371051 0.101031564 0.03622473 -0.1898377 -0.27740002 -0.30128717
-0.13644183 0.057067562 0.20363165 0.049395256 -0.23861305 -0.1846219 -0.07722942 0.3482913
0.15530303 0.006377673 0.090271026 -0.08477664 -0.10038211 0.2507316 0.03401564 0.036814075
-0.15807144 0.2649321 0.30542836 0.2807767 0.10134336 0.038037267 -0.017002571 0.2846277
0.2368642 0.34894803 0.24324098 0.023937043 -0.08064324 -0.22683229 -0.21025276 -0.23505831
-0.02917906 -0.24502118 -0.188476 -0.2076146 -0.122796334 -0.25791407 -0.272974 -0.062176015
-0.089442424 0.08769375 -0.118441634 -0.24537556 -0.15542997 -0.16298921 -0.021429153 -0.3217509
00000000: 6d88 083e 79cd 833e 10d0 ac3d a6ee 963e
00000010: 6a4d 64bd 98dc 15bc 01a8 893d c6df d63e
00000020: bdf4 a13e 547f 3dbe 326b 373e 4901 8f3e
00000030: c039 073f 6541 5e3e 3992 093e b99c 9bbc
00000040: b6f6 843e cdd8 5b3e 6cb4 5a3d ad18 d43d
00000050: 5938 44be 5cd4 82bd f841 a2b9 4eb4 733e
00000060: 7381 03be ec3d d9bc f828 b6bd 0b21 94be
00000070: 30ec 81be 2175 e7be b141 683e 1cc4 2dbe
00000080: 2090 143d 207a 5bbe 60d9 6cbe c15a 5c3e
00000090: 2d79 333e 8f37 a33e bc12 563e f189 253e
000000a0: 06cd 043e 1dc8 e93d f46d b83e 8d16 093f
000000b0: bb95 d13e 11ff 36be 7fa6 573d c489 023d
000000c0: bfd6 0a3e e444 19bb 8e4a 8abe a905 bfbc
000000d0: 6c94 21bd 6b45 6f3e 8552 9f3d 5bef 893a
000000e0: a584 353e 716d 453e b886 553e 8f01 71be
000000f0: 16f9 5c3d e308 eb3d a408 973e eefb 91bd
00000100: 667f 0abe 65f5 013e 1558 c43e af34 50bc
00000110: 78dc 4abe 15e3 87be e7a8 bb3e 8278 5e3e
00000120: ac32 053e 754a 9bbe ec6a aebe 68ef 98be
00000130: 82d6 4ebe f914 0f3e ea00 7a3e acd1 bf3e
00000140: 5c30 5abe a97b d2bd bdea 823e 8d80 ea3d
00000150: d9ff 933e 75e1 06be 9733 383e ea9e 3b3c
00000160: 044c ea3c 1aa6 ea3d 5efa 5139 9bcc 74bb
00000170: 31b1 423e bd82 323e 799b 51be f4b2 b2bd
00000180: 5f7f 353e ca89 93bd 0711 cabd 5837 8cbe
00000190: 9c3a 37be 5d31 d8bc 6854 aabd 2478 42be
000001a0: a154 46bd 1d81 3dbe 5b30 80be 763a 36be
000001b0: 57cd 72be 2811 42be d038 333e acc5 2bbd
000001c0: eeca bebc b3f2 82be f089 4bbe 2963 e5bc
000001d0: 4fbf 9c3c f441 70be 2064 1dbe 2e64 3bbe
000001e0: ce6f cf3d e0a6 20bd 1784 15bd bdab 4abe
000001f0: c910 57be f0fa 09be c57e b0bd fbec 40be
00000200: 1a93 ca3d 952b 1cbd b41d 933d 48cb 70bc
00000210: a957 72be 8d71 823d 23e8 7ebd d3d7 4bbe
00000220: 1bf6 6bbe e25c 61be d635 ab3d 7433 953b
00000230: 9346 efbc 9498 41be d42a 6e3e 948f 23bb
00000240: 5ce8 973d e875 873d 0609 7f3e f9f2 bf3e
00000250: aa75 b53e 271d b7bd 140e 663d b564 b3bd
00000260: e517 d5bc c653 3ebe cb12 543e 7aee 04be
00000270: 5a9c 483e 93ed 2a3e de05 b03d e6d6 69bd
00000280: 2bd9 783e dc90 1c3e fc7e ec3d 2424 32be
00000290: 757c cd3d c3e3 a7bd f10d ffbd 6f49 433e
000002a0: 6dfb 5e3c 86bc 0dbe a578 67be 08c7 adbd
000002b0: 35ac d53d 056b d3bd 6367 26be 4808 6abd
000002c0: 163f 2bbd 3b36 693e 0448 8b3e 8b75 40be
000002d0: 06c4 8bbc 0ce8 273e 73a2 593e b1a5 0b3d
000002e0: c792 f83c 9353 05bc 16b4 9b3d 8691 083e
000002f0: 77fd 643d 1163 b0bd 96a8 11be 8c1d acbd
00000300: 4a8d 8f3e 2ef4 b43e 84e3 c5bb faf8 f1bd
00000310: fba2 a5bc d5ee a23d 3aba 5f3e 892e 303e
00000320: 436f 7dbe e1b5 17be 4865 0c3e a3e9 ce3d
00000330: 6260 143d d064 42be 6007 8ebe 5042 9abe
00000340: 68b7 0bbe adbf 693d d184 503e ae52 4a3d
00000350: fb56 74be 860d 3dbe 752a 9ebd 3d53 b23e
00000360: c207 1f3e ccfb d03b 04e0 b83d 609f adbd
00000370: 2395 cdbd e45f 803e fc53 0b3d 5bca 163d
00000380: 7bdd 21be 2ea5 873e 1b61 9c3e f7c1 8f3e
00000390: 1c8d cf3d f7cc 1b3d fa48 8bbc b9ba 913e
000003a0: 878c 723e 51a9 b23e 2a14 793e 9e17 c43c
000003b0: 4828 a5bd b946 68be 804c 57be 20b3 70be
000003c0: ed08 efbc d5e6 7abe daff 40be ec98 54be
000003d0: a57c fbbd 500d 84be 40c3 8bbe 47ac 7ebd
000003e0: 972d b7bd c898 b33d 8791 f2bd bb43 7bbe
000003f0: 0929 1fbe a5e6 26be 318c afbc 89bc a4be

conv1.bias f4 [11]
0.21654584 0.034670588 -0.024367277 0.12996934 -0.057244014 -0.014028591 -0.0322533 0.02515093
-0.06754387 0.0008163955 0.0050213323
00000000: 31be 5d3e bf02 0e3d e29d c7bc af16 053e
00000010: b378 6abd 2dd8 65bc 091c 04bd 5309 ce3c
00000020: 7154 8abd 6003 563a fd89 a43b

conv2.weight f4 [20, 11, 5, 5]
-0.011730733 0.11803726 0.047965325 -0.045400187 -0.08033472 -0.013450685 0.007948843 0.020599287
0.05354169 -0.04969039 -0.068324745 0.035388123 0.013165112 0.12094781 0.019770587 -0.061440747
-0.0615183 -0.055484712 0.055389497 0.093032226 -0.06629718 -0.046348426 -0.085079305 -0.01660593
0.08918109 0.08668513 0.023741359 0.07242075 0.066167355 -0.011095546 0.028590256 0.10829159
0.037231684 0.068452224 -0.08560199 0.010258139 0.066093184 0.07519433 0.07560074 -0.028516827
-0.038013782 -0.11880564 -0.14351228 0.010909725 0.097919345 0.05827552 -0.0019581912 -0.056622643
0.02476718 -0.07928027 -0.038917944 0.028392278 -0.049197547 0.010476393 0.052214332 -0.06982485
-0.10017581 -0.103119425 -0.052478798 0.03012666 -0.00050037965 -0.07916445 -0.086679675 -0.020478912
0.011541481 -0.0076490804 0.043003485 -0.0018479844 -0.11995756 -0.061871797 0.023482667 0.015796203
-0.030967709 0.04462091 -0.019949684 -0.045429617 -0.07098386 -0.021514067 0.023826253 0.0047827982
0.04242286 -0.06203952 -0.121567875 -0.040321283 0.012040297 0.06405209 -0.024893517 -0.04255177
-0.092822775 -0.11233726 0.036361538 0.064058304 0.09573247 -0.055278044 -0.047619548 -0.046782356
0.005516314 0.07526891 0.067654215 0.053452443 -0.064438425 -0.049517583 -0.004378958 -0.03324286
-0.025866758 -0.047984805 0.006116433 -0.002528413 0.0056223115 -0.032207675 -0.06604161 0.0031634343
0.009253494 -0.047363423 0.0017271753 0.042152338 0.014056423 -0.0005273103 -0.04317054 -0.064159766
-0.06505407 -0.029585993 -0.021696474 0.0034237532 -0.042250954 -0.04299645 0.04664658 0.026625333
0.051487513 -0.030428562 -0.018250076 0.040748663 -0.0376355 -0.04017542 -0.04428167 0.0020387059
-0.050825987 -0.023352575 -0.0046685757 -0.04574041 -0.007136643 -0.075990275 -0.05025703 -0.015016523
-0.030748997 0.053690784 0.01092068 0.052423116 -0.041030772 0.027318854 -0.018508356 0.0140440725
0.009709944 0.039782446 0.0020745764 0.042925194 -0.0017881041 0.06328616 0.102117 0.003836221
-0.05380267 0.04023109 0.053772956 -0.00036895645 0.03568577 -0.057866067 -0.05213698 -0.008307395
0.01449717 0.046489753 -0.024945857 0.041820746 -0.015205027 -0.057402823 0.012652108 0.035601106
0.05312646 -0.018148094 0.039032068 -0.060938105 -0.022211378 0.0119920485 0.1179989 0.13526763
0.026643777 0.001522046 0.022832133 0.038868368 0.09848264 0.049476195 -0.057781085 -0.07890285
-0.028979039 0.07587577 0.067391165 -0.008897259 -0.056650545 -0.026616545 -0.04732467 -0.08195499
0.0050330427 -0.012830006 0.07866373 0.09147157 0.025499448 -0.011729732 -0.00058038515 0.024355609
0.05521464 0.048084985 0.02063158 0.061760694 -0.014040339 0.010749028 0.05686913 -0.029265974
0.0050660428 0.039921705 0.046834458 0.04762042 -0.051056355 -0.046377625 -0.028407194 0.0023701917
0.0077112536 -0.09269711 -0.018653408 -0.074708775 -0.055794787 -0.050975334 0.08797988 0.009548758
0.06521303 -0.03240976 -0.054168317 0.043491885 0.010470387 -0.011316767 -0.033610452 -0.0886556
0.045475066 0.028761448 -0.0011393457 -0.00640112 -0.009418286 0.0056203203 0.0062290886 0.043596078
0.032324057 0.041298013 -0.031807806 0.0176648 -0.011396538 0.09353885 -0.059491858 -0.024491569
00000000: 4332 40bc 85bd f13d 4a77 443d 8cf5 39bd
00000010: 8886 a4bd 4360 5cbc dd3b 023c d6bf a83c
00000020: 884e 5b3d 2688 4bbd d8ed 8bbd 23f3 103d
00000030: 7bb2 573c 7cb3 f73d edf5 a13c 4ba9 7bbd
00000040: 9dfa 7bbd f043 63bd 19e0 623d ae87 be3d
00000050: d1c6 87bd d9d7 3dbd 0f3e aebd 2909 88bc
00000060: 93a4 b63d f987 b13d 3d7d c23c 5551 943d
00000070: c082 873d 18ca 35bc 1d36 ea3c fbc7 dd3d
00000080: 4080 183d ae30 8c3d 1950 afbd c111 283c
00000090: dd5b 873d 7cff 993d 90d4 9a3d 1f9c e9bc
000000a0: 57b4 1bbd 5f50 f3bd e2f4 12be b4be 323c
000000b0: f089 c83d 50b2 6e3d ff54 00bb 25ed 67bd
000000c0: 8be4 ca3c b25d a2bd 6c68 1fbd ec96 e83c
000000d0: 5e83 49bd 2da5 2b3c b2de 553d 5500 8fbd
000000e0: fa28 cdbd 4730 d3bd 02f4 56bd 2fcc f63c
000000f0: e92b 03ba f920 a2bd 1d85 b1bd 64c3 a7bc
00000100: 7b18 3d3c 23a5 fabb 6c24 303d 1138 f2ba
00000110: 4fac f5bd 486d 7dbd b95e c03c 0a67 813c
00000120: feaf fdbc 6ac4 363d 856d a3bc 6814 3abd
00000130: fc5f 91bd 453e b0bc 462f c33c 05b9 9c3b
00000140: 98c3 2d3d 271d 7ebd 94f8 f8bd ee27 25bd
00000150: aa44 453c be2d 833d 7ded cbbc c44a 2ebd
00000160: de19 bebd 1411 e6bd d6ef 143d 0031 833d
00000170: 630f c43d 3b6b 62bd b70c 43bd db9e 3fbd
00000180: 32c2 b43b 9626 9a3d 4b8e 8a3d f3f0 5a3d
00000190: 4bf8 83bd f3d2 4abd 5d7d 8fbb aa29 08bd
000001a0: 86e6 d3bc b78b 44bd 5c6c c83b bbb3 25bb
000001b0: 5e3b b83b 32ec 03bd d340 87bd 9f51 4f3b
000001c0: f89b 173c 2600 42bd 6362 e23a eea7 2c3d
000001d0: e94c 663c 323b 0aba 98d3 30bd 3266 83bd
000001e0: 113b 85bd 535e f2bc cebc b1bc 0c61 603b
000001f0: 560f 2dbd 0c1d 30bd 7c10 3f3d 5f1d da3c
00000200: 92e4 523d 5245 f9bc 2f81 95bc 12e8 263d
00000210: af27 1abd fb8e 24bd b260 35bd cf9b 053b
00000220: e92e 50bd e64d bfbc dafa 98bb 4c5a 3bbd
00000230: 80da e9bb caa0 9bbd 51da 4dbd dd07 76bc
00000240: 52e5 fbbc deea 5b3d a7ec 323c 9fb9 563d
00000250: e20f 28bd cacb df3c d69e 97bc 1c19 663c
00000260: 7516 1f3c ebf2 223d 9ef5 073b 54d2 2f3d
00000270: d15e eaba 2d9c 813d b822 d13d 1c69 7b3b
00000280: 3060 5cbd 5bc9 243d 0841 5c3d 7f70 c1b9
00000290: 3e2b 123d f804 6dbd 968d 55bd bd1b 08bc
000002a0: 8a85 6d3c 0a6c 3e3d 415b ccbc 3b4c 2b3d
000002b0: 811e 79bc 391f 6bbd ca4a 4f3c 77d2 113d
000002c0: 229b 593d 50ab 94bc 17e0 1f3d 3c9a 79bd
000002d0: a3f4 b5bc 4c7a 443c 68a9 f13d 9983 0a3e
000002e0: 0d44 da3c 647f c73a 740a bb3c 7034 1f3d
000002f0: 44b1 c93d 8da7 4a3d dcab 6cbd d197 a1bd
00000300: 7365 edbc c164 9b3d 6104 8a3d cfc5 11bc
00000310: 670a 68bd f10a dabc 83d7 41bd 05d8 a7bd
00000320: 39ec a43b f234 52bc 731a a13d 7255 bb3d
00000330: 38e4 d03c 102e 40bc fd24 18ba 6a85 c73c
00000340: bf28 623d c3f4 443d 8f03 a93c c8f8 7c3d
00000350: 7309 66bc b11c 303c 9bef 683d 32bf efbc
00000360: 0c01 a63b f184 233d 7dd5 3f3d a10d 433d
00000370: 7820 51bd 77f6 3dbd 34b6 e8bc 3855 1b3b
00000380: afae fc3b fbd7 bdbd 08cf 98bc ea00 99bd
00000390: 1389 64bd 83cb 50bd cc2e b43d 6572 1c3c
000003a0: 698e 853d 19c0 04bd 99df 5dbd 8c24 323d
000003b0: fc8b 2b3c f669 39bc 1dab 09bd 1191 b5bd
000003c0: 1044 3a3d 219d eb3c 1956 95ba 7dc0 d1bb
000003d0: 284f 1abc aa2a b83b 621d cc3b cd91 323d
000003e0: 3b66 043d 1b28 293d e748 02bd c5b5 903c
000003f0: 8bb8 3abc 4c91 bf3d bcad 73bd 8ba2 c8bc

conv2.bias f4 [20]
-0.0047650384 -0.044687357 0.04354244 -0.091639414 -0.03115953 -0.017070476 -0.082312904 0.024123358
-0.015298928 -0.035988096 0.036983334 -0.005826892 0.013177683 -0.015245573 0.026456919 0.07040321
0.03790643 -0.04426119 -0.06488936 -0.04213206
00000000: 0a24 9cbb 170a 37bd 8f59 323d 72ad bbbd
00000010: 4542 ffbc 62d7 8bbc ab93 a8bd 599e c53c
00000020: 5ba8 7abc 4168 13bd d67b 173d 83ef bebb
00000030: 35e7 573c 91c8 79bc 2ebc d83c 8f2f 903d
00000040: c643 1b3d 394b 35bd b6e4 84bd ab92 2cbd

fc1.weight f4 [50, 320]
-0.0148401065 -0.0147422245 0.05825442 0.033160497 0.013785952 -0.07571107 -0.043212265 0.0034791452
0.015703073 -0.12560453 -0.027323714 -0.013477718 0.044062976 -0.017109444 -0.046991292 0.00031014
-0.0028370526 -0.0009876663 0.03313903 0.047389578 0.01454527 -0.013050807 -0.018811626 0.0010141514
0.025416687 -0.06958835 0.0391485 0.027323306 -0.049189556 -0.044264276 -0.043342292 -0.044037346
0.04414646 0.033153698 0.0010790685 -0.00703379 0.018443275 0.0011362475 -0.11552003 -0.051476732
-0.041987166 -0.086245164 0.03420077 -0.047688656 -0.035493612 0.03677606 0.0114134895 0.037253425
-0.053126704 0.022414748 -0.042989727 -0.077031754 0.057613987 0.047738474 -0.08037084 -0.016708802
0.012105724 -0.027700642 -0.01312421 -0.0041409186 -0.034722585 0.058104515 0.0010363705 0.009955778
0.0039348686 -0.0029168488 -0.010713688 -0.058708165 -0.037121262 0.000332851 -0.009526808 0.0044835457
0.0155501915 -0.045241863 0.029888822 0.0024757436 0.0045936247 -0.008282533 0.017461346 0.032436375
0.049444467 -0.014800485 0.042193957 0.061874285 -0.036808256 -0.003601114 -0.05330286 -0.025179485
-0.063888684 -0.08059954 -0.046103433 -0.04129563 0.012097482 0.067786045 0.007725875 -0.032469947
0.015141552 -0.0420761 0.034332447 -0.023690648 -0.002555431 -0.030240368 0.050683636 0.017351963
0.041582182 -0.11855253 -0.004671259 0.043998204 0.03306636 -0.086458266 -0.08339554 0.029466016
0.011124659 -0.024902726 0.05328775 -0.02026925 -0.012982944 0.022476152 0.059113074 -0.047506552
-0.0023142959 -0.018155145 -0.021007044 -0.018898478 -0.0024531933 0.027421134 -0.04440662 0.05393301
0.019480791 -0.018390246 0.00058531004 -0.025653325 -0.116051696 0.033535663 0.017422676 -0.024342984
-0.058977894 0.016543888 -0.0047927257 -0.045632537 -0.0715678 -0.06153764 -0.005327908 0.016479686
-0.026556322 -0.027418796 0.035318226 -0.0041327444 0.030332837 -0.054277897 -0.061429657 -0.017112786
-0.04367841 0.0018439696 -0.04929693 0.05782773 -0.033178 0.005086705 0.062450457 -0.011852181
-0.06713476 0.00073825323 0.014322298 0.0035727634 -0.012424202 -0.056032322 -0.10008136 0.045403354
-0.058748238 -0.104114406 -0.006445681 -0.0583737 0.013286749 0.019308718 0.033396054 -0.10674022
0.03920453 0.031388372 -0.0077869436 0.01871908 -0.013307139 -0.059190575 0.04323832 -0.061808232
-0.0016518937 -0.030525448 0.0012748865 -0.033176664 -0.020396609 -0.068663396 -0.024266135 -0.0011433023
-0.066320926 -0.054042872 -0.02546209 -0.015608793 0.031051068 -0.0135787055 -0.046951212 -0.056225687
0.04950487 0.0008583057 -0.01820584 0.056483015 -0.004968321 -0.013783336 0.066142656 0.043275896
-0.049382307 -0.03173023 -0.019603863 0.031257592 -0.016608937 0.055650625 -0.018516611 0.02759217
0.06070221 -0.010904039 0.022172667 0.0025032102 0.049250506 -0.0045307456 -0.05666008 -0.036168326
0.021270864 -0.06690248 -0.008232497 0.033846367 -0.014912714 -0.08201203 0.022087526 0.00272628
0.021503322 -0.059976906 -0.03304574 0.0057783537 0.064888306 -0.027768537 -0.01030359 0.01927659
-0.0528932 -0.009111466 -0.0110278055 -0.0070735984 0.02252535 0.02057464 0.008199194 -0.07262421
-0.036721792 0.031241894 0.025184035 -0.007583805 0.01938474 0.019647801 0.050446115 0.04812625
00000000: eb23 73bc 5f89 71bc 309c 6e3d 4dd3 073d
00000010: 79de 613c 680e 9bbd 58ff 30bd 5f02 643b
00000020: bba3 803c 799e 00be fbd5 dfbc a6d1 5cbc
00000030: 617b 343d 1b29 8cbc f179 40bd 499a a239
00000040: d8ed 39bb 9574 81ba cbbc 073d 931b 423d
00000050: 494f 6e3c 0dd3 55bc d71a 9abc 46ed 843a
00000060: a836 d03c 5684 8ebd 2d5a 203d 20d5 df3c
00000070: fd7a 49bd 754e 35bd b087 31bd 8160 34bd
00000080: ebd2 343d 2ccc 073d 886f 8d3a b57b e6bb
00000090: 5a16 973c 24ee 943a c495 ecbd 44d9 52bd
000000a0: bcfa 2bbd 4ea1 b0bd 1b16 0c3d 2e55 43bd
000000b0: c061 11bd 7ea2 163d a5ff 3a3c 0c97 183d
000000c0: 639b 59bd 229f b73c ff15 30bd d3c2 9dbd
000000d0: a5fc 6b3d 6b89 433d 7899 a4bd e6e0 88bc
000000e0: 1657 463c 75ec e2bc ed06 57bc 8bb0 87bb
000000f0: 4539 0ebd 00ff 6d3d d3d6 873a 8f1d 233c
00000100: 12f0 803b 9a28 3fbb 7788 2fbc f977 70bd
00000110: 770c 18bd 8182 ae39 5416 1cbc b5ea 923b
00000120: 3bc6 7e3c 884f 39bd 67d9 f43c 1640 223b
00000130: 1e86 963b 76b3 07bc 190b 8f3c 01dc 043d
00000140: 4886 4a3d bc7d 72bc 92d3 2c3d e46f 7d3d
00000150: 41c4 16bd ab00 6cbb 1a54 5abd 3545 cebc
00000160: 12d8 82bd 5f11 a5bd f4d6 3cbd 9b25 29bd
00000170: 8434 463c 69d3 8a3d 5629 fd3b 35ff 04bd
00000180: 4614 783c fd57 2cbd 2ea0 0c3d e412 c2bc
00000190: 0579 27bb a6ba f7bc a599 4f3d b425 8e3c
000001a0: 1452 2a3d abcb f2bd 5c11 99bb 7637 343d
000001b0: 9770 073d 0811 b1bd 48cb aabd b762 f13c
000001c0: 3444 363c cd00 ccbc 4144 5a3d b30b a6bc
000001d0: 6ab6 54bc e81f b83c 8d20 723d 3b96 42bd
000001e0: 71ab 17bb 19ba 94bc f716 acbc fbd0 9abc
000001f0: c1c5 20bb 49a2 e03c b7e3 35bd dce8 5c3d
00000200: 2e96 9f3c 24a7 96bc 7e6f 193a ec26 d2bc
00000210: 83ac edbd b15c 093d 00ba 8e3c f06a c7bc
00000220: ce92 71bd 0c87 873c 4c0c 9dbb 2fe9 3abd
00000230: 2492 92bd e40e 7cbd bb95 aebb 6800 873c
00000240: a58c d9bc 629d e0bc d8a9 103d f96b 87bb
00000250: 927c f83c 8052 5ebd aa9d 7bbd 1d30 8cbc
00000260: 22e8 32bd 5ab1 f13a 94eb 49bd c5dc 6c3d
00000270: a8e5 07bd 60ae a63b 0dcc 7f3d a62f 42bc
00000280: f37d 89bd 5687 413a 12a8 6a3c 0625 6a3b
00000290: e18e 4bbc 2682 65bd 75f7 ccbd def8 393d
000002a0: fea1 70bd ef39 d5bd 4b36 d3bb 4319 6fbd
000002b0: aab0 593c 512d 9e3c 4dca 083d 9e9a dabd
000002c0: ee94 203d 1891 003d 9e29 ffbb c258 993c
000002d0: 3006 5abc d171 72bd aa1a 313d a12a 7dbd
000002e0: 5b84 d8ba 8110 fabc 181a a73a 41e4 07bd
000002f0: ca16 a7bc 659f 8cbd c6c9 c6bc dcda 95ba
00000300: 44d3 87bd 0f5c 5dbd df95 d0bc 06bc 7fbc
00000310: cf5e fe3c 3879 5ebc ea4f 40bd e84c 66bd
00000320: 9ec5 4a3d ecff 603a 6a24 95bc bc5a 673d
00000330: 4ccd a2bb 80d3 61bc cd75 873d 1142 313d
00000340: 1a45 4abd 8ff7 01bd 4898 a0bc f607 003d
00000350: 770f 88bc e9f1 633d 26b0 97bc f908 e23c
00000360: e1a2 783d dba6 32bc 74a3 b53c e60c 243b
00000370: e6ba 493d a676 94bb 6614 68bd 3d25 14bd
00000380: 3c40 ae3c 2b04 89bd 98e1 06bc 7da2 0a3d
00000390: 7554 74bc ecf5 a7bd e6f0 b43c 63ab 323b
000003a0: bc27 b03c 58aa 75bd f85a 07bd 5858 bd3b
000003b0: 29e4 843d d87a e3bc 64d0 28bc f0e9 9d3c
000003c0: 8aa6 58bd 4248 15bc f8ad 34bc a5c9 e7bb
000003d0: 1587 b83c 268c a83c ea55 063c 00bc 94bd
000003e0: 9769 16bd 00ef ff3c c04e ce3c 9181 f8bb
000003f0: bfcc 9e3c 6df4 a03c 96a0 4e3d 0820 453d

fc1.bias f4 [50]
0.06158399 0.032240514 0.06737965 0.035311915 0.03726912 0.012116045 -0.009869577 0.040100206
0.010875331 0.07704517 0.06601249 0.0002265821 0.066116616 -0.04279343 0.052174833 -0.05490676
0.022505142 0.010598634 0.040288594 -0.0063995454 0.07923963 -0.040069126 0.025805956 0.09257742
0.037441943 -0.03679276 -0.019311642 0.007780261 0.043295488 0.05955405 0.047866248 0.041679025
0.009240715 -0.0033966182 0.014056608 0.035859577 -0.023942562 0.01966017 -0.030515078 0.02802969
0.0021104037 -0.028756443 -0.037696373 -0.023536965 0.061797976 -0.00934255 0.032924507 -0.013191128
0.07482241 -0.0406372
00000000: 7e3f 7c3d a10e 043d 58fe 893d 3aa3 103d
00000010: 81a7 183d 6082 463c 02b4 21bc 1d40 243d
00000020: 722e 323c dcc9 9d3d 8e31 873d ab96 6d39
00000030: 2668 873d 2a48 2fbd 47b5 553d e9e5 60bd
00000040: b45c b83c e5a5 2d3c a705 253d 47b3 d1bb
00000050: 6348 a23d 861f 24bd 0367 d33c 3b99 bd3d
00000060: b95c 193d 01b4 16bd 7333 9ebc 8ff1 fe3b
00000070: 9c56 313d f3ee 733d 660f 443d a0b7 2a3d
00000080: 5e66 173c cc99 5ebb b04d 663c 7ee1 123d
00000090: 3123 c4bc 5d0e a13c c2fa f9bc 859e e53c
000000a0: b34e 0a3b a292 ebbc 8367 1abd 98d0 c0bc
000000b0: e01f 7d3d 7f11 19bc d9db 063d 9a1f 58bc
000000c0: 7e3c 993d 3173 26bd

fc2.weight f4 [10, 50]
0.31031793 0.111373894 -0.058512866 0.054590642 -0.25980598 -0.18369353 -0.19855002 0.31228343
-0.06916687 0.1249944 -0.23091432 0.21251887 0.1983474 -0.16874713 -0.14820378 0.12890567
-0.052962054 -0.027753092 0.14033869 0.25034347 -0.12808403 -0.10380555 -0.15073068 -0.06431067
-0.10151063 -0.18013655 -0.07774903 0.15142281 0.14506051 -0.14498469 0.15436557 -0.14974628
0.17861763 0.21954764 -0.21899939 -0.14983505 0.009331476 -0.105212145 0.09990793 0.20248246
0.18826632 -0.1673492 -0.002067572 -0.09751632 0.144777 0.079819754 0.14641897 -0.1694228
-0.19088241 0.2651242 0.020509169 -0.16184175 0.24842073 -0.13412301 0.18278529 0.270733
-0.23630379 -0.05233165 0.24392098 -0.004285713 0.14682655 -0.06056579 -0.12031509 0.02627547
0.1531114 -0.14630315 -0.15937997 -0.05158266 -0.21266107 0.027515931 0.21272206 -0.18149881
-0.10105543 0.27250382 0.16354902 0.18225488 -0.1347658 -0.115690306 0.09288895 0.13349818
-0.07416843 0.16011527 0.18999214 0.16779725 -0.22608042 0.24951956 -0.09651823 -0.12945414
-0.2542147 -0.12753473 -0.13953033 -0.1153165 -0.2365776 -0.11115245 -0.09281885 0.01846287
-0.28120095 -0.22387427 0.20460112 -0.16708758 -0.07825342 -0.09922086 0.077399455 0.08013521
-0.2186564 -0.1628773 -0.039291855 0.09245463 -0.009369236 0.07648872 -0.18556222 -0.022611698
-0.06678045 0.20998271 -0.03939028 0.18559918 0.09243551 -0.01768068 -0.07241841 -0.13774061
0.20246375 0.18171534 0.15463254 -0.11228452 -0.12306849 0.24896103 -0.023118569 -0.026255436
-0.091240674 0.13973048 0.13540474 0.1825272 0.19015887 0.1535073 -0.14428122 -0.042413916
-0.12390798 0.19995745 0.104805045 0.12505749 0.1935507 -0.12488092 -0.041284613 -0.11839612
-0.022045597 0.23669241 -0.19514394 0.12692113 -0.08569842 0.03372547 -0.020288097 0.15888284
-0.12199698 0.098715015 0.18597525 -0.07228613 -0.049097728 -0.0013504447 -0.12776142 -0.122456945
-0.0877222 -0.12819633 -0.08465076 0.114280425 -0.19981259 0.1570726 0.15095127 -0.06417098
0.15410939 -0.12134602 0.2072795 -0.103843726 0.18632436 -0.18889327 -0.050671585 0.111836694
0.034086723 0.0038134602 0.047919836 0.10926856 0.15586741 0.17131712 0.00016703407 -0.076929085
0.13004859 0.24413703 0.21095793 -0.005280314 -0.0839759 -0.069215104 -0.13853902 0.141774
0.24170724 0.12291107 -0.12600838 -0.04320365 -0.20321177 -0.037229978 -0.25613308 -0.06973536
0.053084508 0.088382505 0.24652515 -0.21745862 0.15426864 0.2492467 0.104462445 -0.123455234
-0.047699124 -0.25630403 0.13817847 0.09964604 -0.14429899 -0.23707716 0.15659659 -0.1789399
0.14324589 0.15645143 -0.24676222 0.011828318 -0.18481208 0.21832746 -0.08317797 0.28323135
-0.13649213 -0.213968 -0.14543152 -0.22907454 -0.15709333 -0.17485198 -0.20224851 -0.24618742
-0.1398147 -0.23413904 0.15471853 -0.031243064 -0.0060368422 0.15482159 0.18752958 0.18384829
-0.12841097 0.00086601445 0.06481625 0.21005917 0.12067018 0.24429019 -0.0010172547 0.18336195
0.18825732 -0.047722094 -0.085105896 0.1761616 0.069072165 0.105833724 0.17964736 -0.18557332
00000000: fee1 9e3e ff17 e43d 30ab 6fbd 709a 5f3d
00000010: 4a05 85be 281a 3cbe b250 4bbe 9de3 9f3e
00000020: 5ca7 8dbd 10fd ff3d ce74 6cbe 8c9e 593e
00000030: 951b 4b3e 0ccc 2cbe bbc2 17be d9ff 033e
00000040: bdee 58bd 745a e3bc f2b4 0f3e 052d 803e
00000050: 7628 03be 0198 d4bd 2559 1abe 50b5 83bd
00000060: cee4 cfbd b775 38be e23a 9fbd 950e 1b3e
00000070: be8a 143e de76 14be 0212 1e3e 1757 19be
00000080: 8ae7 363e 19d1 603e 6041 60be 5c6e 19be
00000090: 0ce3 183c 7779 d7bd 879c cc3d 9057 4f3e
000000a0: e3c8 403e 975d 2bbe 1a80 07bb a3b6 c7bd
000000b0: 6c40 143e 8a78 a33d dbee 153e 2c7d 2dbe
000000c0: ae76 43be 5cbe 873e d802 a83c d8b9 25be
000000d0: 0162 7e3e 8b57 09be 112c 3b3e 849d 8a3e
000000e0: 9ff9 71be b659 56bd 6cc6 793e 2b6f 8cbb
000000f0: b359 163e d513 78bd c267 f6bd a83f d73c
00000100: 3cc9 1c3e 7ed0 15be 8134 23be 5748 53bd
00000110: d3c3 59be 1769 e13c d0d3 593e d3da 39be
00000120: 26f6 cebd 9f85 8b3e 6579 273e 06a1 3a3e
00000130: 0c00 0abe 0aef ecbd 903c be3d bfb3 083e
00000140: 9ee5 97bd 42f5 233e 4d8d 423e 0bd3 2b3e
00000150: a081 67be 0e82 7f3e 5aab c5bd a08f 04be
00000160: 6e28 82be 7798 02be 0ae1 0ebe 0f2b ecbd
00000170: 6641 72be e5a3 e3bd cf17 bebd 723f 973c
00000180: 92f9 8fbe 4c3f 65be f582 513e 0219 2bbe
00000190: 5443 a0bd 4e34 cbbd 9b83 9e3d ee1d a43d
000001a0: 77e7 5fbe 4fc9 26be 7ff0 20bd da58 bd3d
000001b0: 6d81 19bc 1ea6 9c3d 0604 3ebe 2b3c b9bc
000001c0: 30c4 88bd b505 573e b457 21bd b60d 3e3e
000001d0: d44e bd3d 13d7 90bc 1a50 94bd e00b 0dbe
000001e0: a852 4f3e 9613 3a3e fe57 1e3e 6df5 e5bd
000001f0: 550b fcbd a4ef 7e3e 2763 bdbc a415 d7bc
00000200: 64dc babd 8215 0f3e 8aa7 0a3e 69e8 3a3e
00000210: 02b9 423e 0531 1d3e 75be 13be 37ba 2dbd
00000220: 78c3 fdbd a5c1 4c3e 07a4 d63d 120f 003e
00000230: 2832 463e 91c1 ffbd 0e1a 29bd aa79 f2bd
00000240: f898 b4bc 7f5f 723e d0d3 47be 9df7 013e
00000250: a782 afbd b823 0a3d 3933 a6bc 2fb2 223e
00000260: 8dd9 f9bd 192b ca3d 4c70 3e3e c00a 94bd
00000270: b31a 49bd 6801 b1ba e4d3 02be b5ca fabd
00000280: b2a7 b3bd e645 03be 615d adbd db0b ea3d
00000290: ac9b 4cbe a4d7 203e f892 1a3e 136c 83bd
000002a0: dace 1d3e 4384 f8bd 1441 543e 05ac d4bd
000002b0: d0cb 3e3e 3d6d 41be 028d 4fbd a30a e53d
000002c0: 859e 0b3d 3feb 793b 9747 443d 32c8 df3d
000002d0: b59b 1f3e c16d 2f3e de25 2f39 ff8c 9dbd
000002e0: 752b 053e 0fff 793e 5b05 583e 7c06 adbb
000002f0: 8ffb abbd a6c0 8dbd 2cdd 0dbe 342d 113e
00000300: 1a82 773e cdb8 fb3d 5708 01be 4ff6 30bd
00000310: bf16 50be 767e 18bd e023 83be 6ad1 8ebd
00000320: 246f 593d e301 b53d 1771 7c3e 79ad 5ebe
00000330: 99f8 1d3e 873a 7f3e 68f0 d53d 19d6 fcbd
00000340: 2860 43bd 483a 83be a87e 0d3e 3913 cc3d
00000350: 1dc3 13be 5bc4 72be db5a 203e 053c 37be
00000360: 0daf 123e ce34 203e 3caf 7cbe 90cb 413c
00000370: 613f 3dbe 3c91 5f3e 3659 aabd b303 913e
00000380: 98c4 0bbe 6d1a 5bbe 00ec 14be 8492 6abe
00000390: 13dd 20be 660c 33be 3c1a 4fbe 8e18 7cbe
000003a0: 962b 0fbe 25c2 6fbe 896e 1e3e 74f1 ffbc
000003b0: b4d0 c5bb 8d89 1e3e c107 403e ba42 3c3e
000003c0: 2a7e 03be 3f05 633a 62be 843d c019 573e
000003d0: ed21 f73d 3527 7a3e 6755 85ba 3cc3 3b3e
000003e0: 87c6 403e 3e78 43bd 004c aebd b563 343e
000003f0: b575 8d3d 5abf d83d 7af5 373e ef06 3ebe

fc2.bias f4 [10]
-0.08363996 0.3360097 0.007780552 -0.08537694 -0.1313239 -0.10175417 0.057848226 -0.28997445
0.23620102 0.0683133
00000000: 6d4b abbd 7709 ac3e 00f4 fe3b 1bda aebd
00000010: c679 06be 7e64 d0bd 43f2 6c3d 8877 94be
00000020: aede 713e d8e7 8b3d
