proj5/task4/results/exp2_5.pth (torch, 79375 bytes, 8 tensors)

conv1.weight f4 [5, 1, 5, 5]
0	0x3e536c3f	0.20646761
1	0x3ea55a95	0.3229567
2	0x3c4f6a48	0.012659617
3	0x3e457f92	0.19286945
4	0xbd24799d	-0.040155042
5	0x3c46d789	0.0121363485
6	0x3d94e3bc	0.072699994
7	0x3ec31bad	0.38107052
8	0x3eb5e8c5	0.35529152
9	0xbd584a0c	-0.05280499
10	0x3e81c6ab	0.25346884
11	0x3e9c2fae	0.30505127
12	0x3f087dcf	0.5331697
13	0x3eb359de	0.350295
14	0x3e88ac47	0.26693937
15	0xbcb00c47	-0.02149023
16	0x3e71aaf0	0.23600364
17	0x3e68370a	0.22677246
18	0x3de0775d	0.10960267
19	0x3e231652	0.15926483
20	0xbeb739db	-0.35786328
21	0xbe680b29	-0.22660507
22	0xbe1a7a8c	-0.1508581
23	0x3e0abcf6	0.13548645
24	0xbe20a395	-0.15687402
25	0xbe162162	-0.14661172
26	0xbdb664db	-0.089059554
27	0xbe76bfb3	-0.24096565
28	0xbe912ee2	-0.2835608
29	0xbf08daf1	-0.5345908
30	0x3e59e238	0.21277702
31	0xbd4e7a16	-0.0504094
32	0x3d8984a4	0.06714752
33	0xbeab36c6	-0.33440226
34	0xbed4d789	-0.4157069
35	0x3e4bb0fa	0.1989173
36	0x3ec3aabb	0.38216195
37	0x3efabc1b	0.48971638
38	0x3e07c78e	0.13259718
39	0x3d0a44f8	0.03375718
40	0x3de15196	0.110018894
41	0x3e6baaca	0.2301437
42	0x3f0ddeed	0.5541828
43	0x3f19f500	0.60139465
44	0x3ec34cc0	0.38144493
45	0xbea18e73	-0.31553993
46	0xbbbccde0	-0.005761847
47	0x3d6a6bd9	0.057231758
48	0x3e619e34	0.22033006
49	0x3d97c364	0.07410315
50	0xbe5650e7	-0.209293
51	0x3e1658cd	0.14682312
52	0x3e17dca7	0.14830266
53	0x3e9ea262	0.30983263
54	0x3d817c6b	0.06322559
55	0x3d2a7dbc	0.041623816
56	0x3e864e5a	0.26231652
57	0x3e8e2d66	0.2776901
58	0x3e8484cf	0.25882575
59	0xbe51f496	-0.20503458
60	0x3d47f8b7	0.048821177
61	0x3e5aa528	0.21352065
62	0x3ed43376	0.41445512
63	0x3cd7c25b	0.026337793
64	0xbe29ed79	-0.16594495
65	0x3d87f5dc	0.06638691
66	0x3eddb125	0.43299213
67	0x3e528d32	0.20561674
68	0xbc92f94c	-0.01794114
69	0xbe913e98	-0.28368068
70	0x3e90c48a	0.28274947
71	0x3e99cc6d	0.30038777
72	0x3eb1c836	0.3472306
73	0xbe3019f2	-0.17197397
74	0xbec11c22	-0.37716776
75	0xbecf7ff0	-0.40527296
76	0xbece695a	-0.40314752
77	0xbdf348f0	-0.11879146
78	0x3da568da	0.080766395
79	0x3ea38f0d	0.31945077
80	0xbebc4b52	-0.36776215
81	0xbe73d99c	-0.2381348
82	0x3e39775d	0.1811194
83	0x3e16f0b6	0.14740261
84	0x3ebbe941	0.36701396
85	0xbe6914b9	-0.22761811
86	0x3e4c738a	0.1996595
87	0x3e044dcc	0.12920302
88	0x3e70e2cd	0.23524018
89	0x3e8176fd	0.25286093
90	0x3d92b514	0.07163444
91	0x3d9c4b55	0.07631556
92	0x3ea402c2	0.32033354
93	0x3ead18f5	0.33808103
94	0xbd018b54	-0.031627014
95	0x3d09c37e	0.0336337
96	0x3e7daff1	0.24774148
97	0xbba00e57	-0.004884522
98	0x3afd0815	0.0019304777
99	0xbe430aa3	-0.19047026
100	0xbe576b9f	-0.21037148
101	0xbd06c59d	-0.032903302
102	0xbdb288f6	-0.087175295
103	0xbe3df1aa	-0.18549219
104	0xbd31d8c2	-0.043419607
105	0xbe526d6e	-0.20549557
106	0xbe7da89b	-0.24771349
107	0xbe37c27a	-0.1794528
108	0xbe7385e1	-0.2378154
109	0xbe468c32	-0.19389418
110	0x3daaed56	0.083460495
111	0xbd9a5eb3	-0.07537594
112	0xbcf61531	-0.030039402
113	0xbe84340d	-0.25820962
114	0xbe4fde43	-0.2029963
115	0xbde071ca	-0.109592035
116	0xbd1e3284	-0.038622394
117	0xbe7db43e	-0.24775788
118	0xbe1f30ff	-0.15546034
119	0xbe3b6280	-0.18299294
120	0x3cba991c	0.022778086
121	0xbdd1fa6f	-0.102528445
122	0xbd8aa012	-0.06768812
123	0xbe649f72	-0.22326449
124	0xbe70205d	-0.23449846

conv1.bias f4 [5]
0	0x3e1a0270	0.15039992
1	0x3e95c5d3	0.2925249
2	0xbec45c6e	-0.38351768
3	0x3dfe0b6e	0.12404524
4	0x3dd3bc86	0.10338692

conv2.weight f4 [20, 5, 5, 5]
0	0xbba543d0	-0.0050434843
1	0xba0b8024	-0.00053215236
2	0xbdc1996e	-0.094530925
3	0xbc1dc6f3	-0.009629953
4	0xbd3f6db2	-0.046735473
5	0xbc276bd6	-0.010218581
6	0xbd552dd7	-0.05204567
7	0xbbb7af17	-0.005605589
8	0x3d930d44	0.071802646
9	0xbd715451	-0.0589183
10	0x3d952bce	0.07283746
11	0xbd55c745	-0.05219199
12	0x3e002897	0.12515484
13	0x3c42b611	0.011884228
14	0x3b7bb2c0	0.0038406104
15	0x3e0361eb	0.12830321
16	0x3d9eb0fd	0.077486016
17	0x3daeeca9	0.08541233
18	0x3dc1e347	0.09467178
19	0xbd231c21	-0.039821748
20	0x3dbd002e	0.0922855
21	0xbb5229f6	-0.0032068468
22	0xbc3671a8	-0.011135496
23	0xbd058985	-0.032601852
24	0x3d63effa	0.05564878
25	0xbde531be	-0.11191128
26	0x3db7af50	0.08968985
27	0x3e2f2ef5	0.17107756
28	0x3d829420	0.06375909
29	0xbdcde196	-0.10052793
30	0x3dcfba04	0.101429015
31	0x3d35d9b6	0.04439708
32	0x3de4459e	0.11146091
33	0x3c03bced	0.008040649
34	0xbcbe7a8c	-0.023251794
35	0x3dadb0b1	0.08480967
36	0xbcb74e7e	-0.022376295
37	0x3d8cb153	0.068697594
38	0x3da581ac	0.080813736
39	0xbce38122	-0.027771536
40	0x3dc8e980	0.098101616
41	0x3ce69b81	0.028150322
42	0xbc5be1f4	-0.013420571
43	0xbc9e6cac	-0.019338928
44	0xbd1b94c8	-0.037983686
45	0xbdbfe918	-0.09370631
46	0xbe29d691	-0.16585757
47	0xbd83daa8	-0.0643819
48	0xbc11080c	-0.008852016
49	0xbe4698f9	-0.19394292
50	0x3cf528c5	0.029926667
51	0x3c80d6c0	0.0157274
52	0x3cc0c3d6	0.023530882
53	0xbd4e12c1	-0.050310854
54	0x3c8e5f79	0.01737951
55	0x3d4b6fed	0.049667288
56	0xbd6cb4ba	-0.05778954
57	0xbd9872c6	-0.07443766
58	0xbbd6627b	-0.0065425015
59	0x3bd2553b	0.0064188517
60	0xbd891d7a	-0.06695075
61	0xbd9def85	-0.077117
62	0x3c32f8d9	0.010923588
63	0x3d30a069	0.04312173
64	0x3c8b0fa0	0.016975224
65	0xbd913ebd	-0.070920445
66	0x3d1676d2	0.03673441
67	0xbb9ec6e7	-0.0048454884
68	0xbbbde8e2	-0.005795584
69	0x3d9457d6	0.07243316
70	0xbdb93887	-0.09043985
71	0xbd506701	-0.050879482
72	0x3cc26df1	0.023734065
73	0x3e1e6198	0.15466917
74	0x3ce2a004	0.027664192
75	0xbc5ce29b	-0.013481761
76	0xbd1bc86c	-0.038032934
77	0xbe15f2d2	-0.1464341
78	0xbd8ef841	-0.069809444
79	0x3d34726f	0.044054445
80	0x3d937fb0	0.07202089
81	0xbc7a43f7	-0.015274993
82	0xbe3b5ff9	-0.1829833
83	0xbdd7013e	-0.10498284
84	0xbb043df7	-0.0020178535
85	0x3d0b7db7	0.034055438
86	0xbca18577	-0.019716961
87	0xbd6bf094	-0.05760248
88	0xbd0e64da	-0.03476415
89	0xbd8e8b8b	-0.069602095
90	0xbda52def	-0.08065402
91	0x3d97d219	0.0741312
92	0xbcdc7814	-0.026912726
93	0x3d21092d	0.03931539
94	0xbdf6717d	-0.12033365
95	0x3dbb49a9	0.09144909
96	0x3d1ffe34	0.039060786
97	0x3d7f8b17	0.062388506
98	0x3c8d01df	0.017212806
99	0xbe0e42e6	-0.13892707
100	0xbd9007ee	-0.070327625
101	0x3d808c15	0.062767185
102	0x3d47a7f2	0.04874415
103	0x3dbe90ee	0.09304987
104	0x3d90c855	0.0706946
105	0xbc3ab03e	-0.0113945585
106	0x3b428fc7	0.0029687749
107	0xbd5eda65	-0.054407496
108	0xbd65d96d	-0.056115557
109	0xbd492c2e	-0.0491144
110	0x3b1c4b59	0.0023848622
111	0xbd1bcba9	-0.038036022
112	0xbd2b3daf	-0.041806873
113	0xbd84540f	-0.064613454
114	0xbbe0a4ad	-0.0068555684
115	0xbdd8baea	-0.10582526
116	0xbd99340d	-0.07480631
117	0x39b361e5	0.00034214478
118	0xbcdfd9da	-0.02732556
119	0x3d6247d6	0.05524429
120	0xbd5622ac	-0.05227916
121	0xbd9f41f7	-0.07776254
122	0xbcb45322	-0.022012297
123	0xbceea146	-0.029129636
124	0xbd13896e	-0.036019735
125	0x3c0ee50c	0.008721601
126	0x3d853d33	0.065058134
127	0xbc92ebbd	-0.017934674
128	0x3d212cc1	0.03934932
129	0x3d3e3254	0.046434715
130	0x3de63209	0.11240012
131	0xbe0735f5	-0.13204177
132	0x3c351b16	0.011053821
133	0xbd6c0cf5	-0.057629544
134	0x3d189b9a	0.03725777
135	0x3dc362cb	0.09540328
136	0xbe08c464	-0.13356167
137	0xbd225d01	-0.039639477
138	0xbc13950e	-0.009007705
139	0xbda78660	-0.08179927
140	0x3d881e1e	0.066463694
141	0xbe2738d7	-0.16330276
142	0x3db253b6	0.08707373
143	0x3e046660	0.12929678
144	0x3e334848	0.17508042
145	0xbc87a5a9	-0.016558485
146	0xbe1e1874	-0.15439016
147	0xbd16df4b	-0.036834043
148	0x3d2bbc4d	0.041927624
149	0xbc563302	-0.013073685
150	0x3c9b7427	0.018976284
151	0xbd968f34	-0.073515326
152	0xbd0c7057	-0.034286823
153	0xbd4da161	-0.05020273
154	0xbd27381b	-0.04082499
155	0xbd1107db	-0.035407882
156	0xbe4b0745	-0.19826992
157	0x3a6ffdd7	0.00091549515
158	0x3d28e573	0.041234445
159	0xbd096691	-0.03354508
160	0xbcef8c5a	-0.02924173
161	0xbe0d54d6	-0.13801894
162	0xbdb22ef2	-0.0870036
163	0xbd28e9d0	-0.041238606
164	0x3d8f9367	0.07010537
165	0xbd627208	-0.05528453
166	0xbe0d6e50	-0.13811612
167	0x3cbaa037	0.022781475
168	0x3e0c20f3	0.13684444
169	0x3e295a5c	0.16538376
170	0x3c04fd57	0.008117042
171	0xbd5cd9f4	-0.053918794
172	0xbd62167d	-0.055197228
173	0xbd314e1c	-0.04328738
174	0xbd848849	-0.06471307
175	0x3e551122	0.20807317
176	0xbd4a608c	-0.04940848
177	0x3c46bf3e	0.012130557
178	0x3b8cff4a	0.0043028938
179	0x3bcc677d	0.0062379227
180	0x3e49e5d1	0.19716574
181	0x3bee0a05	0.007264378
182	0xbdb9a5c0	-0.090648174
183	0x3df7c625	0.1209834
184	0x3dcc160b	0.09965142
185	0x3dccd5da	0.100017264
186	0xbbaf390e	-0.0053473776
187	0x3dcd5f4b	0.10027941
188	0x3d7f543a	0.062336184
189	0x3bb88592	0.005631157
190	0xbcd80a1c	-0.026372008
191	0xbdb97e70	-0.09057319
192	0x3d2a2905	0.041543026
193	0xbc9cf7b6	-0.019161087
194	0xbdf4d4c5	-0.11954645
195	0xbd6a16b0	-0.057150543
196	0xbdd57c80	-0.10424137
197	0xbe021a33	-0.12705307
198	0xbe1b8133	-0.15186004
199	0xbdc94177	-0.098269396
200	0x3d98f84b	0.07469233
201	0xbce0bb0e	-0.027432945
202	0xbd9bc0f1	-0.0760516
203	0xbd8bf8f8	-0.068345964
204	0x3d98ce05	0.0746117
205	0xbdc38f28	-0.09548789
206	0xbd66f11e	-0.05638229
207	0x3d10e2ba	0.035372473
208	0x3c836df5	0.016043643
209	0x3d8fea92	0.070271626
210	0xbd13d63c	-0.03609298
211	0xbd670d7b	-0.05640934
212	0x3c43bc25	0.011946713
213	0xbcf25d93	-0.029585635
214	0xbd089de3	-0.033353698
215	0xbdb6dcda	-0.08928843
216	0x3db52036	0.088440344
217	0xbc6f2ed1	-0.014598564
218	0xbdd174f4	-0.10227385
219	0x3d4d55ec	0.05013077
220	0xbcbc3181	-0.022972824
221	0x3cf2513d	0.029579753
222	0x3d919f18	0.07110423
223	0x3c934509	0.017977254
224	0xbdac42f6	-0.08411209
225	0x3c7dc614	0.01548912
226	0x3da0e0cf	0.07855379
227	0x3c4c7326	0.012478625
228	0xbd42af7c	-0.047530636
229	0x3d925962	0.07145955
230	0xbcb74981	-0.022373917
231	0xbcbcbed9	-0.023040222
232	0xbd991a0f	-0.074756734
233	0xbc91043c	-0.017702214
234	0x3c9f09fc	0.01941394
235	0x3d0423f1	0.03226084
236	0x3d29e033	0.04147358
237	0xbd8552d9	-0.065099426
238	0xbdd5b58a	-0.104350165
239	0xbc5b0a47	-0.0133691495
240	0x3dc299f1	0.09502018
241	0x3daac95c	0.083391875
242	0xbd378d53	-0.04481251
243	0xbd34e8aa	-0.0441672
244	0xbdccc32f	-0.09998166
245	0xbcfd77bf	-0.030940888
246	0x3d52d0fb	0.05146883
247	0x3da29c61	0.07939983
248	0x3d8b2991	0.067950375
249	0xbddc3632	-0.107525244
250	0x3ddc9388	0.10770327
251	0x3c0459ee	0.0080780815
252	0x3e0e0c0a	0.1387178
253	0x3e4b04d9	0.19826068
254	0x3c2ee20d	0.010674012
255	0x3dd04ee4	0.10171297

conv2.bias f4 [20]
0	0x3d387165	0.045030016
1	0xbaa15279	-0.0012307904
2	0x3d0196c2	0.031637914
3	0x3dc75b4b	0.097342096
4	0xbd0ba183	-0.034089576
5	0xbd1a8815	-0.037727434
6	0x3d30f9c7	0.043206956
7	0xbc7e9b3b	-0.0155399395
8	0xbc3416f1	-0.010991798
9	0x3d8c2247	0.068424754
10	0xbd4caa8b	-0.04996733
11	0xbbc31a6e	-0.0059540784
12	0x3d45c794	0.048286036
13	0x3c6930e7	0.014232851
14	0xbd8433a9	-0.06455166
15	0x3d2dc54a	0.042424478
16	0xbdbbba54	-0.09166399
17	0xbd6ad812	-0.057334967
18	0x3d7ad914	0.061242178
19	0xbc5e2a44	-0.013559882

fc1.weight f4 [50, 320]
0	0xbb5d84f1	-0.0033801163
1	0xbabb3038	-0.0014281338
2	0x3d0019a8	0.031274468
3	0x3d7631d8	0.06010613
4	0xbd1b0edc	-0.037855968
5	0xbd97ff96	-0.07421796
6	0x3c9c99aa	0.019116241
7	0x3d27143e	0.04079079
8	0x3c2a53b0	0.010395929
9	0xbc7549bf	-0.014971196
10	0xbc56f395	-0.013119598
11	0xbd0997fc	-0.03359221
12	0xbd189142	-0.037247904
13	0x3c32f984	0.010923747
14	0x3ce66ebc	0.028128974
15	0xbd4b42f4	-0.0496244
16	0xbcd74e0d	-0.026282335
17	0x3cd86e2d	0.026419723
18	0xbc21bbb6	-0.009871414
19	0xbd3d962b	-0.04628579
20	0x3d166907	0.036721256
21	0x3d09f643	0.03368212
22	0xbd3374d1	-0.043812577
23	0xbcf8b076	-0.03035758
24	0xbac8bc59	-0.0015314921
25	0xbc354e5f	-0.011066048
26	0xbb997e32	-0.004684233
27	0xbc645f55	-0.013938745
28	0x3d57be4a	0.05267171
29	0xbcb30e9d	-0.021857554
30	0x3c17b455	0.009259303
31	0x3ad63a31	0.0016344247
32	0x3d2b7c31	0.041866485
33	0x3d5330a6	0.051560067
34	0x39564db1	0.00020437573
35	0x3c57149f	0.013127475
36	0xbd09ca7b	-0.033640366
37	0xbc4e217a	-0.012581224
38	0x3c1d995c	0.009619083
39	0x3c3c1442	0.011479439
40	0x3acc2499	0.0015574872
41	0xbc9448d6	-0.018101137
42	0x3cd87d99	0.026427077
43	0xbcb4610e	-0.022018936
44	0x3cfecd99	0.031103896
45	0xbd707600	-0.058706284
46	0x3ca81232	0.020516489
47	0xba508694	-0.0007954624
48	0x3bcb607d	0.0062065707
49	0xbbd9681a	-0.0066347243
50	0x3d4ea940	0.050454378
51	0x3d27a13f	0.04092526
52	0xbcf10f8c	-0.029426359
53	0x3d50f0b0	0.051010787
54	0xbd5b1c3c	-0.053493723
55	0xbd87e09f	-0.0663464
56	0xbb6c0878	-0.003601579
57	0xbcdf8529	-0.027285175
58	0xbd189fdd	-0.037261833
59	0xbc3b2802	-0.011423113
60	0x3d1b18ef	0.037865575
61	0x3c1018e4	0.008794997
62	0x3c58cb20	0.0132320225
63	0x3c8b8270	0.01702997
64	0x3d64b883	0.055840027
65	0x3ce2ea7f	0.027699707
66	0xbcb144e7	-0.0216393
67	0xbd173c7d	-0.03692292
68	0x3ba51ef5	0.0050390908
69	0xbb206544	-0.0024474422
70	0xbcce0624	-0.025149412
71	0x3cbcc3ec	0.023042642
72	0x3dd18c51	0.10231841
73	0x3ca6ed35	0.020376781
74	0x3c40e307	0.011772878
75	0xbc9f2ad1	-0.019429596
76	0x3c5338cc	0.012891959
77	0xbd4d097c	-0.050057873
78	0xbccd2d4f	-0.025046019
79	0xbcf5a011	-0.029983552
80	0x3cbe1300	0.02320242
81	0xbdbde7fb	-0.092727624
82	0xbdda2582	-0.10651685
83	0x3c776a86	0.015101081
84	0x3cb7e27c	0.022446863
85	0xbdbd60d4	-0.09246984
86	0x3d84ebb6	0.06490271
87	0x3d6481a4	0.055787697
88	0x3d0ab6ef	0.033865865
89	0xbc8c445f	-0.017122446
90	0x3c20e418	0.009820007
91	0xbca2e7f3	-0.019885993
92	0xbcd6eacd	-0.026235009
93	0x3b931b92	0.0044893706
94	0x3c5bb4a8	0.013409771
95	0x3d199525	0.03749575
96	0xbd873a58	-0.06602925
97	0x3dc9db32	0.09856261
98	0x3dce6c7b	0.10079285
99	0x3e00b420	0.12568712
100	0x3d6fe85b	0.0585712
101	0x3cd68098	0.026184365
102	0x3afa6930	0.0019104835
103	0xbbcb61d9	-0.0062067327
104	0xba1a0a97	-0.0005876212
105	0xbca870ee	-0.020561662
106	0xbd90e142	-0.070742145
107	0xbd8061ec	-0.06268677
108	0xbcf6c350	-0.03012243
109	0xbd8eb925	-0.06968907
110	0xbcd66704	-0.026172169
111	0x3cbce985	0.02306057
112	0xbd19ddcb	-0.037565034
113	0xbd7cfea0	-0.061766267
114	0xbd522cbf	-0.051312204
115	0x3da5e988	0.08101183
116	0xbd8b8fd6	-0.06814544
117	0xbd4948ee	-0.049141817
118	0xbc8a9c2c	-0.016920172
119	0x3d3e0a4a	0.04639653
120	0xbd5b2d55	-0.05351003
121	0x3ccb1449	0.024789946
122	0xbd861709	-0.06547362
123	0xbd2dd132	-0.042435832
124	0x3c1db4b6	0.009625604
125	0x3c9c1136	0.019051176
126	0xbc7d9db3	-0.015479493
127	0x3bdf27ba	0.0068101557
128	0x3d39fc0c	0.045406386
129	0x3d696623	0.05698217
130	0x3d6d113f	0.057877775
131	0xbdb1cf94	-0.086821705
132	0x3db6873b	0.08912512
133	0x3c88c0ca	0.016693491
134	0xbc4a94f7	-0.012364618
135	0xbcec31c2	-0.02883232
136	0xbd9df0c7	-0.0771194
137	0x3d862da7	0.06551676
138	0xbc13f071	-0.009029494
139	0xbc867c32	-0.016416643
140	0xbd2c6929	-0.042092476
141	0xbbcf00c8	-0.006317232
142	0xbc4c6e44	-0.012477461
143	0xba811a89	-0.0009849827
144	0x3d702346	0.05862739
145	0x3d60ace5	0.054852385
146	0x3bddfb37	0.006774332
147	0xbc18251c	-0.009286191
148	0x3d093766	0.033500098
149	0xbc514325	-0.012772356
150	0xbd10e9b2	-0.03537912
151	0xbcd931c3	-0.026512986
152	0x3bae742c	0.0053239074
153	0xbceedecb	-0.02915897
154	0xbcf1321f	-0.029442845
155	0x3ca91546	0.020640027
156	0xbc1f381c	-0.009717967
157	0x3d482c4b	0.048870366
158	0xbc665d0a	-0.014060268
159	0xbb519e4e	-0.0031985226
160	0xbc77b795	-0.015119453
161	0xbd41bd63	-0.047299754
162	0xbdfbefca	-0.123015955
163	0xbdd52ded	-0.1040915
164	0x3bc1a825	0.005909937
165	0x3c5ab83b	0.013349588
166	0xbbe02d38	-0.006841328
167	0xbc717d5c	-0.014739361
168	0xbb8428e4	-0.004033195
169	0xbc9ac2e1	-0.018891754
170	0x3c596d20	0.013270646
171	0x3d4a3e0d	0.049375582
172	0x3d527b0b	0.051386874
173	0x3d6b7cfa	0.057492234
174	0xbc64c926	-0.013963973
175	0x3c33850d	0.010957015
176	0x3d3ad4e2	0.045613177
177	0x3cd8d63c	0.026469342
178	0x3d11b22a	0.0355703
179	0xbdeef0b3	-0.116670035
180	0x3c192d86	0.009349233
181	0xbd0507d7	-0.03247818
182	0xbda02774	-0.07820025
183	0x3dd2de50	0.10296309
184	0xbd43b23a	-0.047777392
185	0x3bd3e833	0.0064668893
186	0x3bb397c2	0.0054807374
187	0x3c324f4b	0.010883163
188	0xbcdfe6e1	-0.027331771
189	0x3d42d33b	0.047564726
190	0xbcb787b9	-0.022403585
191	0x3c9e0527	0.019289566
192	0xbbb87fad	-0.0056304545
193	0xbd38456d	-0.044988085
194	0xbd88d3e3	-0.06681039
195	0xbd811d50	-0.06304419
196	0x3d3df5b6	0.046376906
197	0x3cff487a	0.03116249
198	0x3d1cc385	0.0382724
199	0x3dae8983	0.08522322
200	0xbd482865	-0.04886665
201	0x3cd12b3a	0.025533307
202	0xbca71505	-0.020395765
203	0x3d287309	0.04112533
204	0xbc9376fd	-0.018001074
205	0xbc6aad75	-0.014323582
206	0x3cd1569c	0.025553994
207	0xbd44e39a	-0.04806862
208	0xbd9e144e	-0.077187166
209	0xbd749bf2	-0.059719034
210	0xbd8c430d	-0.068487264
211	0xbd1a8e7f	-0.03773355
212	0x3d49b1c7	0.049241807
213	0x3c900811	0.017581971
214	0xbd04a1f2	-0.032381006
215	0x3d9e8a64	0.0774124
216	0xbd4aeff0	-0.04954523
217	0x3bbf50c3	0.005838485
218	0x3d3d3755	0.046195347
219	0xbca91563	-0.02064008
220	0x3d116bb4	0.035503104
221	0x3c4b1639	0.012395435
222	0xbd26a922	-0.04068864
223	0x3c859ba7	0.016309572
224	0xbc15f430	-0.009152457
225	0x3cccf041	0.025016906
226	0x3d271173	0.040788125
227	0x3d0045ad	0.031316448
228	0xbb9ef7d7	-0.004851322
229	0xbcddb457	-0.027063532
230	0xbd29fe2c	-0.041502163
231	0xbdbe94ac	-0.09305701
232	0xbcd73474	-0.026270129
233	0xbd2806ff	-0.041022297
234	0xbcf77ec5	-0.030211816
235	0x3cf98efb	0.030463686
236	0x3d56f57d	0.05248021
237	0xbd692037	-0.056915488
238	0xbc1488b6	-0.009065798
239	0x3ce0211f	0.027359543
240	0x3d2642c0	0.040591
241	0x3d24ca61	0.040232066
242	0xbcff762a	-0.031184275
243	0xbd2e2c1c	-0.042522535
244	0x3c523c7b	0.0128318025
245	0x3d14f9ea	0.03637115
246	0x3a51200c	0.00079774926
247	0xbd8d7675	-0.069073595
248	0x3d40d24e	0.047075562
249	0x3c468439	0.012116485
250	0xbaff522d	-0.0019479446
251	0xbca1e946	-0.019764554
252	0xbda7e847	-0.081986
253	0xba8e65c7	-0.0010864072
254	0xbb9bc352	-0.0047535086
255	0xbd4a36cc	-0.049368665

fc1.bias f4 [50]
0	0xbd16be42	-0.036802538
1	0xbc36454b	-0.011124919
2	0xbceb3a95	-0.028714458
3	0x3d8a42f0	0.067510486
4	0x3d130a14	0.035898283
5	0x3d1fcab5	0.039011676
6	0xba3b5887	-0.00071466755
7	0x3d564358	0.052310318
8	0xbc51a45b	-0.012795533
9	0xbd28930f	-0.04115587
10	0xbd64f747	-0.055899885
11	0xbaa15643	-0.0012309033
12	0x3b8cfaad	0.004302344
13	0xbd17a6f1	-0.037024442
14	0x3da744b9	0.08167405
15	0x3d14c931	0.036324684
16	0x3c3a80a9	0.011383214
17	0xbd511151	-0.051041905
18	0x3dde6dfb	0.10860821
19	0x3cd2c70f	0.025729684
20	0xbd78c844	-0.060737863
21	0x3d2ff48e	0.042957835
22	0x3da3bd8f	0.0799514
23	0x3cb8df51	0.022567423
24	0x3d12d354	0.03584607
25	0xbcdd6fad	-0.02703079
26	0x3cd7cc8e	0.026342656
27	0x3dc30586	0.09522538
28	0xbd22f1ee	-0.039781503
29	0xbd1f1f21	-0.038848046
30	0x3c2906a4	0.010316525
31	0x3d2a7eeb	0.041624945
32	0x3d57fd93	0.05273206
33	0xbc4f409b	-0.0126496805
34	0x3d7e57b8	0.062095374
35	0x3d28b314	0.041186407
36	0xbd8f9745	-0.07011274
37	0xbd49d3f4	-0.0492744
38	0x3d49778b	0.04918627
39	0xbc54ce5b	-0.012988652
40	0x3ccaa617	0.024737401
41	0x3ccbf903	0.024899011
42	0x3c9b5955	0.018963495
43	0xbbbc7778	-0.0057515465
44	0xbc40a019	-0.01175692
45	0xbd07e400	-0.033176422
46	0x3d291ce1	0.041287307
47	0x3d5f0f06	0.054457687
48	0xbb19a722	-0.0023445566
49	0xbd6a03b8	-0.057132453

fc2.weight f4 [10, 50]
0	0x3e2c0f82	0.16802791
1	0xbe144106	-0.1447793
2	0xbe0a9891	-0.13534762
3	0xbe12c5ad	-0.1433322
4	0xbe5c3da2	-0.21507886
5	0x3e31fdda	0.17381993
6	0x3db94214	0.090458065
7	0xbe005558	-0.12532556
8	0xbe266f37	-0.16253363
9	0xbdef38e5	-0.11680774
10	0x3d821aa3	0.06352737
11	0xbd26c239	-0.04071257
12	0x3e779e61	0.2418151
13	0x3e751355	0.23933156
14	0xbdbf2eeb	-0.09335121
15	0x3e10b257	0.14130531
16	0x3e2f3cf7	0.171131
17	0xbe01ee70	-0.12688613
18	0xbddd444b	-0.108040415
19	0xbd72c50a	-0.059269942
20	0xbe0b0a53	-0.13578157
21	0xbe3cf841	-0.18454076
22	0xbbe1a778	-0.006886419
23	0x3e40361a	0.18770638
24	0xbe0de1d1	-0.13855673
25	0x3ca17530	0.0197092
26	0x3e188f51	0.14898421
27	0x3da6a2ea	0.08136542
28	0x3e476cfd	0.1947517
29	0x3e99c68b	0.3003429
30	0xbdd8687b	-0.10566803
31	0xbe41bc9d	-0.18919607
32	0xbe969252	-0.2940851
33	0xbe7b892b	-0.24564044
34	0xbde34c4f	-0.11098539
35	0x3e04d71a	0.1297268
36	0x3d999114	0.074983746
37	0xbdfd5958	-0.123705566
38	0x3ddee85d	0.108841635
39	0x3d0242bd	0.031801928
40	0x3e04aed3	0.12957315
41	0x3e20c43d	0.15699859
42	0xbe7d349f	-0.24727105
43	0xbd9523cc	-0.07282218
44	0x3e9008e2	0.28131777
45	0x3d0e05d7	0.034673538
46	0x3d30e2ab	0.043184917
47	0xbe7a3888	-0.24435627
48	0xbe3d6ab7	-0.1849774
49	0xbe2af741	-0.16695882
50	0xbd8ff564	-0.070292264
51	0x3e22042f	0.15821908
52	0xbe08cf2f	-0.13360284
53	0x3e4d1e30	0.20031047
54	0x3e477485	0.19478042
55	0xbe015994	-0.12631828
56	0xbdc26d40	-0.09493494
57	0x3e55cf14	0.20879775
58	0xbe1d61fd	-0.15369411
59	0xbc9a9de0	-0.018874109
60	0xbdf91b42	-0.12163402
61	0x3cfd0dfd	0.03089046
62	0x3e95e0b0	0.29272985
63	0xbd1a12d1	-0.0376156
64	0x3e8653f6	0.26235932
65	0xbe69bb62	-0.22825387
66	0xbe38fc60	-0.18065023
67	0x3ca04123	0.01956231
68	0x3e80cd44	0.25156605
69	0xbe89dbdc	-0.26925552
70	0xbe379b9c	-0.17930454
71	0xbe015115	-0.12628587
72	0x3e0b57ab	0.13607661
73	0xbe6350bc	-0.22198766
74	0xbe2710f5	-0.16315062
75	0xbe8b6e3d	-0.27232543
76	0xbe2ce422	-0.16883901
77	0x3e49048a	0.19630638
78	0xbc8cf532	-0.017206762
79	0xbe281fd1	-0.16418387
80	0x3e059b02	0.13047412
81	0x3e29ca24	0.16581017
82	0x3dea0077	0.1142587
83	0xbe359e1b	-0.17736094
84	0x3c660864	0.014040086
85	0xbe24c600	-0.16091156
86	0xbdedff58	-0.116209686
87	0xbe0ea944	-0.13931757
88	0x3e31e248	0.17371476
89	0xbe7e54e2	-0.24837068
90	0xbe229781	-0.15878107
91	0xbd4ec113	-0.0504771
92	0xbdc9f2d9	-0.09860773
93	0xbe5d82d4	-0.21631938
94	0x3e7163a1	0.23573162
95	0xbe73392b	-0.23752277
96	0xbe4e5c30	-0.20152354
97	0x3e87de30	0.26536703
98	0x3e163933	0.14670257
99	0xbbfd319a	-0.00772686
100	0x3e56c59d	0.20973821
101	0xbdf6f7df	-0.120589964
102	0xbd891cdd	-0.06694958
103	0x3cbac762	0.022800151
104	0x3d137a86	0.03600552
105	0x3e50d07f	0.20392035
106	0xbe54fa32	-0.20798567
107	0x3e4f8db6	0.20268902
108	0x3e2d84a4	0.1694513
109	0xbdcc2ce9	-0.099695034
110	0xbda00c48	-0.078148425
111	0x3c522481	0.012826086
112	0x3c6c3506	0.014416939
113	0xbdab54db	-0.08365794
114	0x3e772743	0.24136071
115	0x3e142ce8	0.14470255
116	0xbd925999	-0.07145996
117	0xbcc6f8ae	-0.024288502
118	0xbe2d30f2	-0.16913202
119	0xbe2b3201	-0.16718294
120	0xbd9c1b37	-0.07622378
121	0x3e0fd778	0.14047039
122	0x3e249420	0.1607213
123	0x3b173689	0.0023073277
124	0xbe290b9e	-0.16508338
125	0xbe53a402	-0.20668033
126	0xbe2ea529	-0.17055191
127	0xbe4112d4	-0.18854839
128	0x3e8ba700	0.27275848
129	0xbe060110	-0.13086343
130	0xbd8bc745	-0.06825117
131	0xbe414212	-0.1887286
132	0xbdb42189	-0.08795459
133	0xbe354c1e	-0.17704818
134	0x3e23bc0a	0.159897
135	0x3dd387b8	0.10328621
136	0xbe118f13	-0.14214735
137	0x3ca5f586	0.020258676
138	0x3ddcf233	0.10788383
139	0x3c704878	0.014665715
140	0x3e069f93	0.1314681
141	0x3d0d8964	0.034554854
142	0x3d0f8645	0.03504016
143	0xbddcc3d7	-0.10779541
144	0xbe0b46ea	-0.1360127
145	0xbe2042ec	-0.15650529
146	0x3db30328	0.087408364
147	0xbdf39d9d	-0.11895297
148	0x3e3b77a6	0.18307361
149	0x3e0f8d24	0.14018685
150	0x3e1d6887	0.15371905
151	0x3c2bd47b	0.010487671
152	0xbdf457c0	-0.119307995
153	0x3e0ee976	0.13956246
154	0xbe7e9233	-0.24860458
155	0xbe089eff	-0.13341902
156	0x3e22a593	0.15883474
157	0xbdabfa6e	-0.08397375
158	0x3b5f39be	0.0034061517
159	0x3e4a8e36	0.19780812
160	0x3d1527d5	0.03641494
161	0x3df765b6	0.12079947
162	0xbe22b25d	-0.15888353
163	0xbdc3b2f0	-0.09555614
164	0x3c8475fd	0.016169542
165	0x3d5d6e94	0.054060534
166	0xbe3ba144	-0.18323237
167	0x3e5ddc04	0.2166596
168	0xbe6c0285	-0.23047836
169	0xbe449940	-0.19199085
170	0x3e382015	0.17980988
171	0x3dbde7f8	0.0927276
172	0x3e0a2f08	0.13494503
173	0xbe266874	-0.16250783
174	0x3e16c73a	0.14724436
175	0xbdc44357	-0.095831566
176	0xbe56bbb6	-0.20970044
177	0xbe72a22c	-0.23694676
178	0xbdb12dfb	-0.08651348
179	0xbb588cf9	-0.003304301
180	0xbd63ab15	-0.05558308
181	0x3e1dda13	0.1541522
182	0x3df21098	0.11819571
183	0x3e49c379	0.19703473
184	0xbd9d764a	-0.076885775
185	0x3dfb2623	0.122631334
186	0xbdcb2871	-0.09919823
187	0x3e1eafbf	0.1549673
188	0x3e1acde5	0.15117605
189	0x3d177804	0.03697969
190	0x3daa1d26	0.08306341
191	0x3e215c23	0.15757804
192	0xbd6ced95	-0.057843763
193	0xbe243fa1	-0.16039898
194	0xbe2df71f	-0.169888
195	0x3c28899d	0.010286716
196	0xbd3e914d	-0.04652529
197	0xbd526b03	-0.051371586
198	0x3e1eeca9	0.15519966
199	0x3e3a6ad8	0.1820482
200	0xbe1dabbb	-0.15397541
201	0x3e1588f2	0.14603022
202	0xbd465531	-0.04842109
203	0x3e498941	0.19681264
204	0xbba9f3b2	-0.0051865214
205	0xbdac8cd5	-0.08425299
206	0xbe23e4fc	-0.1600532
207	0x3ddd05a9	0.10792095
208	0xbe024544	-0.12721735
209	0x3e49794f	0.19675182
210	0x3cdd9eed	0.02705332
211	0x3a279391	0.00063925335
212	0xbde3950a	-0.11112411
213	0xbdd41bf9	-0.10356898
214	0xbe0af5f5	-0.13570388
215	0xbe94392a	-0.28949863
216	0x3e4a5d79	0.1976222
217	0xbd881932	-0.066454306
218	0x3e884ad0	0.26619577
219	0x3df758e5	0.12077502
220	0xbd85c52d	-0.06531749
221	0x3de6e29e	0.112736925
222	0xbe851758	-0.25994372
223	0x3e3f11f5	0.18659194
224	0xbe19c020	-0.15014696
225	0x3c7cd497	0.015431545
226	0x3dec61d8	0.115421
227	0xbe3fa7bb	-0.18716328
228	0xbddb0776	-0.106947824
229	0xbd7843a6	-0.06061139
230	0x3d199dff	0.037504192
231	0xbdba65dd	-0.0910146
232	0xbd397d35	-0.045285422
233	0x3e2b0070	0.16699386
234	0x3e2e7b29	0.1703917
235	0xbe27f825	-0.16403253
236	0xbdd79d25	-0.1052802
237	0x3e265db8	0.16246688
238	0xbd7f0e08	-0.06226924
239	0xbe8cf7e9	-0.2753289
240	0xbe9ac70a	-0.3022998
241	0xbddcd7d3	-0.10783353
242	0x3e49a22a	0.19690767
243	0x3e7e5455	0.24836858
244	0xbdea007d	-0.114258744
245	0xbe692223	-0.22766928
246	0x3eb33a7f	0.35005566
247	0x3e77e643	0.24208932
248	0xbe628580	-0.22121239
249	0xbd6e1c6b	-0.05813257
250	0xbdf83b52	-0.121206895
251	0xbe0ad52d	-0.13557883
252	0x3ce1e388	0.027574316
253	0xbdffc3bd	-0.12488506
254	0x3d4e4afa	0.050364472
255	0xbd5f785b	-0.05455814

fc2.bias f4 [10]
0	0x3d83b07d	0.06430147
1	0x3e5e60ad	0.21716566
2	0x3d352803	0.04422761
3	0xbdfdf4d1	-0.12400211
4	0x3de5e19f	0.112246744
5	0xbe727ae7	-0.23679696
6	0xbdbcc0e4	-0.092164785
7	0xbd9e8de6	-0.07741909
8	0x3dfb0874	0.12257472
9	0x3da73ace	0.08165513
