proj5/task4/results/exp2_15.pth (torch, 100367 bytes, 8 tensors)

conv1.weight f4 [15, 1, 5, 5]
000000 c2 7f f9 3d 51 fc a0 3e 14 dc 2f 3e cc e4 94 3e
       0.12182571 0.31442502 0.17173797 0.29080808
000010 0c 1c b1 bd c5 47 b8 3c 52 b3 19 3e 82 fb a9 3e
       -0.08647928 0.02249516 0.15009812 0.33199698
000020 c9 4c 2e 3e 50 42 81 be db ea 80 3e 79 25 b9 3e
       0.17021479 -0.25245905 0.2517918 0.36161402
000030 84 b9 b0 3e 81 65 df bb c3 03 ad 3c f9 b7 d0 3d
       0.34516537 -0.00681752 0.021119958 0.1019134
000040 6d ef e0 3e c5 54 4c 3e 82 7a 8a bd 3a 0f 18 3d
       0.43932667 0.19954212 -0.06761648 0.037123896
000050 0f f2 b7 bc 12 b0 35 3e d9 c4 da 3d 8c e8 5d 3e
       -0.02245429 0.17742947 0.10682077 0.21670741
000060 da 31 f9 bd 04 10 23 be 27 d1 88 bd 03 b7 a3 bd
       -0.121677116 -0.15924078 -0.06680518 -0.07993891
000070 6c 51 ae 3d f5 81 5a be 68 a9 00 3e 2a 90 14 be
       0.08511624 -0.21338637 0.12564623 -0.14508119
000080 27 dc 59 3e 20 d5 9a 3d fa 9c 05 be bd 57 a7 3d
       0.21275388 0.075601816 -0.13048163 0.081710316
000090 cb 2a 91 3d a8 ac 9a 3e 44 70 36 3e ac c0 16 3b
       0.0708824 0.3020985 0.17816263 0.0023003025
0000a0 4f e3 03 3d 12 cb de 3b 89 a6 96 3e 33 21 d9 3e
       0.0321992 0.00679911 0.2942393 0.42408141
0000b0 41 9c 94 3e 6c 18 ba bd 7d 80 36 3e 7e aa 13 3e
       0.29025462 -0.09086689 0.17822452 0.14420506
0000c0 dd 2e 7e 3e 0e 8e e3 3b cf 0c 6e be a8 df 01 bd
       0.24822564 0.0069444245 -0.23247074 -0.031707436
0000d0 52 6a 2a bd 40 2a 60 3e 08 39 90 3d f4 07 81 3d
       -0.0416053 0.21891117 0.07042128 0.06300345
0000e0 01 c2 4c 3e 8a 17 30 3e fc 92 48 3e 97 1e 48 be
       0.19995882 0.1719648 0.1958732 -0.19542919
0000f0 88 11 9c 3d a1 70 b9 3d b8 a2 62 3e 72 0e d4 bd
       0.07620531 0.090546854 0.22132385 -0.10354318
000100 b5 77 a4 bd 53 08 4b 3d 0d cb ab 3e 71 82 40 bd
       -0.08030645 0.049568485 0.33553353 -0.0469994
000110 b0 96 51 be 30 c9 70 be ac 57 92 3e 29 6a 4b 3e
       -0.20467639 -0.23514247 0.28582513 0.19864716
000120 69 b2 34 3e 19 9b 86 be 30 1d 97 be a4 11 52 be
       0.17646183 -0.26290205 -0.29514456 -0.20514542
000130 52 4a 31 be b9 bd e7 3d 35 ca 5d 3e 47 cd af 3e
       -0.17313507 0.113154836 0.21659167 0.34336302
000140 8d b9 16 be b8 df 0f be cc c2 29 3e 60 bb ef 3c
       -0.1471922 -0.14050186 0.16578215 0.029264152
000150 9d 6a 69 3e f0 be bc bd 4b 1a 00 3e 7d 59 e8 bd
       0.22794576 -0.09216106 0.1251003 -0.113451935
000160 82 68 a0 bd 1c 9a 46 3d 35 e4 f7 3c 0a 8c 10 bd
       -0.07832433 0.048486814 0.030260185 -0.0352898
000170 9d 8c e8 3d 00 03 c9 3d 54 76 54 be 8e 30 a2 bd
       0.11354945 0.09815025 -0.20748264 -0.07919417
000180 8c bc 41 3e eb 94 b2 bd 5a 64 e6 bd b8 13 74 be
       0.18919581 -0.0871981 -0.11249609 -0.23835647
000190 d4 f2 3a be 91 96 ca ba f3 21 65 bd 9a 7f 28 be
       -0.18256694 -0.0015456249 -0.05594058 -0.16454926
0001a0 1e 93 b2 bc 32 f0 32 be 61 75 65 be 9b 0b 1a be
       -0.021798667 -0.1747444 -0.22408058 -0.1504349
0001b0 3d c8 55 be 45 59 26 be 57 ea 3d 3e a5 db 58 bb
       -0.20877166 -0.16244991 0.18546425 -0.0033089903
0001c0 cb 60 72 3c c9 8d 66 be 8e 55 2a be b9 fd 32 bd
       0.014793585 -0.22515024 -0.16634199 -0.043699
0001d0 e7 75 01 3d 68 5b 52 be 81 b4 f8 bd c7 e0 19 be
       0.03160658 -0.20542681 -0.121438034 -0.15027152
0001e0 fe 8c 8d 3d 6b 26 43 bd 01 1b cf bc e8 9c 31 be
       0.06911658 -0.04764406 -0.025281431 -0.17345011
0001f0 4c 36 37 be d6 24 0c be 65 dd 06 be ef 21 6b be
       -0.17891806 -0.13685927 -0.13170393 -0.22962163
000200 f3 c9 1f 3d 31 ec 99 bd 18 66 d2 3d 5c 6a 4d bd
       0.039010953 -0.07515753 0.10273379 -0.05015026
000210 67 07 98 be 4e 28 0d bd 94 58 c6 bd b4 fc ac bd
       -0.29693148 -0.034462266 -0.09684864 -0.08446637
000220 27 3b 3f be fd 11 7d be 13 dc 2a bc 29 62 ca 3b
       -0.18674909 -0.24713893 -0.010428446 0.0061762524
000230 24 3d 36 3e c5 f3 b3 bc 6e 6b 7e 3e ba e4 88 bd
       0.17796761 -0.021966824 0.24845669 -0.06684251
000240 23 3e b8 3d 03 79 72 3e 4d ad b2 3e d7 58 b3 3e
       0.08996227 0.23678975 0.34897843 0.35028717
000250 da da 9b 3e 2e a2 66 bd aa c2 4b 3d 83 c4 71 bd
       0.30440408 -0.05630701 0.049746193 -0.0590253
000260 c3 01 e2 3c 4a 31 f7 bd a7 23 45 3e b0 ca 28 be
       0.02758873 -0.12069948 0.19251882 -0.16483569
000270 c6 36 18 3e 68 d5 13 3e 68 47 c2 3d 6b 92 e0 bd
       0.14864644 0.14436877 0.09486276 -0.10965427
000280 f1 3e 2d 3e 95 33 a4 3d de 75 ce 3d 22 a6 23 be
       0.16918541 0.08017651 0.10081075 -0.15981343
000290 8f 46 3c 3d da d6 32 bd cf 61 99 bd 04 d1 66 3e
       0.045965727 -0.04366193 -0.07489359 0.2254067
0002a0 5c e9 08 3d 33 07 2a be f6 e2 d4 bd 96 40 b6 3c
       0.033425674 -0.16604309 -0.10394852 0.022247594
0002b0 c2 53 1e 3e 58 cc aa bd 6d 50 38 be dd ce e2 bd
       0.15461639 -0.08339757 -0.1799943 -0.11074612
0002c0 c8 b6 d1 bd 73 01 31 3e c0 d4 52 3e b5 91 79 be
       -0.10239941 0.17285709 0.2058897 -0.24371989
0002d0 78 e7 45 3c 56 c3 3f 3e 82 ae 12 3e 37 ea aa bd
       0.012079112 0.18726858 0.14324382 -0.08345454
0002e0 4b 7b d6 bb f3 c0 bc 3d 60 9e 36 3e 7e 76 93 3d
       -0.0065454594 0.0921649 0.17833853 0.07200335
0002f0 ee 53 87 bd e2 f0 dc bc e3 51 d3 bc 03 d5 0d 3c
       -0.06607805 -0.02697033 -0.025795883 0.008656743
000300 25 e5 6c 3e c2 41 93 3e e9 fb 4f 3d 8d 42 42 bd
       0.23134287 0.28761107 0.05077735 -0.04742675
000310 73 59 c2 3c ab a5 30 3d 1e 26 3e 3e dd 0d 3e 3e
       0.023724293 0.043126743 0.18569228 0.18559976
000320 b9 f9 5e be 62 30 dd bd 98 e4 2b 3e dc fc 2b 3e
       -0.21774949 -0.10800244 0.1678642 0.16795677
000330 7f d1 df 3d e7 66 5f be 70 11 ab be 6e 4e ac be
       0.1092863 -0.21816598 -0.3341174 -0.33653587
000340 95 a3 b9 bd 89 77 cc 3d 65 dc e8 3d 79 31 75 bd
       -0.09064404 0.09983737 0.11370162 -0.059861634
000350 3e c3 9d be 2a 17 78 be 45 89 06 be f1 24 8c 3e
       -0.3081302 -0.24227586 -0.13138302 0.27371934
000360 f2 81 79 3d 95 db 9e bd b4 42 f0 bc 6a c1 39 be
       0.06091494 -0.07756726 -0.029328682 -0.18140188
000370 b8 55 4d bd 69 94 81 3e 82 f9 cf ba 4f 96 09 bc
       -0.050130576 0.2530854 -0.0015867206 -0.008397653
000380 9c 46 47 be 2d 7b 80 3e ca bf 9e 3e f6 a5 fa 3d
       -0.19460529 0.25093976 0.31005698 0.12238686
000390 6d d7 63 be 8a a4 a7 be 84 81 3c 3d 88 64 a6 3e
       -0.22250147 -0.3274272 0.046021953 0.32498574
0003a0 5c 9e 83 3d 67 6f 60 bb 7a 17 39 bd d0 44 80 3e
       0.06426689 -0.0034246088 -0.045188405 0.250525
0003b0 b3 0e ff 3d a2 ae 48 be f4 43 92 be ea 98 92 be
       0.124539755 -0.19597867 -0.2856747 -0.2863229
0003c0 1f 2f 4d 3e 1f 02 6d bd bb 50 c5 bd 91 42 3f be
       0.20037507 -0.05786335 -0.09634539 -0.18677737
0003d0 47 af af bd c7 89 f3 bc c6 f0 cf bd 4c 03 1f 3c
       -0.085783534 -0.029728783 -0.10153346 0.009705376
0003e0 56 40 ea bd 66 2b b0 3d f5 1f 0d be c7 9e 83 be
       -0.11438052 0.086020276 -0.13781722 -0.25707075
0003f0 03 55 3d be 31 b5 7b be 3c 44 49 be 83 fd 87 be
       -0.1848946 -0.24580838 -0.19654936 -0.26560602

conv1.bias f4 [15]
000000 7b 61 84 3c 56 d0 59 3e 49 de b1 3d b4 b9 32 3e
       0.016159764 0.2127088 0.08684976 0.17453653
000010 39 5b e0 bd f1 e7 db 3d 35 a9 ee bd 26 f4 14 3e
       -0.10954899 0.10737599 -0.116533674 0.1454626
000020 26 7a 61 3e 61 15 5f b9 d9 2c 02 3e 4c a1 06 be
       0.22019252 -0.00021274902 0.1271242 -0.13147467
000030 ac 3c 9b bc ad 36 28 3e eb 6e 2a 3d
       -0.018949829 0.16427107 0.041609686

conv2.weight f4 [20, 15, 5, 5]
000000 52 8a 0d bd 5a af 1a 3d 9c 34 f1 3d a1 56 6f 3d
       -0.03455574 0.037764885 0.117776126 0.058432225
000010 a4 79 6b 3d 23 23 25 bd 8a 6d e5 bc 56 f4 17 bd
       0.057489052 -0.040316712 -0.028006334 -0.03709825
000020 00 c5 4e bd 9f 6f ac bd dd 62 71 3b 96 9c fe bc
       -0.050480843 -0.084197275 0.0036832609 -0.031080525
000030 25 f5 bd bd 72 7b 53 bd 2c ea 8c 3c c2 79 ed bc
       -0.09275273 -0.0516314 0.017201506 -0.028988723
000040 08 02 0d be 4c 79 b5 bb b0 d2 9d 3d e8 4c ed 3d
       -0.13770306 -0.0055381414 0.07706201 0.11586934
000050 30 08 63 39 b8 c4 f1 bc 20 a5 18 3e 1a 88 19 3e
       0.00021651457 -0.029512748 0.1490674 0.14993325
000060 84 e9 35 3d e1 f3 6e bc db 22 ef bb 42 28 02 bc
       0.04441215 -0.014584512 -0.0072978563 -0.0079441685
000070 d1 ef 74 bd 8f fd b8 bd 97 dc 6b 3c 40 3e a1 bd
       -0.05979902 -0.090327375 0.014395854 -0.07873201
000080 fc 44 d0 bd 80 54 71 bb 8f fb 6c 3d cf 4c 89 bc
       -0.10169408 -0.0036824048 0.057857092 -0.016760258
000090 ef 63 9a bd 06 45 43 bd f7 91 e5 3c 9e ce 6a 3d
       -0.07538592 -0.047673248 0.028023703 0.05732595
0000a0 2f a1 24 bc be 23 dc bc b9 b1 ac bc b5 f5 a0 3d
       -0.010048195 -0.026872512 -0.021080839 0.07859365
0000b0 35 55 b7 bd bf c0 74 3c 4a e0 41 bc 3f 60 e4 3c
       -0.08951799 0.014938532 -0.01183326 0.027877925
0000c0 3f 74 21 3d 84 f6 3f bc 43 86 b2 bc 37 60 bc 3d
       0.0394175 -0.011716489 -0.021792537 0.09198039
0000d0 9f 25 a0 3b 35 4a 6e bc 1e db b9 3c 68 a0 a5 3b
       0.0048872973 -0.0145440595 0.022687491 0.0050545223
0000e0 cc 94 1e 3c be 63 6d bc 86 aa d0 bc 58 e8 24 bd
       0.009679031 -0.014489112 -0.025471937 -0.040260643
0000f0 c4 8d 76 3d 7c 38 85 bd 65 dd 9c bd b0 fc 3c 3d
       0.060193792 -0.06504914 -0.07659415 0.04613942
000100 e1 f8 c2 3d 80 ed 8d 3d 5d d2 10 bd 50 6c da 3d
       0.09520126 0.06930065 -0.035356868 0.1066519
000110 1b 3f ba 3d 73 1d 58 3d 2f 81 83 3c 09 6b 31 3d
       0.09094068 0.05276246 0.01605281 0.043314967
000120 a2 ef a2 3d 07 cb 6b bc 22 4d 0d bd 07 d3 ec bb
       0.079558626 -0.014391667 -0.034497388 -0.007227305
000130 b0 be d9 3c 7d d3 5c 3c 2e 79 0e 3d 44 cf aa 3c
       0.026580185 0.013478157 0.034783535 0.020850785
000140 e8 6b ca 3d 6f 8c 8e 3d 31 91 fe 3c 63 48 e4 bc
       0.09883863 0.06960379 0.031075092 -0.027866548
000150 9c 89 0b bd ec 06 6c 3d 91 f5 80 bd 26 f3 52 bd
       -0.03406678 0.05762379 -0.06296838 -0.051501416
000160 9e 05 7b bb 23 5f 1e 3d 5c a4 0b 3c 25 d4 28 bd
       -0.0038302909 0.03866495 0.008523073 -0.04121794
000170 d7 1c df bc 2b c3 0e bb f2 f5 bf bc 8a 06 b1 bd
       -0.027235432 -0.002178381 -0.023432706 -0.08643825
000180 1c 16 92 3c 22 e3 30 bc 0c 2d 52 3c 09 ef a8 3c
       0.017832808 -0.01079634 0.012828123 0.020621793
000190 52 15 c2 3c 16 cf d8 3c 25 7d c8 3c 57 16 b8 3b
       0.023691807 0.026465934 0.024473736 0.0056178975
0001a0 4a 77 44 3c 38 5a 67 3c 02 91 0a 3d cb 0c 61 3d
       0.011991331 0.014120631 0.033829696 0.05494384
0001b0 69 2b 02 bc b8 e7 c6 bc 0b a0 ab 3a 52 69 75 bc
       -0.00794492 -0.024280414 0.0013093961 -0.014978724
0001c0 20 88 8d 3c 15 d7 a1 3c 7c a8 6b 3c c8 ce 0f 3d
       0.017276824 0.01975588 0.0143834315 0.03510931
0001d0 bd 01 28 bd 2c d5 00 bd 04 5b 1f bd 93 73 d9 bc
       -0.041017283 -0.031453297 -0.03890516 -0.026544368
0001e0 ef f1 35 bb b5 48 4b bd 64 a8 46 3c 27 78 61 bd
       -0.0027762612 -0.049629886 0.012125108 -0.055046227
0001f0 ea c9 b8 bc b6 04 06 bd 0e 0f da 3c b8 c8 ce bd
       -0.022557218 -0.032719336 0.026618507 -0.10096878
000200 15 3c 01 bc fc a6 d3 bc 4e 68 93 3c 5e b7 bd 3c
       -0.00788786 -0.02583646 0.017994072 0.023158725
000210 9e 00 93 bc e7 b7 6a 3d 99 01 a9 3d 2e a3 76 bc
       -0.01794463 0.05730429 0.08252258 -0.0150535535
000220 d4 04 1a 3c 72 1d a9 3c 9d 33 d1 3c 4d b2 aa bb
       0.009400565 0.020643923 0.025537306 -0.0052092434
000230 b9 23 0a bc 09 ee 1b bd 1b 5f 96 bc e7 97 f3 3c
       -0.0084313685 -0.038068805 -0.018355897 0.029735519
000240 a6 5c db bc db b6 bb bb 41 a0 37 bd 19 a1 31 bd
       -0.026777577 -0.005728585 -0.044830564 -0.043366525
000250 df a3 c8 bd da 88 04 3c 81 ad e4 bc cf 69 1e 3c
       -0.09796881 0.008089269 -0.027914764 0.009668781
000260 fe 9c 7a bc c2 98 ef bb e2 59 56 3d f7 1d 74 3c
       -0.015296219 -0.0073119113 0.052331813 0.014899722
000270 01 14 f0 3c ab 1b 59 3b de b1 55 3c 3a 48 9a bc
       0.029306414 0.0033128064 0.013042895 -0.018833268
000280 d0 a2 7c bc 21 91 44 bb a6 cc b9 bc af 7c 2a 3d
       -0.015419677 -0.002999373 -0.022680592 0.041622814
000290 b9 c4 2c 3b c8 1b 1a bd d0 60 a0 3b a6 94 e9 3c
       0.0026362373 -0.03762415 0.0048943534 0.028513264
0002a0 ba 99 3a 3d 72 07 68 3d 29 5e f7 3c d0 e4 80 3d
       0.04555676 0.056647725 0.030196266 0.062936425
0002b0 86 cb 37 3c a8 85 17 bd 32 09 55 bd 1e 7a 1f bd
       0.011217957 -0.0369927 -0.052010722 -0.03893482
0002c0 85 0b 3c bd 1f ce 11 bd cc 28 42 bd b2 bb 90 bd
       -0.045909423 -0.035596963 -0.04740219 -0.0706705
0002d0 33 66 08 bd 2b 91 8e bd d6 c9 93 bd ea 60 20 bd
       -0.03330059 -0.06961282 -0.072162315 -0.039154924
0002e0 61 30 ca 3c 11 cb 35 bd 57 c5 68 bd c2 16 60 bb
       0.024681272 -0.044383112 -0.056828823 -0.0034193252
0002f0 e1 a6 16 bd 7e 04 78 bc 3d ae 66 3c 83 ab 98 bd
       -0.036780242 -0.01513779 0.014079628 -0.07454588
000300 52 0c 3c 3b 6d 03 9b 3d 63 3d 39 3d fa 6a 50 3c
       0.0028693867 0.07569013 0.04522456 0.012720818
000310 d2 74 2d bd ab 05 4b 3d 7f c5 ca 3d 56 f9 37 3d
       -0.042347737 0.049565952 0.09900951 0.04491552
000320 12 7c 0b 3d 0d fb 86 3d 17 9d 11 bd 34 8b 94 3b
       0.03405387 0.06590853 -0.035550203 0.004533196
000330 6e 89 09 bc 6e fe ff b9 06 e7 f4 3c 2a ca 04 bd
       -0.008394582 -0.00048826955 0.029895317 -0.03241936
000340 91 f9 15 3d d5 2e 54 bc 4e f1 58 3c 3c 1e f6 3c
       0.03661496 -0.012950619 0.013241125 0.030043714
000350 85 3b 84 bd b3 80 7f bd e7 3b 4c bd 3d 5e 56 bd
       -0.06456665 -0.062378597 -0.049861815 -0.052335966
000360 c7 47 63 bd 3d 66 35 bd d9 73 8d bb 2a 41 8d 3c
       -0.055488374 -0.044286955 -0.0043167886 0.017242987
000370 43 20 40 bb ee 87 8e bd cc 9a 83 bd 95 fb 34 3c
       -0.0029316104 -0.0695952 -0.064260095 0.01104631
000380 60 22 81 3b a8 e6 3a bb 75 85 ac 3c 7a b9 22 bc
       0.0039408654 -0.002851883 0.021059731 -0.009931916
000390 df 4f 00 bb 9c b1 40 3d 87 ae a4 bc bf 2c 36 3d
       -0.0019578857 0.04704438 -0.020102752 0.044476267
0003a0 7e 30 e3 bb 8e e1 10 bd 14 c2 61 bc c8 63 63 bc
       -0.006933271 -0.035371356 -0.013779182 -0.01387877
0003b0 c6 c1 3c 3d a5 a6 20 3c 22 97 a7 bd 88 b1 09 3d
       0.046083234 0.009805356 -0.08183123 0.033616573
0003c0 5e c5 a6 3c c9 6b 9e 3b 86 1f e9 bb 62 fb 6c 3d
       0.020357784 0.0048346263 -0.0071143536 0.057856925
0003d0 2f 2b 81 3b 3b a8 43 3d 95 59 68 bd a8 58 3c bc
       0.0039419155 0.04776786 -0.056726057 -0.011495747
0003e0 fc e2 54 bc 7e 69 41 bc fe e5 e6 3b f0 0d 9a bd
       -0.01299357 -0.011804936 0.00704646 -0.075221896
0003f0 3f a8 b8 bc 24 e7 47 bd 20 1d e9 bd d8 2a 8d bc
       -0.022541163 -0.048804417 -0.11382508 -0.017232344

conv2.bias f4 [20]
000000 ee f2 c4 bc 2b 21 1e bc 3d 4a cb 3b 7b 24 0b 3d
       -0.02404162 -0.009651463 0.0062039183 0.033970337
000010 03 1b a5 bc 96 92 36 3d 6a 02 7e 3c c3 48 11 3c
       -0.020154482 0.04457339 0.015503505 0.008867445
000020 e3 3c 0f 3d 0d 18 30 bd eb 8a 10 bd 05 ae 24 bc
       0.034970175 -0.042991687 -0.035288732 -0.010051255
000030 8b 10 63 3c f4 c1 0d 3c 44 ec 13 3c 69 11 2b 3d
       0.013858925 0.008652199 0.009028498 0.04176465
000040 fd eb 97 ba fd b7 5e 3c 6e d3 d7 bc f7 5e 7f 3b
       -0.0011590716 0.013593671 -0.026345935 0.0038966516

fc1.weight f4 [50, 320]
000000 0e 70 7c 3b 24 91 ad bc 93 7b 71 3c 1b 01 b8 bc
       0.0038518938 -0.021187373 0.014738935 -0.022461465
000010 dc 62 f5 bb f2 ec 7b bd 13 dc 6f bc 74 90 10 bd
       -0.0074885916 -0.061505266 -0.014639872 -0.03529401
000020 b2 5d 8a bd 4f c4 f7 bc 45 e7 41 3d 41 48 98 bc
       -0.06756152 -0.030244974 0.047339696 -0.01858914
000030 a3 a3 6c 3d 5d e4 0b 3d 49 ab 26 3d 8f f1 85 ba
       0.057773244 0.03415333 0.040690694 -0.0010219085
000040 d8 e7 08 bd e9 55 cf bb ac eb 8a 3d bd 5f 1a bd
       -0.03342423 -0.00632738 0.06783232 -0.03768896
000050 4b a7 fe 3c a2 66 f5 3c d9 5c 6d 3c b8 05 4f 3d
       0.03108563 0.029956166 0.014487469 0.050542563
000060 32 15 0c bc a6 c4 be 3c 14 50 03 3c 8d 02 e0 b9
       -0.008549975 0.023287129 0.008014698 -0.0004272651
000070 ea 81 63 bc b4 c0 14 3d d1 fe 21 bd 94 7d 0b 3c
       -0.013885954 0.03631659 -0.039549652 0.008513827
000080 06 8d d7 bc d8 c5 58 3d eb b9 ef 3c 11 60 10 3d
       -0.026312362 0.052923054 0.029263457 0.035247866
000090 5c 8a 5b bb ef af 57 3b b1 b7 96 3b e0 93 03 bc
       -0.0033499217 0.003291126 0.0045995344 -0.008030862
0000a0 b2 6e 15 bd 54 4d e4 bc 5c bd 76 3d cb e8 5b bc
       -0.03648252 -0.027868904 0.06023918 -0.013422201
0000b0 09 b5 22 bd 44 54 40 bd 2a 1f 43 3c cd 4f 6b 3d
       -0.03972343 -0.046955362 0.011909286 0.05744915
0000c0 62 d0 46 bd 91 a1 b8 bc 35 5a 67 bb e4 09 c2 3d
       -0.048538573 -0.022537978 -0.003530157 0.09474543
0000d0 32 05 02 3c 2b 01 88 3d 66 ff 42 bd da bd ec bc
       0.007935809 0.06640848 -0.04760685 -0.028899122
0000e0 07 a3 f2 3d 68 8f e0 ba 72 da b7 bd ed d7 34 bd
       0.11847501 -0.0017132582 -0.08977212 -0.044151235
0000f0 76 02 98 bc 65 7b 63 bd b6 b3 d2 3c 73 42 eb bc
       -0.018555861 -0.0555376 0.025720458 -0.028718209
000100 1a 2c 24 bd 0e 4a 34 3d 1d 85 1d bc 15 48 8a bc
       -0.04008112 0.044015937 -0.009614256 -0.016880075
000110 c2 1b 5c 3d 73 7c a6 3b a5 cd 41 bc 36 d7 68 bc
       0.05373741 0.0050807535 -0.011828815 -0.014211467
000120 96 9b 34 bd c6 6f ff 3c 8a 19 0c 3d 78 a4 9a 3b
       -0.04409369 0.031181227 0.034204043 0.0047193132
000130 12 f6 a6 bd 47 d0 46 3c 66 52 95 bc b1 f4 31 bb
       -0.08152403 0.012134618 -0.018227767 -0.0027153904
000140 4d 91 79 bb 3d 81 2d 3d b4 ba 6b 3d 95 ed 39 bd
       -0.003808099 0.04235958 0.0575511 -0.04539259
000150 af 26 8f bc a0 d5 04 3c e6 72 ce bb 19 cc 24 bd
       -0.0174745 0.008107573 -0.006300318 -0.040233705
000160 a8 9e d2 bc 25 bf c8 3a 47 86 6b bc ba 16 0f bd
       -0.025710419 0.0015315755 -0.014375276 -0.034933783
000170 5d bc a2 3a 1d 18 d0 3d 9d 46 77 3d c3 30 b3 bc
       0.0012415756 0.10160849 0.060370076 -0.021873837
000180 73 a5 26 bd 46 f6 ab bc 80 ff ca bb 64 81 c0 3d
       -0.04068513 -0.020991456 -0.0061950088 0.09399679
000190 54 df ae 3c ec 26 2b 3d f4 e2 2d bd 0b ff 13 3d
       0.021346726 0.041785166 -0.042452767 0.0361319
0001a0 04 09 88 3c 9c 31 28 3c e4 b1 e8 bc 9a 20 08 3d
       0.016605861 0.010265734 -0.028405137 0.033234216
0001b0 ea 90 43 bc d4 61 8a 3a 9d db c7 3b dd d3 c1 3b
       -0.011936406 0.001055772 0.006099178 0.0059151486
0001c0 d4 9e 16 39 07 f1 bf 3c 71 b7 78 3c 1f 07 2a 3c
       0.00014364283 0.02343036 0.015180455 0.010377674
0001d0 ef 48 e0 bc d3 93 21 3d 08 4d c3 bc c3 c3 89 3c
       -0.027378527 0.039447617 -0.023840442 0.01681698
0001e0 9f 1f 37 3b 4e ef 22 bc 41 ec d9 3c e9 e6 0d 3b
       0.0027942432 -0.00994475 0.026601912 0.0021652526
0001f0 57 74 12 bd 67 6c eb bb 8c ee 8c bc 0b a2 81 3c
       -0.03575548 -0.0071845534 -0.017203592 0.015824338
000200 f6 9b e2 3c 81 c4 ae 3c 80 e0 a3 3c f2 90 a2 3d
       0.027662259 0.021333935 0.02000451 0.079378024
000210 9a 1a ac 3c 1c 14 45 bd 24 87 f1 bc 5c 01 4e 3d
       0.021008778 -0.04811488 -0.029483385 0.050294265
000220 82 cc 7c 3d 8b 30 b5 bc fa 8d 87 bd 37 c6 82 bc
       0.06171847 -0.022117874 -0.06618877 -0.015963657
000230 f3 99 ef 3c 07 78 61 bc 64 3a 91 ba 91 56 1a bd
       0.029248213 -0.013761527 -0.0011080024 -0.037680212
000240 2f f9 3d bd bc 80 9f bd cb ec 53 bd 50 0c 93 3d
       -0.046380218 -0.07788226 -0.051739495 0.07180083
000250 b6 3c 01 bd ce 92 5b 3d 9d ba a0 3d 6d 99 2d 3d
       -0.03155204 0.0536068 0.07848094 0.042382646
000260 e1 2b 54 3d 87 7c 18 3c 56 f8 a2 3c 28 f7 d4 3c
       0.05179966 0.009307033 0.019893806 0.02599676
000270 51 ad 7c bd 45 74 e2 bc f3 94 0e ba 3b e4 95 bd
       -0.061688725 -0.027643332 -0.0005439065 -0.07318922
000280 8b 3a a1 bd b3 6e ad ba 93 04 4b 3c 49 71 81 bd
       -0.07872494 -0.0013231843 0.012391227 -0.063204356
000290 67 dd 4d bd 84 c3 87 bd 0c 0e 71 3d 9d ce 99 3d
       -0.050259974 -0.066290885 0.058851287 0.075101115
0002a0 8f a6 68 3d eb 5b 3a 3d af d1 5b 3a 23 94 0d bd
       0.056799468 0.045497816 0.00083854323 -0.034565102
0002b0 5a 86 0b 3d a5 8a 15 bd f8 7f 52 3c 84 eb c5 bc
       0.034063675 -0.036509175 0.012847893 -0.024160154
0002c0 c1 bc 6a bc c5 80 8d bd dd 42 ef bb 35 da 50 bc
       -0.014327229 -0.069093265 -0.007301672 -0.012747337
0002d0 09 95 b0 3a a2 64 9a 3c d3 50 d1 3c 92 3e 09 3d
       0.001347215 0.018846814 0.025551235 0.033506937
0002e0 a7 df 80 3c 46 4a 96 3b bf b5 18 3d 84 cd da bc
       0.015731646 0.004586491 0.0372827 -0.026709326
0002f0 45 3f b9 ba c4 c6 f0 bc 03 61 88 39 bb 65 89 3d
       -0.0014133236 -0.029391654 0.0002601222 0.06708857
000300 c0 f7 b2 3c 01 d9 a5 bb 1d ed 90 3c 32 86 90 bc
       0.021846652 -0.0050612693 0.01769119 -0.017642114
000310 3f 89 71 3c 69 ca 7e 3c cc 57 12 3d a1 e0 25 3d
       0.014742195 0.015551188 0.03572826 0.040497426
000320 c2 e6 0d 3d 6e c1 14 bd 06 14 42 3b 4c b3 4e 3d
       0.034643896 -0.03631728 0.0029613986 0.05046396
000330 de f3 69 bd e8 e2 3f bd bd 11 86 3c 37 ec 72 bd
       -0.057117335 -0.046847254 0.01636588 -0.059307303
000340 02 e3 8b 3d df 62 72 3d b5 1f 7b bd 5c e1 84 bc
       0.06830408 0.059176322 -0.061309535 -0.016220741
000350 68 26 4a 3d f4 34 de 3c 3a 90 22 3d 7c 6c 30 bc
       0.049353033 0.02712486 0.039688326 -0.010768052
000360 dc bb 82 3d 83 c3 f8 bb 1e ce de bc 5e 58 8c 3c
       0.063834876 -0.007591666 -0.027197894 0.01713198
000370 4e 6d a7 bc 20 f6 ca bc 97 a7 84 bd cb 22 32 3c
       -0.020437863 -0.024775565 -0.06477278 0.010872553
000380 75 04 7b 3c 7f 65 0f 3d 4a ab 59 bd 26 28 94 bc
       0.015320887 0.035008904 -0.05314187 -0.01808555
000390 33 c4 e6 3c 89 56 49 3d e9 75 b3 bd 20 29 87 bd
       0.028169727 0.049154792 -0.08762724 -0.06599641
0003a0 d7 fc 81 bd a8 66 26 3d ff f4 78 bd ee 00 d6 3c
       -0.063470535 0.040625244 -0.06078052 0.02612349
0003b0 b2 ae ed bc 43 39 8a bd 38 0b fd 3c a5 7b b3 3c
       -0.029013965 -0.06749203 0.030889139 0.021909544
0003c0 d6 33 ed bc 90 0f 9b 3c 0b a6 40 3d d7 ee 23 bd
       -0.028955381 0.01892832 0.04703335 -0.040022697
0003d0 ae d0 be 3c 69 45 51 3d a7 9d ce 3c b9 ce 89 3c
       0.023292866 0.051091585 0.025221659 0.016822206
0003e0 13 c2 d2 3d ef 06 45 3d ee f1 8f 3c 27 9a 05 3c
       0.10290923 0.048102316 0.017571416 0.008154429
0003f0 fe a3 2a 3d ac b7 77 3b 73 fd 97 bd 42 49 5a bc
       0.0416603 0.0037798686 -0.074213885 -0.01332313

fc1.bias f4 [50]
000000 10 ca 2e 3c 11 8a 76 bb ca 70 bf 3c fb 7f ee bb
       0.010668293 -0.0037618915 0.023369212 -0.00727844
000010 93 b2 37 bc 89 8d ae 3b bd 2d b7 3d 58 b2 aa bb
       -0.011212009 0.005326931 0.08944271 -0.0052092485
000020 47 8d b0 3d 30 91 20 3d e1 46 55 3d af 11 78 bc
       0.086206965 0.03920096 0.05206955 -0.015140935
000030 0e 64 85 3d d0 ed 0b bd 0e 34 31 bb 95 b7 87 3d
       0.065132245 -0.034162343 -0.0027039084 0.06626812
000040 35 4b 94 3a 0d 46 8c 3d 9b b5 39 3c 82 10 19 bd
       0.0011313917 0.068492986 0.011334802 -0.03736926
000050 91 3a 9a 3d 28 82 62 3d 8b 5a 26 3d b7 fb 91 bc
       0.07530702 0.055299908 0.040613692 -0.017820222
000060 e6 2c cf 3c d5 c0 a0 3b e1 2d 90 3d c7 3a 0b 3d
       0.025289964 0.0049058 0.07040001 0.0339916
000070 c4 7d 87 bc a7 fd 2c bd 88 0d 25 bc be 75 69 3d
       -0.016539462 -0.04223409 -0.010074027 0.056997053
000080 86 97 c1 bc d0 47 5c 3d 41 d5 3c 3b d7 eb a3 3b
       -0.023631822 0.053779423 0.0028813633 0.0050024795
000090 e4 13 ca bb c8 41 0e 3d 8f 16 78 bb 39 fe a5 bc
       -0.006166922 0.034730703 -0.0037855243 -0.020262824
0000a0 4f 5d bc 3c 43 7a 50 3d 08 87 ab 3c 9f 7a 41 bb
       0.022993712 0.050897848 0.020938411 -0.002952255
0000b0 81 76 82 3d 7f 28 82 3d 89 e3 83 3d ab 8b 3d 3d
       0.06370259 0.0635538 0.06439883 0.046275776
0000c0 d0 91 88 bb e2 93 84 3d
       -0.004167773 0.06473519

fc2.weight f4 [10, 50]
000000 74 17 13 bd 35 5f 53 3e cc 27 ae 3e cc 26 10 bc
       -0.03591104 0.20641787 0.34014738 -0.008798312
000010 d9 e9 f9 bd 06 6c 15 3e 61 25 38 be 80 76 81 3e
       -0.12202806 0.14591989 -0.17983009 0.2528572
000020 16 d5 3f be 93 89 12 bd 40 38 2a 3e 41 3c 40 3e
       -0.1873363 -0.035775732 0.1662302 0.18772985
000030 72 97 36 3e 47 bb 42 be a0 e7 4c 3d ec 29 f9 bd
       0.1783121 -0.19016753 0.050025582 -0.12166199
000040 3e 33 2d be 86 10 23 3d 96 9f 01 be a0 74 14 be
       -0.16914079 0.03981068 -0.12658533 -0.14497614
000050 4a d1 43 3e 1d 29 39 be 38 a1 7c 3e 62 85 27 be
       0.19122806 -0.1808209 0.24670875 -0.16359475
000060 e8 5b 3b 3e 86 be 76 be 12 01 2e 3e c3 a2 37 3e
       0.18296778 -0.24096116 0.16992596 0.17933182
000070 6d c4 17 be 8a 79 73 3d f6 d2 7e be f7 44 5b 3e
       -0.14821024 0.05944208 -0.24885163 0.21413027
000080 a3 02 7c 3e 7d 1a 6b bd 71 8d 33 3e a9 b2 3a 3e
       0.24610381 -0.057398308 0.17534424 0.18232216
000090 c1 72 e1 bd c7 8e 36 be 4e 34 05 be be 1f 97 3d
       -0.11008216 -0.17827903 -0.13008234 0.07379101
0000a0 49 8b c4 bd 29 3c 00 be 75 68 c5 3c 39 1f 6c be
       -0.09596879 -0.1252295 0.02409766 -0.23058785
0000b0 26 93 71 be d7 0e 59 be 43 90 6b be 91 f4 29 3e
       -0.23591289 -0.21197067 -0.2300425 0.16597201
0000c0 ff 67 b5 bd 2b 41 d5 bd b1 08 96 bd c5 a3 31 3e
       -0.08857726 -0.104128204 -0.073258765 0.1734763
0000d0 57 45 06 bc e7 35 bb bd 96 26 01 3e 7b 3b 03 be
       -0.008195243 -0.091411404 0.12612376 -0.12815659
0000e0 a6 e6 15 3e c9 d6 0c be 72 64 c4 3d ff e0 48 be
       0.14638767 -0.13753809 0.09589471 -0.19617079
0000f0 97 49 8d bb 31 03 31 be 92 41 57 be cb 1d 1f be
       -0.004311751 -0.17286374 -0.21021107 -0.15538709
000100 f3 b3 e9 bd 02 ca cf 3d 18 99 48 3e a1 af 50 3e
       -0.11411276 0.10145952 0.1958965 0.20379497
000110 15 b9 9b 3e 50 d3 51 be 26 1f 35 3e 31 e8 ef 3c
       0.30414644 -0.20490766 0.17687663 0.029285522
000120 0e 3e 11 be 66 37 04 3e 10 5a 34 be f3 3f 2c 3e
       -0.14183828 0.12911758 -0.17612481 0.1682127
000130 1d 29 fa bd 74 6b 4c be 2c 19 89 bd ad 9b 4f be
       -0.12214873 -0.19962865 -0.06694254 -0.2027423
000140 83 29 61 be 50 ac 2d be 74 54 18 3e c8 47 e3 3d
       -0.21988492 -0.16960263 0.14875966 0.110976756
000150 be 00 04 3e 77 96 c1 bd 2a 8b 8e bd 2d de 39 3e
       0.12890908 -0.09452527 -0.06960137 0.1815116
000160 a0 89 29 bd b8 f3 e5 3c 0b c1 3c 3e 19 1f 5d 3e
       -0.041391015 0.028070316 0.18433015 0.21593894
000170 a8 c6 4b ba 7d 4f 2c 3e c0 44 17 3e 99 64 14 be
       -0.00077734375 0.16827197 0.1477232 -0.144915
000180 d4 0f 4e 3e 4a 5a 96 be 51 9b 0b be ef 5b 26 3e
       0.20123225 -0.2936576 -0.13633467 0.16246007
000190 e8 bf 6a bc 96 07 bf bd 46 66 8d 3e 4d 88 49 3e
       -0.014327981 -0.09327619 0.2761709 0.19680901
0001a0 63 e0 47 3e 96 1e 26 3e 9d 6e fe 3c 05 67 df 3c
       0.1951919 0.16222605 0.031058604 0.027270803
0001b0 60 9e 00 3e ad c1 52 bc 80 7b 1c be 00 3b 10 3e
       0.12560415 -0.012863559 -0.15281487 0.14085007
0001c0 6c 47 58 3e 83 7c 1d be 48 a0 2f 3e 3e 6d 8a bd
       0.21120995 -0.15379529 0.17150986 -0.067591175
0001d0 78 b8 2e be cc 04 b4 bd 4b 0b 90 3e 40 b0 14 be
       -0.17062557 -0.087899774 0.28133616 -0.14520359
0001e0 de ae 88 3b 98 a8 0d bd 9d e6 31 3e f1 11 70 be
       0.0041712364 -0.03458461 0.17373128 -0.23444344
0001f0 ef dd 99 bd 76 9d 28 3e 03 8e 0a be 0c db 4c bd
       -0.075130336 0.16466317 -0.13530736 -0.050013587
000200 4d d2 24 3e ca dd 53 bd 3c a9 c9 bb c1 28 11 be
       0.16095848 -0.051725186 -0.0061542075 -0.14175703
000210 f1 a1 9f bd 61 63 67 be ba f9 dc 3d c9 e9 24 3e
       -0.0779456 -0.22596504 0.10789819 0.16104807
000220 83 93 82 3e 4c 0a 51 bd 5f 24 10 3c d3 74 2b 3e
       0.25503168 -0.05103521 0.008797734 0.16743784
000230 26 b4 8c bd 7e 3b 60 be 96 b0 e1 bd b1 e7 54 3e
       -0.06870298 -0.21897694 -0.11020009 0.20791508
000240 62 0f b5 3d 27 da 02 be 85 ee 49 3e 7b cc ac bd
       0.08840825 -0.12778531 0.19719894 -0.08437439
000250 c7 b1 19 3e 8f 8b a8 bd e0 04 2b bb 63 fa b6 bd
       0.15009223 -0.08229744 -0.0026095435 -0.08934476
000260 85 4f 4f bd 9c 9d 96 3b 33 33 3b 3e 7a bc 1f 3e
       -0.050612945 0.004596425 0.1828125 0.15599242
000270 bf 07 2c 3e 09 b8 e0 bd cc 7e f3 3c b5 90 21 be
       0.1679983 -0.10972602 0.029723547 -0.15777858
000280 da 09 eb bc d9 3f 96 bd 70 3e 8f bc 74 21 eb bd
       -0.028691221 -0.07336397 -0.017485827 -0.1148099
000290 b3 4e 0f be 59 81 7b be df 77 55 3e 12 66 e3 bc
       -0.13994865 -0.24561061 0.20846508 -0.027758632
0002a0 09 71 e0 bd f4 84 d6 bd 89 31 9c bd a4 55 59 3e
       -0.1095906 -0.104745775 -0.076266356 0.21224076
0002b0 56 16 22 bd 57 18 1a 3e ba 8f b3 bd 54 9e 33 3e
       -0.039572082 0.15048347 -0.08767648 0.17540866
0002c0 e2 4e 39 be 74 b0 28 be 90 c2 38 3e 04 2a 1d 3e
       -0.18096498 -0.16473562 0.1804297 0.15348059
0002d0 3b d4 23 3e d2 16 c8 3d 1d 0e 08 be 46 e3 4b 3e
       0.15998928 0.09769978 -0.13286634 0.19910917
0002e0 fb 81 07 be 3b e1 43 3e 88 a6 80 3d 75 e5 82 be
       -0.13233177 0.19128887 0.06281763 -0.25565687
0002f0 57 6a 98 3d e7 0b 29 3e d2 bf 89 be a9 d9 e9 bd
       0.07442158 0.16508447 -0.2690416 -0.114184685
000300 00 da 8b bd 4e 32 11 3e 52 12 53 be 78 6b 8e bb
       -0.068286896 0.14179346 -0.20612457 -0.0043463074
000310 bd af 3a be 7b 4f 38 3e dd f3 04 3e ff cc 1d be
       -0.18231101 0.1799907 0.12983651 -0.15410231
000320 85 61 22 3d bf 2f 37 be ae fe f2 bd 81 02 a7 bc
       0.039643783 -0.17889307 -0.118649825 -0.020386936
000330 84 2c dd bd a3 72 d0 3d 3b 1c 31 be 92 eb 09 be
       -0.10799506 0.10178115 -0.17295925 -0.13468769
000340 74 8d 01 be 7c c9 76 3e 90 e6 25 3e 78 5f e3 3d
       -0.12651616 0.24100298 0.16201234 0.111021936
000350 47 79 be bd f0 88 1e 3e 5e 38 61 3e 6f 77 60 3e
       -0.093004756 0.15481925 0.21994159 0.2192056
000360 9f cc c3 3d c4 57 24 3e 68 9b 74 bd 1e 73 57 3e
       0.09560513 0.16049105 -0.05971852 0.21040007
000370 43 fc 63 3e ee 82 99 bd 2b 26 41 3d d2 6f ed 3d
       0.22264199 -0.07495676 0.04715554 0.11593594
000380 bc 7d 46 be 34 04 3a be e2 7b 01 be 5d 10 4f bd
       -0.19383901 -0.18165666 -0.12644914 -0.050552715
000390 47 e8 2d 3e 97 32 0e 3e af 26 0a 3e 42 98 2a be
       0.16983138 0.13886486 0.13491319 -0.16659644
0003a0 b7 05 3b bd 49 3a 0f bd f1 43 d8 bc 07 ee 64 be
       -0.045659747 -0.034967694 -0.026399584 -0.22356425
0003b0 0d 9d 0a be 8d c8 3b 3e 7e 7d 14 3e 27 42 d6 bc
       -0.13536473 0.18338223 0.14500996 -0.02615459
0003c0 6f 89 d6 bd 33 9f 65 bd 64 87 39 be f1 e5 1c be
       -0.10475432 -0.056060027 -0.18118054 -0.1532209
0003d0 f5 59 31 3e 9b 4c 8e 3e 8b 40 ca bd c2 88 4a be
       0.17319472 0.2779282 -0.09875592 -0.19778731
0003e0 48 70 4a be 96 5d 98 3d 37 14 36 3e 3e 72 69 bd
       -0.19769394 0.07439725 0.17781149 -0.056993715
0003f0 61 df 66 bd 02 5f 79 bc 2a 5f 82 be 21 3f 5b be
       -0.056365374 -0.0152204055 -0.2546323 -0.214108

fc2.bias f4 [10]
000000 3f 54 ee 3b a9 b8 14 3e 7d 64 2f be 51 13 e0 bd
       0.0072732265 0.14523567 -0.17128177 -0.10941184
000010 59 05 40 bc ca ec 29 bd b6 fa d1 bd 19 44 4f bd
       -0.011720025 -0.041485585 -0.102528974 -0.050602052
000020 75 cb 1e bd 6f 6b f2 bc
       -0.03876825 -0.029592244
