proj5/task4/results/exp2_13.pth (torch, 96207 bytes, 8 tensors)

conv1.weight f4 [13, 1, 5, 5]
0.11031382 0.22651353 0.072460845 0.32523978 -0.04656216 0.02825048 0.0721802 0.3541243
0.29726776 -0.16404478 0.22756101 0.20984301 0.34044394 0.13628264 0.14176272 -0.033549096
0.17485671 0.13339381 0.03638099 0.11701776 -0.21735352 -0.10981419 -0.04437697 0.22171973
-0.11981325 -0.024329549 0.029339561 0.025511967 0.11105415 -0.23239926 0.24996254 -0.05398786
0.2723054 0.029272359 -0.1836165 0.13908532 0.08617306 0.26461744 0.059563994 -0.119945645
-0.014413589 -0.07571983 0.18227789 0.32692397 0.17913905 -0.18663105 0.0694459 0.064168744
0.22340082 -0.03431768 -0.16079737 0.12697521 0.12045684 0.26154208 -0.000293587 0.08230528
0.26220205 0.18969418 0.13021329 -0.30321684 0.15565573 0.22830275 0.2746937 -0.15745358
-0.17364682 0.14150162 0.46437243 0.004349311 -0.22928916 -0.29075077 0.34063494 0.267336
0.21541634 -0.28897592 -0.37226713 -0.404805 -0.32409075 0.0023546095 0.15683722 0.3214338
-0.3362205 -0.22161642 0.18106289 0.100264825 0.28151914 -0.27255374 0.10528874 0.08179594
0.1762357 0.19268146 -0.079732195 -0.0024038102 0.29524958 0.31196016 -0.069231264 -0.07257624
0.27442992 0.074213766 0.055616856 -0.15331021 -0.23227969 -0.04708191 -0.081021935 -0.16887827
-0.032310043 -0.19023147 -0.25017703 -0.16708097 -0.21323954 -0.17172883 0.2115243 -0.019176744
-0.0014809831 -0.2345414 -0.17648761 0.017856816 0.07416292 -0.19521472 -0.12901172 -0.15705884
0.13969257 0.015604897 -0.0035211558 -0.1812194 -0.18317862 -0.12721203 -0.096563034 -0.17048642
0.13155386 -0.023981405 0.14925559 0.017110078 -0.23280917 0.028187186 -0.11315107 -0.046924934
-0.1635858 -0.2479606 -0.03820269 -0.07348987 0.17410834 -0.08095444 0.19018385 -0.12865938
0.03425557 0.15325433 0.26252928 0.3006667 0.28939888 -0.058600135 -0.0006532835 -0.126538
-0.032656234 -0.14544791 0.1939872 -0.13336909 0.14099844 0.11346224 0.0778367 -0.10983281
0.24947383 0.10333705 0.0626031 -0.1851345 0.038786005 -0.03743229 -0.10537628 0.1869406
0.01966881 -0.16944031 -0.16044469 -0.03763969 0.14735316 -0.032113135 -0.11683953 -0.07811588
-0.19977696 -0.001085466 0.12330248 -0.15582289 0.049261067 0.057731483 -0.028065596 -0.085233964
0.12764664 0.10136064 0.044397634 -0.055354647 -0.016456414 0.087886505 -0.09004995 -0.08833911
0.1340085 0.2668723 0.08111925 -0.12723954 -0.04799122 -0.024131855 0.10743094 0.11477118
-0.24167259 -0.15990886 0.12001855 0.121488094 0.09304502 -0.17606376 -0.29137796 -0.31169352
-0.09936112 0.11564993 0.17937222 0.023671519 -0.25496227 -0.20959808 -0.08780471 0.2809875
0.10062204 -0.034127872 0.025804605 -0.1250567 -0.09022858 0.23453143 0.0024444887 0.013645947
-0.16919214 0.3183962 0.36323154 0.3215317 0.1826424 0.12238999 -0.017700138 0.2603269
0.24263549 0.34461296 0.24483515 0.007343011 -0.09623246 -0.22977366 -0.22989385 -0.28549185
-0.06417422 -0.26612875 -0.22106652 -0.25673977 -0.1960931 -0.26781753 -0.28716463 -0.11684624
-0.15745655 0.01935764 -0.18410501 -0.25194934 -0.15692705 -0.2486904 -0.22291972 -0.32734022
00000000: 36ec e13d 2af3 673e 5a66 943d d485 a63e
00000010: f7b7 3ebd 8d6d e73c 36d3 933d c84f b53e
00000020: 7b33 983e 5bfb 27be c105 693e 16e1 563e
00000030: ab4e ae3e ad8d 0b3e 3f2a 113e c76a 09bd
00000040: a30d 333e 6398 083e 3c04 153d 02a7 ef3d
00000050: ec91 5ebe 43e6 e0bd a0c4 35bd 7f0a 633e
00000060: a660 f5bd c34e c7bc 8559 f03c 79fe d03c
00000070: 5c70 e33d 12fa 6dbe 2ef6 7f3e 6022 5dbd
00000080: 9d6b 8b3e 96cc ef3c f705 3cbe 626c 0e3e
00000090: 807b b03d f07b 873e 60f9 733d 10a6 f5bd
000000a0: f926 6cbc 0013 9bbd 0ea7 3a3e 9462 a73e
000000b0: 3a70 373e 361c 3fbe a739 8e3d e76a 833d
000000c0: 2fc3 643e b290 0cbd 11a8 24be ca05 023e
000000d0: 13b2 f63d d8e8 853e 95ec 99b9 ac8f a83d
000000e0: 593f 863e 313f 423e a256 053e 3d3f 9bbe
000000f0: 3764 1f3e 32c8 693e a7a4 8c3e 833b 21be
00000100: 79d0 31be cde5 103e 39c2 ed3e aa84 8e3b
00000110: c7ca 6abe 49dd 94be b467 ae3e 44e0 883e
00000120: 1a96 5c3e a7f4 93be cc99 bebe 9a42 cfbe
00000130: 39ef a5be cb4f 1a3b f099 203e f992 a43e
00000140: 1825 acbe 6aef 62be 8d68 393e a557 cd3d
00000150: 4723 903e 2a8c 8bbe 9fa1 d73d a184 a73d
00000160: 2277 343e 4a4e 453e a24a a3bd 3e89 1dbb
00000170: f42a 973e 3eb9 9f3e 1fc9 8dbd daa2 94bd
00000180: 1482 8c3e 63fd 973d 80ce 633d 5afd 1cbe
00000190: bada 6dbe f6d8 40bd d4ee a5bd 6dee 2cbe
000001a0: 8957 04bd 0acc 42be 3417 80be 4617 2bbe
000001b0: 775b 5abe afd9 2fbe d399 583e 8c18 9dbc
000001c0: 8c1d c2ba 9f2b 70be 2bb9 34be 7548 923c
000001d0: bbe2 973d 5ee6 47be a61b 04be 08d4 20be
000001e0: 920b 0f3e afab 7f3c 31c3 66bb 9491 39be
000001f0: 2d93 3bbe df43 02be d7c2 c5bd fe93 2ebe
00000200: 0eb6 063e a774 c4bc 75d6 183e 6f2a 8c3c
00000210: 8765 6ebe d0e8 e63c c0bb e7bd 5c34 40bd
00000220: 0983 27be 62e9 7dbe 6d7a 1cbd db81 96bd
00000230: 7549 323e 71cb a5bd 8ebf 423e 49bf 03be
00000240: 924f 0c3d b4ee 1c3e 3d6a 863e fcf0 993e
00000250: 172c 943e b206 70bd 1d41 2bba 2d93 01be
00000260: 8bc2 05bd 4cf0 14be 95a4 463e e891 08be
00000270: e561 103e e45e e83d d968 9f3d 06f0 e0bd
00000280: 1176 7f3e 60a2 d33d 0e36 803d e693 3dbe
00000290: 13de 1e3d 9a52 19bd 85cf d7bd 5b6d 3f3e
000002a0: 7c20 a13c c381 2dbe 9d4b 24be 132c 1abd
000002b0: bfe3 163e 1089 03bd 9049 efbd 38fb 9fbd
000002c0: 5592 4cbe 3246 8eba 0386 fc3d 0990 1fbe
000002d0: f9c5 493d d977 6c3d d2e9 e5bc 258f aebd
000002e0: cdb5 023e 2b96 cf3d 4bda 353d 8ebb 62bd
000002f0: 9acf 86bc d7fd b33d 1c6c b8bd 23eb b4bd
00000300: 8639 093e 7ca3 883e d921 a63d 154b 02be
00000310: 7192 44bd 2bb0 c5bc c104 dc3d 270d eb3d
00000320: 0579 77be 26bf 23be 49cc f53d c0ce f83d
00000330: 638e be3d 0f4a 34be 7e2f 95be 4b96 9fbe
00000340: d87d cbbd dfd9 ec3d 5aad 373e c6ea c13c
00000350: 6a8a 82be e1a0 56be f5d2 b3bd 98dd 8f3e
00000360: ee12 ce3d abc9 0bbd 2e64 d33c dd0e 00be
00000370: c3c9 b8bd 0229 703e b733 203b 4093 5f3c
00000380: b440 2dbe d404 a33e 7cf9 b93e ce9f a43e
00000390: 9c06 3b3e 9aa7 fa3d e1ff 90bc 9149 853e
000003a0: 7075 783e 1c71 b03e 11b6 7a3e a49d f03b
000003b0: 8615 c5bd c949 6bbe 4b69 6bbe fd2b 92be
000003c0: c66d 83bd 0742 88be 435f 62be 6573 83be
000003d0: a1cc 48be 611f 89be 3e07 93be 154d efbd
000003e0: 4a3c 21be ea93 9e3c 0686 3cbe 81ff 80be
000003f0: 7cb1 20be b2a8 7ebe 1145 64be 2399 a7be

conv1.bias f4 [13]
0.027075587 -0.036566153 -0.25261086 -0.14530781 0.027848072 0.13133603 0.048291076 -0.11057943
-0.114567354 0.09954662 -0.12995383 0.049298387 0.18003301
00000000: 9fcd dd3c 64c6 15bd 3656 81be 92cb 14be
00000010: a421 e43c f47c 063e ddcc 453d 7877 e2bd
00000020: 4aa2 eabd 19df cb3d 9e12 05be 1bed 493d
00000030: 935a 383e

conv2.weight f4 [20, 13, 5, 5]
0.023793232 0.028659211 0.01771385 0.038211584 -0.012331986 -0.029938791 -0.046117365 -0.03922563
0.014335133 -0.06850452 -0.051944826 0.0077596516 0.058429856 0.052338157 0.04090953 0.05547797
0.007415752 0.040256333 0.018246755 -0.027566833 0.0014846161 0.047530703 -0.07767501 -0.061180785
-0.111552015 0.011327514 0.037255038 0.017296132 0.0060773776 -0.055528622 -0.072082505 0.008226923
0.039788447 0.005380765 -0.038306233 0.005500527 -0.002632869 0.01637498 0.05603019 0.04024114
0.06568329 -0.046623323 0.0023993978 -0.08587045 -0.05469675 0.048125315 0.009703234 0.01225216
-0.058689553 -0.03963302 0.02999688 -0.021249307 -0.036775358 -0.021325938 0.039519977 0.0037056492
-0.028421814 -0.0517966 -0.05423652 -0.017300112 -0.026284691 -0.050585974 -0.02133694 -0.022944188
-0.056495663 -0.059696205 0.0012955474 -0.07865913 -0.13812846 -0.07573013 -0.092779376 -0.04802639
-0.07524264 -0.04818176 0.017821575 0.055924684 0.06569765 -0.00958591 0.020231321 0.0064401226
-0.009408871 -0.05810166 0.00032672065 -0.01588333 -0.076627426 0.0017146029 0.045419 -0.012708338
-0.031105323 -0.05464522 -0.063421234 0.009813863 -0.027181536 -0.016470533 -0.03647503 -0.032599155
-0.11084893 -0.03410074 -0.07450481 -0.034946743 -0.032041375 2.8654185e-05 -0.033374216 0.042143703
-0.0039753327 0.015331444 0.0241951 -0.048374422 -0.054406963 0.023582134 0.02244936 -0.09406108
-0.070350766 -0.09926561 -0.06817866 -0.012596711 -0.034438893 -0.03489516 -0.029520584 0.047595587
0.0070248866 -0.03144392 0.0024686244 0.029333755 0.041474395 -0.046753522 0.022572046 -0.014125728
-0.05771583 -0.03828464 0.044106077 0.075816184 0.122047745 0.10332107 0.111473225 0.004054195
-0.0005745345 0.046777163 0.010663066 -0.014059089 0.0292672 0.042706765 0.045924313 0.014120676
-0.008452233 -0.013493948 -0.053639155 -0.054332886 0.002812432 -0.026774982 0.061903182 0.07376058
0.01901456 0.011563897 0.006660018 -0.016545491 -0.014239559 -0.0028632672 -0.0011581562 0.03396204
-0.018630704 -0.012662689 0.011730778 0.013411451 0.022216564 0.04147734 0.06758098 0.046158556
-0.01929907 -0.030785672 0.0032866623 0.014818566 0.010719363 -0.045723256 0.011489945 -0.03836145
-0.038927674 -0.048704956 0.028451173 -0.06697813 0.020457061 -0.0037185901 -0.019859282 0.025395473
0.008154374 0.043526404 0.06000529 -0.042375546 0.03491992 0.009292368 0.020868551 -0.0086806575
0.011299068 -0.036527283 -0.02573161 0.03657846 0.033893745 -0.010456606 -0.04677031 0.004542856
-0.061676104 0.051636674 -0.02249724 0.0012246539 -0.02361822 -0.0280528 0.023834346 -0.0048574316
0.028080193 0.02969259 0.020913495 -0.066054575 -0.040259358 0.027268084 -0.003367144 0.043299384
-0.012474398 -0.041120544 0.029741881 0.019767983 0.04052158 0.062364094 0.054744262 0.065323226
0.005325387 -0.0069216425 0.013145032 0.026293622 -0.018952442 -0.026310142 -0.005757715 -0.019142058
-0.016545765 -0.047416367 -0.04507866 -0.019403076 0.051655643 0.07907876 0.09750744 0.11292327
-0.026901668 0.0047263894 0.13359633 0.07254514 0.13217454 0.051517285 0.03275503 0.06787929
0.02537267 0.032539718 0.010531966 0.023034682 0.018838126 0.03750715 -0.04232113 -0.00051042606
00000000: 06ea c23c b9c6 ea3c a31c 913c c083 1c3d
00000010: 190c 4abc 3242 f5bc 90e5 3cbd 0eab 20bd
00000020: e8dd 6a3c 194c 8cbd 19c4 54bd ad44 fe3b
00000030: 2554 6f3d 8960 563d c090 273d de3c 633d
00000040: d6ff f23b d3e3 243d 387a 953c d7d3 e1bc
00000050: 7397 c23a 8eaf 423d 1314 9fbd b498 7abd
00000060: 6275 e4bd 0a97 393c bd98 183d 9eb0 8d3c
00000070: bd24 c73b fb71 63bd fe9f 93bd 37ca 063c
00000080: 36f9 223d 2151 b03b ffe6 1cbd c43d b43b
00000090: 368c 2cbb d224 863c ea7f 653d e5d3 243d
000000a0: f684 863d 19f8 3ebd 373f 1d3b d9dc afbd
000000b0: b309 60bd 0d1f 453d 50fa 1e3c 49bd 483c
000000c0: 7564 70bd 3c56 22bd 04bc f53c 0713 aebc
000000d0: c2a1 16bd bcb3 aebc b3df 213d 7ada 723b
000000e0: ddd4 e8bc ac28 54bd 1d27 5ebd f7b8 8dbc
000000f0: fe52 d7bc 3d33 4fbd ceca aebc 73f5 bbbc
00000100: ff67 67bd 0284 74bd 5bcf a93a 0a18 a1bd
00000110: 8c71 0dbe 6618 9bbd 1d03 bebd 52b7 44bd
00000120: d018 9abd 3d5a 45bd 8dfe 913c 4811 653d
00000130: 7d8c 863d 380e 1dbc 28bc a53c aa07 d33b
00000140: aa27 1abc 02fc 6dbd b44b ab39 c21d 82bc
00000150: d7ee 9cbd 87bc e03a 4609 3a3d a236 50bc
00000160: 97d0 febc abd3 5fbd fee2 81bd 53ca 203c
00000170: d0ab debc 36ed 86bc d766 15bd b186 05bd
00000180: c404 e3bd 38ad 0bbd fa95 98bd 5124 0fbd
00000190: d13d 03bd 655e f037 67b3 08bd e09e 2c3d
000001a0: 8243 82bb bd30 7b3c cd34 c63c 4224 46bd
000001b0: d6d9 5ebd 522f c13c b8e7 b73c 18a3 c0bd
000001c0: 1014 90bd c54b cbbd 41a1 8bbd 6f62 4ebc
000001d0: cc0f 0dbd 3aee 0ebd 27d5 f1bc 97f3 423d
000001e0: 0531 e63b 57cb 00bd a5c8 213b 584d f03c
000001f0: 0ee1 293d 9f80 3fbd 03e9 b83c 996f 67bc
00000200: 6f67 6cbd 5bd0 1cbd 93a8 343d 8445 9b3d
00000210: 2bf4 f93d ff99 d33d 134c e43d 0dd9 843b
00000220: 5c9c 16ba 6999 3f3d 24b4 2e3c 1858 66bc
00000230: c4c1 ef3c 4aed 2e3d 221b 3c3d 685a 673c
00000240: 3c7b 0abc b815 5dbc bbb4 5bbd 298c 5ebd
00000250: c750 383b 3557 dbbc 318e 7d3d c90f 973d
00000260: 6cc4 9b3c 8076 3d3c 483c da3b 698a 87bc
00000270: 0a4d 69bc a7a5 3bbb 46cd 97ba c81b 0b3d
00000280: 6b9f 98bc 2b77 4fbc 7332 403c b4bb 5b3c
00000290: 83ff b53c 25e4 293d e667 8a3d c110 3d3d
000002a0: 1519 9ebc 3c32 fcbc 0b65 573b 92c9 723c
000002b0: 44a0 2f3c 4f48 3bbd 5340 3c3c e520 1dbd
000002c0: a072 1fbd d97e 47bd 6f12 e93c d42b 89bd
000002d0: 9195 a73c 97b3 73bb efaf a2bc 2b0a d03c
000002e0: ec99 053c be48 323d 1bc8 753d fb91 2dbd
000002f0: 3108 0f3d 043f 183c 86f4 aa3c 5139 0ebc
00000300: ba1f 393c a29d 15bd 19cb d2bc 4cd3 153d
00000310: 2bd4 0a3d 2f52 2bbc 3992 3fbd 3ddc 943b
00000320: 15a0 7cbd fa80 533d 224c b8bc 9184 a03a
00000330: ff7a c1bc fcce e5bc 3f40 c33c 172b 9fbb
00000340: 6f08 e63c e03d f33c c752 ab3c 9f47 87bd
00000350: ffe6 24bd 5161 df3c 4dab 5cbb b25a 313d
00000360: 6b61 4cbc 046e 28bd 3fa5 f33c 77f0 a13c
00000370: f5f9 253d 7e71 7f3d 853b 603d 2fc8 853d
00000380: 9680 ae3b f2ce e2bb 435e 573c b965 d73c
00000390: 2742 9bbc 5e88 d7bc 37ab bcbb cecf 9cbc
000003a0: fc8a 87bc aa37 42bd 67a4 38bd 33f3 9ebc
000003b0: de94 533d 0cf4 a13d fbb1 c73d 5144 e73d
000003c0: e360 dcbc d4df 9a3b 7acd 083e 8c92 943d
000003d0: c358 073e ca03 533d 232a 063d 4c04 8b3d
000003e0: 58da cf3c 5e48 053d 448e 2c3c 3bb3 bc3c
000003f0: 6a52 9a3c 19a1 193d ec58 2dbd 1dce 05ba

conv2.bias f4 [20]
0.020356838 -0.02439157 0.012902988 0.021390053 0.020669866 0.034319535 -0.03297137 -0.06709765
0.07043979 0.06311313 -0.010218904 0.035002947 0.0036614768 -0.021794852 -0.04727185 -0.021574713
0.041424643 -0.03441639 -0.023385271 0.05158974
00000000: 62c3 a63c d4d0 c7bc 0e67 533c 313a af3c
00000010: da53 a93c a492 0c3d fd0c 07bd 7e6a 89bd
00000020: bd42 903d 7541 813d 316d 27bc 405f 0f3d
00000030: 63f5 6f3b 1e8b b2bc 21a0 41bd 74bd b0bc
00000040: e3ac 293d 33f8 0cbd 7892 bfbc c34f 533d

fc1.weight f4 [50, 320]
-0.05978212 0.02799624 0.024414545 0.031255476 -0.036218535 -0.047079023 0.06500001 0.036333833
0.02249395 0.021781657 -0.020214075 -0.08864943 0.025080562 -0.044119596 0.0021023685 -0.024128512
0.0033077092 -0.009594908 -0.02965432 -0.080692574 0.1389747 0.027889721 -0.01641926 -0.06267486
0.025353901 -0.040506423 -0.013813082 -0.041121736 0.04824537 -0.06526341 -0.032832704 0.024665458
0.0051829787 0.019500667 0.054738715 -0.05705391 0.024201456 0.010270691 0.06373774 -0.021735284
-0.026741978 0.04229435 -0.020079628 -0.058087915 0.05345917 0.037902135 -0.10466664 -0.12405735
-0.042002443 -0.12588914 -0.08969019 0.049253363 -0.042131398 -0.048439875 -0.04465259 0.055808436
0.044731602 0.062757395 -0.017853487 0.035346918 0.015586581 0.051163424 -0.022320228 -0.07613678
0.034206096 -0.05267769 -0.042436287 -0.11326649 -0.094499156 -0.0028946146 0.02379724 -0.021482771
-0.034776628 0.034864027 -0.0051611573 -0.07480951 0.028776417 0.035983235 0.055921312 0.046301346
-0.029917099 0.010848401 0.083692335 0.09660321 0.0019742353 0.016869377 -0.03347237 0.12540483
-0.009974234 0.010122709 0.02201089 -0.09624648 0.00020109603 -0.014437172 0.013863019 -0.09342414
-0.030414544 0.030090636 0.0066457577 0.004745427 0.005137244 0.070647344 -0.030128881 -0.04436562
0.021619594 -0.021007126 -0.035814945 -0.06342836 0.061028477 0.010704135 -0.026427142 -0.023237702
-0.003392544 -0.03198327 0.072883844 0.0018805321 -0.13158269 0.04183237 -0.017760225 -0.037650753
-0.00827361 -0.044773024 0.007326961 0.028575577 0.073696285 0.028323295 -0.027033502 -0.016714396
0.036263753 0.026354577 -0.062376883 -0.010715118 -0.02981615 -0.038238607 0.004785245 0.047003407
0.03361939 -0.072967604 -0.060581442 0.0028059464 -0.019647745 -0.019265333 -0.034513626 0.009449868
0.0047711725 -0.08863884 -0.066217735 -0.02000068 0.067572854 -0.019953035 0.009901749 0.036970112
0.013991015 -0.016946852 -0.044462968 0.0098369885 -0.06911027 0.0098600555 0.048795838 0.031721126
0.022983942 -0.008918849 0.0033678568 0.032841045 0.0054599447 -0.00685623 -0.009600525 -0.024309883
0.011358716 0.01452435 -0.018404184 -0.027127264 0.0031839202 0.048642915 0.049468637 -0.024564108
0.06524032 0.027882302 -0.03525863 -0.01448465 0.115027644 -0.023120346 0.038946904 -0.032324567
-0.061303105 -0.045762077 0.032757845 -0.006408748 0.049864147 -0.009271976 0.016381148 0.06037902
0.038760945 0.0080374405 -0.07049456 -0.0691092 0.011578413 0.0023350099 0.047523946 -0.018158864
-0.074467815 -0.016949425 0.009759318 -0.013415071 -0.01822615 -0.0043083457 0.015525784 0.0094486205
-0.05887319 -0.07023291 0.0143147195 -0.016527304 -0.024016174 0.018315759 -0.07255143 -0.0035272618
0.11819843 0.025236119 0.025883758 -0.024228709 0.046365533 -0.04390347 0.028754577 -0.031414643
-0.07396359 -0.027083816 -0.04675358 0.010648705 -0.03962282 0.0051914733 0.06534077 -0.000209352
-0.04318682 0.03541591 -0.00530788 -0.015865626 -0.050926786 0.032943908 0.01216007 0.027780188
-0.09269131 -0.038889185 0.027618038 0.065666765 -0.02613104 0.040946208 -0.04132228 0.012724552
0.023182927 0.032696113 0.05491255 -0.011277168 0.031150896 0.025549782 -0.09985765 -0.0947282
00000000: 19de 74bd 5f58 e53c 0301 c83c be05 003d
00000010: e359 14bd efd5 40bd ba1e 853d c9d2 143d
00000020: 3b45 b83c 726f b23c fd97 a5bc d58d b5bd
00000030: c075 cd3c c0b6 34bd e4c7 093b 28a9 c5bc
00000040: 27c6 583b f633 1dbc 9eed f2bc 2642 a5bd
00000050: 624f 0e3e fc78 e43c af81 86bc ad5b 80bd
00000060: fcb2 cf3c 10ea 25bd 4450 62bc 446f 28bd
00000070: f09c 453d d3a8 85bd 967b 06bd 370f ca3c
00000080: fad5 a93b ddbf 9f3c b435 603d 5cb1 69bd
00000090: 2242 c63c 6646 283c ef88 823d 320e b2bc
000000a0: fe11 dbbc d73c 2d3d 087e a4bc 98ed 6dbd
000000b0: 01f8 5a3d 453f 1b3d 775b d6bd c811 febd
000000c0: c10a 2cbd 15e9 00be 7eaf b7bd e5bd 493d
000000d0: f991 2cbd e468 46bd a2e5 36bd 6397 643d
000000e0: 7c38 373d f386 803d 7a41 92bc eec7 103d
000000f0: dc5e 7f3c bd90 513d e9d8 b6bc 9aed 9bbd
00000100: b11b 0c3d 90c4 57bd acd1 2dbd 43f8 e7bd
00000110: c688 c1bd 93b3 3dbb 6ef2 c23c a3fc afbc
00000120: f071 0ebd 95cd 0e3d ed1e a9bb ba35 99bd
00000130: 85bc eb3c 2863 133d bf0d 653d 7ba6 3d3d
00000140: b414 f5bc 7ebd 313c e366 ab3d e7d7 c53d
00000150: 2c62 013b a631 8a3c 531a 09bd 206a 003e
00000160: f86a 23bc b8d9 253c 2f50 b43c e01c c5bd
00000170: 4edd 5239 e389 6cbc b721 633c 2855 bfbd
00000180: ec27 f9bc a380 f63c a8c4 d93b 877f 9b3b
00000190: 5356 a83b 8eaf 903d d8d0 f6bc b9b8 35bd
000001a0: 931b b13c 2317 acbc b1b2 12bd bae6 81bd
000001b0: fff8 793d 6560 2f3c bc7d d8bc fe5c bebc
000001c0: 7255 5ebb e400 03bd 2044 953d 307c f63a
000001d0: 9dbd 06be 6b58 2b3d e47d 91bc ad37 1abd
000001e0: 098e 07bc eb63 37bd 0117 f03b 5417 ea3c
000001f0: 14ee 963d 4106 e83c 5d75 ddbc a1ec 88bc
00000200: 4d89 143d 8ee5 d73c e77e 7fbd 768e 2fbc
00000210: 0041 f4bc 16a0 1cbd 8bcd 9c3b a586 403d
00000220: 7cb4 093d 0a70 95bd 3f24 78bd f8e3 373b
00000230: 4ff4 a0bc 55d2 9dbc 295e 0dbd 9fd3 1a3c
00000240: 7f57 9c3b 4888 b5bd 2a9d 87bd 77d8 a3bc
00000250: a363 8a3d 8c74 a3bc f23a 223c f96d 173d
00000260: 923a 653c 20d4 8abc cd1e 36bd 522b 213c
00000270: af89 8dbd 128c 213c 25de 473d 03ee 013d
00000280: d248 bc3c 5d20 12bc 43b7 5c3b 5584 063d
00000290: 56e9 b23b 3aaa e0bb 854b 1dbc 8525 c7bc
000002a0: e819 3a3c 8af7 6d3c 5fc4 96bc ff39 debc
000002b0: 51a9 503b cb3d 473d a09f 4a3d ab3a c9bc
000002c0: b89c 853d 6d69 e43c 5a6b 10bd 0751 6dbc
000002d0: 9d93 eb3d e166 bdbc ca86 1f3d c466 04bd
000002e0: f718 7bbd 0471 3bbd 172d 063d 7a00 d2bb
000002f0: 593e 4c3d 7ce9 17bc c231 863c fe4f 773d
00000300: ccc3 1e3d 78af 033c 745f 90bd 2089 8dbd
00000310: 62b3 3d3c f706 193b 78a8 423d e6c1 94bc
00000320: 9582 98bd 85d9 8abc 8ce5 1f3c e3ca 5bbc
00000330: 024f 95bc 062d 8dbb dc5f 7e3c 63ce 1a3c
00000340: 0425 71bd 46d6 8fbd 4988 6a3c 4564 87bc
00000350: 91bd c4bc ee0a 963c d895 94bd a229 67bb
00000360: 0512 f23d fabb ce3c 2d0a d43c 497b c6bc
00000370: c9e9 3d3d 20d4 33bd b88e eb3c a4ac 00bd
00000380: 397a 97bd e1de ddbc af80 3fbd e877 2e3c
00000390: 8a4b 22bd 3c1d aa3b 62d1 853d 8085 5bb9
000003a0: aae4 30bd 4610 113d baed adbb a1f8 81bc
000003b0: 9b98 50bd 31f0 063d 083b 473c 4793 e33c
000003c0: f1d4 bdbd 444a 1fbd 393f e23c 4c7c 863d
000003d0: c310 d6bc 36b7 273d 8d41 29bd a47a 503c
000003e0: 1fea bd3c 5cec 053d fbeb 603d dfc3 38bc
000003f0: 2a30 ff3c c74d d13c 2b82 ccbd dc00 c2bd

fc1.bias f4 [50]
0.016597252 0.04995989 0.008398085 0.041274495 0.027198 0.045315024 0.032205995 0.0105382
0.049749304 0.039941967 -0.023560934 0.021662934 0.052779555 -0.042891566 0.09928909 -0.010610111
-0.025125362 -0.016233565 0.062832706 0.014133921 -0.015079675 -0.031302676 0.06464516 0.0593714
0.009475775 0.06049388 0.00840865 0.022893673 0.024972443 0.008694375 0.08237582 0.07963997
0.051086206 0.017910393 0.039730683 0.0465977 -0.037506334 -0.03952468 0.01000979 0.028085947
0.03559717 0.013046256 0.05790091 0.01760244 -0.0134985475 -0.009658484 -0.0012387751 0.051139064
-0.022723809 -0.031859394
00000000: f6f6 873c bea2 4c3d 1f98 093c 720f 293d
00000010: 57ce de3c 3f9c 393d 6fea 033d 6aa8 2c3c
00000020: edc5 4b3d 309a 233d dc02 c1bc 7776 b13c
00000030: 602f 583d 11af 2fbd 1458 cb3d 08d6 2dbc
00000040: b4d3 cdbc 41fc 84bc 6fae 803d f691 673c
00000050: be10 77bc 3c37 00bd af64 843d 6d2f 733d
00000060: 4840 1b3c 6ec8 773d 6fc4 093c 838b bb3c
00000070: 0293 cc3c da72 0e3c a7b4 a83d 481a a33d
00000080: c53f 513d d1b8 923c a4bc 223d 3bdd 3e3d
00000090: 3ea0 19bd a1e4 21bd 1a00 243c 8014 e63c
000000a0: 57ce 113d f7bf 553c 8129 6d3d fe32 903c
000000b0: 0329 5dbc 9e3e 1ebc 655e a2ba 3277 513d
000000c0: 4827 babc ff7e 02bd

fc2.weight f4 [10, 50]
-0.14385283 0.2229359 0.19910935 -0.17454709 0.16190577 -0.19533561 0.23818976 -0.12852165
0.19711305 -0.028973676 0.1858772 -0.074252464 0.13395043 -0.04074208 0.011794726 0.19697621
-0.057250787 -0.16093999 -0.27015156 0.04492494 -0.21199575 0.13843241 -0.22467113 0.084577724
-0.12530771 -0.20883116 0.092366785 -0.22484529 -0.12852478 -0.24104549 0.21836385 0.20889898
0.064961016 0.11680255 -0.28225952 0.20226087 -0.054903645 -0.06758915 0.24312381 -0.1601998
0.1738616 -0.21474321 -0.051725358 -0.21730551 -0.22923478 -0.0058620395 0.15276997 -0.15585425
0.08410375 -0.14411227 -0.16883573 -0.12500653 -0.1104774 0.18812734 -0.105500005 0.071891576
-0.034730066 -0.17637105 -0.02776715 0.27851614 -0.08496525 0.030709464 -0.13346252 0.10577146
0.35199094 0.23920384 0.110694565 0.2660956 0.19023862 -0.20901676 -0.08210449 -0.10764541
0.13421114 -0.052720793 -0.03165871 0.19781482 -0.26895687 0.01232585 -0.1368306 0.15419655
0.18641318 0.22676314 -0.2545179 -0.17936416 0.20235312 -0.095176846 -0.16391058 0.13438818
-0.13165936 -0.106525876 -0.055806 0.121637195 0.2789277 -0.1350746 -0.19249801 0.21673812
-0.24794292 0.17184068 -0.17035472 0.004454925 -0.23163888 0.17204925 -0.109735034 0.20982735
-0.26458898 0.20473504 -0.096220106 -0.21607704 0.21560314 0.106287554 0.008273557 -0.19739872
0.14434794 0.15298307 -0.17558886 -0.081938796 0.19039461 -0.119013496 0.10368703 0.09467293
-0.04597168 0.1192294 0.18990335 0.20946987 -0.14793865 0.17888358 -0.23830882 0.12749216
0.07039366 0.003702883 0.06798802 -0.1835239 0.1454553 0.042179715 -0.13414593 0.18656926
-0.1283088 0.11850799 0.22521287 -0.23353831 -0.19817698 -0.043843675 -0.050277214 -0.13787404
0.015303343 -0.014073073 0.07521093 -0.0995589 0.029595708 0.14844185 0.09091625 -0.05506429
-0.12012009 -0.0012864876 -0.13587926 0.21904226 0.0215232 -0.11845859 -0.101662666 0.041829027
0.08031226 0.04747187 0.14399438 0.09587924 -0.19474466 -0.15089805 0.021106359 0.27596465
-0.12712194 -0.09587767 -0.1127186 0.13043346 0.13186127 -0.08428358 -0.13323742 -0.12862527
-0.25260097 0.16744013 -0.18520531 -0.035462506 -0.15320611 -0.11360797 0.009439875 0.07274035
0.003894355 -0.18558338 0.18422222 -0.122893676 -0.028599996 0.15561686 -0.060052942 0.28380156
-0.07276444 -0.12036191 -0.10622992 -0.13418484 0.15672521 0.18779293 0.13742487 0.17490523
0.07485156 -0.1984098 -0.11739106 -0.16589452 -0.09648394 -0.15087913 -0.09740962 0.16392389
-0.06708198 -0.16801229 -0.15360174 0.17715931 -0.32643574 -0.116802305 0.17073874 -0.082163714
0.1974908 -0.049640562 0.09799793 0.20648235 0.21612422 0.057131715 -0.08743692 0.2617477
-0.15524542 -0.15513141 0.10471125 -0.16616319 0.30223656 0.091005065 -0.12679462 0.11892017
0.09222048 -0.18668188 0.20558752 0.0061119343 -0.0994044 0.14414176 -0.064870596 0.11257316
-0.24044122 -0.06811473 0.16414903 0.21580112 0.22741702 0.17875992 -0.12378262 0.16595393
-0.27476826 -0.13201673 0.17547174 0.043011557 0.19444068 -0.07062419 0.18807666 -0.11030305
00000000: 284e 13be 4f49 643e 52e3 4b3e 79bc 32be
00000010: a0ca 253e 0f06 48be 04e8 733e 2e9b 03be
00000020: 01d8 493e 345a edbc 9856 3e3e ad11 98bd
00000030: 4d2a 093e 2be1 26bd ab3e 413c 22b4 493e
00000040: cd7f 6abd 74cd 24be 4e51 8abe 3703 383d
00000050: 6a15 59be 3ac1 0d3e 3010 66be 1637 ad3d
00000060: aa50 00be d6d7 55be cc2a bd3d d83d 66be
00000070: 009c 03be a1d4 76be c69a 5f3e 9de9 553e
00000080: 480a 853d 2d36 ef3d 5284 90be 791d 4f3e
00000090: a5e2 60bd 2e6c 8abd 73f5 783e 6b0b 24be
000000a0: c608 323e a5e5 5bbe f8dd 53bd 5685 5ebe
000000b0: 86bc 6abe 5a16 c0bb bb6f 1c3e 4298 1fbe
000000c0: 963e ac3d 2b92 13be 46e3 2cbe b601 00be
000000d0: fa41 e2bd 74a4 403e 6310 d8bd e43b 933d
000000e0: 1d41 0ebd 9d9a 34be ef77 e3bc ab99 8e3e
000000f0: 4302 aebd 6a92 fb3c 66aa 08be b59e d83d
00000100: 2838 b43e daf1 743e d5b3 e23d af3d 883e
00000110: eacd 423e 7d08 56be 6626 a8bd 3275 dcbd
00000120: a56e 093e c2f1 57bd 90ac 01bd f88f 4a3e
00000130: b7b4 89be 5df2 493c 521d 0cbe b3e5 1d3e
00000140: 19e3 3e3e 9934 683e 2c50 82be 3dab 37be
00000150: a835 4f3e 14ec c2bd 2dd8 27be 0e9d 093e
00000160: b6d1 06be 3d2a dabd d594 64bd ec1c f93d
00000170: 9dcf 8e3e ff50 0abe 331e 45be 99f0 5d3e
00000180: c0e4 7dbe 01f7 2f3e 7871 2ebe 9ffa 913b
00000190: be32 6dbe ae2d 303e c3bc e0bd fbdc 563e
000001a0: 3578 87be 10a6 513e 0c0f c5bd 4d43 5dbe
000001b0: 12c7 5c3e 4aad d93d d08d 073c e422 4abe
000001c0: f2cf 133e 98a7 1c3e 91cd 33be 87cf a7bd
000001d0: cef6 423e 59bd f3bd de59 d43d e2e3 c13d
000001e0: cd4c 3cbd 8b2e f43d 0676 423e 457f 563e
000001f0: 3b7d 17be 422d 373e 3a07 74be 4e8d 023e
00000200: 8d2a 903d 11ac 723b 4e3d 8b3d b0ed 3bbe
00000210: 3cf2 143e a3c4 2c3d 8d5d 09be 030c 3f3e
00000220: 6263 03be 51b4 f23d 349e 663e ab24 6fbe
00000230: e8ee 4abe 6d95 33bd 7bef 4dbd da2e 0dbe
00000240: dfba 7a3c bf92 66bc 3008 9a3d 89e5 cbbd
00000250: b372 f23c 2401 183e 4d32 ba3d 188b 61bd
00000260: 8601 f6bd 5c9f a8ba ef23 0bbe 9d4c 603e
00000270: 6c51 b03c 6b9a f2bd 8434 d0bd ea54 2b3d
00000280: c17a a43d dd71 423d 4373 133e 565c c43d
00000290: 256b 47be 0585 1abe 3ee7 ac3c 3d4b 8d3e
000002a0: 412c 02be 835b c4bd 02d9 e6bd 5990 053e
000002b0: a406 073e df9c acbd 646f 08be 58b6 03be
000002c0: ea54 81be 6d75 2b3e 76a6 3dbe 2241 11bd
000002d0: 10e2 1cbe 4cab e8bd b5a9 1a3c e5f8 943d
000002e0: 6f38 7f3b 9209 3ebe c0a4 3c3e aeaf fbbd
000002f0: 8a4a eabc 075a 1f3e 13fa 75bd 704e 913e
00000300: 8605 95bd 4e80 f6bd 138f d9bd c067 09be
00000310: 937c 203e ca4c 403e 1bb9 0c3e 5b1a 333e
00000320: c64b 993d f02b 4bbe b96a f0bd 41e0 29be
00000330: 5f99 c5bd 0f80 1abe b27e c7bd aadb 273e
00000340: 4762 89bd 6a0b 2cbe c649 1dbe 4069 353e
00000350: 9622 a7be 0c36 efbd 23d6 2e3e 7345 a8bd
00000360: 073b 4a3e e753 4bbd 24b3 c83d 1c70 533e
00000370: ab4f 5d3e f202 6a3d 2112 b3bd cb03 863e
00000380: a8f8 1ebe c5da 1ebe da72 d63d af26 2abe
00000390: c0be 9a3e dd60 ba3d 73d6 01be 6b8c f33d
000003a0: 17de bc3d 8929 3fbe 8985 523e 9f46 c83b
000003b0: 8994 cbbd e699 133e e0da 84bd c28c e63d
000003c0: 3936 76be bc7f 8bbd af16 283e f8fa 5c3e
000003d0: 02e0 683e d70c 373e be81 fdbd d4ef 293e
000003e0: 6dae 8cbe 652f 07be ddae 333e e32c 303d
000003f0: 751b 473e 6aa3 90bd 2b97 403e 91e6 e1bd

fc2.bias f4 [10]
0.007919463 0.13209914 -0.11363584 0.12023044 -0.15862566 -0.067762375 -0.23975606 0.033589076
0.094037674 0.09574899
00000000: a3c0 013c ff44 073e e8b9 e8bd 603b f63d
00000010: c46e 22be 00c7 8abd 9d82 75be b394 093d
00000020: d396 c03d 0c18 c43d
