proj5/task4/results/exp3_0.0.pth (torch, 89871 bytes, 8 tensors)

conv1.weight f4 [10, 1, 5, 5]
00000000: 9d9c 2a3e 4d78 8d3e 754c 233e 030f bd3e
00000010: 2573 0b3c 7ff9 623d 6c07 573e 2db9 213f
00000020: 656a e73e 4b23 22be ae28 7b3e 434b cb3e
00000030: 32e3 1f3f 8ae6 873e e0a5 113e 717c c1bc
00000040: 7272 9e3e d092 863e de62 993d c849 0f3e
00000050: 95e1 4abe a342 4dbd 665b 283c 7725 813e
00000060: baa7 babd 7706 24be 357c 2bbe 86c4 51be
00000070: 70ab 97bc ad18 66be 6c96 2d3e 676a 56be
00000080: 73c2 133e 1401 a03c aed1 d7bd efea 743e
00000090: 5027 623e 2595 e03e 33c2 6a3e 6923 623c
000000a0: 6501 2e3e 077e 473e 330a f03e 9347 f13e
000000b0: fbe1 823e d73e 0abe a20b 3b3e 759c 353e
000000c0: 9309 7c3e 19e1 aabc f1e6 2dbe d801 943d
000000d0: 5d2c 9a3c a6b5 623e 4ebe 113d 853b b43d
000000e0: a385 803e 3c2c 303e 7ace 183e 422e 78be
000000f0: 4d6c 053e 6649 353e 060f 803e c9b9 16be
00000100: 093f f3bd 5834 033e 7a10 ea3e def4 4bbc
00000110: e693 7abe 7430 95be 9a9d a93e ce50 9e3e
00000120: 7a6c 873e 78b7 87be e7e7 b3be 05ca 59be
00000130: ec36 32be 65a4 013e 3945 4d3e c269 973e
00000140: 2d31 40be 1b39 27be 1e5a 4c3e 2ce6 993d
00000150: 512c 6c3e 9e8b 0cbe 0480 073e a856 b2bc
00000160: be01 343d 94f0 c23d 4fa1 68bc d34a c4bc
00000170: e568 563e 70b3 4a3e 1cff 22be 9a8d 85bd
00000180: 2519 813e b2ea 493c f460 05bd d9b0 4bbe
00000190: 960f 21be 942d bc3b 62f8 66bd f4f2 2abe
000001a0: 1cf5 8cbc 5847 3abe 77cc 5ebe bd79 15be
000001b0: 744f 56be 3002 20be 2569 043e eb6d a4bc
000001c0: aff9 943c 8bfa 66be 2aee 29be 644f e6bd
000001d0: e70e dfbb 5689 5abe ee1c fcbd c9d7 25be
000001e0: a50e cfbb 81fe b1bd c2d2 0fbd 04c8 2bbe
000001f0: 7504 41be feb1 0fbe f322 b4bd f1e0 40be
00000200: 5230 003e f21e ecbc e92b 053e 6e1f 1abc
00000210: dca8 8abe 013d 293d 4b2c 97bd 7257 adbd
00000220: 1453 5abe 7073 91be 76c7 8dbc 8de9 efbc
00000230: 4f75 313e 0ad4 a7bd 3c56 563e d7f4 e2bd
00000240: 8c33 f93c 837d 3f3e 9355 9f3e 673a b23e
00000250: 1090 933e c3b7 dabd a3c0 263d 62ee 00be
00000260: e0f4 a9bd 0e67 32be aae7 5b3e dc44 fbbd
00000270: 805e 483e 2658 1b3e 46a4 093e 18ca 9cbd
00000280: 0e31 a43e 46d6 793e fe4f 2b3e 6baf 26be
00000290: db07 a63d f18d d4bc 6fbf 58bd d964 833e
000002a0: 6a43 643d 0136 13be ffe6 7abe e551 90bd
000002b0: 9a7e 2d3e ad40 06bc 0663 fbbd 88ee fdbd
000002c0: d827 0fbe dc24 293e f4d3 793e 0ba0 3ebe
000002d0: f006 273d 07cd 4e3e d4c1 2e3e 2646 fdbc
000002e0: c303 933d 6fed 2b3e f68a 5a3e 89fe 2d3e
000002f0: 4c90 9d3d 5efc 823d d79e 773c aed3 703d
00000300: 3cf1 c23e 4ecd ce3e 27bc f23d 68e4 84bd
00000310: e0e1 833c ffa8 9e3d 1aa6 443e 9ab4 533e
00000320: 4932 49be b387 01be 6148 bc3d 53bb f53c
00000330: fae9 2cbd 9d5a 0bbe 89cf 76be f1a0 90be
00000340: a7e5 ffbd 55b8 203c 26ca 4d3e 0a51 4b3d
00000350: 6c61 70be ba9f 2dbe 853c aabd e899 9e3e
00000360: 9772 083e 29e4 33bc db68 a93d dca4 abbd
00000370: 5f22 6abd b6a9 8d3e 8ea6 933c 22e4 0b3d
00000380: 6238 31be 8762 613e 9340 a13e f2f5 a93e
00000390: 30bb 3a3e d163 ce3d bb18 733d beea cd3e
000003a0: f2dc a93e 9fd3 cd3e ae4f 8d3e 85e1 303e
000003b0: eaae 28bc fba6 76be 0045 7bbe fcf7 84be
000003c0: 4d7a b13c d247 9bbe a550 89be 969e 81be
000003d0: e79b 24be 8c5d a2be 35b0 adbe dc14 91bd
000003e0: bfb7 a0bd 736d 923d
0.16661306 0.27630845 0.15947135 0.36925516 0.008511339 0.05541372 0.20998925 0.6317318
0.4519836 -0.15833776 0.24527237 0.39705858 0.6245605 0.26543075 0.14223433 -0.023618909
0.3094669 0.26283884 0.074895605 0.13992989 -0.19812615 -0.050112378 0.010275697 0.25223896
-0.091140226 -0.16018091 -0.167466 -0.20485124 -0.018514365 -0.2247035 0.16951913 -0.20939027
0.14429645 0.019531764 -0.1053804 0.23917745 0.22085309 0.43863788 0.22925644 0.013802388
0.1699272 0.1948167 0.4688278 0.4712492 0.25563034 -0.13500534 0.18266156 0.17735465
0.24613027 -0.020859288 -0.16982628 0.07226914 0.018819982 0.22139606 0.03558188 0.08800415
0.25101957 0.17204374 0.14922515 -0.24236396 0.13029595 0.1770378 0.25011462 -0.14719309
-0.118772574 0.12812936 0.45715696 -0.012448518 -0.24470481 -0.2913853 0.33128053 0.30921024
0.2644995 -0.26507163 -0.35137865 -0.2126847 -0.17403764 0.12660368 0.20045938 0.29572874
-0.18768759 -0.16330378 0.19956252 0.07514605 0.2306378 -0.13725135 0.13232428 -0.021769837
0.043946974 0.09518543 -0.014198615 -0.02396146 0.20938452 0.19795012 -0.15917629 -0.06521149
0.25214496 0.012324022 -0.032563165 -0.19891681 -0.15728602 0.005742738 -0.05638922 -0.16694242
-0.017206721 -0.18191278 -0.21757685 -0.1459722 -0.20928746 -0.15625834 0.12930734 -0.020071944
0.018185465 -0.22556512 -0.16594759 -0.11245611 -0.0068071964 -0.21341452 -0.123102054 -0.16195597
-0.0063188844 -0.08691121 -0.035113104 -0.16775519 -0.18849356 -0.14032742 -0.087957285 -0.18835808
0.12518433 -0.02882335 0.13005032 -0.0094069075 -0.27081954 0.041317943 -0.07381495 -0.084639445
-0.21320754 -0.28408384 -0.017307024 -0.02928617 0.17329906 -0.0819474 0.20931333 -0.11081856
0.030420087 0.18700223 0.31119975 0.34810182 0.28820848 -0.10679581 0.040711056 -0.12590936
-0.08298659 -0.17422125 0.21475092 -0.12268993 0.19567299 0.15170345 0.13441572 -0.07655734
0.32068676 0.24398145 0.16729733 -0.16277854 0.08106967 -0.02594659 -0.05291694 0.25662878
0.055728354 -0.1437607 -0.2450218 -0.0704687 0.16942826 -0.008194131 -0.122747466 -0.12399012
-0.13980043 0.16517967 0.2439726 -0.18615739 0.0407781 0.20195399 0.17066127 -0.030917238
0.07178452 0.16789792 0.21342072 0.16991629 0.07693538 0.063957915 0.015113554 0.058795623
0.38074672 0.4039101 0.118522935 -0.064888775 0.016098917 0.07747077 0.19203988 0.20674363
-0.19648089 -0.12649421 0.09193493 0.02999655 -0.042215325 -0.13608785 -0.24102606 -0.2824779
-0.124949746 0.009809573 0.20096645 0.04963783 -0.23474663 -0.16955462 -0.083123244 0.30976796
0.13324963 -0.010979691 0.08271953 -0.08381054 -0.057161685 0.27668542 0.018023755 0.03415311
-0.17306665 0.22010241 0.3149458 0.33195454 0.18235469 0.10077632 0.059349757 0.40218157
0.3317638 0.40200517 0.27599853 0.17273529 -0.010295609 -0.24087135 -0.2453804 -0.25970447
0.021664763 -0.30328232 -0.2681934 -0.25316304 -0.16075097 -0.31711996 -0.33923498 -0.07084057
-0.07847547 0.07149782

conv1.bias f4 [10]
00000000: fed8 243e d663 313d 4ab8 913b f744 b3bd
00000010: 6ebd 903c 1d29 eebd aed3 313e 57de 64bb
00000020: a36d 053e 80a9 363e
0.16098401 0.0433081 0.004447018 -0.087533884 0.017668452 -0.116289355 0.17365906 -0.0034922564
0.13030104 0.17838097

conv2.weight f4 [20, 10, 5, 5]
00000000: 7e36 df3c 5c61 a2bc 5fc7 833d d3d7 16bd
00000010: dee9 49bd 6c6a 023d 7ae2 043c b576 92bc
00000020: 2c40 8fbd 361c 76bd 8f59 053d 1013 b73c
00000030: b0bf 1c3e 279f 6e3e 1788 613e b8ff f8bd
00000040: e2ce 4fbe fb94 38bd e14f cd3d 9e17 1dbd
00000050: 03b3 bebd be90 76be ef68 8dbe a1e7 8ebe
00000060: d76d 44be 053b 6ebd f7df 82bd 3cec 9b3c
00000070: 44c4 f33c 0f9b c33b e98e d9bb 66ed 813c
00000080: 8b80 0cbd f239 8abc 871d 923d 47db 8ebd
00000090: 3985 5abd f179 c53d 03fb 1e3e 1c99 ba3d
000000a0: a246 d5bd 63bd 49be 65f3 43be cd8b 0cbe
000000b0: 1081 03be ceb9 543e b538 e33d 220b 553d
000000c0: 1011 19bd 6f97 28bc ab8b f93c cdf2 353d
000000d0: 0443 a2bb 740f eb3c 68c8 1d3d e813 23bd
000000e0: fdbe 823d 9ad3 ee3d 9f34 d5bb 6e1e 7a3c
000000f0: 1d86 b9bd 35cf 9ebd 38e7 64bd 6645 29bd
00000100: dd54 66bd eb5f 80bd 2593 04be bf7f 58be
00000110: 1c6f 4bbe fff4 d3bd e00b d23c a427 c93c
00000120: 8a6e 17bd 0ed9 afbd 4562 b03c 2bea 71bd
00000130: f8e5 a93a d045 5c3d ca8b 92bc 89e0 2c3c
00000140: c8d2 c6bc 536b c6bc 3b6a 40bd a941 72bd
00000150: b24c afbc a6fb 3abd 1afd 203d c152 8bbd
00000160: ede3 01bd 4f9a 253d 22a0 a0bc f04d 3c3d
00000170: fe5a cf3d 39f6 3c3d 47a0 b9bd 855e 91bd
00000180: c07b 34bb 0475 6ebc 4820 76bd 3c9e 653d
00000190: 2920 43ba b6ec a7bc 20a4 4bbd 58c1 c83b
000001a0: ff09 003d f588 163d 7270 853c 11b9 6abd
000001b0: 53ca 86bd b388 913b 3ad2 ad3d 3a17 353d
000001c0: 53da 6dbd fe4c 02bd 618f 41bd 80c8 533c
000001d0: 791a 7a3d ab19 903d 29eb a03d b780 d0bc
000001e0: 0074 7c3d 0a73 bcba fa26 9c3d 00d3 d03d
000001f0: 908d 553d 342b 213d e846 86bd e35a 23bd
00000200: f8b5 913b 9f02 8abb f194 b6bb c45f 8bbc
00000210: 5574 953d 6fc0 c13d 6b25 a33d b92c 2fbd
00000220: e104 abbd c343 a5bc f10f 5c3d 6dc2 fcba
00000230: 6b17 ab3c 042e 9b3d 1c18 943b 942c 04bc
00000240: 1ad6 a5bc 657b 233d 60aa 973d 7063 c23d
00000250: 7a1e 603d 1cfe 903d cb02 fdbc b70f 26bc
00000260: e464 883d 4859 af3c c170 343d d058 37bd
00000270: 6851 02bc 08dc 223d 67e5 22bd d91d fcbc
00000280: 31c1 87bc 5ea4 a0bb 12a4 a4bb c709 023e
00000290: 389d 063e 8cef 8abc 256d 88bd f8ab f7bd
000002a0: 25a8 24bd d8ce 9b3c 0d3c 0b3d 254b babc
000002b0: 021d 95bd 89ef 31bd 83c8 ccbd ed74 f63c
000002c0: 9bb2 09bd 208c 1dbd 6378 01bd 927d efb9
000002d0: 702a 90bb e305 b33d b76a f23c a0db 933d
000002e0: f942 9c3d 34d3 7abd 0fa0 26bd 2c4c 033e
000002f0: 9a02 243e 61dc c43c 856f c0bd c30c 49be
00000300: 2b02 3bbe 7fa4 83bd 4377 2dbd 414c 923d
00000310: b847 05bc 35aa 76ba 3cb8 92bd 9dec efbd
00000320: 930f b4bb 539f 033c fd87 b13b 6ec5 babd
00000330: 4e0c acbc f6e1 a0bc b45f 1fbd 29eb acbc
00000340: 683c 493d 48cf bf3c 5fe0 ac3d a089 843d
00000350: a996 803d 0884 a33c f92a 17bc 0fd7 b73d
00000360: 7cfe ff3c 201c c2ba be7d 60bc e4e8 173c
00000370: 360e c63d bc32 b33d 54b5 9a3d eb2f 963d
00000380: b3d0 2ebc 37f7 d6bc f21c fd3c 9999 8d3b
00000390: c5f9 af3d 4332 af3d ec3a b3bc 6694 91bc
000003a0: 35be 683c 9007 c03c 7313 eb3c c6b0 eabc
000003b0: 8959 c13c abeb 7f3d 9496 f33b 5dc4 7a3d
000003c0: e534 423c 8fe3 cb3c a720 293e 9666 903e
000003d0: 3acc 8a3e 96f4 bd3b 38c6 f0bd ccdd 8ebd
000003e0: 7afc 79bc e278 ecbc 0869 f3bd 1b08 2fbe
000003f0: bdde 94bd f876 f5bd bad6 0abe 573e a63c
0.027247664 -0.019821815 0.064345114 -0.03682692 -0.0492953 0.031839773 0.008110637 -0.01787887
-0.06994662 -0.060085498 0.032556113 0.022347957 0.15307498 0.233029 0.2202457 -0.121581495
-0.20293763 -0.045063954 0.10025001 -0.0383526 -0.093114875 -0.24078652 -0.2761912 -0.27911094
-0.19182526 -0.058161754 -0.06390374 0.019033544 0.029756673 0.005969412 -0.0066393507 0.01586027
-0.034302276 -0.016873334 0.07134538 -0.069754176 -0.053349707 0.09642399 0.15525441 0.091112345
-0.10413863 -0.19701152 -0.19135816 -0.13725205 -0.12842202 0.20774004 0.110948004 0.05201257
-0.037369788 -0.010290011 0.030462107 0.044421006 -0.0049518365 0.028693892 0.0385212 -0.039813906
0.063840844 0.116614535 -0.006506517 0.015266044 -0.09058783 -0.07754365 -0.05588457 -0.04132595
-0.056233276 -0.06268295 -0.12946756 -0.21142481 -0.19866604 -0.10349464 0.025640428 0.024555035
-0.036970653 -0.08586322 0.021531234 -0.05906121 0.0012962213 0.053777516 -0.017888922 0.01055158
-0.02427043 -0.024221098 -0.04697631 -0.05914465 -0.021398876 -0.045650147 0.039303876 -0.068028934
-0.031711508 0.040430363 -0.019607607 0.045972764 0.10124777 0.046133254 -0.090637736 -0.07098106
-0.002753958 -0.014554266 -0.06008938 0.056059107 -0.0007443452 -0.020498615 -0.04971707 0.006126564
0.031259533 0.036751706 0.01628897 -0.0573054 -0.06581559 0.0044413446 0.08487363 0.044211604
-0.05806954 -0.031811707 -0.047255877 0.012926221 0.061060403 0.07036146 0.07857353 -0.025452001
0.061634064 -0.0014377546 0.07624622 0.10196495 0.052136958 0.039347842 -0.06556493 -0.0398816
0.004446741 -0.0042117382 -0.0055719544 -0.017013438 0.07297579 0.09460532 0.07966121 -0.04276726
-0.0835054 -0.020173913 0.05372614 -0.0019284018 0.02088519 0.07577136 0.0045194756 -0.008067269
-0.020243693 0.0399126 0.07405543 0.094916224 0.054716565 0.070797175 -0.03088512 -0.010135583
0.06659868 0.021404877 0.044052843 -0.044762433 -0.007953979 0.03976062 -0.039769556 -0.030775951
-0.016571613 -0.0049024066 -0.0050244415 0.12699042 0.13145912 -0.016959928 -0.06661443 -0.12093347
-0.040199418 0.01901953 0.033992816 -0.02274091 -0.072809234 -0.04344133 -0.09999182 0.030085051
-0.033617597 -0.03846371 -0.03160895 -0.0004567919 -0.00439959 0.08741357 0.029591901 0.072196245
0.076299615 -0.061236575 -0.040679988 0.12822026 0.16016617 0.024030866 -0.09396271 -0.19633774
-0.18262546 -0.064278595 -0.042350065 0.071434505 -0.008134775 -0.0009409518 -0.07164046 -0.11715052
-0.0054950207 0.008033591 0.0054178224 -0.09119688 -0.021001961 -0.019638997 -0.03890963 -0.021108227
0.049129874 0.02341427 0.08441233 0.064715624 0.06278736 0.019960418 -0.009226554 0.08976566
0.031249277 -0.0014809407 -0.013701854 0.009271834 0.09670679 0.08749911 0.07554117 0.073333584
-0.010669875 -0.026240928 0.030897591 0.004321289 0.08592562 0.085545085 -0.021878682 -0.017770957
0.014205505 0.023441106 0.028695798 -0.028648745 0.023602264 0.06248061 0.007433722 0.061222423
0.011853431 0.024888782 0.16516362 0.28203267 0.27108938 0.005796979 -0.11756557 -0.06975898
-0.015257949 -0.028866235 -0.118852675 -0.17092936 -0.072690465 -0.11985582 -0.13558474 0.020293398

conv2.bias f4 [20]
00000000: cc21 ac3d c650 71bd e281 22bd 5170 74bd
00000010: 659a 8cbd 6686 d9ba e823 d83c 4a14 3ebd
00000020: 33dd 733c d0e3 58bd d9fe 6d3c a866 c13c
00000030: 921a dcbc 604c f0bc a465 373d 87a9 2ebd
00000040: 7f5b 8dbc 5507 37bd a7a4 b83c 16e3 863c
0.08404884 -0.058914922 -0.039674647 -0.059677426 -0.06865386 -0.001659584 0.026384309 -0.046406068
0.014884281 -0.052951634 0.014526092 0.02360852 -0.026868138 -0.029333293 0.044774666 -0.042642143
-0.017255543 -0.044684727 0.02253945 0.016465705

fc1.weight f4 [50, 320]
00000000: f14a 8b3c 12ab ba3d 9944 453d eeee a3ba
00000010: b2f7 9cbd b8b9 cbbd 1f51 f5bc 4709 223b
00000020: 8563 2cbe f7e4 6dbd c9de 58bd 5cc7 993d
00000030: 654c 7b3d ad2b b13d dcda c23d e827 163e
00000040: c9a2 f9bc 6a8e 92bc 379d d1bd 50d2 f4bd
00000050: 4fa1 4dbc b5cc c7bc 953a e93b 7f33 4c3d
00000060: 69c8 87bc 0272 fa3c 1312 50bb 3d1d 993d
00000070: ae4f 82bd e5dc 02bd 211c d03c 4c20 183d
00000080: 69b5 a2bb f971 e13c 9c5e 0c3d 6208 3bbd
00000090: 36bb a5bd 0918 fb3b 9dc9 37bd db6d 053d
000000a0: 2afb 823d d42f f23b 1d10 7abc 305d 2b3d
000000b0: 4b70 d8bb 6c00 653d b62c 4ebd 4ba6 ccbd
000000c0: 4dda bf3c 7c7f 1bbc 908e d83c a010 25bd
000000d0: 70f3 603d db1b 00bc 9439 153d de5a 47bd
000000e0: 90a6 29bd a7ac ca3c 8a31 9d3c f5a4 febc
000000f0: 5e0c 3ebd 4a53 c8bc e60a 70bd 9a6d aa3c
00000100: d1fd cd3b 08fd 4a3d 3c4e e03d f32f 44bc
00000110: 7e66 043d 5061 dd3c 8ae9 bc3c 49de 3fbd
00000120: b319 91bd 73e7 4cbc 95fe 403d dbb8 37bc
00000130: ede2 a2bb b4d2 8fbc 00f4 18bd 9a93 84bd
00000140: 27c8 8c3c 5654 073d 186a 273d f4cf d5bd
00000150: 545c ccbc 4678 253c 4ebf 99bd 2eee c6bd
00000160: bd75 9fbd fe31 97bc f6e8 343d e910 fa3c
00000170: ac97 ad3c 837e 6a3d dc7c 953d 9d46 86bc
00000180: f632 edbc ea9b c33b 5d2e 253a 6105 3b3c
00000190: 5bdc 1d3d a508 693d 62a7 9cbc c335 89bc
000001a0: c079 be3c a228 203c 1317 ff3c 3c62 b23c
000001b0: 7e11 dc3c ae58 ee3c cba4 293d 3051 083d
000001c0: be24 b1bc a048 66bd eef0 c73c 16ea 293c
000001d0: d54e 84bd 32f1 c23b 5ed9 973d 7416 443d
000001e0: 0cdc 903c 0ce0 a73d f6bb 7f3d 1a8f a73b
000001f0: a3aa febc 3378 efbc c82a 0abd d144 e03c
00000200: 1b2d 67bd 8b46 ad3d 9eb5 943d 631c cabc
00000210: a2d0 253d dc5d f23c afdb 3a3d 4abe cdbc
00000220: cac3 6fbc 758c 43bd 9ccc 25bd d9b3 c6bc
00000230: b411 ac3c 0219 5c3b d8ee 9e3d 20fd cd3c
00000240: 730b 5dbd 6084 cd3b be57 33bc 372e 24bd
00000250: 8e1f 3ebd 6f9f e5bb 22d2 61bb df64 a4bc
00000260: 7ec4 4abd 1624 bcbc 3fa6 b03b 01eb 00bd
00000270: ebcd b73c ddd5 8b3d 1878 633c fac4 84bc
00000280: c3ed a2bd ce05 0dbd 38d7 02bd 1323 79bd
00000290: 2c53 403c a122 ad3c 0576 7b3c c601 02bd
000002a0: 42c4 d43c a488 fcbc aa98 9abd a35b 37bd
000002b0: b435 bb3c bfdb f73c 3486 42bb 452e c23d
000002c0: 9940 ef3a 2ca2 853d 3811 f63d 2af4 9fbd
000002d0: 7646 07bd c644 56bd 4d48 b73c a0aa 93bb
000002e0: 2653 af3b c347 ac3b 25d3 f93c af67 7b3b
000002f0: de82 94bc 4d2c aabb 0429 adbd 6707 2b3d
00000300: 76c0 fe3c 44ca 863c 7278 4dbc 1318 57bd
00000310: 7300 89bb 983d b23c 5a8a 84bc af5a 353d
00000320: a9d7 4f3c 2ba1 33bb 09db b53c 57cd ea3c
00000330: 335e 28bd 5176 903c f507 4dbd 7d89 5cbc
00000340: ef96 b9bc ac64 793c a408 c0bc 2c72 e5bc
00000350: c0a0 79bd 7ba1 fb3b 2852 923c 6cd1 103c
00000360: b442 32bc 7607 5d3d c818 0e3d 350c bebd
00000370: 3b7a a6bc 74c7 8e3d e29e 3c3c da12 883a
00000380: 4faa 253c 0d43 003d 3993 973d 8f7b 1c3d
00000390: a13e 3a3d d18a c3bc e0a8 263d b724 77ba
000003a0: 3b6c 9fbc 8473 bd3c 44df 893d 4ac3 8cbc
000003b0: e65a cfbc 5066 553d 49a5 913c ad68 83bd
000003c0: 12d6 b2bc 327b 4ebd 0286 fcbb 30de 84bb
000003d0: 9823 9c3b dc39 733d 8df4 b6bb aaf5 32bc
000003e0: c6fe 75bd c448 a8bc 2be1 69bb 2e98 91bc
000003f0: f5a3 a7bd bd33 4a3c cb40 ba3d 66e3 ab3d
0.017003508 0.0911466 0.048161123 -0.001250712 -0.07664432 -0.099475324 -0.029945908 0.0024724768
-0.16834839 -0.058079686 -0.05294684 0.07508728 0.061352152 0.086509086 0.095144 0.1466366
-0.03047313 -0.017890174 -0.102350645 -0.119541764 -0.012550666 -0.024389604 0.007117579 0.049853798
-0.016575055 0.030571941 -0.0031749054 0.0747628 -0.06362854 -0.031948943 0.025404038 0.037140176
-0.0049654734 0.027520167 0.034269914 -0.04566229 -0.08092348 0.0076627773 -0.044870008 0.03257547
0.06395562 0.0073909555 -0.015262631 0.041836917 -0.0066051832 0.055908605 -0.05033561 -0.09992655
0.023419524 -0.009490844 0.026435167 -0.040299058 0.05491966 -0.007819141 0.036431864 -0.048670642
-0.041418612 0.02474053 0.019188661 -0.031084517 -0.046398513 -0.024453778 -0.058604144 0.020804215
0.006286361 0.049557716 0.10952422 -0.011974323 0.032324307 0.027023941 0.023060579 -0.046842847
-0.0708498 -0.012506354 0.04711779 -0.011213507 -0.0049708993 -0.017556526 -0.03734207 -0.06473465
0.017185284 0.033039413 0.040872663 -0.104400545 -0.02494637 0.010099476 -0.075071916 -0.09713398
-0.07786129 -0.018456455 0.04416748 0.030525642 0.021190487 0.057249557 0.07299206 -0.016391093
-0.028954964 0.005969514 0.0006301159 0.011414857 0.038540225 0.05689301 -0.019122783 -0.016749268
0.023251414 0.009775313 0.031138932 0.021775357 0.02686381 0.02909502 0.041416924 0.03328055
-0.021623965 -0.056221604 0.024406876 0.010370752 -0.064603485 0.005949163 0.074145064 0.047872975
0.017683052 0.081970304 0.062435113 0.0051134946 -0.031087225 -0.02923212 -0.033732206 0.027376564
-0.0564395 0.08460721 0.07261203 -0.024671739 0.04048217 0.029585771 0.045619663 -0.025115151
-0.014634082 -0.047741372 -0.040478334 -0.02425568 0.021004535 0.0033584242 0.077603996 0.025145113
-0.053965997 0.006271884 -0.010946212 -0.040083136 -0.04641681 -0.0070075314 -0.0034457524 -0.02006763
-0.049503796 -0.022966426 0.005390912 -0.031474117 0.022437057 0.068279006 0.013883613 -0.016207207
-0.07955506 -0.034429364 -0.03194353 -0.060824465 0.01173858 0.021134676 0.015347962 -0.031739973
0.02597249 -0.030826874 -0.075486496 -0.044765126 0.022852756 0.03025615 -0.0029682042 0.094814815
0.0018253505 0.065250725 0.12015003 -0.078102425 -0.03302618 -0.05231168 0.022373343 -0.004506424
0.0053504882 0.005257578 0.03049619 0.003836136 -0.018128809 -0.0051932693 -0.08455089 0.041755106
0.031097632 0.01645387 -0.012540923 -0.052513193 -0.0041809618 0.021757886 -0.016179252 0.044275936
0.012685695 -0.0027409296 0.02219917 0.028662367 -0.04110546 0.017634543 -0.050056417 -0.013460514
-0.022654979 0.015221756 -0.02344162 -0.028008543 -0.06094432 0.007679162 0.01786144 0.008838993
-0.010880161 0.053962193 0.034691602 -0.09279672 -0.020321956 0.069716364 0.01151249 0.0010381595
0.0101114055 0.031313945 0.07401127 0.038203772 0.045469884 -0.023869904 0.040688396 -0.0009427773
-0.019460788 0.023126371 0.06732038 -0.017182965 -0.025311898 0.052099526 0.01777901 -0.0641645
-0.021830592 -0.050410457 -0.0077064047 -0.004054807 0.0047649853 0.05938135 -0.005583352 -0.010922829
-0.060057424 -0.02054251 -0.003568719 -0.01777276 -0.08185569 0.012341437 0.090943895 0.08392982

fc1.bias f4 [50]
00000000: 468b abb9 96ce 043a 3256 493d 1ab4 24bd
00000010: 176f 293c 5d06 5f3c 14de 223d 7c59 98bc
00000020: fffa 283d 8a22 b23b ebc3 663d 9d6a 5fbd
00000030: 59ff 88bc e8ad 06bc 227b 1dbd 8865 87bb
00000040: 0b85 3abd 7209 d73c 2a8f 453d a278 c5bb
00000050: dde8 223d 5f1d eb3c 8ef2 e83c c3b6 523c
00000060: 81c9 30bd 41e6 4abd c5f6 9d3c a550 26bd
00000070: 6a6d 2e3d fddb 293c 1a25 c1bc 0e22 fdbc
00000080: c194 b43c 8e7e 9fbb 0e3c 563d 6c0a 84bc
00000090: 545b d3bc a26a 4bbd 6d3c 3d3c fb17 f6bc
000000a0: 89d4 6bbb 1589 653d 81d5 0cbc 3b49 783d
000000b0: e3f6 263d 8357 cbbc d8a7 0c3d 8cd4 bcbc
000000c0: 53cf 093d c63e e4bc
-0.00032719428 0.0005066184 0.049154468 -0.04021082 0.010341427 0.013612357 0.03976257 -0.018597357
0.041254994 0.0054362463 0.056339186 -0.054545034 -0.016723322 -0.008220173 -0.038447507 -0.0041319765
-0.045537036 0.026249621 0.048232235 -0.0060263434 0.039772857 0.028700529 0.028435972 0.012860957
-0.04316092 -0.049535993 0.019282708 -0.040604252 0.042584814 0.010367391 -0.023577262 -0.030900028
0.022043588 -0.0048673814 0.052303366 -0.01611825 -0.025800385 -0.04966224 0.011550051 -0.030040732
-0.0035984835 0.056038935 -0.008595825 0.060616713 0.040762793 -0.024822002 0.034339756 -0.023050569
0.033644985 -0.027861964

fc2.weight f4 [10, 50]
00000000: 7984 debd 73f5 4b3e c984 d43d 7525 6abd
00000010: 4cd1 473e bd89 103e bb04 3bbe 4f85 583d
00000020: ccd7 55bd d9d6 06be 0f03 7a3e b63c c33d
00000030: e505 2ebe 7b28 d8bd 7b48 04be 69b1 303e
00000040: dfc1 493e e18c 49be 1b9f 9dbd 72b6 423e
00000050: d826 753c fe17 ec3d f1ba 87be 0c7c 69bd
00000060: 739a 27be 9b71 87bd a937 71be 86f6 25be
00000070: 29ad 54be e001 07be f6f3 833e 7676 ce3d
00000080: 403a 23be 67bf 1fbe 1c45 23be 848e 2d3e
00000090: 9610 51be 6f47 de3d 511c 6abd e324 3c3e
000000a0: b6e0 14be 8b7d 1ebe 4a20 1c3e cc8f 753e
000000b0: 1c7e e4bd 4834 493e fb5c 1c3e 616a 0e3e
000000c0: 4365 22be 81fb 163e 5da5 553e 46d3 5e3e
000000d0: 72c0 7fba dfec 943e f9be 61bc 0d5a 063e
000000e0: e091 39bd cec4 24bd 150b 0e3e 4922 4b3e
000000f0: 7909 edbd 6a87 41be 2843 433e 71b2 10be
00000100: c95d 7f3c 943e 1bbc 7c04 f7bd 1771 99bd
00000110: 92cd 25bd 777c 07be 6357 6fbe 0b1b 673e
00000120: e193 173e 4279 1f3d b972 80bd 0193 a43b
00000130: ca88 19be e3d4 593e 475d 0d3e f94b 9fbc
00000140: f3ee ec3c 7085 b3bd 7b66 08be 443e 083e
00000150: 621a 213e 2a4c 1dbe f4fc fd3d e35b 74be
00000160: 4612 5c3e 424e 223e 9211 85be 082e cebd
00000170: 8c78 08be 8bea 6d3e a666 243e 0712 223e
00000180: 02ab 83be 84d9 ce3d 3ddf 8b3e 087c 36be
00000190: 2ad9 663e 0a41 e0bd 0395 0e3e f2d7 b9bd
000001a0: a1aa 05be a551 00be 0aee 6dbd 3af4 4dbd
000001b0: 8da2 25be e390 0dbe d81d 863e cfc8 1fbe
000001c0: 514a debd 44f3 14be e036 abbd 14c9 72bd
000001d0: 8c26 8ebc 9d56 2f3e 2827 363e a65f 3a3e
000001e0: 6dd3 6dbe 2f96 0cbd 0287 1abe 11a4 0dbe
000001f0: 41ea fc3d 3ab8 94bd 1d55 51be daa3 2d3e
00000200: 8dd8 0dbe 028b bb3b 4b1c 92bd b14d 93bc
00000210: 4604 53be bf05 313e a6b1 3c3e 33bc bf3d
00000220: 91ad 66be c663 323e e4e7 ddbd ff83 8fbd
00000230: daad a23d 8f6f 243e 4eff 93bc c028 55bd
00000240: c9e3 353e 5e6f a8bd 3521 0c3e 7e90 083e
00000250: 21fd 8f3e 8c6c 0e3e bcad 00be fb26 3a3e
00000260: a8e2 023e ca62 84bd 932d 4d3c 564c 40bd
00000270: 2c49 903e 6b0c 12be 761e 0cbd 95cd 8dbe
00000280: 94ca dabd 2326 b1bc 76d1 dcbd 156a 603e
00000290: bfa1 1abe a3ad 0abd 48ac 7abd 2a0f 623e
000002a0: 515c 4b3e f623 2e3e 093c 2ebe 701f 953d
000002b0: eeb9 8abd c32f 7cbe 7214 1a3e 8a24 c13c
000002c0: 4e04 323e 27ab 443e 3d9a c0bd caa4 173d
000002d0: 0caa 9fbd 4b0a 283c 33b2 463e 7022 1e3e
000002e0: 5e48 37be 9f18 d43d 6105 213e 8c6b c53c
000002f0: 7b28 32bd 0d11 a7bd 4d4f 0dbe 289a cc3c
00000300: 95e1 203e 8025 32be 78c3 313e 4167 0dbe
00000310: cce4 63be 6888 933c 1c11 8c3d 8b07 253e
00000320: dda6 44bd bdb2 3cbe bb68 c2bc 02e4 ffbd
00000330: 8a7e 053b 0832 003e 1c6d e2bd 8315 47bd
00000340: 29c8 0b3e d709 2a3e 7ec9 c73c 8906 2c3e
00000350: aeab 5a3e afde 10be e935 36be 802d 02bd
00000360: 30c0 4c3d 7e2e 31be 4137 593e 40a4 d7bd
00000370: 1082 a43d e334 a73d 76f4 73bd 077c 803e
00000380: 8ebf 2a3e 501f 0bbe ffa1 2f3e 0327 22be
00000390: 1a40 693e 2ce1 b0bc c0bf 89bd 1955 b53e
000003a0: 7655 abbd 10d5 9abd ceca 473e fbba 67be
000003b0: ba86 143e b38e 5abe 3dc7 503e c807 22be
000003c0: 306b fc3d 0345 653d 3c72 2cbe f562 1abe
000003d0: bd70 6abe 885a 2d3e 2c2e c83d 16a9 d63d
000003e0: 4796 1dbe 81f8 49be bfae 10bd 88f5 723e
000003f0: 0a93 9a3d 1408 a0bc 3073 723d 8b1e 10be
-0.10865111 0.1991785 0.10376889 -0.057164628 0.19513434 0.14115043 -0.18263523 0.052861508
-0.052207753 -0.13167895 0.2441523 0.09533064 -0.16994436 -0.10554596 -0.12918274 0.17255177
0.19702862 -0.19682647 -0.076963626 0.1901491 0.014962874 0.11528014 -0.26509812 -0.057003066
-0.16367511 -0.066134654 -0.23556389 -0.16207322 -0.2076918 -0.13184309 0.25772065 0.100811884
-0.1594019 -0.15600358 -0.15944332 0.16948897 -0.20416483 0.108534686 -0.05715591 0.18373446
-0.14538845 -0.15477578 0.15246692 0.23980635 -0.11156866 0.1964885 0.15269844 0.13907768
-0.15858941 0.14744379 0.20863862 0.21760282 -0.00097561546 0.29086968 -0.013778442 0.13120289
-0.045305133 -0.04022675 0.13871415 0.19837297 -0.115740724 -0.18899313 0.19068587 -0.1413057
0.015586325 -0.009475369 -0.12061402 -0.07492273 -0.04047925 -0.13231073 -0.23373179 0.2256891
0.14802505 0.038934 -0.062718816 0.005022407 -0.14993587 0.21272616 0.13805114 -0.019445406
0.028922534 -0.087656856 -0.13320343 0.13305002 0.1573272 -0.15361086 0.124017626 -0.23863177
0.21491346 0.15850165 -0.25989968 -0.100673735 -0.13327235 0.23234002 0.16054782 0.1582719
-0.25716406 0.101000816 0.27318755 -0.17820752 0.22543779 -0.10949905 0.13924031 -0.090743914
-0.13053371 -0.12531145 -0.05808834 -0.05028174 -0.1617529 -0.13824801 0.26194644 -0.15603946
-0.108540185 -0.14545923 -0.08360076 -0.059273794 -0.017352365 0.17122884 0.17788374 0.1820055
-0.23225184 -0.034322914 -0.15090564 -0.13832118 0.12349368 -0.07261701 -0.20442624 0.16957036
-0.13852139 0.005723358 -0.07134303 -0.017981382 -0.20607099 0.17287348 0.18427143 0.09362068
-0.22527148 0.17420873 -0.10835245 -0.07007598 0.07943316 0.16058181 -0.018066075 -0.052040815
0.17762674 -0.082243666 0.13684542 0.1333637 0.2812281 0.13908595 -0.12566274 0.18178932
0.12781775 -0.06464155 0.012523073 -0.0469478 0.28180826 -0.1426255 -0.034208737 -0.2769591
-0.1068317 -0.02162463 -0.10782139 0.21915467 -0.15100764 -0.033857 -0.061199456 0.22076097
0.19859435 0.17005906 -0.17015089 0.07281387 -0.067737445 -0.24627595 0.15046862 0.023576993
0.17384455 0.19205914 -0.094044186 0.03702239 -0.07796106 0.01025636 0.19403915 0.15442824
-0.178987 0.103562586 0.15724708 0.024099134 -0.043495636 -0.08157549 -0.13799782 0.024975851
0.15711053 -0.17397118 0.17359722 -0.1380892 -0.22255248 0.01800938 0.06839201 0.16116159
-0.048010696 -0.18427558 -0.02373158 -0.12494661 0.0020369613 0.12519085 -0.11055967 -0.0486045
0.13650574 0.16605316 0.024388071 0.16799368 0.21354553 -0.14147447 -0.17794003 -0.031781673
0.04998797 -0.17302892 0.21212484 -0.10529375 0.0803262 0.08164384 -0.059559308 0.25094625
0.16674635 -0.13586164 0.1715164 -0.15835194 0.22778359 -0.021591745 -0.067260265 0.35416487
-0.0836591 -0.0756017 0.19510958 -0.22629921 0.14504519 -0.21343498 0.20388503 -0.15823281
0.12325132 0.055974018 -0.16840452 -0.15076812 -0.22894569 0.16929066 0.097744316 0.10481469
-0.15389358 -0.19723703 -0.0353229 0.23726475 0.07547577 -0.019535102 0.059191883 -0.14074151

fc2.bias f4 [10]
00000000: c74e 873d 398f bebc 2b19 e0bb fbce e7bd
00000010: 781d e0bb d7bd 163e f41f ee3d 1c96 52bd
00000020: 7584 aa3c a1cc 07be
0.066068225 -0.023261653 -0.0068389378 -0.11318775 -0.0068394504 0.14720856 0.11627188 -0.051412687
0.020815114 -0.13261653
