proj5/task4/results/exp3_0.2.pth (torch, 89871 bytes, 8 tensors)

conv1.weight f4 [10, 1, 5, 5]
0	0x3e2c2dfb	0.16814415
1	0x3e91b689	0.28459576
2	0x3e0ddd26	0.13853893
3	0x3eb60b65	0.35555568
4	0xbb89234c	-0.004185116
5	0x3d773980	0.06035757
6	0x3e5b2d8b	0.21404092
7	0x3f1052c7	0.5637631
8	0x3ece2718	0.402642
9	0xbe268bc6	-0.16264257
10	0x3e835c2d	0.25656262
11	0x3ed18996	0.40925282
12	0x3f12e136	0.57374895
13	0x3e42fe02	0.19042209
14	0x3df4b631	0.11948813
15	0x3ba1a4cc	0.0049329754
16	0x3eb28b68	0.34871984
17	0x3e8040df	0.25049493
18	0x3c9dab6a	0.019246776
19	0x3dec9e62	0.115536466
20	0xbe1ba83e	-0.15200898
21	0x3bec19cb	0.007205223
22	0x3d406210	0.04696852
23	0x3e6eb1f8	0.23310077
24	0xbe0321b3	-0.12805824
25	0xbe2c858c	-0.16847819
26	0xbe3af3bd	-0.18257041
27	0xbe5901cc	-0.21192092
28	0xbd31edf4	-0.04343982
29	0xbe8a0a3e	-0.2696094
30	0x3e294801	0.16531374
31	0xbe6ad809	-0.22933973
32	0x3e00d3ef	0.12580846
33	0xbb15aa6a	-0.002283717
34	0xbe1db873	-0.15402393
35	0x3e77b9c1	0.24191953
36	0x3e5369e7	0.20645867
37	0x3ed39d35	0.41330877
38	0x3e4e3c86	0.20140275
39	0xbce1e7b0	-0.027576298
40	0x3e2ff7a0	0.17184305
41	0x3e598287	0.21241198
42	0x3eeaa588	0.45829415
43	0x3ee10668	0.439502
44	0x3e6dc47e	0.23219487
45	0xbe0ee916	-0.13956103
46	0x3e42fe7e	0.19042394
47	0x3e2257ae	0.1585376
48	0x3e5b3656	0.21407446
49	0xbd025a2a	-0.03182427
50	0xbe32a694	-0.17446357
51	0x3d9ef5cf	0.07761728
52	0x3d16e4fd	0.036839474
53	0x3e6af971	0.22946717
54	0x3d115410	0.03548056
55	0x3dc1f2a5	0.09470109
56	0x3e835702	0.2565232
57	0x3e3a94e7	0.18220864
58	0x3e23c3cb	0.15992658
59	0xbe6e503c	-0.23272794
60	0x3e12956f	0.14314817
61	0x3e3d05f3	0.184593
62	0x3e897708	0.26848626
63	0xbe062199	-0.13098754
64	0xbdcea705	-0.1009045
65	0x3e248976	0.16068062
66	0x3eee1bc0	0.46505547
67	0x3b8cdba9	0.0042986465
68	0xbe645d51	-0.22301222
69	0xbe8a957d	-0.27067176
70	0x3ebbc180	0.36671066
71	0x3e9d6b5d	0.30745974
72	0x3e5ec888	0.21756184
73	0xbe9f08e0	-0.3106146
74	0xbebb80d7	-0.36621734
75	0xbe7f037b	-0.24903671
76	0xbe446b9a	-0.19181672
77	0x3dd3a595	0.10334317
78	0x3e4beeea	0.19915357
79	0x3ea0cabc	0.31404674
80	0xbe624946	-0.22098264
81	0xbe2f014e	-0.17090341
82	0x3e4690b3	0.19391136
83	0x3db59e19	0.08868045
84	0x3e77e087	0.24206744
85	0xbe1de7ba	-0.15420428
86	0x3e09d3a2	0.13459638
87	0xbb27df73	-0.0025615364
88	0x3d8bbc5a	0.068230346
89	0x3db9482e	0.0904697
90	0xbcb5d10e	-0.022194412
91	0xbc9bbb10	-0.019010097
92	0x3e64313c	0.22284406
93	0x3e592c1f	0.21208237
94	0xbe1f730e	-0.15571234
95	0xbda3cc80	-0.0799799
96	0x3e801349	0.25014713
97	0x3cad0f5e	0.021125492
98	0xbc8560d9	-0.016281532
99	0xbe36a806	-0.17837533
100	0xbe3c481f	-0.18386887
101	0xbc057994	-0.008146662
102	0xbd8b85b5	-0.06812612
103	0xbe349712	-0.17635754
104	0xbc92c0d5	-0.017914215
105	0xbe5018a7	-0.20321904
106	0xbe6a25f5	-0.22866042
107	0xbe22ff26	-0.15917644
108	0xbe60baae	-0.21946213
109	0xbe28b87c	-0.16476625
110	0x3dfcfb9a	0.12352677
111	0xbcffcecd	-0.03122654
112	0x3af07489	0.0018345277
113	0xbe73a39f	-0.23792885
114	0xbe350a61	-0.1767974
115	0xbdca806e	-0.09887777
116	0xba145743	-0.0005658755
117	0xbe60dc3e	-0.21959016
118	0xbe08b7da	-0.13351384
119	0xbe2f5ab7	-0.17124449
120	0x3cdd6adf	0.0270285
121	0xbd8307b8	-0.063979566
122	0xbce63c41	-0.028104903
123	0xbe34e663	-0.1766601
124	0xbe44ff24	-0.19237953
125	0xbe10afe3	-0.14129595
126	0xbdc1dfea	-0.09466536
127	0xbe3e2c4a	-0.18571582
128	0x3e080673	0.1328371
129	0xbce57fce	-0.028015044
130	0x3e011b8c	0.12608165
131	0xbcae78b3	-0.021297788
132	0xbe89cfa1	-0.2691622
133	0x3d151402	0.036396034
134	0xbdb917ad	-0.09037719
135	0xbdad11b4	-0.08450642
136	0xbe60e3ca	-0.21961895
137	0xbe94a45b	-0.29031643
138	0xbd38359c	-0.044973
139	0xbd775247	-0.0603812
140	0x3e42cf13	0.19024305
141	0xbd7b2a79	-0.061319802
142	0x3e4d9dcc	0.20079726
143	0xbdf6a782	-0.12043668
144	0x3d021bbc	0.03176473
145	0x3e5a83b8	0.21339309
146	0x3ea786c9	0.3272002
147	0x3eb13259	0.34608725
148	0x3e979ab2	0.2961021
149	0xbd9ef837	-0.07762187
150	0x3ca5305a	0.020164657
151	0xbdf5f7ca	-0.12010153
152	0xbd69baf5	-0.05706306
153	0xbe221b68	-0.15830767
154	0x3e546d23	0.20744757
155	0xbe16cb58	-0.14726007
156	0x3e33275d	0.17495485
157	0x3e207b0d	0.1567194
158	0x3e036813	0.1283267
159	0xbd9dd04a	-0.077057436
160	0x3ea0792e	0.31342453
161	0x3e76024c	0.24024314
162	0x3e3500bd	0.17676063
163	0xbe21e07a	-0.15808287
164	0x3dc49de5	0.096004285
165	0x3b8dae22	0.0043237368
166	0xbc16dfe2	-0.009208651
167	0x3e8fe09c	0.2810105
168	0x3d3abc97	0.04559001
169	0xbe0d8ddd	-0.13823648
170	0xbe5a8d20	-0.21342897
171	0xbcf16ca4	-0.02947075
172	0x3e318bde	0.17338511
173	0xbd32e611	-0.04367644
174	0xbe137936	-0.14401707
175	0xbe0ab4ae	-0.13545486
176	0xbe19fb9f	-0.15037392
177	0x3e19bc9a	0.15013352
178	0x3e6b3422	0.22969106
179	0xbe549c11	-0.2076266
180	0x3cdc4033	0.026886081
181	0x3e47a339	0.19495858
182	0x3e0ad11f	0.13556336
183	0xbda04103	-0.078249
184	0x3cc3fda9	0.023924666
185	0x3e26792e	0.16257164
186	0x3e54526a	0.20734563
187	0x3dd49415	0.10379807
188	0x39556350	0.0002035026
189	0x3cb0a0ca	0.021561045
190	0x3bb86d6a	0.0056282775
191	0x3d2d84f6	0.04236313
192	0x3eb08362	0.34475237
193	0x3ec5fe96	0.38670796
194	0x3e04fff1	0.12988259
195	0xbda5c2a2	-0.08093764
196	0xbc491162	-0.012272211
197	0x3d866d83	0.065638565
198	0x3e579517	0.21052967
199	0x3e6c86cc	0.23098296
200	0xbe641078	-0.22271907
201	0xbe0a7340	-0.13520527
202	0x3dc58736	0.0964493
203	0x3cd83b99	0.026395606
204	0xbd5f467d	-0.054510582
205	0xbe191562	-0.14949563
206	0xbe74b984	-0.23898894
207	0xbe8edefd	-0.27904502
208	0xbe06485d	-0.13113542
209	0xbbd8d20f	-0.006616838
210	0x3e4de60c	0.20107287
211	0x3d804d2c	0.06264719
212	0xbe693822	-0.22775319
213	0xbe3538e7	-0.17697488
214	0xbdd4700b	-0.10372933
215	0x3ea92cee	0.3304209
216	0x3e19b558	0.15010583
217	0xbbdd4e2d	-0.006753704
218	0x3d92e7a9	0.07173092
219	0xbdd628fe	-0.104570374
220	0xbcf7a6fb	-0.03023099
221	0x3e8f596a	0.27997905
222	0x3c0ec326	0.008713519
223	0x3ca44d95	0.020056525
224	0xbe3f9113	-0.18707685
225	0x3e871ea1	0.26390556
226	0x3ec10b98	0.37704158
227	0x3ec3055b	0.38090023
228	0x3e5a7b2b	0.21336047
229	0x3e10cfb9	0.1414174
230	0x3d8f8fa5	0.0700982
231	0x3ed26b94	0.410977
232	0x3eb4cff1	0.35314897
233	0x3ed0728b	0.4071239
234	0x3e951af7	0.29122135
235	0x3de88f03	0.11355402
236	0xbd6516f6	-0.0559301
237	0xbe815c6c	-0.25265825
238	0xbe7c3fe4	-0.24633747
239	0xbe8478ee	-0.25873512
240	0xbd70ff14	-0.05883701
241	0xbead5cdf	-0.33859918
242	0xbe948f02	-0.29015356
243	0xbe8f9934	-0.28046572
244	0xbe4139cf	-0.18869708
245	0xbeb5ea68	-0.355304
246	0xbebaf7af	-0.36517093
247	0xbdff9770	-0.12480056
248	0xbdf5e050	-0.12005675
249	0x3c9733c7	0.018457307

conv1.bias f4 [10]
0	0x3e1b8d9e	0.15190741
1	0x3d6306fe	0.05542659
2	0xbc127d7a	-0.008941049
3	0xbdc7ec04	-0.09761813
4	0x3d281495	0.041035254
5	0xbddffadf	-0.10936522
6	0x3e2c7d9f	0.16844796
7	0x3b23bf58	0.0024985876
8	0x3e02b7b5	0.12765391
9	0x3df4cd26	0.119531915

conv2.weight f4 [20, 10, 5, 5]
0	0x3d735e0c	0.059415862
1	0xbce4564e	-0.027873185
2	0x3caf404d	0.021392966
3	0xbd6f5460	-0.058430076
4	0xbdaf5d43	-0.0856271
5	0x3caccd08	0.02109386
6	0xbca827dc	-0.020526819
7	0xbd891ed5	-0.06695334
8	0xbddea37c	-0.10871026
9	0xbdfc861d	-0.123302676
10	0x3cf1431c	0.029450946
11	0x3cb6ab62	0.022298519
12	0x3dbfdf32	0.09368743
13	0x3e1a803a	0.15087977
14	0x3e1b46cc	0.15163726
15	0xbd6c74c7	-0.057728555
16	0xbe2110fe	-0.15729138
17	0xbd97050e	-0.07374011
18	0x3cb8d2a6	0.022561383
19	0xbda135c6	-0.078715846
20	0xbd083a3b	-0.033258658
21	0xbe32c9a3	-0.17459731
22	0xbe73f372	-0.23823336
23	0xbe84b839	-0.259218
24	0xbe007a40	-0.12546635
25	0xbd80c1b4	-0.06286946
26	0xbdc0448e	-0.09388076
27	0xbc56d770	-0.013112888
28	0xbac2caab	-0.0014861425
29	0xbd604d88	-0.05476144
30	0xbc44da31	-0.0120149115
31	0x3cc7541d	0.0243321
32	0xbd5dadd5	-0.054120857
33	0xbd20f170	-0.039292753
34	0x3d49bd31	0.049252693
35	0xbc762c76	-0.015025249
36	0xbc76744b	-0.015042375
37	0x3d862847	0.06550651
38	0x3dc57911	0.09642232
39	0x3d91364e	0.07090436
40	0xbd605033	-0.054763984
41	0xbe205c0c	-0.15660113
42	0xbe3c3c07	-0.18382274
43	0xbe1bc40c	-0.15211505
44	0xbde61547	-0.11234527
45	0x3e526766	0.20547256
46	0x3de062f2	0.10956372
47	0x3d6bacd1	0.057537857
48	0x3c8e0ddc	0.017340593
49	0x3d907f4c	0.0705553
50	0x3d18f517	0.03734311
51	0x3d40f7e3	0.047111403
52	0xbc3954fa	-0.011311764
53	0x3d37a813	0.044838022
54	0x3d8b78df	0.06810164
55	0xbd18ad92	-0.037274905
56	0x3d5a1b44	0.05324866
57	0x3dd238c0	0.102647305
58	0xb9ce5193	-0.0003935216
59	0x3cdd83f7	0.027040465
60	0xbdc95fea	-0.09832747
61	0xbd2d8dde	-0.042371623
62	0xbd0faeff	-0.035079
63	0xbcacd1b8	-0.021096095
64	0xbd85046b	-0.06494983
65	0xbd75ba79	-0.059992287
66	0xbd9fdf7b	-0.078062974
67	0xbe1dc9e6	-0.1540905
68	0xbe2a7ead	-0.16649885
69	0xbe025274	-0.12726766
70	0x3d137cf0	0.03600782
71	0x3d36569e	0.0445162
72	0xbcbfffb2	-0.023437355
73	0xbd9f4603	-0.077770256
74	0x3d53c80a	0.051704444
75	0xbd678e5f	-0.05653226
76	0xbcca0d6a	-0.0246646
77	0x3d4f8a30	0.050668895
78	0x3c8c1649	0.01710047
79	0x3c881e6f	0.016616074
80	0xbcdf98bc	-0.02729451
81	0xbcd6c709	-0.026217954
82	0xbd242179	-0.040070985
83	0xbd485d89	-0.048917327
84	0xbd17ecd1	-0.03709108
85	0xbd43530b	-0.047686618
86	0x3d18c3c1	0.03729606
87	0xbd3208a4	-0.04346527
88	0xbc5c0026	-0.01342777
89	0x3d0cdbbd	0.034389246
90	0xbcab7a10	-0.020932227
91	0x3d24e749	0.040259633
92	0x3dcd86c8	0.10035473
93	0x3d66cba8	0.056346565
94	0xbda8fd1b	-0.08251401
95	0xbd874d4a	-0.066065386
96	0x3bd7fe60	0.006591603
97	0xbcb18e5e	-0.021674331
98	0xbd70edea	-0.058820643
99	0x3da626aa	0.08112843
100	0xbc2ebd37	-0.0106652295
101	0xbce03869	-0.027370648
102	0xbd7bb1b0	-0.061448753
103	0xbb9acca9	-0.0047241044
104	0x3c884ff9	0.016639696
105	0x3c9c04ba	0.019045223
106	0xbb80b1c6	-0.0039274422
107	0xbd9e10ce	-0.07718049
108	0xbdb77072	-0.08956994
109	0xbc802e55	-0.015647093
110	0x3d8f7540	0.070047855
111	0x3cb8ec89	0.022573726
112	0xbd9e09c5	-0.07716707
113	0xbd63cdbc	-0.055616125
114	0xbd8b65b3	-0.06806507
115	0xbaf58148	-0.0018730545
116	0x3d1084dd	0.03528296
117	0x3d6a343f	0.057178732
118	0x3d6816be	0.056662314
119	0xbd3a8fa6	-0.04554715
120	0x3d557aa7	0.052118924
121	0xbc7e806b	-0.015533547
122	0x3d834e06	0.06411366
123	0x3d9debe5	0.07711009
124	0x3d12c9fe	0.035837166
125	0x3d0854c6	0.03328397
126	0xbd8e30ab	-0.069428764
127	0xbce2794c	-0.02764573
128	0x3c481b1d	0.012213496
129	0xbbd22ddc	-0.0064141583
130	0x3cc76d74	0.024344184
131	0x3c9403dd	0.018068248
132	0x3ddf6696	0.109082386
133	0x3ddd6bea	0.108115986
134	0x3dcde5f2	0.10053624
135	0xbd00a3c3	-0.031406175
136	0xbd8314ca	-0.064004496
137	0x3bd8991c	0.006610049
138	0x3d7c6fa7	0.061629917
139	0x3baa2040	0.005191833
140	0x3cc2dcbc	0.023786895
141	0x3dac1ae9	0.0840357
142	0x3c93a54c	0.018023156
143	0x39d5598a	0.00040693238
144	0xbbdcdc6d	-0.006740144
145	0x3ccaa0f2	0.024734948
146	0x3d43a7fe	0.04776763
147	0x3d8a72b4	0.06760159
148	0x3d72c3b9	0.059268687
149	0x3db23174	0.08700839
150	0xbcf31e55	-0.02967755
151	0x39b044ef	0.00033620695
152	0x3d81899d	0.06325076
153	0x3d03cda3	0.032178532
154	0x3d296e2a	0.041364826
155	0xbd664801	-0.056221012
156	0xbc4ab9a2	-0.01237336
157	0x3d04a7cb	0.032386582
158	0xbcf9bc60	-0.030485332
159	0xbce416d1	-0.027842911
160	0xbb090536	-0.0020907647
161	0x3c16ae20	0.009196788
162	0xbbb5d06f	-0.005548529
163	0x3dedb247	0.11606269
164	0x3e04aae9	0.12955822
165	0xbbd4152d	-0.006472251
166	0xbd68625d	-0.05673443
167	0xbdebc2b0	-0.11511743
168	0xbd4a6d3e	-0.049420588
169	0x3c41e58d	0.011834514
170	0x3d5543e3	0.052066695
171	0xbb9c0214	-0.00476099
172	0xbd79e94c	-0.061013505
173	0xbcd47ef5	-0.025939444
174	0xbd90747d	-0.070534684
175	0x3cda3d87	0.026640667
176	0xbd6a3a9b	-0.057184797
177	0xbd88dd5f	-0.06682848
178	0xbd4d93a4	-0.05018963
179	0xbd1db042	-0.03849817
180	0xbc094250	-0.008377627
181	0x3d8d2cb8	0.06893295
182	0x39896590	0.00026206346
183	0x3d6d906e	0.057999067
184	0x3d41220c	0.04715161
185	0xbd1035dc	-0.035207614
186	0xbd165494	-0.036701754
187	0x3db027c7	0.08601337
188	0x3dd13a14	0.10216156
189	0xbbc03efe	-0.0058668843
190	0xbd2e45c7	-0.042547014
191	0xbe20decd	-0.15709992
192	0xbe32b553	-0.17451982
193	0xbd8ca609	-0.06867606
194	0xbd010c6b	-0.031505983
195	0x3d9e5f88	0.07733065
196	0x3c01a252	0.007912235
197	0x3d212ba0	0.039348245
198	0xbb56d032	-0.0032777903
199	0xbd57a9f1	-0.052652303
200	0xbc9f9719	-0.019481229
201	0x3b217534	0.002463651
202	0x3c5da4d3	0.013528067
203	0xbda8d9d7	-0.08244675
204	0xbc7c1166	-0.0153850075
205	0xbcc9cb23	-0.024632996
206	0xbcd53b5a	-0.026029278
207	0x3b6ba3c7	0.0035955773
208	0x3d8dd4e3	0.069253705
209	0x3d34f9e3	0.044183623
210	0x3d927869	0.07151873
211	0x3d8cb170	0.06869781
212	0x3d972f2d	0.07382045
213	0x3cbf5e95	0.02336053
214	0xb9cfd04b	-0.00039637307
215	0x3d9b7b33	0.07591858
216	0x3caeea7a	0.021352042
217	0xbc320130	-0.010864541
218	0xbca5cf2c	-0.020240389
219	0x3c0ec5c7	0.008714146
220	0x3db8ca90	0.09023011
221	0x3da5a908	0.08088881
222	0x3d66a6c8	0.0563114
223	0x3d6b47c3	0.057441484
224	0xbc84dbc8	-0.016218081
225	0x3b71f0a6	0.003691712
226	0x3d50f349	0.051013265
227	0xbc07a925	-0.008280073
228	0x3db34b16	0.08754556
229	0x3df83ef9	0.12121386
230	0x3bf1cefe	0.0073794117
231	0x3c6a7cd2	0.014311986
232	0x3cdfea38	0.027333364
233	0x3cc15543	0.023600226
234	0x3cb20588	0.021731153
235	0xbbd8e2f4	-0.006618852
236	0x3d3bdf06	0.04586699
237	0x3dc04e26	0.09389906
238	0x3d00d848	0.031456262
239	0x3da6782c	0.0812839
240	0x3ca4793a	0.020077337
241	0x3d4491f7	0.047990765
242	0x3e20151a	0.1563305
243	0x3e830344	0.2558843
244	0x3e75d0f3	0.24005489
245	0x3c343655	0.010999282
246	0xbdb87564	-0.090067655
247	0xbd34e559	-0.044164035
248	0xbcc4ff91	-0.024047645
249	0xbd94b35e	-0.07260774
250	0xbd6f80e3	-0.058472525
251	0xbe0d9524	-0.13826424
252	0xbcd81719	-0.026378201
253	0xbd59dbcf	-0.05318814
254	0xbd9b5ebf	-0.07586431
255	0x3caf07bc	0.021365993

conv2.bias f4 [20]
0	0x3d9715bb	0.07377192
1	0xbd75b762	-0.05998934
2	0xbd1603c7	-0.036624696
3	0xbd8769c1	-0.06611968
4	0xbd8688de	-0.06569074
5	0xbc057246	-0.008144921
6	0x3ce1c6fe	0.027560707
7	0xbd2049e4	-0.039132968
8	0x3c96b48e	0.018396642
9	0xbd8984a3	-0.067147516
10	0x3c2ac01e	0.010421781
11	0x3cf54f2a	0.029944975
12	0xbcf21f67	-0.02955599
13	0xbcecc084	-0.028900392
14	0x3d6aa094	0.057282045
15	0xbd2c56b6	-0.04207488
16	0xbc606d7a	-0.013697976
17	0xbd6719d9	-0.056421135
18	0x3c939a01	0.01801777
19	0xbbf9432d	-0.007606885

fc1.weight f4 [50, 320]
0	0xbd4551c5	-0.048173685
1	0x3b98feba	0.0046690376
2	0x3d049501	0.032368664
3	0x3bfe4b34	0.0077604298
4	0xbda242ea	-0.07922919
5	0xbda594bb	-0.08085009
6	0xbc84600d	-0.016159082
7	0x3c1ab390	0.009442225
8	0xbe35c3a1	-0.17750408
9	0xbd2797b4	-0.04091616
10	0xbda19312	-0.078893796
11	0x3d19c480	0.037540913
12	0x3ab7023f	0.0013962461
13	0x3ce1e708	0.027575985
14	0x3d7e3ce1	0.062069777
15	0x3e146d75	0.1449488
16	0xbbf96dc2	-0.007611961
17	0x3bd07873	0.006362015
18	0xbd355516	-0.044270597
19	0xbd88356a	-0.06650813
20	0xbc87e4a1	-0.016588511
21	0xbd19f5b7	-0.037587848
22	0xbd4feb2e	-0.050761394
23	0x3d0ebbe8	0.03484717
24	0xbd7568a1	-0.059914235
25	0xbd23a0c8	-0.039948255
26	0xbd0a7bda	-0.03380952
27	0x3d59858a	0.05310587
28	0xbc95fe9e	-0.018309887
29	0x3b96bc96	0.004600118
30	0x3daf14e8	0.085489094
31	0x3d4b25a5	0.049596447
32	0x3c4adb25	0.01238135
33	0x3cb922ca	0.022599597
34	0x3d2cb75e	0.04216706
35	0xbd270545	-0.04077651
36	0xbd631fbe	-0.055450194
37	0xbcf412bf	-0.029794095
38	0x3d0947cb	0.033515733
39	0x3d895764	0.067061216
40	0x3daf4182	0.085574165
41	0x3bceec10	0.006314762
42	0x3da60bfe	0.08107756
43	0x3d82efd9	0.063934036
44	0x3c101055	0.008792956
45	0x3d268353	0.040652584
46	0xbd8ba614	-0.06818786
47	0xbdf7e56f	-0.12104308
48	0x3c81779f	0.01580411
49	0x392f3ed2	0.00016712703
50	0x3d03db67	0.03219166
51	0xbd0b3929	-0.03399006
52	0x3d55f020	0.052230954
53	0x3d127a95	0.035761435
54	0x3d28ad9e	0.0411812
55	0xbd65532e	-0.05598753
56	0xbc9252e2	-0.017861787
57	0x3cbba2a8	0.022904709
58	0xbc3f5883	-0.011678818
59	0xbd71458a	-0.05890421
60	0xbd81b6bb	-0.06333681
61	0xbccb644c	-0.024828099
62	0xbd62552e	-0.055257015
63	0x3d9cf45d	0.07663796
64	0x3c0827c9	0.008310267
65	0x3d530a27	0.051523354
66	0x3dfccc39	0.1234364
67	0x3d4925f4	0.04910846
68	0x3cf3cb50	0.029760033
69	0x3d3427bf	0.043983217
70	0x3d0f0ffb	0.03492735
71	0xbc3b8622	-0.011445554
72	0xbd5a6ab1	-0.053324405
73	0x3d280cdd	0.041027892
74	0x3d4f152b	0.050557297
75	0xbc97ee78	-0.018546328
76	0x3cd516f7	0.026011927
77	0x3d5c72c3	0.053820383
78	0xbd657d94	-0.056027964
79	0xbd6dfb31	-0.058100883
80	0xbbc18ce4	-0.005906688
81	0x3d5f739a	0.054553606
82	0x3dd671ef	0.1047095
83	0xbd964c50	-0.07338774
84	0xbc29f164	-0.010372493
85	0xbcfae473	-0.030626511
86	0xbda53848	-0.080673754
87	0xbd4f25e7	-0.050573256
88	0xbdb46a4e	-0.088093385
89	0xbd9699a6	-0.07353525
90	0x3c710e2a	0.01471285
91	0x3d62d9c5	0.055383462
92	0x3d493d90	0.049130976
93	0x3d934f86	0.07192902
94	0x3d33c002	0.043884285
95	0xbc7f1c1b	-0.015570666
96	0xbca845fd	-0.020541186
97	0x3c3b58a2	0.011434706
98	0x389f712c	7.602791e-05
99	0x3cdea287	0.027177108
100	0x3d779a5d	0.060449947
101	0x3d86bba0	0.065787554
102	0xbcebc521	-0.028780522
103	0x3c8bc93f	0.017063735
104	0x3d2aad6c	0.041669294
105	0x3c212d5a	0.009837473
106	0x3d23f05c	0.040024146
107	0x3cba2939	0.022724735
108	0x3ce7fb46	0.028318059
109	0x3cf8311e	0.030296858
110	0x3d30648b	0.043064635
111	0x3c0f3222	0.00873998
112	0xbc10442a	-0.008805314
113	0xbd2b802b	-0.041870277
114	0x3d48cf8a	0.04902605
115	0x3d292de8	0.041303545
116	0xbd91f456	-0.071266815
117	0x3cf12f32	0.02944145
118	0x3da1736c	0.07883343
119	0x3d14e8c1	0.036354784
120	0xbc157732	-0.009122657
121	0x3d7cfb89	0.06176332
122	0x3d659352	0.0560487
123	0xbb141218	-0.0022593793
124	0xbd138393	-0.03601415
125	0xbc862a29	-0.016377525
126	0xbc2baf7d	-0.010478851
127	0x3cb3f22f	0.021966068
128	0xbd97031b	-0.07373639
129	0x3cb5f730	0.022212595
130	0x3cd6abac	0.026204906
131	0xbcafddcc	-0.021468066
132	0x3d227d4a	0.039670266
133	0x3c3f4e95	0.01167645
134	0x3cb40a45	0.021977553
135	0x3cc1eb96	0.023671906
136	0xbc8ced94	-0.01720313
137	0xbda63cba	-0.081170514
138	0xbdb5e8c0	-0.08882284
139	0xbb4ae7f5	-0.003096101
140	0xbba7d824	-0.0051222015
141	0xbd5d1160	-0.05397165
142	0x3d121343	0.0356629
143	0x3d6e2dd8	0.05814919
144	0xbd8d9000	-0.069122314
145	0xbc586e9a	-0.013209963
146	0x3b412bf6	0.0029475666
147	0x3c0f5ebb	0.008750613
148	0xbd3df477	-0.046375718
149	0xbbd9f2b9	-0.0066512492
150	0xbc2794d2	-0.010228353
151	0xbd097950	-0.03356296
152	0xbd8b8d0a	-0.068140104
153	0xbd297e13	-0.04138
154	0xbc59eea6	-0.013301527
155	0xbda1ba4c	-0.078968614
156	0x3d05bd3f	0.032651182
157	0x3d96da8c	0.07365903
158	0x3cdfa96d	0.027302468
159	0x3ab4171a	0.0013739795
160	0xbd094c4a	-0.03352002
161	0xbc71e5e0	-0.014764279
162	0xbd0fe5d3	-0.035131287
163	0xbc984990	-0.018589765
164	0x3bdd8347	0.0067600342
165	0xbc842394	-0.016130246
166	0xbd5a3cec	-0.053280756
167	0xbd962dcf	-0.07332956
168	0xbc704dd8	-0.014666997
169	0xbd19fa6b	-0.037592333
170	0xbd3d8c96	-0.04627665
171	0xbcc6fb5c	-0.02428978
172	0x3d4c3cdd	0.04986273
173	0x3d47822d	0.04870813
174	0x3d1f13bf	0.03883719
175	0x3e051bf6	0.12998948
176	0xbc2f7513	-0.010709065
177	0x3ce9960c	0.02851393
178	0x3ddb18c0	0.1069808
179	0xbd6c9e28	-0.057768017
180	0x3c26db45	0.010184114
181	0xbd3b90fc	-0.045792565
182	0x3ac24879	0.0014822624
183	0xbcb5999b	-0.022167971
184	0x3d174819	0.036933992
185	0xbcefdd6a	-0.029280383
186	0x3cc51455	0.024057547
187	0x3ce6a8c1	0.02815664
188	0x3beffcc4	0.007323833
189	0xbd3ca764	-0.046058074
190	0xbce67fda	-0.028137136
191	0x3d8b6799	0.06806869
192	0x3d0002c3	0.031252634
193	0x3c867576	0.016413432
194	0xbc4a01c1	-0.01232952
195	0xbd545c74	-0.051845983
196	0xbb79d3c8	-0.0038120616
197	0x3caea0b7	0.02131687
198	0xbc82bb98	-0.015958592
199	0x3d3343a6	0.043765686
200	0x3c5bdc6f	0.013419255
201	0xbb3109e1	-0.0027013945
202	0x3cb93883	0.022609955
203	0x3ce1650a	0.027514
204	0xbd28c37e	-0.04120206
205	0x3c8c07dd	0.017093593
206	0xbd4f7ade	-0.050654285
207	0xbc4eb3cc	-0.012616109
208	0xbc9eb88d	-0.01937511
209	0x3c98fa19	0.018673943
210	0xbcfe9d85	-0.03108097
211	0x3d105874	0.035240605
212	0xbceec398	-0.029146
213	0x3cf5d4be	0.03000867
214	0x3d2ef035	0.042709548
215	0x3d34e893	0.044167113
216	0x3cc66bb7	0.024221284
217	0x3cf7e967	0.030262662
218	0xbc557459	-0.013028228
219	0xbde292d0	-0.110631585
220	0x3b134e29	0.0022477007
221	0x3c7a598e	0.015280141
222	0xbd696c1c	-0.056987867
223	0xbd1c7a9f	-0.038202878
224	0x3cc402c5	0.023927102
225	0x3c90ea21	0.017689766
226	0x3d69e356	0.05710157
227	0xbc09b379	-0.008404606
228	0x3d89bd18	0.0672552
229	0xba2b4a4f	-0.0006534205
230	0x3d66c259	0.056337688
231	0xbcf36272	-0.029710028
232	0x3c3bb81d	0.01145747
233	0x3dc23b23	0.09483936
234	0x3d118ac9	0.035532746
235	0x3cbae984	0.022816427
236	0xbcd2082a	-0.025638659
237	0x3d4ee1a4	0.050508156
238	0xbc0da043	-0.008644166
239	0xbd1d00fa	-0.03833101
240	0xbc94d9af	-0.018170206
241	0xbd2440ff	-0.040101048
242	0xbc624c74	-0.013812173
243	0x3c75811a	0.0149843935
244	0xbcb4a50d	-0.022051359
245	0x3d3ded62	0.046368964
246	0x3c0b6239	0.008507305
247	0x3bc8e13c	0.0061303657
248	0xbd91af4b	-0.071135126
249	0xbd606fd3	-0.054794144
250	0xbd863b3e	-0.06554268
251	0xbd1af4ba	-0.037831046
252	0xbdf30a39	-0.11867184
253	0xbc4068ec	-0.011743765
254	0x3ddcdb81	0.107840545
255	0x3de17851	0.11009277

fc1.bias f4 [50]
0	0x3c53c2d6	0.0129248705
1	0x39e28a6a	0.00043209206
2	0x3d41689b	0.0472189
3	0xbd192446	-0.03738811
4	0x3cc54081	0.02407861
5	0x3c370231	0.011169956
6	0x3d250561	0.040288333
7	0xbc9f2f78	-0.019431815
8	0x3d1ff988	0.03905633
9	0x3cb32246	0.021866929
10	0x3d7cf86f	0.061760362
11	0xbd8036c8	-0.06260449
12	0xbc893a82	-0.016751532
13	0xbbd5793f	-0.006514698
14	0xbcfc2a54	-0.030781902
15	0xbb0b689e	-0.0021272073
16	0xbd3a23ac	-0.045444176
17	0x3d019f25	0.031645913
18	0x3d50c12d	0.050965477
19	0xbbcf3d1b	-0.006324423
20	0x3d49546a	0.04915277
21	0x3d03432e	0.03204649
22	0x3d027e92	0.031858988
23	0x3c80af8d	0.01570871
24	0xbd182d28	-0.03715244
25	0xbd4fe221	-0.050752763
26	0x3cd44b06	0.02591468
27	0xbd0c2aed	-0.034220625
28	0x3d2bc5d0	0.041936696
29	0x3c6b3104	0.014354948
30	0xbc4df648	-0.012570925
31	0xbd1385f8	-0.036016434
32	0x3cbf4fb1	0.02335343
33	0x3acb49e3	0.0015509691
34	0x3d62204b	0.05520658
35	0xbc6159e2	-0.01375434
36	0xbcba213b	-0.022720924
37	0xbd24b55d	-0.040212024
38	0x3cb6b916	0.022305053
39	0xbce8d736	-0.028422933
40	0xbb397e0e	-0.0028303894
41	0x3d741371	0.059588853
42	0xbc3b795d	-0.0114425095
43	0x3d92a39a	0.07160111
44	0x3d75d1f8	0.060014695
45	0xbc9c6922	-0.0190931
46	0x3d1db46c	0.03850214
47	0xbca2734f	-0.019830374
48	0x3d1526bf	0.036413904
49	0xbc92ef10	-0.01793626

fc2.weight f4 [10, 50]
0	0x3e565876	0.20932183
1	0x3e34adc5	0.17644413
2	0x3dcade80	0.0990572
3	0xbd898bd9	-0.06716127
4	0x3da305e9	0.07960112
5	0x3dcd440d	0.10022745
6	0xbe2c1ec5	-0.16808613
7	0x3d1ad8c5	0.037804384
8	0xbcf8d4dd	-0.030374939
9	0xbe26fa9a	-0.16306534
10	0x3e5c4d75	0.21513923
11	0x3d51602b	0.051117104
12	0xbe6b7169	-0.22992481
13	0xbd80ea22	-0.06294657
14	0xbdf280ee	-0.11840998
15	0x3e4ad296	0.19806895
16	0x3e63ddaa	0.22252527
17	0xbe63006d	-0.22168131
18	0xbd8e87ec	-0.06959519
19	0x3e1f3008	0.15545666
20	0x3b82ad30	0.0039879307
21	0x3e16d876	0.14731011
22	0xbe79e43d	-0.24403472
23	0xbdbdc540	-0.09266138
24	0xbe1938a0	-0.14963007
25	0xbd81f025	-0.06344632
26	0xbe5759c4	-0.21030337
27	0xbe11af85	-0.14227112
28	0xbe5297aa	-0.20565668
29	0xbe861b54	-0.26192725
30	0x3e86fde9	0.26365593
31	0x3dc22897	0.09480398
32	0xbe466b77	-0.19376932
33	0xbe0dbcb1	-0.13841511
34	0xbe294830	-0.16531444
35	0x3e172616	0.14760622
36	0xbe560cf1	-0.20903374
37	0x3e47065b	0.19436018
38	0xbdb93b94	-0.09044567
39	0x3e19de38	0.15026176
40	0xbe061f9c	-0.13097996
41	0xbdbac2cc	-0.09119186
42	0x3e2a5bf9	0.16636647
43	0x3e669fc4	0.22521883
44	0xbe5b7898	-0.21432722
45	0x3e177230	0.14789653
46	0x3e163b2a	0.14671007
47	0x3de6ae41	0.11263705
48	0xbe1c8888	-0.15286458
49	0x3e4654ed	0.19368334
50	0x3e39a224	0.18128258
51	0x3e30ff3d	0.17284866
52	0x3b3d70b4	0.0028906288
53	0x3e9274d3	0.28604755
54	0xbd933f18	-0.071897686
55	0x3e1f3097	0.1554588
56	0xbdd48942	-0.10377742
57	0xbcf0e7ce	-0.029407408
58	0x3e0998d2	0.13437203
59	0x3e534e9b	0.20635454
60	0xbdfd3f69	-0.1236561
61	0xbe4e559b	-0.20149843
62	0x3e6cc60f	0.23122428
63	0xbe002538	-0.12514198
64	0xbdc96c4a	-0.098351076
65	0xbda76b87	-0.08174806
66	0xbe083efa	-0.13305274
67	0xbdd64d3d	-0.10463951
68	0xbd411aee	-0.047144823
69	0xbe289bcd	-0.16465683
70	0xbe6336f8	-0.22188938
71	0x3e0e5154	0.13898212
72	0x3e06bd3c	0.13158125
73	0x3e380cd2	0.1797364
74	0xbdcfb3e1	-0.10141731
75	0xbbb48479	-0.005508956
76	0x3dcbf7ac	0.09959349
77	0x3e437b60	0.19090033
78	0xbc4c3c3a	-0.012465531
79	0x3d83cff9	0.06436152
80	0x3e1601be	0.14649102
81	0xbde12c1e	-0.10994743
82	0xbe0e0307	-0.13868342
83	0x3dfb63e7	0.12274914
84	0x3e440e06	0.19145975
85	0xbe27d65d	-0.16390367
86	0xbd123118	-0.03569135
87	0xbe6d259f	-0.23158883
88	0x3e5a4266	0.21314391
89	0x3dd24acd	0.10268173
90	0xbe76b5f8	-0.24092853
91	0xbd8c1f4a	-0.068419054
92	0xbe1e6c60	-0.1547103
93	0x3e634c67	0.22197114
94	0x3e51aa11	0.20475031
95	0x3e0ad6fe	0.13558576
96	0xbe8f2c4c	-0.27963483
97	0x3e281bf9	0.1641692
98	0x3e7b1e04	0.24523169
99	0xbe28f58d	-0.1649992
100	0x3e2b136b	0.16706626
101	0xbda3ecc1	-0.080041416
102	0x3e1373a3	0.1439958
103	0xbdd922ed	-0.10602365
104	0xbe57132f	-0.21003412
105	0xbe13b048	-0.14422715
106	0xbd91b725	-0.0711501
107	0x3dbd3cb3	0.09240093
108	0xbe0975a4	-0.13423783
109	0xbdc42084	-0.09576514
110	0x3e7112a0	0.23542261
111	0xbde0f542	-0.10984279
112	0xbe1d75f8	-0.15377033
113	0xbe2af55f	-0.16695164
114	0xbd0e7f0a	-0.034789123
115	0xbdcd4593	-0.10023036
116	0xbdb01279	-0.085972734
117	0x3e1d1a72	0.1534212
118	0x3de6adcb	0.11263617
119	0x3e236f96	0.15960535
120	0xbe5c5d39	-0.21519937
121	0xbd597bf1	-0.053096715
122	0xbdc29578	-0.09501165
123	0xbe110e45	-0.141656
124	0x3e25bfe1	0.16186477
125	0xbd55b69e	-0.05217611
126	0xbe483ed1	-0.19555213
127	0x3e373fdb	0.17895453
128	0xbdea93dc	-0.11453983
129	0x3ddf6c32	0.109093085
130	0xbda5c162	-0.080935255
131	0xbca8faca	-0.020627398
132	0xbe8955da	-0.26823312
133	0x3e2246dd	0.15847345
134	0x3e49ba01	0.19699861
135	0x3e0638d2	0.13107613
136	0xbe5348aa	-0.20633188
137	0x3e3d780d	0.18502827
138	0xbe10df85	-0.14147766
139	0xbda18c5a	-0.07888098
140	0x3d6b6122	0.05746568
141	0x3db1fa28	0.08690292
142	0x3cb65058	0.022255108
143	0xbc5053f0	-0.012715325
144	0x3e73ce6d	0.23809214
145	0xbe3a0e7b	-0.18169586
146	0x3e05169e	0.12996909
147	0x3e491f27	0.1964079
148	0x3e829e9e	0.2551164
149	0x3df2b6cd	0.11851273
150	0xbe41bde4	-0.18920094
151	0x3e3fb7c8	0.1872245
152	0x3dfaa296	0.12238042
153	0xbdbe8b2f	-0.09303891
154	0xbd193ebe	-0.03741335
155	0xbd1df0a8	-0.038559586
156	0x3e84e4a8	0.259557
157	0xbdcb6168	-0.09930688
158	0x3c36d9c7	0.011160321
159	0xbe992f4d	-0.299189
160	0xbcff82e4	-0.031190343
161	0x3dfba6cb	0.122876726
162	0xbe084659	-0.13308086
163	0x3e691888	0.22763264
164	0xbdd7c67b	-0.10535904
165	0xbd811d81	-0.063044555
166	0xbdb1b006	-0.08676152
167	0x3e4e9fca	0.20178142
168	0x3d681e65	0.05666961
169	0x3e2cb9e4	0.16867787
170	0xbe610bc0	-0.21977139
171	0x3d37071a	0.044684507
172	0xbd139ef2	-0.036040254
173	0xbe7916c4	-0.2432509
174	0x3e1591ae	0.14606354
175	0x3a5f9e0c	0.0008530326
176	0x3e0b7ca7	0.1362177
177	0x3e3d0976	0.1846064
178	0xbdc90fdc	-0.09817478
179	0x3dbeb497	0.093117885
180	0xbdfc7024	-0.123260766
181	0x3dfb5474	0.122719675
182	0x3e371f62	0.17883065
183	0x3e1cb827	0.15304624
184	0xbe53f1c9	-0.20697702
185	0x3e2dbcad	0.16966505
186	0x3e287edc	0.16454643
187	0xbd2472fd	-0.040148724
188	0xbe1cb5ab	-0.15303676
189	0x3e31ad53	0.17351274
190	0xbe3ba363	-0.18324046
191	0xbdd4797f	-0.10374736
192	0xbd6d01e7	-0.057863142
193	0xbe398fc1	-0.18121244
194	0x3b409a10	0.0029388703
195	0xbdf4dc91	-0.11956132
196	0xbe4856fe	-0.19564435
197	0xbd29af95	-0.041427214
198	0x3e6c7365	0.23090895
199	0x3e13c254	0.14429599
200	0xbd7971e7	-0.06089964
201	0xbe471cb8	-0.19444549
202	0xbce96a62	-0.02849311
203	0xbde6e84f	-0.11274778
204	0xbdef1b9a	-0.116751865
205	0x3d971677	0.07377332
206	0xbd93d955	-0.07219187
207	0xbd50be4b	-0.050962728
208	0x3dd46a79	0.103718705
209	0x3e3c1bf1	0.18370034
210	0x3ddea255	0.10870806
211	0x3e28ac50	0.16471982
212	0x3e8b43ea	0.27200252
213	0xbdc92b79	-0.09822745
214	0xbe3d3f55	-0.1848119
215	0xbde03f6c	-0.10949597
216	0x3d4861a9	0.04892126
217	0xbe548f43	-0.20757775
218	0x3e823fc0	0.25439262
219	0xbbd45454	-0.0064797793
220	0x3cc9ef31	0.024650188
221	0x3dd64f30	0.104643226
222	0xbdc7758e	-0.09739219
223	0x3e775a84	0.24155623
224	0x3e2d7ece	0.16942903
225	0xbe08c5eb	-0.1335675
226	0x3e0aa21b	0.13538401
227	0xbe49365c	-0.19649643
228	0x3e8603d5	0.261748
229	0x3c4ed123	0.012623104
230	0xbd834fd9	-0.06411714
231	0x3e89260b	0.26786837
232	0x3d942cba	0.072350934
233	0xbdf3291f	-0.118730776
234	0x3e3fa707	0.1871606
235	0xbe6705f8	-0.2256087
236	0x3e3c3e14	0.18383056
237	0xbe0cda8c	-0.13755244
238	0x3e71a66c	0.23598641
239	0xbe3ece9d	-0.18633504
240	0x3e13ed41	0.14445974
241	0x3d6b0365	0.057376284
242	0xbdf940af	-0.121705405
243	0xbe2713a5	-0.16316088
244	0xbe3bf3e5	-0.18354757
245	0x3dd75da8	0.105159104
246	0x3dca6656	0.098828
247	0x3cf58a45	0.029973159
248	0xbe26df0f	-0.16296028
249	0xbe3420a1	-0.17590572
250	0xbd734377	-0.05939051
251	0x3e5d96ed	0.21639605
252	0x3d99ccf1	0.075097926
253	0xbc229cad	-0.00992505
254	0x3e3f101a	0.18658486
255	0xbe01ecfb	-0.12688057

fc2.bias f4 [10]
0	0x3cf6448c	0.030061983
1	0x3c352fb1	0.011058734
2	0xbcdd6541	-0.02702582
3	0xbd99db87	-0.07512575
4	0xbc5295b4	-0.012853075
5	0x3df0f911	0.11766256
6	0x3e114d80	0.1418972
7	0xbd15f037	-0.03660604
8	0x3d324601	0.043523792
9	0xbe349ed8	-0.17638719
