proj5/task4/results/exp3_0.4.pth (torch, 89871 bytes, 8 tensors)

conv1.weight f4 [10, 1, 5, 5]
00000000: f35b fd3d e273 663e af61 b63d 6e20 b13e
00000010: 7adb 9bba 11c4 3a3c fa3d da3d 1bc7 eb3e
00000020: d6ef aa3e 1e69 37be a77a 543e 52c2 9b3e
00000030: fa1f f03e 22eb 033e a415 013e 4226 cfbc
00000040: 0237 8d3e 5e10 513e 18b8 883c 04c8 0e3e
00000050: 0c6a 33be 8f3a 84bc a6c7 103d 77f3 8b3e
00000060: b998 a0bd 9552 f3bd f7a8 11be 64a4 43be
00000070: aac8 ffbc d241 8cbe a107 3c3e 1085 51be
00000080: c056 f13d aa39 74bd 1c74 62be a1f4 603e
00000090: 3ae3 353e c616 bb3e 785a fd3d 5778 ccbd
000000a0: 88b6 0b3e e303 0f3e 9efc d13e 0a27 d73e
000000b0: 9c03 603e 9fa8 1ebe 339e 163e 2453 123e
000000c0: c998 773e 4676 e13c 01fd 19be 9614 ea3d
000000d0: 2e06 913d d729 853e d6d4 853d ef17 cd3d
000000e0: 0ae3 863e f3aa 3f3e 936e 233e e613 6bbe
000000f0: fd78 233e fbff 523e 9cfc 8b3e 5f2a 17be
00000100: b3bf 08be a8d4 323e cb80 f33e 30e6 2cbc
00000110: 1f3c 82be 8010 9dbe 2432 bd3e 04cd 933e
00000120: 2904 493e fbcb abbe aef9 cfbe 94d7 91be
00000130: 6a4b 62be 38df aa3d 8d9b 3d3e f200 9e3e
00000140: de5b 83be 4a62 3abe 6b52 433e 99b9 c63d
00000150: fc22 823e 9d0d 4ebe 3928 fa3d ec8a a83b
00000160: 4c5e c83d 7a6f f43d 7beb 8bbd 2ea4 04bd
00000170: 8746 673e e815 793e 8d72 02be e084 dabd
00000180: edb6 773e 4ee1 5f3d 6fcc 073d 2c19 1cbe
00000190: 102d 41be f49b 30bc c1d3 86bd f697 31be
000001a0: 8be8 a8bc 1f97 4abe 0b3e 6dbe b27b 24be
000001b0: f7c3 62be 414e 2abe dc7e 013e e947 0bbd
000001c0: 53e0 8eb9 e95d 75be 5ce6 33be 7b16 c5bd
000001d0: 1adc 3dbb ca53 64be b265 0bbe d25f 2fbe
000001e0: 1616 e03c 528a 8ebd 85fc 1ebd 2a87 3ebe
000001f0: e289 4bbe 4abf 01be e4ea bebd 6cbf 3bbe
00000200: b663 0e3e f0e6 64bc 6899 0e3e 9287 2abb
00000210: 374d 81be 30c1 7c3d cd7a 86bd 1564 a0bd
00000220: 087d 53be 2d48 8abe f85a bbbc 7590 3abd
00000230: 89e1 2a3e 99c4 b7bd 9c8a 3c3e 5424 08be
00000240: 2b24 13ba dd50 4a3e 41bf 9b3e 96ac a73e
00000250: a1ac 8b3e f9aa f3bd f146 aa3c c322 0fbe
00000260: 2279 ccbd 92e5 38be 6745 5e3e 6a79 24be
00000270: 4108 193e da07 0b3e 439e 2e3e 59d2 8fbc
00000280: ac74 963e 9b12 583e 1691 203e 34fd 07be
00000290: 6a92 f13d 9c63 9bbb 0f0c 40bd e59d 603e
000002a0: 386f 983c 45c0 18be 8f50 55be 4610 54bd
000002b0: 0130 f03d 1c6b 93bd 1342 15be 2f62 d0bd
000002c0: 7497 0cbe 3eae e93d 6c91 2e3e d96d 77be
000002d0: 9199 b23d 4f70 603e 175f ea3d 9602 04be
000002e0: 92ee 5dbd 7075 373e e4bb 4a3e 8df8 b73d
000002f0: de20 54bd 7c1a 1ebd 3179 efbc 21ff 35bb
00000300: fcf7 9d3e 2c73 ba3e 3efe f03d b4e2 00be
00000310: ccc0 7ebd 75f3 793c 0412 3b3e 3e66 833e
00000320: b82a 58be 7cbf 0cbe 1d4d da3d 614d 813d
00000330: a6e3 2fbc 2ef1 1cbe 4546 86be 0a56 98be
00000340: acd8 00be f199 bf3b 4349 4e3e 2cc0 3b3d
00000350: 5041 77be 5bd1 4cbe ba3b 14be 8c5b a93e
00000360: 8352 1b3e edaf 8cbc ab01 123d 6b23 17be
00000370: 2b23 abbc 878e 913e 41ae 543c f91c 183c
00000380: 9713 57be a3ad 833e ad5b c83e 8a55 cd3e
00000390: c4bd 5c3e f925 173e b134 063d f5e7 d33e
000003a0: 6613 c33e 0150 e03e 446d a43e 9f04 6b3d
000003b0: 1da5 b8bd e7ae 8bbe 2bc9 82be f547 71be
000003c0: 4b4e f4bd 9095 c0be 6070 a7be 357a 95be
000003d0: 3940 35be d414 c9be 350a bebe acfc fabd
000003e0: 37fc f6bd 23dd ff3b
0.123710535 0.22505143 0.089053504 0.34595054 -0.0011890971 0.011399285 0.10656352 0.46050343
0.33386105 -0.17911193 0.20749913 0.30421692 0.46899396 0.12882665 0.12605911 -0.025286797
0.2758103 0.204164 0.016689345 0.13943487 -0.17520922 -0.016141204 0.03534665 0.27334186
-0.078416295 -0.11880986 -0.14224611 -0.19105679 -0.031223614 -0.27393967 0.18362285 -0.20460916
0.117841244 -0.059625305 -0.22114605 0.21968319 0.17762461 0.36540812 0.12370771 -0.099838905
0.13643849 0.13966326 0.41013044 0.42021972 0.21876377 -0.15494011 0.14708786 0.14289528
0.24179377 0.027522217 -0.1503792 0.11429708 0.07081257 0.26008484 0.06534736 0.100143306
0.26345092 0.18717556 0.1596015 -0.2295681 0.15964122 0.20605461 0.27341163 -0.14762257
-0.13354377 0.17463934 0.475592 -0.010552928 -0.25436494 -0.3067665 0.36952317 0.28867352
0.19630493 -0.33554062 -0.40620178 -0.28484786 -0.2209908 0.08343357 0.18516369 0.30860096
-0.25656027 -0.18201557 0.19074409 0.09703369 0.25417316 -0.2012238 0.12214703 0.005143514
0.09783611 0.11935325 -0.06832024 -0.032383136 0.22585498 0.24324763 -0.1273901 -0.10669875
0.24190874 0.054658227 0.033153947 -0.15243977 -0.18864846 -0.01077937 -0.065833576 -0.17343125
-0.020618698 -0.1978421 -0.23168199 -0.16062811 -0.22145067 -0.16631414 0.1264605 -0.034004126
-0.00027251485 -0.23961605 -0.17568344 -0.096234284 -0.0028970302 -0.22297588 -0.13613012 -0.17126396
0.027354281 -0.06959976 -0.03881504 -0.18606248 -0.19876817 -0.12670627 -0.093221456 -0.1833474
0.13905224 -0.013971075 0.13925707 -0.0026020748 -0.25254223 0.061707675 -0.06566391 -0.07831589
-0.20653164 -0.2700819 -0.022870526 -0.04554792 0.16687597 -0.08973045 0.1841225 -0.13295108
-0.00056129944 0.1975741 0.30419353 0.3274886 0.27280143 -0.11897845 0.02078578 -0.13978104
-0.09984042 -0.18056324 0.21706162 -0.16061941 0.14944555 0.13577214 0.1705256 -0.017556356
0.2938589 0.21100847 0.15680346 -0.13280183 0.117955044 -0.004742099 -0.0468865 0.21935232
0.01860772 -0.14917095 -0.20831512 -0.051773332 0.11727906 -0.07198164 -0.14575987 -0.10174977
-0.1372965 0.11410187 0.17047662 -0.24162997 0.08720697 0.21917842 0.11443918 -0.12891611
-0.054182597 0.17915893 0.19798237 0.08982954 -0.051789157 -0.038599476 -0.029232593 -0.0027770477
0.3085326 0.36415994 0.11767243 -0.1258648 -0.062195584 0.015255799 0.18268591 0.25663942
-0.21110046 -0.1374492 0.106592394 0.06313587 -0.010735428 -0.15326378 -0.26225486 -0.29753143
-0.12582654 0.0058472087 0.20145135 0.045837566 -0.24146008 -0.20001738 -0.14475909 0.33077657
0.15168194 -0.017173732 0.035646122 -0.14759605 -0.020890793 0.28429052 0.0129809985 0.009284251
-0.21003567 0.25718412 0.39132443 0.40104324 0.21556765 0.14760579 0.032765094 0.41387907
0.38100737 0.43811038 0.32114613 0.057377454 -0.09015868 -0.27281877 -0.25544104 -0.23562606
-0.11928996 -0.37614107 -0.32702923 -0.291948 -0.1770028 -0.39273703 -0.37117162 -0.122552246
-0.12059825 0.007808344

conv1.bias f4 [10]
00000000: 7c89 ff3d ef6c 673d e27d 60bd 1873 e7bd
00000010: 1f08 3d3d a749 01be b11c 2c3e f4d4 9fba
00000020: 344e 093e d070 8e3d
0.12477395 0.05650037 -0.05480755 -0.11301249 0.046150323 -0.12625752 0.1680782 -0.0012194202
0.13408738 0.06955111

conv2.weight f4 [20, 10, 5, 5]
00000000: 710c 603d 032f 80bc 6ecb 1f3c 48c8 6fbd
00000010: 363b d9bd 7d83 933c a14f 0abd 9894 9cbd
00000020: 0633 a1bd 6621 10be 52c5 3e3d df52 633c
00000030: dbca a83d 8817 e63d 4382 f43d 4302 53b9
00000040: ca65 febd b69f 6dbd 7b6c 263c 5d82 73bd
00000050: 225a 923c 3078 07be fcea 62be e8fc 5ebe
00000060: 6f37 d4bd fb6c 9fbd 3f56 d3bd abe5 20bd
00000070: 4107 063c 295b b3bd 05f3 06bd 5e9c c63b
00000080: 4992 93bd faf2 5abd 859e 033d e291 bd39
00000090: 0441 3ebb 9c9b 4f3d 7356 a43d b514 993d
000000a0: c67d 6cbb d564 e9bd f65a 21be 7ad6 eebd
000000b0: 7548 87bd eddd 713e 8c29 ac3d d812 973c
000000c0: 3b70 803b ca45 ff38 5acc 563c b835 843d
000000d0: 6127 8fbc 3d3b 363d 9e62 c93d ae5a debc
000000e0: 7245 8b3d ddf9 c63d e106 9d3b bf97 163c
000000f0: 7cbe 99bd 805a 0fbd b0a8 40bd 5551 55bd
00000100: aa25 d9bd 7f5f 3ebd a814 a2bd b759 20be
00000110: 0dce 4abe 9e00 0abe 08ec 923c 0498 943d
00000120: 0b82 11bd 50b1 bbbd 8cdf 783d 657f 24bd
00000130: f409 82bc 6958 2d3d 64af dc3c 7b3e 6fbb
00000140: deb7 6abb 7cd6 0bbd 97c2 2fbd d9aa 70bd
00000150: 6a12 8fbd 47ef 73bd 7370 a13c 44da 41bd
00000160: f983 16bd 8061 a6bb 7744 59bd 30bc 003d
00000170: 3889 b23d 4349 443d 833c a1bd 27b3 b7bd
00000180: 8557 2bba 3740 06bd 9e13 2ebd dae8 9d3d
00000190: 78e6 b8bc 619b f3bc d2ba 7ebd 2a97 26bc
000001a0: 1e8e 883c 3522 823c 34b0 bfbb dcc9 a7bd
000001b0: a102 b2bd dfbd 5dbc 8af4 6e3d 8b90 053c
000001c0: 3aff 9fbd 6867 69bd 3735 95bd 6005 08bc
000001d0: 6ec2 db3c 281b 583d 467b 423d a215 5ebd
000001e0: 7774 2a3d 4c31 b1bc 95e9 743d 0260 8c3d
000001f0: 1b8e 233d b9b8 df3c 5180 93bd aeda f5bc
00000200: 728f 903c faf7 4cbc dd37 903c 8a77 033c
00000210: 80ad dd3d 65cd bd3d 21c9 b73d f0b5 95bc
00000220: 5398 6abd 342c 763c 5a53 6c3d be15 373c
00000230: d11d a03c 4898 993d 0c0c 7d3b 0140 70b9
00000240: 19c4 bbbb 86c5 793c 64e2 c13c 859a 223d
00000250: 3b51 2e3d 12da 8a3d f4cc 15bd 575c 3b3a
00000260: 8fc1 793d 8c00 1e3d 0c8a 1c3d 2f4f 6abd
00000270: 5417 9fbc de23 e73c 4c89 e5bc 72ab 7bbc
00000280: 8059 8a3b 0285 113c fbb6 1b39 0f44 cb3d
00000290: 20e5 083e 5219 763c af9d febc 88b6 a8bd
000002a0: 1805 e6bc 633d 183d fe78 823d e835 58bb
000002b0: b18c 9fbd cfe9 a0bc e77a 9abd 687a a63c
000002c0: 66e3 7dbd 75f5 78bd 96a9 22bd 5e12 40bd
000002d0: 20ba debc 5240 7d3d 888f 26bc 5224 893d
000002e0: 6dc8 4f3d 7748 a4bc 4be2 9abc 2cda a13d
000002f0: e51b eb3d 4ac9 223c ab21 063a 8507 01be
00000300: fdc5 0cbe 9281 0bbd a4b0 44bb 6a29 de3d
00000310: 2a7f 863b 7eb2 0a3d 3c70 79bc db83 d7bd
00000320: 009c 2fbd a590 82bb ae4c e2ba 8358 c6bd
00000330: bfb0 88bc a4c0 4bbd dd45 40bd 55fa c9bb
00000340: 15f8 873d bb24 5c3d eab1 833d 6abd 673d
00000350: 02ce 9f3d 5f4e 013d d1f6 113c 1787 963d
00000360: 572e 983c 2541 43bc ed33 49bc b450 533c
00000370: ac7f b83d 4365 bb3d f564 523d 6ad1 283d
00000380: 077b 53bc 9af4 e43c 0c42 193d dd95 00bd
00000390: f0b8 403d f2aa bd3d f102 83bc 5db6 5c3c
000003a0: a16d 0c3d 74ca 463b 6d38 15bc d483 a6bc
000003b0: 7cba 4b3d bd50 d83d 9cf4 f03c 1e16 7e3d
000003c0: 8edf 983c 22ed 293d c428 163e 1d43 7a3e
000003d0: bfb3 713e 2d07 053d 7770 87bd 577a 8fbb
000003e0: bc3d 223c 5cf1 71bc 547d dabc 1b98 f1bd
000003f0: 4804 8dbb ec85 37bd 3e01 96bd 6d57 fa3b
0.054699365 -0.015647417 0.009753091 -0.058540612 -0.10606997 0.018007034 -0.033767346 -0.076455295
-0.0787106 -0.1407524 0.046574898 0.0138747385 0.082418166 0.11234957 0.11938908 -0.0002012337
-0.124217585 -0.05801364 0.0101577 -0.059450496 0.017865244 -0.13229442 -0.22159952 -0.21776164
-0.103621356 -0.07784458 -0.103191845 -0.03928153 0.00818044 -0.08757622 -0.032946605 0.006061121
-0.07205636 -0.053454377 0.032133598 0.0003615758 -0.0029030452 0.05068551 0.080243014 0.07474653
-0.003608571 -0.11396185 -0.15757355 -0.11662002 -0.06605617 0.23619814 0.08406362 0.018441603
0.003919629 0.00012172347 0.013110245 0.064555585 -0.017474832 0.044490088 0.09833263 -0.027142849
0.06800355 0.097156264 0.00479208 0.0091914525 -0.07507035 -0.034998417 -0.047035873 -0.052079517
-0.10602887 -0.04647779 -0.07914096 -0.15659223 -0.19805165 -0.13476798 0.017934814 0.07255557
-0.03552441 -0.09164679 0.060760066 -0.040160555 -0.015873887 0.042320643 0.026939102 -0.0036505747
-0.003581516 -0.034140095 -0.042910185 -0.058756683 -0.06985934 -0.059554365 0.01970694 -0.047327295
-0.036746953 -0.005077541 -0.05304381 0.03142947 0.08717579 0.04792143 -0.0787287 -0.089697175
-0.0006536174 -0.032776084 -0.042499177 0.077104285 -0.022570834 -0.029737176 -0.062189884 -0.010167876
0.01666933 0.015885452 -0.0058498625 -0.081927985 -0.08691908 -0.013534038 0.05833868 0.0081521375
-0.078123525 -0.05698338 -0.072855406 -0.008302063 0.02682611 0.052760273 0.047480844 -0.05421985
0.041614976 -0.021629952 0.059793074 0.068542495 0.039930444 0.027309762 -0.07202209 -0.030011501
0.017646525 -0.012510294 0.017604763 0.008024106 0.10824108 0.092676915 0.08973909 -0.018275231
-0.057274174 0.015025187 0.057696678 0.011174617 0.019545468 0.074997485 0.0038611917 -0.00022912027
-0.005730164 0.015244847 0.023667522 0.039698143 0.042557936 0.06779875 -0.03657241 0.00071472436
0.060975607 0.03857474 0.03821759 -0.05720442 -0.019420303 0.028215345 -0.02801957 -0.0153607
0.004222095 0.008881809 0.00014850117 0.099250905 0.13368654 0.015020685 -0.031081049 -0.0823794
-0.0280786 0.037167918 0.06370734 -0.0032991115 -0.07790507 -0.019642739 -0.07542973 0.02032204
-0.061984442 -0.06078096 -0.03971251 -0.046892516 -0.02718836 0.06182892 -0.010166056 0.06696381
0.05072825 -0.020054085 -0.018906733 0.07902941 0.1147993 0.009935686 0.0005116711 -0.12600525
-0.13747402 -0.034059115 -0.0030012513 0.10847743 0.0041045146 0.03386163 -0.015224513 -0.10523196
-0.042873383 -0.003984528 -0.0017265284 -0.09684851 -0.016685842 -0.049744263 -0.046941627 -0.006163875
0.06639115 0.053745966 0.06430419 0.056577124 0.07802965 0.03156888 0.008908943 0.07349985
0.018576784 -0.011917387 -0.0122804465 0.012897659 0.090087265 0.091501735 0.05136581 0.041215338
-0.01290775 0.027948666 0.037416503 -0.03139292 0.04705137 0.09261121 -0.015992614 0.013471213
0.034284238 0.0030333074 -0.009107691 -0.020326532 0.049738392 0.105622746 0.029413514 0.06203281
0.018661287 0.041485913 0.14663988 0.24439664 0.23603724 0.032477546 -0.06613248 -0.0043785977
0.009902414 -0.014767017 -0.02667109 -0.1179659 -0.004303489 -0.044805452 -0.07324456 0.0076398165

conv2.bias f4 [20]
00000000: 0073 8e3d d066 80bd 4fa4 f7bc 3bac 7abd
00000010: 7a71 93bd 97db 153c f652 ea3c 42f7 35bd
00000020: bfce 5e3c f598 88bd f046 363c b88f cc3c
00000030: 5198 03bd 5baf 60bc e665 7b3d 5e11 30bd
00000040: 5a2c 8cbc c248 60bd 60a9 af3c 9140 d5bb
0.06955528 -0.0626961 -0.030229716 -0.061199408 -0.07199378 0.009146593 0.028604012 -0.044425257
0.013599097 -0.06669799 0.011125311 0.024970874 -0.032127682 -0.013713683 0.061376475 -0.042985313
-0.017110992 -0.054756887 0.021443069 -0.006507941

fc1.weight f4 [50, 320]
00000000: dd7d b6bc be9d 933c 827e fe3b 1c92 c33c
00000010: 4476 96bd d3b4 b1bd 618b 77bc 4804 2c3c
00000020: e3ec 22be ea9e 10bd 9eb3 abbd 56ff 2f3d
00000030: fa7c adbc 02db 273d d6c8 873d e2ee 043e
00000040: b361 46bc bb26 9a3a 5ff8 8ebd 7524 6cbd
00000050: ad47 c9bc a8d1 06bd 0c5b 0e3a d488 cf3c
00000060: 2ac8 90bb e403 4db9 3e05 923a 3451 003d
00000070: e6c5 87bc 2b5b 8ebc 820a ad3d 0500 813d
00000080: 74d3 a63c 5323 1a3d 3ec5 833d 5a3b 9ebc
00000090: 083f 7dbd 7577 88bc 42ff 38bd 56e3 033d
000000a0: f2d5 913d f8bb 323b 0301 a8bc f09b cb3c
000000b0: c421 d1bc 23c8 4c3d 1fb3 51bd 4bc1 d9bd
000000c0: 2f52 c13c c614 ff3b bc20 1b3d 251d 55bc
000000d0: b7d8 533d bbc3 6639 2501 0a3d 2b5e 14bd
000000e0: bb46 f5bc 04c4 a63b acd1 5dbc 1865 0ebd
000000f0: 7242 c9bc 87a4 523c 7c5d 04bd 2ed4 843d
00000100: a1fb 413c 2bbb 8f3d 5c0f fd3d 58d1 903c
00000110: 343a 023d 1649 333c 9a73 1b3c d8fc 3abd
00000120: bc96 66bd 1eec 03bd 7774 5e3d 8f1f 03bd
00000130: b552 293b 0f8b af3c 52f3 6f3c f504 e7bc
00000140: 42c5 db3b 50a4 643d 2a33 c03d 28f7 18bd
00000150: ccfb 843b 16c1 2cbc be39 9abd 3588 0abe
00000160: a9de b6bd 296a 46bd b1ed bebb 7f41 f9bc
00000170: fe57 013c d339 f53d 8dca 3b3d ee03 54bd
00000180: 19d6 4bbd 20b5 3ebb eb22 eeba d7e7 a0bc
00000190: d64f 2c3d 7bc7 7d3d cdd2 09bd 9b5d 04bc
000001a0: ecde 073d bcd4 133c 1088 ad3c b6bb 553c
000001b0: 32b2 403c 09f9 0c3d 6344 213d b588 513c
000001c0: dc2b 07bd 591f aebd 6b4d f03c e4cb c2bc
000001d0: 6380 a7bd f665 e63c 5173 b23d 8b9a 733c
000001e0: 4875 81ba b414 bf3d 8c33 aa3d 1b08 803c
000001f0: 2e9b 3cbd cb64 46bd ef35 aebc 9514 183d
00000200: dc64 6dbd df6e 483d 620b 023d 5665 21bc
00000210: 1c46 083d 800f e1bb 8041 4ebc 6f85 17bd
00000220: 0ecd 553b 1f33 30bd 370a a3bd f480 e9bb
00000230: ce17 c93b ef81 2fbc 6513 9e3d 11df 5f3d
00000240: e620 94bd 1073 c7bb 3695 f5bc 5e80 8abd
00000250: 73db 51bd 1b74 eebc de68 f6bc c706 12bd
00000260: 6051 99bd ec56 64bd 89a1 aeba 999b f7bc
00000270: d0c9 d6bb 14e7 7e3d 2f72 a43d be32 e73c
00000280: 91e9 63bd 297f 67bc d607 09bd cb1b 99bd
00000290: 4915 cb3c 3d84 8bbc 7cf1 0ebc 603c caba
000002a0: a615 7b3c db78 67bc a8d1 1dbd 9893 58bc
000002b0: 3f5c 0c3d d486 bf3c c7c8 ac3c 8a59 073e
000002c0: 4909 de3a d955 073d 4327 ae3d 3035 6bbd
000002d0: 8038 e1bc 22fa 7abd f775 a23c 12c6 0a3d
000002e0: b3eb c3bb 12b9 553a 2ba3 663d ef96 103c
000002f0: 4530 56bc 995b 8bbc 0ba3 89bd 8a0e ca3c
00000300: 9498 003d d9e6 853c 220c 4bbc d44a 55bd
00000310: 28bc 53bb e8e1 af3c b539 86bc 57a1 353d
00000320: c5c4 4a3c e648 2fbb d2f4 b53c b364 eb3c
00000330: 7439 29bd a154 893c d59f 4fbd b7be 51bc
00000340: 1150 f23b 306a 393d 0913 37bd 2e92 78b8
00000350: e83c 3ebd 84b3 683c 5c23 bf3c 9030 9ebc
00000360: 1cfb 8c3c d584 013d 52fc d3bb bde0 bdbd
00000370: 8775 6dba 43c0 d23c bd2f 1fbc 0e9c 02bd
00000380: 69df eab9 fa1d 1b3d 446a 7e3d e560 753b
00000390: 30b1 503d 2cca c0bc 24b5 203d 4c02 1abd
000003a0: e03d 00bc 3ad8 f93c 5a78 343d 2492 c3bc
000003b0: 97ee 06bd 44aa 573d 7277 11bd fed0 b0bd
000003c0: 851b 223c a7b7 69bc 4a3f d1bc ab15 803c
000003d0: 9dcd 883b ae50 743d 5a73 e03b 947b 61bc
000003e0: 2f9a 4ebd 4748 32bd d7cf 33bd 0ea5 1abc
000003f0: 4d5f 8fbd 7b49 953b ffb0 c33d a072 ba3d
-0.022276813 0.018019553 0.0077665458 0.023873381 -0.07346776 -0.086770676 -0.015108914 0.010499068
-0.15910678 -0.035307802 -0.08383869 0.042968117 -0.021177758 0.040980347 0.06630103 0.12981752
-0.012108254 0.001176081 -0.06980967 -0.057651956 -0.02457031 -0.032914788 0.0005430437 0.0253338
-0.0044183927 -0.00019551773 0.0011140478 0.03132744 -0.016573858 -0.017377457 0.0844927 0.06298832
0.0203645 0.037631344 0.06434105 -0.01931541 -0.06182769 -0.016658524 -0.045165308 0.032199226
0.07120885 0.0027272683 -0.020508295 0.02485463 -0.025528796 0.049995553 -0.051196214 -0.10632571
0.023598759 0.007784459 0.037873015 -0.013007437 0.051720347 0.00022007425 0.033692498 -0.036222618
-0.029940953 0.005089285 -0.013538759 -0.03476438 -0.024567816 0.012856609 -0.032315716 0.064857826
0.011839778 0.07018121 0.12356445 0.017677948 0.031793788 0.010942718 0.009488011 -0.045651287
-0.056296095 -0.0322076 0.05431029 -0.03201252 0.002583665 0.021428613 0.014645414 -0.028200606
0.0067068646 0.055820763 0.09384759 -0.03734508 0.004058337 -0.010544082 -0.07530545 -0.13528521
-0.08929188 -0.048441086 -0.005826675 -0.030426739 0.007894514 0.1197392 0.045847464 -0.05176156
-0.049764726 -0.0029099658 -0.0018168365 -0.0196418 0.042068325 0.061957818 -0.0336483 -0.008078958
0.03317158 0.009022888 0.021183044 0.013045242 0.011761235 0.034417186 0.03937186 0.012788941
-0.033000812 -0.08502073 0.02933379 -0.023778863 -0.08178785 0.02812479 0.08713401 0.014868389
-0.0009876871 0.09330121 0.08310613 0.015628865 -0.04604643 -0.048435967 -0.021265952 0.037129004
-0.057957515 0.04893386 0.031749137 -0.0098508205 0.033269987 -0.006868303 -0.012588859 -0.036992487
0.0032623443 -0.043017503 -0.07960933 -0.007125968 0.006136871 -0.010712131 0.07718543 0.054656092
-0.072328374 -0.0060867146 -0.029978376 -0.06762765 -0.051234674 -0.029108098 -0.030079301 -0.035650995
-0.07486224 -0.055746958 -0.0013323288 -0.030225562 -0.0065548196 0.062232092 0.08029591 0.028222438
-0.05564267 -0.014129438 -0.03345474 -0.07476004 0.024790423 -0.01703083 -0.008724567 -0.001542937
0.015324986 -0.014127935 -0.038530022 -0.013218783 0.03426766 0.02337972 0.021091832 0.1321775
0.0016940023 0.033040855 0.08503582 -0.05742377 -0.027492762 -0.0612737 0.01983164 0.0338803
-0.0059790253 0.0008152883 0.056307953 0.008825048 -0.013073032 -0.01701145 -0.06720551 0.024665136
0.03139551 0.016345428 -0.012393029 -0.052073315 -0.0032308195 0.021470025 -0.016384939 0.04434332
0.012376015 -0.0026746332 0.022211466 0.02873454 -0.041314557 0.016763987 -0.050689537 -0.012801818
0.0073947986 0.045267284 -0.044695888 -5.9263948e-05 -0.046444803 0.014202956 0.02333229 -0.019310266
0.017209582 0.03162082 -0.006469288 -0.09271381 -0.00090583455 0.025726443 -0.009715972 -0.031887107
-0.00044798412 0.037870385 0.06211306 0.0037441787 0.05095023 -0.023533903 0.03923525 -0.037599847
-0.007827252 0.030498613 0.04406009 -0.023873396 -0.03294238 0.052652612 -0.035514303 -0.08633612
0.0098942565 -0.014264978 -0.025542874 0.015635332 0.0041749016 0.059647255 0.0068496885 -0.0137623735
-0.05044001 -0.04352596 -0.043899383 -0.009438766 -0.07000599 0.0045558787 0.09555244 0.09103894

fc1.bias f4 [50]
00000000: c058 aa3c a2ac 2e3c 233c 7a3d d6d4 c6bc
00000010: cad3 113d c776 053c 4841 273d e109 26bc
00000020: ff82 443d 9ecc 003d f715 853d b182 64bd
00000030: b87f c3bb 87eb 233b 6407 d0bc b580 0e3c
00000040: ab08 3abd f8a4 de3c dd42 543d 1159 f93b
00000050: 0317 453d 65b2 1c3d cdab 223d f587 a23c
00000060: 89da d4bc e246 39bd f4cf e63c c61b 96bc
00000070: db08 383d 3ea1 6a3c c6a9 57bc 2f5e 1abd
00000080: 881d c43c e030 503c 419b 8c3d a1ee 61bc
00000090: e2b8 94bc 4940 07bd 5fcc 113d 749f 36bc
000000a0: 4a10 513b 1adb 703d e6f9 b1bb 305d ac3d
000000b0: 0f33 743d 6224 febb 8710 393d 814d 9dbc
000000c0: e4aa 483d d773 08bc
0.020794272 0.010661276 0.061092507 -0.02427141 0.03560237 0.0081459945 0.04083374 -0.010134191
0.04797649 0.03144514 0.0649833 -0.0557887 -0.005966153 0.0025012211 -0.02539415 0.008697678
-0.045418423 0.027178273 0.05182158 0.0076094945 0.04811765 0.038256068 0.039714623 0.01984022
-0.025983112 -0.045233615 0.028175332 -0.01832379 0.04493032 0.01432067 -0.013163036 -0.037687477
0.023939863 0.012706965 0.0686555 -0.013789804 -0.018154565 -0.03302029 0.035595294 -0.011146415
0.0031900578 0.0588027 -0.0054314015 0.084162116 0.059619006 -0.007755802 0.045181777 -0.019201996
0.0489911 -0.0083284

fc2.weight f4 [10, 50]
00000000: 1098 a6bd 59e5 153e 40c0 863d 9e5f 95bd
00000010: 07db 333e 305a be3d 39a0 1ebe 697e 483e
00000020: 71bc abbd 5a17 43be 4f18 543e 4116 c73d
00000030: 19b1 73be 213e eebd 1996 34be 76a0 563e
00000040: 079b 003e 5077 35be aa93 b2bd 8f40 4f3e
00000050: db20 8ebd aadd 353e 623c 8fbe 482d 46bd
00000060: 502f 15be 59fe 8abd abe5 63be 06f0 0dbe
00000070: 9ba2 4fbe 7e1d 83be 2847 7a3e 2b81 a33d
00000080: 7146 4dbe 46eb 57be fa27 30be 120b 243e
00000090: f7e7 87be 8b05 3d3e f9cf 90bd 9114 1c3e
000000a0: 70e4 06bd 703a 20be ddfc 3f3e 2f30 5f3e
000000b0: dfb8 17be 1509 363e fed8 133e aa40 5f3e
000000c0: 427f 16be 3bcc 2f3e fee5 4e3e ac7e 2f3e
000000d0: 84f2 ca3d 52be 8f3e f300 fabd ec59 683d
000000e0: 5a68 6cbd ac02 9bbd 9dd4 423e b4fe 5d3e
000000f0: 222b e8bd a938 60be e9a9 703e 733e 9bbd
00000100: 0924 2abe 7eab cfbd 14c2 abbd 7a56 cbbd
00000110: 6dfe 1ebd a744 16be 1b4c 38be 29f2 383e
00000120: f19d 343e c9d7 40bd 7293 13be 578d 053a
00000130: a58d b93c 03c3 393e 77e2 d8bc 7ffc 5e3d
00000140: 1446 1e3e f1af f0bd c95a c7bd b53a 073e
00000150: 51f2 413e b621 1fbe 5a2b ab3d 97d6 64be
00000160: cb46 4b3e 1f8f ce3d e0f7 77be d6c4 eabc
00000170: ba6c 0bbe 5f2f 5b3e 4f3b 283e 9f2a 183e
00000180: 1c8e 72be fd72 283e ef0b 7c3e 9243 2abe
00000190: af39 6c3e 9980 a1bd 4c46 8e3e 9cd0 83bd
000001a0: 3291 33be 37ee fbbd 2a6e 19bd 5357 e3bc
000001b0: cf56 30be 0c37 ddbd c3e2 673e 6976 d9bd
000001c0: e8c4 10be ffad 49be 25e3 73bd 8ec5 a5bd
000001d0: 664f 96bd fdce d13d c33d aa3d a62f 403e
000001e0: 3002 5cbe 4bf3 8fbd 884e c2bd db5f 07be
000001f0: eb6d 293e d909 22bd 5f00 4cbe 849e 363e
00000200: 9534 b0bd 3917 023d 3583 84bd 1299 8c3c
00000210: 1d18 84be d628 243e 9b48 293e 110e f73d
00000220: ea7e 4cbe dcfd 1a3e 3dcf e4bd 6974 803c
00000230: bf84 c03d dc38 273e e0cb 0e3d 12c6 093e
00000240: 27ab 213e 053c 1ebe 6d39 b93d 20a9 5c3e
00000250: 663d 7e3e d450 133e 4cbc 25be 1be5 3d3e
00000260: 844e 663e b20b efbd 2cd6 ccbd 34be e33a
00000270: c21e 923e 84a1 dfbd a871 9abd 71ad 9ebe
00000280: 6768 7fbc e566 143e ba07 11be 438f 603e
00000290: 4aaf ffbd 3c07 65bc f346 6fbd 2b1c 0d3e
000002a0: afb6 683d 7546 1f3e 9bff 2fbe d81b 76bd
000002b0: 4e3a c2bb 6344 58be 3de4 783d 391f 13bc
000002c0: f6e6 0a3e bac3 4e3e b8dc 66bd 5f36 ec3d
000002d0: 2205 c7bd b8c6 0a3e 4cde 423e 2f57 163e
000002e0: 2dc0 69be 686f 123e dcbd a83d 11b5 aebd
000002f0: ae74 17be 1976 003e 1722 1abe 6b19 9ebd
00000300: 700f e5bc 9eb5 2cbe 3a22 1b3e 2189 aabd
00000310: 0897 1bbe 6266 70bd 7018 653e 3d1f 293e
00000320: 66e1 41bd a690 35be 2486 41be 90a4 c5bd
00000330: cd80 44be 3d42 7c3d 8fed 82bd cb6a e3bd
00000340: 4414 053e 7d55 1c3e bc27 82bc 2f89 083e
00000350: b4ad 863e 77f3 a5bd 660e 9fbd f39a 2abe
00000360: 7ece 393d e11f 07be 51d8 7a3e e4b6 90bd
00000370: 3536 f23d f657 573e 3b5b c2bd f7f4 613e
00000380: 9f9d 3d3e 0888 f9bd dca5 093e f9cf 21be
00000390: 1ae5 6d3e 27e6 d43d a1bb a7bc f88f 493e
000003a0: 262a a13d 4f28 85bd 3a66 513e e90c 54be
000003b0: a406 453e a6a8 29be 2f5b 5a3e bfb4 45be
000003c0: 4628 e83d 4e81 f13d 3483 c4bd a0fd 30be
000003d0: 7b90 33be c6e0 99bd 3c7d 083e d4f3 e73c
000003e0: 515a 2cbe 13b7 54be 8e00 38bd aa92 543e
000003f0: 6ed5 8abd 6acf c9bc 6191 423e bc6a fbbd
-0.08134472 0.1463827 0.065796375 -0.07293628 0.17564021 0.09294546 -0.15490808 0.19579472
-0.08385552 -0.19051877 0.20712398 0.097210415 -0.23798026 -0.11632944 -0.17635383 0.20959648
0.12559138 -0.17721295 -0.08719571 0.20239471 -0.069398604 0.1776034 -0.27975756 -0.048383027
-0.1456883 -0.06786794 -0.2225558 -0.13861093 -0.20276873 -0.25608438 0.24441206 0.07983621
-0.20046403 -0.21085843 -0.1720275 0.16019848 -0.26544163 0.18459146 -0.07070918 0.1524222
-0.0329327 -0.15647292 0.18748803 0.21795724 -0.14816616 0.17776902 0.14438245 0.21802011
-0.14696983 0.17167751 0.20204923 0.17138165 0.099095374 0.2807489 -0.12207212 0.05672638
-0.057716705 -0.07568869 0.19026418 0.21679193 -0.11336352 -0.21896614 0.23502316 -0.075802706
-0.16615309 -0.101401314 -0.08386627 -0.099286035 -0.038816858 -0.14674626 -0.17997782 0.18061127
0.17638375 -0.04708079 -0.14411715 0.00050946086 0.02265055 0.18140797 -0.026475174 0.054440018
0.1545642 -0.11752308 -0.09734113 0.13205989 0.18940093 -0.15540203 0.08357878 -0.22347485
0.19851224 0.10085892 -0.2421565 -0.028658312 -0.13615695 0.2140479 0.16428874 0.14860009
-0.23687023 0.16450115 0.24613927 -0.16627339 0.2306888 -0.07885856 0.27788007 -0.064362735
-0.17535856 -0.12301295 -0.037458576 -0.0277516 -0.17220615 -0.10801515 0.22645096 -0.10618288
-0.14137614 -0.1969528 -0.059542794 -0.08094321 -0.07339363 0.10244558 0.08312561 0.18768176
-0.2148521 -0.07028826 -0.09487635 -0.1322016 0.16545837 -0.039560173 -0.19922017 0.17833906
-0.08603779 0.031760428 -0.06470338 0.017162833 -0.25799647 0.16031203 0.16531603 0.1206323
-0.19970289 0.15135902 -0.1117234 0.015680509 0.09400319 0.16330284 0.0348624 0.13454464
0.15787946 -0.15452583 0.09044156 0.21548891 0.24828109 0.14386302 -0.16185111 0.18544428
0.22490889 -0.116721526 -0.100017875 0.001737541 0.2853909 -0.109194785 -0.075412095 -0.309917
-0.015588856 0.14492376 -0.14163104 0.2192965 -0.124846056 -0.013978776 -0.05841727 0.13780276
0.056814846 0.15554221 -0.1718735 -0.060085148 -0.0059273606 -0.21119837 0.06076454 -0.008979612
0.13564667 0.20191851 -0.056362838 0.11533808 -0.09717776 0.13552368 0.19030112 0.14681695
-0.22827215 0.1430031 0.08239338 -0.085306294 -0.14790604 0.1254505 -0.15052067 -0.07719692
-0.027961463 -0.16866156 0.15149775 -0.083269365 -0.15194333 -0.05869139 0.22372603 0.16515823
-0.047334097 -0.1773096 -0.18898827 -0.096505284 -0.19189759 0.061586607 -0.06392967 -0.111043535
0.12996012 0.15266986 -0.015888087 0.13333581 0.263044 -0.08103078 -0.07766418 -0.16660671
0.045362942 -0.13195755 0.2449658 -0.070661336 0.118267454 0.21029648 -0.09490057 0.22066103
0.18517159 -0.12184149 0.13442177 -0.15801992 0.23231927 0.103954606 -0.02047521 0.19683826
0.07869367 -0.06501829 0.20449153 -0.2070805 0.19240814 -0.1656824 0.21323846 -0.1930723
0.113358065 0.11792241 -0.095953375 -0.1728425 -0.17535584 -0.07513575 0.13329023 0.028314508
-0.16831328 -0.20772962 -0.044922404 0.20759073 -0.0677899 -0.024635036 0.1900077 -0.12276217

fc2.bias f4 [10]
00000000: bbd9 643d fdd1 a93d b3a1 2abd e67a 9fbd
00000010: 2a99 21bd 94d3 ed3d e4e0 243e 4f6d 00be
00000020: 740c 8c3d 691e 3cbe
0.055871706 0.08292005 -0.041658115 -0.07787113 -0.03945271 0.11612621 0.16101414 -0.12541698
0.06838313 -0.18370976
