proj5/task4/results/exp3_0.8.pth (torch, 89871 bytes, 8 tensors)

conv1.weight f4 [10, 1, 5, 5]
0	0x3e3110ce	0.17291567
1	0x3e2808dc	0.1640963
2	0xbca4728a	-0.020074148
3	0x3e7cdaee	0.2469289
4	0x3cb5d1fd	0.022194857
5	0xbc8cd94e	-0.017193463
6	0xbd2d79b4	-0.042352393
7	0x3e031b4b	0.1280338
8	0x3dfb6404	0.12274936
9	0xbe45d792	-0.19320515
10	0x3e00d6cb	0.12581937
11	0x3dcf5c5e	0.101250395
12	0x3e1c394f	0.15256236
13	0xbd08a05e	-0.033356063
14	0x3d38752a	0.04503361
15	0xbc2c39aa	-0.010511795
16	0x3e61c6f5	0.22048552
17	0x3df7cd69	0.12099726
18	0xbc77e486	-0.015130168
19	0x3dcc72dd	0.09982846
20	0xbe199832	-0.14999464
21	0x3c7ed80b	0.015554438
22	0x3c0ea0fe	0.008705376
23	0x3e322503	0.17396931
24	0xbe066fa6	-0.13128528
25	0xbe06c6a3	-0.13161711
26	0xbe2a451d	-0.16627927
27	0xbe98cfd2	-0.29846054
28	0xbdfd468d	-0.12366972
29	0xbe8aa2ba	-0.27077276
30	0x3e80ff13	0.25194606
31	0xbe511bcb	-0.20420758
32	0xbd625b0a	-0.055262603
33	0xbe49dd0d	-0.1971323
34	0xbe50e24b	-0.20398824
35	0x3e707d22	0.23485234
36	0x3e126873	0.14297657
37	0x3e280aba	0.16410342
38	0xbc95a3b2	-0.018266533
39	0x3c2eeb79	0.010676258
40	0x3d94cb4c	0.07265338
41	0x3d69dbbe	0.057094328
42	0x3e4bd09e	0.199038
43	0x3e92d7d6	0.28680295
44	0x3e8dc342	0.27688032
45	0xbe3dea30	-0.18546367
46	0x3e01ba71	0.12668778
47	0x3d154b3d	0.036448706
48	0x3e277889	0.16354574
49	0x3b281998	0.002565002
50	0xbd8632fa	-0.06552692
51	0x3e23908f	0.15973113
52	0x3d3fc74e	0.04682093
53	0x3e47cb9a	0.19511262
54	0x3d3f11ff	0.04664802
55	0x3daaf5a7	0.08347636
56	0x3e77b26f	0.24189161
57	0x3db361ca	0.08758886
58	0x3db33388	0.08750063
59	0xbe8be8c8	-0.27326035
60	0x3e23948f	0.1597464
61	0x3e1a49d2	0.15067223
62	0x3e0e97c2	0.13925079
63	0xbe3cb3f9	-0.18428029
64	0xbe4770fe	-0.19476697
65	0x3e32108f	0.17389129
66	0x3eadc9e8	0.33943105
67	0xbe0f26d5	-0.13979657
68	0xbe767548	-0.24068177
69	0xbe94b08a	-0.2904094
70	0x3eae0c71	0.33993867
71	0x3e17640d	0.1478426
72	0x3da75bfe	0.08171843
73	0xbea96636	-0.33085793
74	0xbedce726	-0.43145102
75	0xbeb4f0ab	-0.35339865
76	0xbe7955aa	-0.24349084
77	0x3d064d39	0.03278849
78	0x3e184f39	0.14873971
79	0x3eb6c3f4	0.35696375
80	0xbe88a290	-0.26686525
81	0xbe48bc86	-0.19603166
82	0x3def1e20	0.11675668
83	0x3d0e008a	0.034668483
84	0x3e916613	0.2839819
85	0xbe684faf	-0.22686647
86	0x3dc3a00e	0.095520124
87	0xbd756851	-0.059913937
88	0x3c72ed01	0.014827014
89	0x3e16e228	0.1473471
90	0xbda1e0b2	-0.07904185
91	0xbd236003	-0.039886486
92	0x3e2f659a	0.17128602
93	0x3e377140	0.17914295
94	0xbdccc7a5	-0.09999017
95	0xbdcb179b	-0.09916612
96	0x3e631eb6	0.22179684
97	0x3bf35abd	0.0074265883
98	0x3be57a51	0.0070031066
99	0xbe15495c	-0.14578766
100	0xbe2599c1	-0.16171934
101	0x3cec6a76	0.028859358
102	0xbd4f86fe	-0.050665848
103	0xbe392e04	-0.1808396
104	0xbd712bff	-0.05887985
105	0xbe3f8c1b	-0.1870579
106	0xbe5b9321	-0.21442844
107	0xbe16bc20	-0.14720201
108	0xbe5e96dd	-0.21737237
109	0xbe36ef07	-0.17864619
110	0x3db72b9d	0.089438654
111	0xbd847561	-0.06467701
112	0xbbc8ca5a	-0.006127638
113	0xbe72a7e6	-0.2369686
114	0xbe39dac2	-0.18149856
115	0xbe03eb72	-0.12882784
116	0xbd2320b1	-0.0398261
117	0xbe7337e7	-0.23751794
118	0xbe08e118	-0.13367116
119	0xbe27ad3a	-0.16374674
120	0xbcfb8e47	-0.030707492
121	0xbdea716c	-0.11447415
122	0xbd88199a	-0.06645508
123	0xbe40b0d1	-0.1881745
124	0xbe363b88	-0.17796147
125	0xbda655a8	-0.081218064
126	0xbd03e362	-0.03219927
127	0xbe21a06b	-0.15783851
128	0x3e0c1dc3	0.13683228
129	0xbcb7cd9e	-0.022436913
130	0x3e25f772	0.16207674
131	0x3d1af116	0.037827574
132	0xbe50611f	-0.20349549
133	0x3dc366ce	0.09541093
134	0xbd39c838	-0.04535696
135	0xbd843504	-0.064554244
136	0xbe3f4cb0	-0.18681598
137	0xbe75f35d	-0.24018617
138	0x3c34a140	0.011024773
139	0xbd06a905	-0.032876033
140	0x3e065746	0.1311923
141	0xbe1e33a6	-0.1544939
142	0x3df5eed7	0.12008446
143	0xbe1d7dd8	-0.15380037
144	0x3bbede40	0.005824834
145	0x3e0021b1	0.12512852
146	0x3e423eb9	0.1896924
147	0x3e6fb50c	0.23408908
148	0x3e64053e	0.22267625
149	0xbdf07027	-0.11740141
150	0x3dc0cb6e	0.09413801
151	0xbd590cbc	-0.05299066
152	0xbcbe9e5c	-0.023268871
153	0xbe2b60ad	-0.16736098
154	0x3e2972bf	0.16547678
155	0xbe08eb03	-0.133709
156	0x3e1a161f	0.15047501
157	0x3dd0b5e1	0.10190941
158	0x3d67acf2	0.056561418
159	0xbdf3c821	-0.11903406
160	0x3e452653	0.19252901
161	0x3e0c6969	0.13712086
162	0x3da99792	0.08280863
163	0xbe739e4e	-0.23790857
164	0x3daae077	0.083435945
165	0xbdbe2c6a	-0.09285815
166	0xbd8a9b9c	-0.067679614
167	0x3e71ed68	0.2362572
168	0xbaa22aee	-0.0012372413
169	0xbe0760a1	-0.13220455
170	0xbe710ae3	-0.23539309
171	0xbcac60b7	-0.021042211
172	0x3e47ad5f	0.1949973
173	0xbca7dc35	-0.020490745
174	0xbde044e7	-0.10950642
175	0xbe34d490	-0.17659211
176	0xbe41a477	-0.18910395
177	0x3d3816ae	0.044943504
178	0x3e23f1e1	0.16010238
179	0xbe0661a7	-0.13123189
180	0x3e30cf3d	0.17266555
181	0x3e793347	0.24335967
182	0x3e1800d2	0.14844063
183	0xbd416369	-0.047213946
184	0xbd9c9597	-0.076457195
185	0x3e15930f	0.1460688
186	0x3e18b413	0.14912443
187	0x3d821d4a	0.06353243
188	0xbdb1819d	-0.086673
189	0xbe34b0bc	-0.17645544
190	0xbd9cb8eb	-0.07652458
191	0xbd027ae3	-0.031855475
192	0x3e7b384f	0.24533199
193	0x3e92951c	0.28629386
194	0x3be56be6	0.007001388
195	0xbdd54a54	-0.104145676
196	0xbd8cd807	-0.068771414
197	0xbd199547	-0.037495878
198	0x3e412bff	0.1886444
199	0x3e8d919c	0.27650154
200	0xbe98128b	-0.29701647
201	0xbe62064c	-0.22072715
202	0x3ccb0368	0.024781898
203	0x3d9a720f	0.07541286
204	0x3dca21ae	0.09869705
205	0xbe4a38a5	-0.1974817
206	0xbec65a33	-0.38740692
207	0xbec9beca	-0.39403373
208	0xbe25350f	-0.16133521
209	0x3d7d3faf	0.06182831
210	0x3e612199	0.21985473
211	0xbc85683e	-0.016285058
212	0xbea3e881	-0.32013324
213	0xbe9a4015	-0.30127016
214	0xbe5cb274	-0.2155245
215	0x3ea0b372	0.31386906
216	0x3e1ff333	0.15620117
217	0xbd4945a0	-0.049138665
218	0xbd94e354	-0.07269922
219	0xbe83c7e7	-0.2573845
220	0xbd3892db	-0.045061927
221	0x3ea45d9b	0.32102665
222	0x3d915fc6	0.070983455
223	0xbca4b1d6	-0.02010433
224	0xbe9a575a	-0.3014477
225	0x3e6ce0b1	0.23132588
226	0x3ea710a2	0.32629877
227	0x3e9eb716	0.30999058
228	0x3e407dbd	0.18797965
229	0x3e30e525	0.17274912
230	0xbdf27d73	-0.11840334
231	0x3e907c03	0.28219613
232	0x3e9d78a8	0.30756116
233	0x3ed1be4c	0.40965497
234	0x3e9b8eac	0.30382288
235	0xbd844294	-0.06458011
236	0xbd5af1be	-0.0534532
237	0xbe2720ad	-0.16321059
238	0xbe45c634	-0.1931389
239	0xbe54e53b	-0.2079057
240	0xbdd9067e	-0.105969414
241	0xbe8541f9	-0.26026896
242	0xbe734aa8	-0.23758948
243	0xbe83fb86	-0.25777835
244	0xbe0f6328	-0.14002669
245	0xbec2673f	-0.37969396
246	0xbec125c8	-0.37724137
247	0xbe4fac4d	-0.20280571
248	0xbe2b72ce	-0.16743013
249	0xbc262e3e	-0.010142861

conv1.bias f4 [10]
0	0xbc5ada2f	-0.013357683
1	0xbc234791	-0.009965793
2	0xbe1a0078	-0.15039241
3	0xbdc86749	-0.09785325
4	0x3d1a4dc9	0.037671838
5	0xbe46a385	-0.19398315
6	0x3db35ea7	0.08758288
7	0xbdef806a	-0.11694415
8	0x3e0b284a	0.13589588
9	0xbd11ba73	-0.035578202

conv2.weight f4 [20, 10, 5, 5]
0	0xbc0ae222	-0.008476766
1	0xbe0012fb	-0.1250724
2	0xbd34bd77	-0.044126
3	0xbd520a21	-0.05127919
4	0xbd9359bb	-0.07194849
5	0x3d3ef127	0.0466167
6	0xbbf8a395	-0.00758786
7	0xbd0acb6a	-0.033885397
8	0x3bc03aed	0.0058663995
9	0xbccf48da	-0.025303293
10	0x3d1dac44	0.038494363
11	0xbca5c415	-0.0202351
12	0x3d246a16	0.040140234
13	0x3d7d2e57	0.06181177
14	0x3dd66933	0.10469284
15	0xbd5df7cb	-0.054191392
16	0xbe009d79	-0.12560071
17	0xbd5dd9a4	-0.054162636
18	0x3bdafa50	0.0066826716
19	0xbd8623e0	-0.06549811
20	0xbd65276f	-0.05594581
21	0xbe159879	-0.14608945
22	0xbe130783	-0.14358334
23	0xbdc7ec80	-0.09761906
24	0xbc65189e	-0.01398292
25	0x3c2dd33d	0.010609445
26	0xbcc1e3a8	-0.023668125
27	0x3d91ff5f	0.07128786
28	0x3deb7f69	0.11498911
29	0x3d603ee4	0.054747477
30	0x3c35462a	0.011064092
31	0x3b603305	0.0034210098
32	0xbd49225c	-0.049105033
33	0x3b138cb4	0.0022514286
34	0x3e004eb0	0.12530017
35	0xbb82367e	-0.003973781
36	0xbc3f327e	-0.011669753
37	0xbc221bd0	-0.009894326
38	0x3cdcde4b	0.026961466
39	0x3d451090	0.0481115
40	0xbc301159	-0.0107463235
41	0xbdac80fe	-0.08423041
42	0xbdbd8282	-0.09253408
43	0xbc1abc73	-0.009444344
44	0x3c65120b	0.013981353
45	0x3e28489b	0.16433947
46	0x3d3bf7c1	0.045890573
47	0x3de6b700	0.11265373
48	0x3d99353a	0.07480855
49	0xbcb34ad9	-0.021886276
50	0xbcbd2c00	-0.02309227
51	0xbc96f293	-0.018426215
52	0xbce4c34d	-0.027925158
53	0x3cbdaaff	0.023152826
54	0x3dec6dde	0.11544393
55	0x3c739d51	0.01486905
56	0x3dbcca0a	0.092182234
57	0x3da5b0b5	0.08090345
58	0xbd17e21a	-0.03708086
59	0x3c950167	0.018189145
60	0xbd921fd1	-0.07134975
61	0xbd10a1bd	-0.035310496
62	0xb93fab83	-0.00018279073
63	0xbd971873	-0.0737771
64	0xbe0d33c9	-0.13789286
65	0xbd9be188	-0.07611376
66	0xbdd2ae6b	-0.10287174
67	0xbe0bdb15	-0.13657792
68	0xbe5592d6	-0.20856795
69	0xbe067f6b	-0.13134544
70	0x3d3aca57	0.045603123
71	0x3cc90e55	0.024542967
72	0xbda4c716	-0.08045785
73	0xbd901bdb	-0.07036563
74	0x3dbd6280	0.09247303
75	0xbdb8bfa8	-0.090209305
76	0xbd4f4dd0	-0.050611317
77	0x3bad5780	0.005289972
78	0xbc3749e0	-0.011187047
79	0xbd094ac9	-0.033518586
80	0xbc98734e	-0.018609669
81	0xbd0394be	-0.032124273
82	0xbd4d61a0	-0.05014193
83	0xbccc6ea5	-0.024955103
84	0xbda229e0	-0.07918143
85	0xbd92093d	-0.07130668
86	0x3d3c9cf3	0.046048116
87	0xbc00f703	-0.007871392
88	0xbb6f2a73	-0.0036493808
89	0xbd3cce0a	-0.04609493
90	0xbc1eed0a	-0.009700069
91	0x3d627081	0.055283073
92	0x3de0d2d0	0.10977709
93	0x3da7e54f	0.08198034
94	0xbdc2628f	-0.09491455
95	0xbcb2a6ed	-0.021808112
96	0x3cfcab5a	0.030843426
97	0x39fbb7cb	0.00048011387
98	0x3c0bcdc3	0.008532944
99	0x3d6d96d1	0.058005158
100	0xbcd6d615	-0.02622513
101	0xbd038fb5	-0.03211947
102	0xbdb182d0	-0.08667529
103	0xbccf7a43	-0.025326854
104	0x3c33d3bc	0.010975774
105	0x3c35eaf0	0.011103377
106	0x3b0b3b75	0.0021245156
107	0xbdb7206e	-0.08941732
108	0xbde10616	-0.10987489
109	0x3b38d2e6	0.0028201877
110	0x3d41b2d5	0.04728969
111	0x3c63f037	0.013912252
112	0xbd479a55	-0.048731167
113	0xbd7b3682	-0.06133128
114	0xbd413854	-0.04717286
115	0xbc950c6a	-0.018194396
116	0x3ca0bc23	0.01962096
117	0x3d589e4a	0.05288533
118	0x3cd8a426	0.02644546
119	0xbccd8cf3	-0.025091624
120	0x3d3983e9	0.045291815
121	0xbcfd38c4	-0.030910857
122	0x3d09e5ae	0.033666305
123	0x3d555826	0.052086018
124	0x3d67ae62	0.05656279
125	0x3d956024	0.07293728
126	0xbd35f9de	-0.044427745
127	0xbc8d498c	-0.017246984
128	0x3d15f9ef	0.03661531
129	0x3cd81f4a	0.026382107
130	0x3b883bbb	0.004157511
131	0xbcb7bd39	-0.022429096
132	0x3d83534d	0.06412373
133	0x3d05311b	0.032517534
134	0x3d69cf01	0.05708218
135	0xbcc70993	-0.024296558
136	0xbd6133f5	-0.05498119
137	0x3c0404f0	0.008057818
138	0x3ce80c19	0.028326081
139	0xbc1ba5ba	-0.0094999615
140	0x3cd18fdb	0.025581291
141	0x3d69cd9c	0.05708085
142	0xbc131da7	-0.008979238
143	0x3ca81f22	0.020522658
144	0xbc9f8668	-0.01947327
145	0xbc4e3185	-0.012585049
146	0xbc19c899	-0.009386205
147	0x3c252ca1	0.010081441
148	0x3c80123e	0.015633699
149	0x3c2088b9	0.009798222
150	0xbd5faf16	-0.054610334
151	0xbc816778	-0.015796408
152	0x3d37535b	0.04475723
153	0x3d12f846	0.035881303
154	0x3d60f82c	0.054924175
155	0xbd4d3d35	-0.0501072
156	0x3b9c74cb	0.004774665
157	0x3d373e33	0.044737052
158	0xbbddf075	-0.0067730495
159	0x3c067cae	0.008208437
160	0x3b5e2eef	0.0033902486
161	0xbba3fac1	-0.0050042574
162	0xbd1374b0	-0.035999954
163	0x3d235eb3	0.039885234
164	0x3dd29ac4	0.102834255
165	0xbc087b3e	-0.0083301645
166	0xbd32aff1	-0.043624822
167	0xbda282e1	-0.079351194
168	0xbd72ef93	-0.059310507
169	0x3cd4357b	0.025904408
170	0x3d679efe	0.05654811
171	0xbd0104ea	-0.031498827
172	0xbd7a6a8b	-0.061136764
173	0xbb6cf47a	-0.0036156462
174	0xbd8d14f9	-0.06888766
175	0x3ce64292	0.028107915
176	0xbd38cee4	-0.04511918
177	0xbd1eaf93	-0.03874166
178	0x3d1cb7a4	0.03826107
179	0x3c4018b6	0.011724642
180	0xbcf42fb3	-0.029807901
181	0x3d3df5e3	0.046377074
182	0xbc8ed313	-0.017434632
183	0x3deeb0ab	0.116547905
184	0x3df5dc49	0.12004907
185	0xbd125cf4	-0.03573318
186	0xbc9f4a1a	-0.019444514
187	0x3cb8363c	0.022486798
188	0x3dce51d5	0.10074202
189	0x3c9a6ae9	0.018849807
190	0xbd5759da	-0.052575924
191	0xbdf4471b	-0.11927625
192	0xbd90abf3	-0.07064047
193	0x3cd358d8	0.0257992
194	0x3c7100b7	0.014709643
195	0x3d3ad717	0.045615282
196	0xbc20a2ef	-0.009804471
197	0x3d6763c4	0.05649163
198	0xbd0326f4	-0.03201957
199	0xbdf60aa3	-0.120137475
200	0xbc40d6e3	-0.011769983
201	0x3cacfc19	0.021116303
202	0x3c326894	0.010889191
203	0xbdc9ca1f	-0.09853005
204	0xbbf46390	-0.007458158
205	0xbd53ac38	-0.051677912
206	0xbd5d0e2d	-0.053968597
207	0xbd28b8a5	-0.041191716
208	0x3d14368e	0.03618484
209	0x3d89a75e	0.06721376
210	0x3d4eb39a	0.05046425
211	0x3d3b4a4b	0.04572515
212	0x3d93aee4	0.07211092
213	0x3c990c10	0.01868251
214	0x3d013d18	0.031552404
215	0x3dd65ad7	0.10466545
216	0x3cc6c1be	0.024262305
217	0xbc17612b	-0.009239475
218	0x3b68c0b1	0.0035515244
219	0x3d9a774b	0.075422846
220	0x3e150b42	0.14555076
221	0x3dc803e9	0.09766371
222	0x3c8ddfba	0.017318595
223	0xbc29df9f	-0.010368257
224	0xbd2376bd	-0.03990816
225	0xbd3d0664	-0.046148673
226	0x3af1d928	0.0018451558
227	0xbd98aaaa	-0.074544266
228	0xbb08ab55	-0.0020854075
229	0xbcb8ac4a	-0.022543091
230	0x3d68f30d	0.056872416
231	0x3d90bd2e	0.07067333
232	0x3d48e83f	0.049049612
233	0x3b0ba97a	0.0021310733
234	0xbc80bce9	-0.01571508
235	0x3d2a239e	0.041537873
236	0xbb985caf	-0.0046497206
237	0x3c7b90cb	0.015354346
238	0x3d165514	0.03670223
239	0x3d988436	0.07447092
240	0x3d88e455	0.06684176
241	0x3d1ea6d1	0.038733307
242	0x3d9d1795	0.076705135
243	0x3de636f9	0.11240954
244	0x3da09b6b	0.078421436
245	0x3dce0e22	0.10061289
246	0x3d8e6aa1	0.069539316
247	0x3d8c067e	0.06837176
248	0x3cb4377c	0.021999113
249	0x3b8f4168	0.0043718107
250	0xbd14fe94	-0.036375597
251	0xbde6e57a	-0.11274238
252	0xbc56f0af	-0.013118907
253	0xbd80081e	-0.06251548
254	0xbd43e517	-0.0478259
255	0x3be863aa	0.007091959

conv2.bias f4 [20]
0	0x3d83030c	0.063970655
1	0xbd4f72c8	-0.050646573
2	0xbcdeb5ae	-0.027186241
3	0xbd816444	-0.06317952
4	0xbd2dfd0b	-0.04247765
5	0x3c61f0a1	0.013790281
6	0x3d1aa071	0.037750665
7	0xbd4cac34	-0.049968913
8	0x3c48af07	0.012248761
9	0xbd737fe8	-0.059448153
10	0x3c465002	0.012104036
11	0x3d0eee48	0.03489521
12	0xbd03b8bd	-0.032158602
13	0x3c02d5e0	0.007985562
14	0x3d768b0f	0.06019121
15	0xbd392563	-0.04520167
16	0xbc0f676d	-0.008752686
17	0xbd24994b	-0.040185254
18	0x3d21670e	0.03940492
19	0xb9178db8	-0.00014453277

fc1.weight f4 [50, 320]
0	0x39a3e9d0	0.00031263987
1	0x3d3c9933	0.04604454
2	0x3cf3bfe6	0.02975459
3	0x3b021968	0.001985157
4	0xbd3acc51	-0.045605008
5	0xbd9a929f	-0.07547497
6	0x3c1ca600	0.009561062
7	0x3c5e264e	0.013558937
8	0xbdf6cee5	-0.12051181
9	0xbd3b772f	-0.04576796
10	0xbd97dd84	-0.074152976
11	0x3ccf8944	0.025334008
12	0xbb081c26	-0.002076873
13	0x3dd00e5b	0.10158988
14	0x3d594eee	0.05305379
15	0x3e39d3f6	0.18147263
16	0xbcb88f3c	-0.022529237
17	0x3d02776e	0.03185218
18	0xbd2f2959	-0.04276404
19	0xbd90bef7	-0.07067674
20	0xbcef14da	-0.029184747
21	0x3c7b189b	0.015325691
22	0xbd9c709c	-0.07638666
23	0xbc4b5840	-0.012411177
24	0x3cfab63d	0.030604476
25	0x3d42fd62	0.047604926
26	0xbcd42518	-0.025896594
27	0x3ca6af69	0.020347314
28	0xbb6efd97	-0.003646707
29	0x3b887d95	0.004165361
30	0x3d9c0347	0.076178126
31	0x3c192569	0.009347298
32	0xbc1a6de1	-0.009425611
33	0x3d0e65de	0.034765117
34	0x3cfc4541	0.030794742
35	0xbad955f7	-0.0016581406
36	0xbd734c8a	-0.059399165
37	0x3b98957b	0.0046564913
38	0x3cf56ca7	0.029959036
39	0x3ccbff40	0.024901986
40	0x3dbf4170	0.09338653
41	0xbcdbd96d	-0.026837075
42	0xbce30c71	-0.027715893
43	0x3c9c0319	0.019044446
44	0xbccf39c4	-0.0252961
45	0xbd9538d1	-0.072862275
46	0xbda2277f	-0.079176895
47	0xbd8c1283	-0.06839468
48	0x3d16ba7f	0.03679895
49	0xbbec276c	-0.007206848
50	0x3d454e63	0.04817046
51	0x3d343ee8	0.044005305
52	0x3d8085fe	0.06275557
53	0x3b52774c	0.0032114564
54	0x3d79ec06	0.061016105
55	0xbd1373cc	-0.035999104
56	0xbda3cd55	-0.07998148
57	0xbd2d8373	-0.042361688
58	0x3d278fe8	0.040908724
59	0xbd85fe81	-0.065426834
60	0xbdc33b66	-0.09532814
61	0xbd2b3765	-0.041800875
62	0xbd1f2af2	-0.038859315
63	0xbc215818	-0.009847663
64	0xbbbcec58	-0.005765479
65	0x3d5e1b51	0.05422527
66	0x3dafbef4	0.08581343
67	0x3cbd0e29	0.023078041
68	0x3d47f753	0.04881985
69	0x3d615599	0.055013273
70	0xb87f5d6e	-6.088375e-05
71	0xbc9cd1ab	-0.019142946
72	0xbc81c81a	-0.015842486
73	0x3d811973	0.06303682
74	0x3d6c98c9	0.057762895
75	0x3d1bc830	0.03803271
76	0x3c38eda3	0.011287126
77	0xba30cb55	-0.0006744166
78	0xbd5d7d77	-0.05407473
79	0xbdcf80af	-0.10131966
80	0x3c956cea	0.01824041
81	0x3d348514	0.044072226
82	0x3d84c7b4	0.06483403
83	0xbc77b300	-0.0151183605
84	0x3c2dffee	0.0106201
85	0xbd0178df	-0.031609412
86	0x3af6aed5	0.0018820415
87	0xbd94c95b	-0.07264968
88	0x3b7265f8	0.0036987048
89	0xbc90f4f6	-0.017694931
90	0x3d9805b0	0.0742296
91	0x3d159cff	0.036526676
92	0x3d5e1d70	0.054227293
93	0x3d9de2c6	0.07709269
94	0xbd2a2f39	-0.04154894
95	0xbd24ca04	-0.04023172
96	0xbd83599f	-0.06413578
97	0xbc202132	-0.009773539
98	0x3c132671	0.008981333
99	0x3c6ac9a7	0.014330304
100	0x3d718758	0.058966964
101	0x3d1ac646	0.037786745
102	0xbc68ac11	-0.01420118
103	0x3c3ddbf9	0.01158809
104	0x3d32eb3d	0.043681372
105	0x3ca94881	0.020664455
106	0x3c9421bf	0.018082498
107	0x3c694243	0.014236989
108	0xbd3e9718	-0.046530813
109	0xbc1a4792	-0.009416478
110	0x3c58a2e5	0.013222431
111	0xbc74714a	-0.014919588
112	0xbab96b44	-0.0014146348
113	0x3b84713e	0.00404182
114	0x3d02d91e	0.03194534
115	0xbd257ee9	-0.040404234
116	0xbd83b879	-0.0643167
117	0x3c35d878	0.011098973
118	0xbb484608	-0.003055932
119	0x3be33315	0.0069335797
120	0xb93b6a06	-0.00017873207
121	0x3d2859f8	0.041101426
122	0x3d414e6d	0.047193933
123	0x3d321b05	0.0434828
124	0xbd97ecc5	-0.07418207
125	0xbd9d1ea4	-0.0767186
126	0xbd3efd66	-0.04662838
127	0x3c818d24	0.015814371
128	0xbcccc9c1	-0.024998548
129	0x3d8c12f0	0.068395495
130	0x3d4f9f22	0.05068887
131	0xbc754028	-0.014968909
132	0x3b85cb00	0.0040830374
133	0xbd744dd0	-0.05964452
134	0xbcd2f33d	-0.02575075
135	0xbcb59802	-0.02216721
136	0xbc949127	-0.01813562
137	0xbde0982e	-0.10966526
138	0xbde34861	-0.110977896
139	0x3b969f53	0.0045966296
140	0x3d6b4dec	0.05744736
141	0xbd4b0996	-0.04956969
142	0x3cee9cf9	0.029127585
143	0x3de62b99	0.11238784
144	0xbd3c125f	-0.045915958
145	0xbcc453af	-0.023965685
146	0xbab0e441	-0.0013495759
147	0xbd3bdee3	-0.04586686
148	0xbc7fd07e	-0.015613673
149	0xbc5e85bc	-0.013581689
150	0xbd815c83	-0.06316473
151	0xbd83acd0	-0.06429446
152	0xbd73f120	-0.059556127
153	0xbccba1a0	-0.024857342
154	0xbc80324c	-0.015648983
155	0xbd174826	-0.03693404
156	0xbcd950f1	-0.026527854
157	0x3dc8cce1	0.098047026
158	0x3db6babd	0.08922336
159	0x3db89f06	0.09014706
160	0xbd43e06e	-0.047821455
161	0xbca49adf	-0.02009338
162	0xbaba66f7	-0.001422136
163	0xbcb66389	-0.022264259
164	0xbc370001	-0.0111694345
165	0xbd3fc904	-0.046822563
166	0xbd936822	-0.07197596
167	0xbd7b5708	-0.061362296
168	0xbc24b8dd	-0.0100538405
169	0x3c9ec85a	0.019382644
170	0xbb5e34e6	-0.0033906042
171	0x3cb7a621	0.022418084
172	0xbce5d4b4	-0.028055526
173	0x3d423e99	0.04742298
174	0x3d097235	0.033556182
175	0x3e14e19f	0.14539193
176	0xbcc7de62	-0.024398033
177	0x3ce4adae	0.027914848
178	0x3d2092cc	0.039202496
179	0xbdaa68a1	-0.08320738
180	0xbd71f273	-0.05906911
181	0xbc0d7687	-0.008634216
182	0x3a1f4938	0.0006076279
183	0x3d1e71b1	0.038682643
184	0xbcdf5439	-0.02726184
185	0x3d6fae62	0.058515914
186	0x3d6c56da	0.057700016
187	0x3cdaa89c	0.026691727
188	0xbd7c6426	-0.061618946
189	0xbd6cf309	-0.057848964
190	0xbdbbadd8	-0.091640174
191	0x3cbf3529	0.023340778
192	0x3d017c6d	0.031612802
193	0x3c85c40d	0.016328836
194	0xbc468442	-0.012116494
195	0xbd57ea20	-0.052713513
196	0xbb5ac52b	-0.0033381681
197	0x3caf4938	0.021397218
198	0xbc79ccc2	-0.015246572
199	0x3d353985	0.044244308
200	0x3c51a408	0.012795456
201	0xbb2d7d39	-0.0026472344
202	0x3cb77e32	0.022399042
203	0x3ce3082c	0.027713858
204	0xbd2953b1	-0.04133958
205	0x3c8a777b	0.016902676
206	0xbd4fcf4d	-0.050734807
207	0xbc53dfe4	-0.012931798
208	0xbbbdd97c	-0.0057937484
209	0x3d9cab86	0.07649903
210	0x3d38f3df	0.04515445
211	0x3c5afeb9	0.013366395
212	0xbd40d977	-0.04708239
213	0x3d5102b6	0.051027976
214	0x3d20da17	0.039270487
215	0x3c2f58f9	0.010702365
216	0x3d54cb35	0.051951606
217	0x3d679cd8	0.056546062
218	0xbd009ce6	-0.03139963
219	0xbd824246	-0.06360297
220	0xbc35cf29	-0.011096754
221	0x39974e2b	0.00028859204
222	0xbd5afbf3	-0.053462934
223	0xbd887d0e	-0.06664477
224	0x3c600db5	0.013675143
225	0xbc939be4	-0.01801867
226	0xbc9bfdc9	-0.019041913
227	0xbb0f325b	-0.0021850083
228	0x3dda977b	0.10673424
229	0x3ca65784	0.020305403
230	0x3db73c91	0.08947099
231	0x3d58a996	0.052896105
232	0x3d3e8d71	0.046521608
233	0x3dd64975	0.104632296
234	0x3d372dc0	0.044721365
235	0xbdd23528	-0.10264045
236	0xbd9342fa	-0.07190509
237	0x3b8b58cd	0.0042525292
238	0xbd0a2a39	-0.033731673
239	0xbe1cda37	-0.15317617
240	0x3cf67a46	0.030087601
241	0xbc692bac	-0.014231604
242	0xbc563364	-0.013073776
243	0x3cfc7450	0.03081718
244	0xbc9e399a	-0.019314576
245	0x3c8ccff6	0.017189007
246	0x3b3cd38d	0.0028812618
247	0xbce2bd3a	-0.02767812
248	0xbdaf647c	-0.08564088
249	0xbd94328f	-0.07236206
250	0xbd01bc4a	-0.031673707
251	0xbd040167	-0.0322279
252	0xbdd2d0bd	-0.1029372
253	0x3b276699	0.002554333
254	0x3dc53750	0.09629691
255	0x3e0bf255	0.13666661

fc1.bias f4 [50]
0	0x3d896446	0.06708579
1	0x3da5c316	0.0809385
2	0x3d96680d	0.07344065
3	0x3cf72705	0.030169973
4	0x3d6ded68	0.058087736
5	0x3cf5c69c	0.03000193
6	0x3d8c4a65	0.06850127
7	0x3d005f9b	0.031341176
8	0x3e060858	0.1308912
9	0x3d6a7464	0.057239905
10	0x3dafa4be	0.08576344
11	0xbc5ad428	-0.013356246
12	0x3d52d7fb	0.051475506
13	0x3d4e1305	0.050311107
14	0x3c3ad988	0.011404403
15	0x3d91a3ca	0.071113184
16	0x3b487dec	0.0030592633
17	0x3d2513f3	0.04030223
18	0x3dbd9579	0.09257025
19	0x3d1cc52c	0.038273975
20	0x3d8147da	0.06312533
21	0x3d58c206	0.05291941
22	0x3dc1d3f9	0.09464259
23	0x3d382b96	0.04496344
24	0x3ca39cb8	0.01997219
25	0xbcba0dc0	-0.022711635
26	0x3d5d5889	0.05403951
27	0x3d872427	0.065986924
28	0x3db80edc	0.08987209
29	0x3db115d2	0.0864674
30	0x3c89e36d	0.016832078
31	0x3b41f579	0.0029595776
32	0x3d2fe182	0.04293967
33	0x3d91c7ea	0.07118209
34	0x3e0856ba	0.13314334
35	0x3bbd79ee	0.0057823574
36	0xbc0cf257	-0.0086027
37	0xbd05dd2d	-0.032681633
38	0x3d143b79	0.03618953
39	0x3d3c961c	0.046041593
40	0x3c52d39d	0.012867835
41	0x3d7955a1	0.060872678
42	0x3d53efb0	0.051742256
43	0x3df9f23f	0.12204408
44	0x3dfc6efd	0.12325857
45	0x3d76d51d	0.060261834
46	0x3d81da66	0.06340484
47	0x3cbf0003	0.023315435
48	0x3e008604	0.12551123
49	0x3ce5b86c	0.02804204

fc2.weight f4 [10, 50]
0	0x3e0774d0	0.13228154
1	0x3e2a1976	0.16611275
2	0x3e49edc8	0.19719613
3	0xbe09d38c	-0.13459605
4	0x3e1f2430	0.15541148
5	0x3e2d1df7	0.16905962
6	0xbe1b44fa	-0.15163031
7	0x3e4eb753	0.2018712
8	0xbe0f4556	-0.13991293
9	0xbe280d50	-0.16411328
10	0x3e395371	0.18098237
11	0x3c7749cc	0.015093278
12	0xbe8931e4	-0.26795876
13	0xbe3ba288	-0.1832372
14	0xbe3c369b	-0.18380205
15	0x3e28e684	0.16494185
16	0xbd215cae	-0.039395027
17	0xbe4499a6	-0.19199237
18	0xbe25f61c	-0.16207165
19	0x3e290e6c	0.16509408
20	0xbb3b2cb4	-0.002856058
21	0x3e7eea25	0.24894007
22	0xbe894bcd	-0.26815644
23	0xbdf87981	-0.1213255
24	0xbe30a25d	-0.17249437
25	0xbd745471	-0.059650842
26	0xbe8e6682	-0.27812582
27	0xbe360aed	-0.17777605
28	0xbe6956e4	-0.22787052
29	0xbe7a4dc4	-0.24443728
30	0x3e2ffcc1	0.17186262
31	0x3e1e1a8f	0.15439819
32	0xbe415934	-0.18881685
33	0xbe725155	-0.23663838
34	0xbe35ffca	-0.17773357
35	0x3e0107bb	0.12600605
36	0xbe764a0a	-0.24051681
37	0x3db96d45	0.09054045
38	0xbdbc1d93	-0.09185328
39	0x3e02abbf	0.12760828
40	0x3ca3f00d	0.020011926
41	0xbe37a269	-0.17933048
42	0x3e2447fa	0.16043082
43	0x3e4d86ea	0.20070997
44	0xbe8b8017	-0.27246162
45	0x3d21e634	0.03952618
46	0x3e07eb75	0.13273413
47	0x3e5f30e7	0.21795999
48	0xbe3cdfed	-0.18444796
49	0x3e4c6708	0.19961178
50	0x3dffbf59	0.124876685
51	0x3e4d3aca	0.20041957
52	0x3d1cf1d2	0.038316555
53	0x3eb8b400	0.3607483
54	0xbdbe55b1	-0.09293688
55	0xbde52197	-0.111880474
56	0xbdb8eee2	-0.09029938
57	0xbd874804	-0.06605533
58	0x3e64b5f1	0.2233503
59	0x3e5b4093	0.21411352
60	0xbdc9cc2c	-0.09853396
61	0xbe5e368d	-0.21700497
62	0x3e80c77d	0.25152197
63	0x3d96d689	0.07365138
64	0x3da51547	0.08060699
65	0xbe33849d	-0.17531057
66	0xbd79c7aa	-0.06098143
67	0xbe15a6c5	-0.14614399
68	0x3db8e0de	0.09027265
69	0xbe543999	-0.20725097
70	0xbe5c14df	-0.21492337
71	0x3c8a9af2	0.016919587
72	0x3e1ea381	0.1549206
73	0x3d2bacf0	0.041912973
74	0xbda90fe7	-0.08254986
75	0x3c329548	0.010899849
76	0xbe02155c	-0.1270346
77	0x3e262e0e	0.16228506
78	0xbe02ad9e	-0.12761542
79	0x3e1a534f	0.15070842
80	0x3e1bd284	0.15217024
81	0xbe3c6164	-0.18396527
82	0xbde206e8	-0.110364735
83	0x3e37f16a	0.17963186
84	0x3e3051f7	0.17218767
85	0xbe315425	-0.17317255
86	0xbe150808	-0.14553845
87	0xbea1d36c	-0.31606615
88	0xbdc663b8	-0.096869886
89	0x3df38c23	0.11891963
90	0xbe82ca9e	-0.2554521
91	0xbe23522e	-0.15949318
92	0xbe4792aa	-0.19489542
93	0x3e313a01	0.17307283
94	0x3e371f03	0.17882924
95	0x3e369972	0.17831972
96	0xbea79c09	-0.32736233
97	0xbc41446c	-0.011796098
98	0x3e94407e	0.28955454
99	0xbe45ab89	-0.19303717
100	0x3e34cc94	0.17656165
101	0xbdd6c0c8	-0.10485989
102	0x3e836ca1	0.25668815
103	0xbd3f37d7	-0.046684112
104	0xbe484762	-0.1955848
105	0xbdb7bfc7	-0.089721255
106	0x3e206d5c	0.15666717
107	0xbd84640f	-0.06464397
108	0xbe253392	-0.16132954
109	0xbd9ebf4f	-0.07751333
110	0x3e5d22f8	0.21595371
111	0xbd9f1ecf	-0.07769548
112	0xbde48896	-0.11158864
113	0xbe428a00	-0.18997955
114	0x3c5f5383	0.013630751
115	0x3c141ac2	0.009039583
116	0xbdce27c5	-0.10066179
117	0xbcabd9bc	-0.020977847
118	0x3d4b3650	0.049612343
119	0x3e134d59	0.14384975
120	0xbe38bff3	-0.18041973
121	0xbc959bd8	-0.018262789
122	0xbdb14fc0	-0.08657789
123	0xbd740d66	-0.05958309
124	0x3e47a362	0.1949592
125	0x3d97cc8a	0.074120596
126	0xbe0c4ace	-0.1370041
127	0x3e1a9384	0.15095335
128	0xbc734026	-0.014846837
129	0x3e04abe4	0.12956196
130	0x3a909f32	0.0011033772
131	0x3dbdadb4	0.09261647
132	0xbe5ad0fb	-0.21368782
133	0x3e45b97d	0.1930904
134	0x3e0920b9	0.13391389
135	0x3dfa3fa2	0.12219168
136	0x3a962225	0.0011454268
137	0x3d9e27d6	0.07722442
138	0x3d596705	0.053076763
139	0x3cc51a01	0.024060251
140	0x3d836e62	0.06417538
141	0xbc450e91	-0.012027399
142	0x3cfea3d6	0.031083982
143	0x3d8beeb3	0.06832638
144	0x3e456e82	0.19280437
145	0xbcc692c9	-0.024239914
146	0x3dcaf258	0.09909505
147	0x3e659965	0.22421797
148	0x3e83deb4	0.25755847
149	0x3db8e62a	0.09028275
150	0xbe11732d	-0.14204092
151	0x3e2081bb	0.15674488
152	0x3e460b25	0.19340189
153	0xbd9bc301	-0.076055534
154	0xbdb5d75a	-0.08878966
155	0xbdb60b2c	-0.088888496
156	0x3e51fa27	0.20505582
157	0xbc4c1495	-0.012456079
158	0x3bd3580c	0.006449705
159	0xbe8d895c	-0.2764386
160	0xbce42078	-0.027847514
161	0x3e298028	0.16552794
162	0xbe003b0d	-0.12522526
163	0x3e3aad9d	0.1823029
164	0xbe06cc58	-0.13163888
165	0x3e14385d	0.14474626
166	0xbe0b08d5	-0.13577588
167	0x3e3ad019	0.18243445
168	0x3e3f7cb5	0.18699916
169	0x3df94b75	0.121725954
170	0xbe2d8555	-0.16945393
171	0x3d2c196a	0.042016424
172	0xbd6a3045	-0.05717494
173	0xbe33979c	-0.17538303
174	0x3e2891af	0.16461824
175	0x3db340fa	0.08752628
176	0x3e0394e5	0.12849768
177	0x3e63e737	0.2225617
178	0xbd59caaa	-0.05317179
179	0x3df91562	0.121622816
180	0xbe32c464	-0.1745773
181	0x3de490e6	0.1116045
182	0x3e1badf2	0.15203074
183	0x3e174f7b	0.14776413
184	0xbe52b25b	-0.2057585
185	0x3db1bb88	0.08678347
186	0x3d955752	0.07292046
187	0x3da8d031	0.08242834
188	0xbdd19eb4	-0.10235348
189	0x3dec959d	0.11551974
190	0xbe035fca	-0.1282951
191	0xbe2ebe2c	-0.17064732
192	0x3da01936	0.078173086
193	0xbdd91bb9	-0.10600991
194	0x3c15f6a4	0.009153042
195	0xbdfcd939	-0.123461194
196	0xbe24b9fc	-0.16086572
197	0xbd929f5a	-0.071593
198	0x3e3ff85a	0.18747082
199	0x3e05a618	0.13051641
200	0xbc4b93f0	-0.012425408
201	0xbe525af4	-0.20542508
202	0xbe4ab87c	-0.19796938
203	0xbda97ee2	-0.08276154
204	0xbe335d30	-0.17516017
205	0x3e6ca735	0.2311066
206	0x3dab3ada	0.083608344
207	0xbda7ec00	-0.0819931
208	0x3e4d3405	0.20039375
209	0x3e1ccb4b	0.15311925
210	0xbd879b10	-0.06621373
211	0x3e07358f	0.13204025
212	0x3e58661e	0.21132705
213	0x3d188c4f	0.037243184
214	0xbdf56426	-0.119819924
215	0xbe34fb81	-0.17674066
216	0x3dce5492	0.10074724
217	0x3c3b5f2f	0.011436268
218	0x3e7f40f7	0.24927126
219	0xbcbdfe5a	-0.023192573
220	0x3dcdb838	0.100449026
221	0x3dd90547	0.1059671
222	0xbd0eb2c8	-0.034838468
223	0x3e7518cf	0.23935245
224	0x3e220743	0.15823083
225	0xbe4dfc69	-0.20115818
226	0x3dd529cb	0.10408362
227	0xbe4f5e0c	-0.2025072
228	0x3e83ffa3	0.25780973
229	0xbba0d00d	-0.004907614
230	0xbc44345f	-0.011975377
231	0x3da6e79a	0.08149643
232	0x3de129e7	0.1099432
233	0xbe0f233b	-0.13978283
234	0x3e113b59	0.14182796
235	0xbe48d128	-0.19611037
236	0x3e576b4f	0.21037029
237	0xbeaf770a	-0.34270507
238	0x3e88697a	0.26642972
239	0xbe187979	-0.14890088
240	0x3dbaa0f9	0.09112734
241	0x3e4b4563	0.19850688
242	0xbdc0096d	-0.09376798
243	0xbe3e1078	-0.1856097
244	0xbe105ac6	-0.14097127
245	0x3d9625b6	0.073314115
246	0x3dfcc5c4	0.12342408
247	0x3d99bed3	0.075071
248	0xbe487671	-0.19576432
249	0xbe304963	-0.17215495
250	0xbdd5e69b	-0.10444375
251	0x3e42617e	0.18982503
252	0xbd92ab85	-0.07161621
253	0xbcabf767	-0.020991994
254	0x3df16c40	0.11788225
255	0xbd93f26f	-0.07223975

fc2.bias f4 [10]
0	0x3c5a2f31	0.013316915
1	0x3ec1c471	0.37845185
2	0xbe05e80e	-0.13076803
3	0xbd5937ad	-0.053031612
4	0xbd9ed9b3	-0.077563666
5	0x3de64d60	0.11245227
6	0x3e28090e	0.16409704
7	0xbe5290f5	-0.20563109
8	0xbbe6e82f	-0.0070467214
9	0xbe3657f9	-0.17806996
