proj5/task4/results/exp4_4.pth (torch, 25423 bytes, 8 tensors)

conv1.weight f4 [10, 1, 5, 5]
000000 99 12 d5 3e 20 b9 a0 3e 3e e0 23 bd 68 ca 25 3e
       0.4161575 0.3139124 -0.040008776 0.16190493
000010 42 24 af 3b 7d 2b fd 3d 09 ae dc 3c 2e da f4 3d
       0.0053448984 0.1236181 0.026938455 0.11955677
000020 28 5f 56 3e 8f f4 e1 3c ef 74 29 3e a1 36 3b 3e
       0.20934737 0.027582435 0.16548513 0.18282558
000030 e1 4c 37 3e 1e b5 18 3e 38 a6 a5 3e 64 14 08 be
       0.1790042 0.1491284 0.32353377 -0.13289028
000040 a3 71 3a 3e 59 b3 8c 3d 21 96 62 bd f5 02 6e 3e
       0.18207411 0.06870145 -0.055318955 0.23243316
000050 81 85 5a be 27 04 d2 3c 9c 1d 48 bd ac 74 06 3e
       -0.2133999 0.025636746 -0.048856363 0.13130444
000060 57 92 7b 3c f2 65 64 3d 64 9e 8e be 6b 53 ef be
       0.015354714 0.055761285 -0.27855217 -0.4674333
000070 7e ec a1 be 25 49 ba be b5 b1 01 3f 9f 52 10 be
       -0.31625742 -0.3638393 0.50661784 -0.14094017
000080 23 8b b0 bd 43 be 8c be 4b d3 c6 be 18 95 01 3f
       -0.08620288 -0.27488908 -0.3883308 0.50618124
000090 81 6c ca 3e 24 98 98 3e 2d 15 a0 bc da 1b 24 bd
       0.39535907 0.29803574 -0.019541347 -0.040065624
0000a0 05 e5 6d 3e 75 60 a9 3e 92 dd dd 3e 90 53 f0 3e
       0.23231895 0.33081403 0.43333107 0.46938753
0000b0 49 c6 f3 3e c3 c2 45 be fa 6b d3 3c 24 23 45 3d
       0.47612217 -0.19312577 0.025808323 0.048129216
0000c0 5f 63 5e 3e ee c2 8c 3e 2b c9 28 be a2 5d dc 3c
       0.21717595 0.2749247 -0.1648299 0.026900116
0000d0 03 72 0c 3d f0 e2 67 3e 30 5d a9 bc f0 15 ea 3d
       0.034288418 0.22645164 -0.020674318 0.114299655
0000e0 3e 5a 58 3e 7e 5f 13 3e 75 9d d8 3d 3b 04 bf be
       0.21128175 0.14391896 0.105769075 -0.37307915
0000f0 36 95 81 3d 2b 6d 2b 3e d6 96 79 3e 8a 78 55 be
       0.06327288 0.16740863 0.24373946 -0.20846763
000100 55 63 5a be 5d 4e c3 3c f9 c2 f3 3e 9a 48 f6 bc
       -0.21326955 0.023841077 0.4760969 -0.030063916
000110 cc ea 8b be 20 76 88 be 3f 6a b6 3e 5f 16 b5 3e
       -0.27327573 -0.26652622 0.35627934 0.3536863
000120 64 7c 1e 3e 8e f4 a6 be 11 ce 96 be 96 b4 a0 be
       0.15477139 -0.32608455 -0.2945409 -0.31387776
000130 ef 15 90 be e1 5b 89 3d c0 63 8c 3e 41 3f c5 3e
       -0.28141734 0.06706978 0.27419853 0.3852482
000140 20 0f 88 be 6f e5 8a be f1 70 d9 3d 80 2c e5 3d
       -0.2657404 -0.2712817 0.10617245 0.11190128
000150 4b d6 78 3e f5 7e 88 be 64 f6 47 bd 03 fc a0 bd
       0.24300496 -0.2665936 -0.04881896 -0.078605674
000160 c5 0b 35 3e 09 da 5a 3e 78 66 fd bd 9e 1b 11 be
       0.17680271 0.21372236 -0.1237306 -0.14170691
000170 08 93 21 3e 8f 5c c8 3e c9 ee ec 3b de 81 18 be
       0.15778744 0.39133117 0.007230614 -0.1489329
000180 d0 9c 30 3e b6 f3 9e 3d 79 88 45 3e 87 5a 33 bd
       0.17247319 0.07761328 0.19290341 -0.043787505
000190 e4 eb 22 be b9 92 8a bc 16 a8 d0 bd d2 91 60 be
       -0.15910298 -0.016915666 -0.1018831 -0.21930626
0001a0 35 cc 87 bd d7 7e 67 be 62 5d 89 be 91 ef 42 be
       -0.06630746 -0.2260698 -0.26829058 -0.190367
0001b0 f0 d5 80 be 7a c1 51 be b7 26 ea 3d 31 58 75 bd
       -0.2516322 -0.20483962 0.114331655 -0.05989856
0001c0 fc 87 a6 bc 7d 4a 86 be 5a d8 51 be 0b 8a f6 bd
       -0.020328514 -0.26228705 -0.20492688 -0.12038048
0001d0 ae 87 21 bd 3b e7 7d be 39 e0 23 be 05 5c 47 be
       -0.039436035 -0.24795239 -0.16003503 -0.19468696
0001e0 3e ea 07 3c 2b a3 e7 bd b7 0e 93 bd f6 7c 55 be
       0.008295594 -0.11310419 -0.07180541 -0.2084845
0001f0 c5 fc 61 be f2 84 4a be fe a4 9e bd 3d 70 47 be
       -0.2206908 -0.19777277 -0.077463135 -0.1947641
000200 d5 17 4e 3d 81 d4 96 bd cc 5d 05 3d 9a ee fd bc
       0.050315697 -0.07364751 0.032560155 -0.030997563
000210 bb be 96 be c4 e3 c3 bc c0 a3 1a be d7 67 8c be
       -0.2944239 -0.023912318 -0.15101528 -0.27422974
000220 75 8e 9d be 13 53 aa be b4 17 28 bd 98 fd b7 bd
       -0.3077275 -0.33266506 -0.04103823 -0.08983916
000230 8f a6 24 3c 21 d5 02 be cb cc 80 3e 0d 95 3c bd
       0.010049476 -0.12776615 0.25156245 -0.046040583
000240 fa 6c 13 3c 28 da 81 3e 2d c3 d2 3e 90 bc e0 3e
       0.00899815 0.25361753 0.41164532 0.43893862
000250 ab 4a b4 3e 48 be 12 bd b3 42 18 3d c0 03 40 be
       0.35213217 -0.035825998 0.037172984 -0.1875143
000260 03 01 28 bd bd 6f 0b bd 08 71 c4 3e 99 c0 9f 3d
       -0.04101659 -0.03404211 0.38367486 0.07800407
000270 0d 69 95 3e 1c 47 9b 3e 10 0e af 3e 60 8d 06 3e
       0.2918171 0.3032769 0.34190416 0.13139868
000280 2f e3 d9 3e 9b bf 92 3e ec 9b 3a 3e 08 ed 57 bd
       0.4255614 0.28661808 0.18223542 -0.052716285
000290 25 2f d3 3d 47 20 28 be 1a 7a 61 be 2e ba 60 bd
       0.103117265 -0.16418563 -0.22019234 -0.054865055
0002a0 de 84 ae bd 49 14 6f be 93 f1 d5 be 8d 7a ae be
       -0.08521436 -0.23347582 -0.4178587 -0.34077874
0002b0 53 bf 89 be 0a b5 7a be 0c b6 56 be cf 42 e3 bd
       -0.2690378 -0.24483123 -0.20967883 -0.11096727
0002c0 7a e3 95 bd ef 09 b2 3e c6 4f c9 3e 8b 27 54 bd
       -0.07318778 0.34773204 0.39318675 -0.051795524
0002d0 b4 64 6a bd 8b e5 0c 3e 2c ea 4c 3e 1b 40 86 3d
       -0.057224944 0.13759439 0.20011204 0.06555196
0002e0 aa 59 ae 3c 16 06 2b 3d 7d 77 0a 3e e0 29 03 3e
       0.02128299 0.04175385 0.13522144 0.12808943
0002f0 5d 07 84 3d 43 af c2 bd a2 b4 29 bc 67 e5 d1 3c
       0.06446717 -0.09506085 -0.010358008 0.025622083
000300 b5 fe 6b 3e c2 1b 7d 3e df 0f 71 bd 92 65 a3 3c
       0.23046382 0.2471762 -0.058853026 0.019945893
000310 02 18 0e 3e 10 65 23 3e b2 22 97 3e 0e 9f 8d 3e
       0.13876346 0.15956521 0.29518658 0.27660412
000320 42 37 81 be 6d 86 1d be 68 5f 38 3e 43 8b 44 3e
       -0.2523747 -0.1538331 0.18005145 0.19193749
000330 69 e4 a9 3d 81 5e 2d be e9 40 c1 be 1f 5a cc be
       0.08295519 -0.16930582 -0.37744835 -0.39912507
000340 8c 5e 34 be d0 f4 2a bd d4 c8 7d 3e 73 70 76 bd
       -0.17614192 -0.041737378 0.24783641 -0.060165834
000350 9b d9 ba be 7d a9 8b be d3 a5 32 be 19 98 a3 3e
       -0.36494145 -0.27277747 -0.1744607 0.3195198
000360 00 de 05 3e b7 ab 6d bc 81 42 6a 3d 2d 9d d0 bd
       0.13072968 -0.014506272 0.05719233 -0.10186229
000370 ed 8e 0f bd e6 f8 bc 3e 21 2f 1f 3e 74 c7 a9 3d
       -0.035048414 0.36908644 0.15545322 0.08289996
000380 d1 9a ff bd 36 5d a2 3e 61 b5 87 3e 2e d4 63 3e
       -0.12480701 0.3171174 0.2650557 0.22248909
000390 c2 c5 cd 3d e4 ef d1 3d ec 9c 9c bd 96 60 54 3e
       0.10047485 0.10250834 -0.07647118 0.2073997
0003a0 70 f7 55 3e 8e 20 ab 3e 16 98 53 3e bb 35 52 bd
       0.20895171 0.33423275 0.20663485 -0.051320773
0003b0 94 00 17 be a5 e7 91 be 5a e8 9c be 1b 16 bd be
       -0.14746314 -0.28497043 -0.3064602 -0.36930928
0003c0 2b 9a 9e bd 0c 25 55 be 63 82 32 be 9b 48 64 be
       -0.07744249 -0.20814914 -0.17432551 -0.22293322
0003d0 ed f3 27 be ce be 7e be 94 b2 54 be a4 a3 d2 bc
       -0.16401644 -0.24877474 -0.20771247 -0.025712796
0003e0 9d 3f 9f bd ac 81 d2 3d
       -0.07775805 0.10278639

conv1.bias f4 [10]
000000 be f3 d6 bc 32 44 64 be 4f 32 ad bd c5 fe b1 bd
       -0.026239272 -0.2229164 -0.08456861 -0.086911716
000010 43 3e eb 3d ee 39 3a be c1 52 f8 3c 5c 2c 40 be
       0.11486485 -0.18186161 0.030312898 -0.18766922
000020 d7 ea a2 3d fb 95 45 3c
       0.079549484 0.012059684

conv2.weight f4 [20, 10, 5, 5]
000000 ac db 90 bc f5 f7 e3 bd 48 cc 28 bd d6 08 c0 bd
       -0.017682873 -0.111312784 -0.041210443 -0.09376685
000010 62 7c 80 bc f6 13 38 3d 42 8a 45 3d 95 6f ad 3c
       -0.01568431 0.04494091 0.048227556 0.02117137
000020 bf 7e 81 3d 67 95 17 bc d3 fb 0b be e3 c6 75 be
       0.06323003 -0.009251929 -0.13670282 -0.2400165
000030 47 1d 2e be dc 35 2d bd 2d e9 30 3d cd 61 b9 bd
       -0.17003356 -0.042287692 0.043191124 -0.09051857
000040 6d e0 00 bc 32 5c df 3d 9f e0 a1 3d a1 7a 81 3c
       -0.007866007 0.10906257 0.07904171 0.015805544
000050 47 7f 4b 3d 38 77 c5 bb f8 91 53 bd 42 52 b0 b9
       0.049681928 -0.006026175 -0.05165288 -0.00033630623
000060 28 04 8d 3d 6f 40 b0 3c 14 20 21 3e 8c 46 66 3e
       0.06885558 0.0215151 0.15734893 0.22487849
000070 87 6c 8a 3d f5 26 e7 bc f1 0b bb 3c 39 a0 57 bd
       0.06758981 -0.028216818 0.022832843 -0.052643035
000080 26 0b f1 bd 95 8d 16 be 11 77 45 bd 5e dd 2b be
       -0.117697045 -0.14702447 -0.048209254 -0.16783664
000090 60 93 e6 bd 6d 4c 44 be 56 9f be bd 45 89 18 3c
       -0.11258578 -0.19169779 -0.09307735 0.009310071
0000a0 0e 3a ed bd b4 ae 3f bd 50 fd 8f bd 53 cd 47 3d
       -0.11583339 -0.04679747 -0.070307374 0.048779797
0000b0 3b c8 3d 3c 23 e7 09 3e 90 99 0e 3d 14 ff 93 3c
       0.011583383 0.13467078 0.034814417 0.018065967
0000c0 0f 5c 13 3c da cb a9 3d 9d 4e ba 39 79 7a fb bd
       0.008994116 0.08290835 0.00035535256 -0.12279219
0000d0 66 1c 21 be 6c 34 cd bc 87 2e bc 3d a0 3a f4 bc
       -0.1573349 -0.02504941 0.09188562 -0.02981311
0000e0 23 b0 4d bd 4d 36 92 bd 56 ae 39 3d f2 b5 6d 3d
       -0.050216805 -0.07139263 0.045332275 0.058034845
0000f0 7e 66 ae bd 40 51 a9 bd 37 da 7a 3d 45 2d 32 3e
       -0.085156426 -0.0826745 0.061243262 0.17400081
000100 a1 97 89 bd 5e f9 aa bc 7c e7 51 bd 40 c7 13 be
       -0.06718374 -0.02087086 -0.05124615 -0.14431477
000110 6c 70 74 bd 4e c3 82 bd 24 42 98 3c a2 e7 71 bc
       -0.059677526 -0.06384908 0.018586226 -0.014764698
000120 27 e3 a8 bd d0 ac 44 3c b2 c5 1b bd ec 0d 0b be
       -0.08246451 0.012004092 -0.038030334 -0.1357953
000130 a0 77 a9 bd e1 e4 85 bd 90 5d 00 be 12 78 a3 bd
       -0.0827477 -0.06537796 -0.12535691 -0.07981886
000140 d8 de 85 bd 83 10 d6 3b 84 45 07 bc 99 3f cf 3d
       -0.06536645 0.00653273 -0.00825632 0.10119552
000150 06 01 33 bc 15 b9 cd bd 46 f6 ed 3c 64 10 a8 bc
       -0.010925537 -0.10045067 0.029048096 -0.020515628
000160 3e 3f 9c 3c 3f 17 c6 bc 25 b4 4d bd d9 6b 4e 3d
       0.019073125 -0.024181006 -0.050220627 0.05039582
000170 ed d5 93 3c 44 99 73 bc 12 44 a0 bd f2 e8 6f bd
       0.018046344 -0.014868084 -0.078254834 -0.058571763
000180 f6 0d 17 3d 70 52 41 bd c8 4b ed bd cf 03 13 3b
       0.03687855 -0.04719776 -0.1158672 0.002243269
000190 c3 9d 4f bd 85 0b 3c bd 1a 38 aa bd 9b 5a 1b bd
       -0.050687563 -0.045909423 -0.08311482 -0.037928205
0001a0 d5 f5 3c 3c 8b 3c 45 bc 09 3c b5 bb 3c 38 be bd
       0.01153322 -0.01203836 -0.0055308384 -0.092880696
0001b0 60 b2 b2 bd 76 8d 24 bd 3e ad 67 3d 07 ef 65 3d
       -0.087254286 -0.04017397 0.0565617 0.056136157
0001c0 d0 84 a8 bd 50 35 72 bd b2 fa ad bd 6b fc a1 bd
       -0.08228457 -0.059132874 -0.08495082 -0.07909473
0001d0 6b 61 d5 bc ac b0 80 3b 79 7a 08 3d 76 f8 b7 bd
       -0.02604743 0.003927311 0.033319924 -0.08982937
0001e0 bb e0 87 3b b9 2a b1 bd b5 10 32 bc e3 ce 05 3d
       0.004146663 -0.08650727 -0.010868241 0.032668006
0001f0 75 90 e4 bc 7b 20 99 3d 7a 82 8b 3d 50 98 23 3e
       -0.027900914 0.07476898 0.06811996 0.15976071
000200 f5 ee 98 3d b8 61 08 bd 2e 47 dd bb 28 54 0d 3d
       0.074674524 -0.033296317 -0.00675287 0.034504086
000210 45 7a a0 3d e0 f4 61 bc 70 9d 59 bd 72 2e af bc
       0.07835821 -0.013791293 -0.05312866 -0.021384452
000220 6e c6 dc 3d 17 a8 c4 3d a6 8b 9d 3d 3c d2 db 3b
       0.10780035 0.09602373 0.076926515 0.0067084115
000230 17 7c 31 bd 61 a4 a4 bc 90 96 40 bc 4a 9e 0f 3d
       -0.043331232 -0.020097913 -0.011754647 0.035063066
000240 9c c7 c1 3c af aa 03 bd e0 c3 09 bc 58 b6 da 3c
       0.023654751 -0.0321452 -0.008408517 0.026698276
000250 c4 28 2c 3c 7d 3a fd 3c d8 79 11 bd 9d aa 00 bd
       0.010507766 0.030911678 -0.03551659 -0.03141271
000260 4a e5 cb 3c 3e da 62 bd d2 12 c0 bd 12 d6 5b 3d
       0.024889607 -0.055383913 -0.0937859 0.05367095
000270 7f bd 60 3e f4 bc 3d 3e 47 dd 85 bd f1 49 fa bd
       0.21947287 0.18529111 -0.06536346 -0.122211345
000280 48 af 28 3d 6e 6f e4 3d df ff 01 3d e2 5d 36 bc
       0.041182786 0.11154066 0.03173816 -0.011130782
000290 ea 76 9e 3d 75 1a 09 bd 5c bd ae 3d 13 7b 06 3b
       0.07737525 -0.033472497 0.08532211 0.0020520135
0002a0 f0 26 fe bc 4e 0e ba 3c b2 12 de 3d f4 29 0f 3d
       -0.031024426 0.0227119 0.108434096 0.03495212
0002b0 04 29 b3 3c a9 ad 7e 3d bd 3f 4a 3c a7 92 28 bc
       0.021870144 0.062177334 0.012344298 -0.010288871
0002c0 39 07 a6 bd 16 7a 15 bc dc a0 00 3d 00 d1 9d 3c
       -0.08106846 -0.009123346 0.031403407 0.019264698
0002d0 c0 a6 1a be 11 f2 32 be e1 74 42 be 7a 72 ea 3d
       -0.15102673 -0.17475154 -0.18989898 0.11447616
0002e0 02 28 ae 3d fd c4 2f be d9 33 70 be 99 6a 8b 3c
       0.08503725 -0.17164989 -0.23457278 0.017018603
0002f0 7e 6b 0a 3e 8a 53 28 bd 94 ab ec bc fc 80 40 bd
       0.13517568 -0.041095294 -0.028890409 -0.04699801
000300 bd 82 16 bd 2f bf 2a bd df 5b 98 3d cd 9a dd 3c
       -0.036745775 -0.041686233 0.07439398 0.027051354
000310 b0 5c 89 3d 4e 1f 0a 3d cb 46 34 bd 02 56 89 bb
       0.06707132 0.03372126 -0.044012826 -0.004191161
000320 07 b9 9d 3b 04 14 5b 3d 7b a1 dd 3d 82 c6 9d 3c
       0.0048133167 0.053485885 0.108218156 0.019259695
000330 16 e6 91 3c e1 6b c3 bc ad 73 5c bd 94 58 d2 bd
       0.017809909 -0.023855152 -0.053821255 -0.10270801
000340 f6 1a 17 bd 45 15 1e bd 3d 4f 26 3d 73 d2 43 3c
       -0.036890946 -0.038594503 0.04060291 0.0119520305
000350 0b fc 4c bd 5a f6 b8 bd ad 52 83 bd 4e 25 3c bc
       -0.050045054 -0.09031363 -0.064122535 -0.0114835035
000360 18 4a 5e bd 19 a7 3a bd b7 23 2a bd a2 c0 97 3c
       -0.05426988 -0.045569513 -0.041537967 0.018524472
000370 27 6b e5 bb cb 2a 93 bd f7 c7 8e bd 1b 32 d8 bb
       -0.007001299 -0.071858965 -0.06971734 -0.00659777
000380 aa 61 2f bd 07 f6 1d bd 0d 8f ea 3c 19 d1 fd bc
       -0.04281775 -0.038564708 0.028632665 -0.030983495
000390 f3 78 4d bd ce bd 94 bd 6d 9d 93 3d 6e 44 64 3e
       -0.050164174 -0.07262765 0.07207761 0.22291729
0003a0 a9 2d 84 3e 75 15 01 bb 99 31 a2 bd 03 74 95 3d
       0.25816086 -0.0019696627 -0.07919616 0.07297518
0003b0 7a ed 1a 3e dd fc e8 3d ad 54 f0 3c 50 65 99 3b
       0.15129653 0.11376355 0.029337252 0.004681267
0003c0 08 20 4b bd 2e e7 72 3d 77 78 0a 3e d9 22 06 3e
       -0.049591094 0.0593025 0.13522516 0.13099231
0003d0 e6 77 57 3d f9 6d 6f 3c 06 cb a8 bd b9 96 49 bd
       0.05260458 0.014613622 -0.08241849 -0.049216006
0003e0 ad a1 0d 3c ea dc 75 3d 8d c0 b0 bc cf e0 b4 bd
       0.008644504 0.060025133 -0.02157619 -0.08831941
0003f0 35 a7 b0 bc bf d9 c0 bb ce 7c bd 3d 80 c3 07 bd
       -0.021564106 -0.0058853324 0.0925232 -0.033145428

conv2.bias f4 [20]
000000 8d 40 1c 3d 26 53 7b bd c3 32 8b bd d4 50 9b bd
       0.038147498 -0.061358593 -0.067967914 -0.07583776
000010 3f 3b 99 bd b1 71 3c 3d b7 d0 d0 3c 13 14 96 bd
       -0.074820034 0.046006862 0.025490148 -0.073280476
000020 6c 99 7b 3b fc 2a 6c bd 29 3c 87 bb 44 01 67 3b
       0.0038391007 -0.05765818 -0.0041270447 0.0035248557
000030 09 95 0c 3b 85 1e fa bb 68 40 7c 3d 0d 43 2d 3b
       0.0021451137 -0.0076330327 0.06158486 0.002643767
000040 ce cc ea bc 0d 07 9b bd a9 97 90 3d 7a ae a5 bc
       -0.028662112 -0.07569704 0.07060177 -0.020224798

fc1.weight f4 [15, 20]
000000 e5 b0 a0 be a9 8d b2 3d 12 b4 ce 3e 9f b7 ad 3e
       -0.3138496 0.08718426 0.40371758 0.33929154
000010 a6 9f 20 be 91 98 af 3c bd 42 f6 bb 20 2e 0f 3d
       -0.15685901 0.021435054 -0.00751528 0.034956098
000020 35 05 0d bd 7d 44 e3 3e b2 19 a5 be 76 38 82 bc
       -0.034428794 0.4438819 -0.32246166 -0.015896063
000030 87 09 a0 bd 1f f9 e0 3d 27 88 9e be 23 80 03 be
       -0.07814317 0.10985016 -0.3096325 -0.12841849
000040 c4 d5 02 3f 92 4c 09 3e 5b 60 db bd 3b 4a 72 3d
       0.5110743 0.13408116 -0.10711738 0.059152823
000050 7c d9 0e bd bc c2 de 3e 9a ec 33 bd 06 c1 18 bd
       -0.034875378 0.43507946 -0.043926813 -0.037293456
000060 73 f7 52 be bb 50 05 3d fb d2 e1 3d ea d4 01 3f
       -0.20602207 0.032547694 0.110265695 0.50715506
000070 95 91 b4 3e 40 eb 4b bd 01 d0 8d 3d 17 fc 5d be
       0.3526732 -0.0497849 0.06924439 -0.21678196
000080 b6 52 5b 3e a3 28 36 bc ab 53 6c 3e 51 6f 06 ba
       0.2141827 -0.011118087 0.23078792 -0.0005128282
000090 5b 94 c5 bc 47 94 01 bc 4c 5e d6 39 f7 c1 c4 3e
       -0.024118593 -0.007908887 0.00040887517 0.38429233
0000a0 00 c1 a7 3e 4f a7 8c bd c5 9a 07 be ef 6e 38 bd
       0.32764435 -0.06867849 -0.13242634 -0.04502767
0000b0 60 3a 05 bc 87 ce 75 3e b0 c6 08 bd 0f 66 84 bd
       -0.0081315935 0.24004565 -0.03339261 -0.06464779
0000c0 bc e0 9f 3d 43 f7 14 be b9 60 bd 3e 52 77 71 bb
       0.078065366 -0.14547448 0.36987856 -0.0036844802
0000d0 09 42 ee 3e 04 66 c4 3d ae 7b 19 3f 18 30 98 3c
       0.46534756 0.095897704 0.59954345 0.01857762
0000e0 c3 57 5a be 71 b2 f9 3d 65 28 75 bb b4 64 cc bc
       -0.21322541 0.12192238 -0.003740811 -0.024950363
0000f0 19 1b 7a bc 7f df 26 bd 55 50 23 be a1 e0 86 3d
       -0.01526525 -0.040740486 -0.15948613 0.06585813
000100 b8 1e d1 bd c0 8f cf 3e bc fd e2 3e 3f 03 6e bb
       -0.10210937 0.4053936 0.4433421 -0.0036317853
000110 4c 1c d5 3e 80 95 2e bd 72 45 ef ba 1a 0d 27 be
       0.4162315 -0.042623043 -0.0018254949 -0.16313592
000120 67 cc 55 3e 9d 32 fd 3e 3f dd 48 bb db af 04 3e
       0.20878755 0.49452677 -0.003064945 0.12957709
000130 38 90 a6 bc 65 09 17 bd 9e 38 6b bd a1 c7 67 bb
       -0.02033244 -0.036874194 -0.05742704 -0.003536679
000140 3f 32 56 3c c4 d0 3e be 38 1a 00 be 23 2f 0a be
       0.013073503 -0.18634325 -0.12510002 -0.13494544
000150 da 54 f0 3e b6 43 b6 3e 72 b3 65 be 0f 09 65 be
       0.46939737 0.35598534 -0.22431734 -0.22366737
000160 84 2d 43 be d6 72 2e bd 52 10 ec 3a 45 24 c0 3e
       -0.19060332 -0.042589985 0.0018010235 0.3752767
000170 e3 bd aa 3e e2 0a b3 3e 7b 2a 27 bd dd e0 7b bd
       0.33347997 0.3496924 -0.040811997 -0.061493743
000180 f1 0f 0a 3c de 89 8e bd d3 12 d7 bc 4d e1 1c be
       0.008426652 -0.0695989 -0.026254093 -0.1532032
000190 a4 4f 18 3f 1f f5 f7 bc 6b ad 2a 3e db ba 18 bd
       0.5949652 -0.03026825 0.16667716 -0.037287574
0001a0 e3 83 80 bb f2 55 02 be 0d ec 5d 3e 09 9b 26 3b
       -0.003921972 -0.12728098 0.21672077 0.0025421998
0001b0 76 85 81 3e 37 f5 b0 bc 63 58 f7 3e 4a 7a 87 3b
       0.25297135 -0.021601303 0.4830962 0.004134451
0001c0 1c 52 76 be b4 80 4d be ae 6a 91 3e b4 29 b5 3e
       -0.2405476 -0.20068628 0.28401703 0.3538338
0001d0 83 22 07 be 67 2c fd bc 9c c9 30 3e d5 21 cf bb
       -0.13196759 -0.030904962 0.17264408 -0.0063211718
0001e0 46 4e 3a 3e 4d 33 56 be 1e 5e 9c 3e 5a 22 24 be
       0.18193921 -0.20918007 0.30540556 -0.16028729
0001f0 b4 ef 2a 3e e0 a0 44 be 70 05 8b be 83 15 65 be
       0.16693002 -0.19201994 -0.27152586 -0.22371487
000200 a1 30 49 be cd 99 ac 3d fb 0d 42 3e c3 41 28 3e
       -0.19647457 0.08427773 0.18950646 0.16431336
000210 d0 f5 19 be 42 3f 52 be 6a 07 14 3e 7e 8d 33 bd
       -0.15035176 -0.20531943 0.14455953 -0.04383611
000220 11 68 fd bd bb 93 a6 3d a4 8c 0f 3e 9d 63 6c be
       -0.12373365 0.08133646 0.14018494 -0.23084874
000230 a1 00 c9 3e 62 b1 5f bb ea 21 ff bd dc 1b 32 bd
       0.39258292 -0.0034132828 -0.124576405 -0.0434836
000240 b9 46 44 bb a9 01 99 bd 8d cc 6a bc a0 99 97 bb
       -0.002994938 -0.0747102 -0.014330995 -0.004626468
000250 95 2a fe 3c 1d 88 07 bd e3 7b b6 3e 26 db 1d 3b
       0.031026164 -0.033088792 0.35641393 0.0024086921
000260 30 30 20 be eb 83 d8 3d 2c 95 52 3e 49 13 3b be
       -0.15643382 0.10572036 0.20564717 -0.18269075
000270 15 a6 a4 3e 41 01 cb 3e 2f 8a 98 be 24 86 8b bb
       0.3215796 0.39649394 -0.29792926 -0.004257934
000280 70 64 d3 bd 05 b9 59 be b3 17 48 3e f0 4e 6c be
       -0.10321891 -0.21261986 0.1954029 -0.23076987
000290 8c b8 79 bd b0 37 f4 3d 62 88 96 be 96 7b 96 be
       -0.060967013 0.11924684 -0.29400927 -0.29391164
0002a0 54 2e ec bd 4a 06 64 3d c6 88 49 bd 0f 1b 48 bd
       -0.11532274 0.05567006 -0.049202703 -0.04885393
0002b0 67 51 b4 3e 07 67 4d 3d 73 9c 4f 3c 71 fd 76 3e
       0.35218355 0.050147083 0.012671578 0.24120118
0002c0 a2 63 50 be 6b 06 31 be 5c 3d 03 3f 64 26 93 be
       -0.20350507 -0.17287605 0.512655 -0.28740227
0002d0 bf 9d b4 bd 51 9f cc bc f1 6b e4 bd 7e b7 7c 3d
       -0.0881915 -0.024978312 -0.11153401 0.06169843
0002e0 b8 34 14 3f 60 56 67 be 08 20 b7 3c 77 16 61 3c
       0.5789294 -0.22591543 0.02235414 0.013738266
0002f0 24 05 87 bb 1a fa 4b be 34 6a 83 bd ff 0d 0b 3f
       -0.004120486 -0.19919625 -0.06416741 0.5431823
000300 f8 03 f5 bc 4c cc ab bd 20 f9 21 be 8f 79 52 be
       -0.029909119 -0.08388576 -0.1581769 -0.20554183
000310 22 b2 38 be f1 8c 64 be f9 d1 c8 bd 14 8a c9 3c
       -0.18036702 -0.2231939 -0.09805674 0.024601974
000320 2e c7 a0 bb d3 b9 82 3b af 97 c6 3e 64 1e 56 3e
       -0.0049065566 0.003989437 0.387876 0.2091003
000330 1f 84 53 be c7 5e c9 bc ed 48 f4 bd 74 b8 12 bd
       -0.20655869 -0.024581326 -0.11927972 -0.03582044
000340 6b 51 22 be 47 6e fe 3e 14 38 ab bd 12 57 9a bd
       -0.15851371 0.4969351 -0.083603054 -0.075361386
000350 41 38 66 be 57 d2 34 3d de 14 6d 3b 21 36 c5 bb
       -0.22482397 0.04414591 0.0036175768 -0.0060184156
000360 62 d2 00 3f 77 f6 af 3e da 37 65 3d b0 93 0d bd
       0.5032102 0.34367725 0.055961467 -0.034564674
000370 79 c0 77 3c 1e 0f ca 3e f3 17 f6 3d fc 58 ac 3c
       0.015121573 0.39464658 0.12016287 0.021038525
000380 f3 50 06 be 42 59 42 be 34 03 5e 3e 85 9f c9 3e
       -0.13116817 -0.18979362 0.2168091 0.39379516
000390 68 b5 b2 3e 1d 63 62 3d 51 f7 0a 3b 1a e3 88 bd
       0.34904027 0.055270303 0.002120454 -0.06683941
0003a0 ce 4f 0e be 3f 4d 25 be e2 99 ec bd 1e 9f b6 3d
       -0.1389763 -0.16142748 -0.11552788 0.08917068
0003b0 97 02 92 3c 68 fe a0 bc 4d 2e 96 3d f8 05 ab 3e
       0.0178235 -0.01965256 0.0733305 0.3340299
0003c0 99 eb ab bc 11 26 47 be 5b a4 31 be 8c dc 4d 3d
       -0.020986365 -0.19448115 -0.17347853 0.050259158
0003d0 ec 0d 08 be 28 31 00 3f 4b c4 f0 bc 29 c2 d0 bd
       -0.13286561 0.50075006 -0.029390475 -0.10193283
0003e0 fe 07 1a be a1 74 03 bd 8a d3 05 ba c8 ad 19 be
       -0.15042111 -0.032093648 -0.0005105069 -0.15007699
0003f0 9b 8b 9e 3e 51 49 01 3f f4 2d 6e 3e 8c 0f 21 bd
       0.30965886 0.50502497 0.23259717 -0.039321467

fc1.bias f4 [15]
000000 3a 2d 17 bd de 7d ba ba 2a 53 a2 b9 3c 8a 80 ba
       -0.036908366 -0.0014228185 -0.0003096101 -0.0009806822
000010 1c e2 06 3f 67 ec fc bd 76 65 50 3a 76 07 a3 bd
       0.52688766 -0.12349778 0.0007949689 -0.079604074
000020 0b 65 a7 3e 80 5e d6 3e d7 66 9f 3c a2 b0 4a be
       0.32694277 0.41868973 0.019458218 -0.19793943
000030 bc 31 37 39 13 24 1c 3e 95 77 1e be
       0.00017470767 0.15248136 -0.15475304

fc2.weight f4 [10, 15]
000000 1e f7 97 3e 83 32 1e bf d2 34 3b be 44 cd af 3b
       0.29680723 -0.61795825 -0.18281868 0.0053650457
000010 2a f7 b6 be 15 de 9e 3e 66 29 a5 3e 80 67 23 be
       -0.35735446 0.3102881 0.32258147 -0.15957451
000020 43 74 e4 3e 7c d9 4f be 34 4a c5 3e 3c e1 99 3e
       0.4461995 -0.20297807 0.38533175 0.30054653
000030 3b ef 8f be fe 1c e8 be 22 cc d9 3e 9a 28 de be
       -0.28112206 -0.4533462 0.42538553 -0.43390352
000040 c7 fe 4f 3e 76 8d bf 3e e4 a1 c7 3e 7f d4 96 3e
       0.20312034 0.37412614 0.389907 0.29458997
000050 c2 10 6c 3e 18 70 17 be 88 d2 f4 bb 95 1d d5 3e
       0.23053268 -0.14788854 -0.0074713863 0.41624132
000060 6a 3b db be cd 83 02 be 52 36 5d be 80 cf cc 3e
       -0.42818767 -0.1274559 -0.21602753 0.4000206
000070 c1 20 e5 be 60 b8 c2 3e be e3 be 3d 44 f5 6d 3e
       -0.44751552 0.38031292 0.09320782 0.23238093
000080 88 0b d0 3e a2 e1 ae bd 35 0b 1c be 33 a2 b9 3e
       0.40633798 -0.0853913 -0.1523865 0.3625656
000090 0c 8a 92 3e 88 d6 9b 3e 42 ad 37 be 0f f9 94 be
       0.28620946 0.30437112 -0.17937186 -0.29096267
0000a0 d0 4a a4 3e 06 46 2c be 1f 40 a9 3e 63 3c 8d bd
       0.32088327 -0.16823587 0.33056733 -0.068962835
0000b0 2d d4 98 3d 23 b9 06 bf cf 8a d7 bd ed 82 b3 3e
       0.07462344 -0.52626246 -0.105245225 0.35060826
0000c0 d8 f2 99 be 56 c2 93 3e e5 58 b9 3e 83 2d 9d 3e
       -0.30068088 0.28859204 0.36200634 0.30698785
0000d0 d2 4a 91 3e ac 81 be be a8 95 ac 3e 89 85 cd be
       0.28377396 -0.37208307 0.3370793 -0.40140942
0000e0 12 d5 0d be b8 18 7f be a0 c0 7d 3e 7f 50 ab 3d
       -0.13850811 -0.24911773 0.24780512 0.08364963
0000f0 de 68 ae 3e 1f 6d a7 3e ae 11 ec bd 09 17 21 be
       0.34064382 0.3270044 -0.1152681 -0.15731443
000100 ef ca 0d bf f3 ef 02 bf 30 15 ae be a0 83 88 3e
       -0.5538778 -0.51147383 -0.3400054 0.26662922
000110 69 84 cd be f1 d0 ac be d6 55 c1 3e 50 c4 e3 3e
       -0.40140083 -0.3375316 0.377608 0.44485712
000120 2a 11 27 3e 2f 62 c5 3e 81 58 84 be df 90 75 be
       0.16315141 0.3855147 -0.25848773 -0.23981045
000130 67 e8 5d be 09 43 a9 be 6d 72 40 be ab 94 a2 3e
       -0.21670686 -0.33058956 -0.1879365 0.3175405
000140 a0 3b 5c be 85 dd 6b 3e 06 31 a1 be be 20 67 be
       -0.2150712 0.23033722 -0.31482714 -0.22571084
000150 63 9e b6 3e 4d 3c 25 bd e9 f1 33 be cf 88 8a be
       0.35667714 -0.04034071 -0.1757275 -0.27057502
000160 7b 89 a7 3e f7 3f b9 be 0c 76 ab 3e c7 92 e2 be
       0.32722077 -0.36181614 0.334885 -0.44252607
000170 5f 4f 5d 3e fa a2 c1 3e e9 cf 83 3e 92 b3 01 bf
       0.21612309 0.37819654 0.2574456 -0.5066463
000180 ac f0 81 be 36 67 85 3e 02 1a b9 3b 6d 9b 63 be
       -0.2537893 0.26055306 0.0056488523 -0.22227259
000190 56 ef ce 3e e3 a6 9b be ee 6e d9 3e 27 cd af be
       0.40416974 -0.30400762 0.42467445 -0.34336206
0001a0 cf ba 85 be 09 2a a3 be a9 8b a8 3e 09 73 ab 3e
       -0.26119086 -0.31868008 0.32919052 0.33486202
0001b0 03 28 b8 3e 22 a8 00 bf a2 aa b9 3e 19 34 0e bb
       0.35968027 -0.5025655 0.36262995 -0.0021698533
0001c0 46 35 7e 3e 8c 3e c9 bc e6 cb f8 be b4 68 af be
       0.2482501 -0.024565957 -0.48593062 -0.3425957
0001d0 be 57 eb 3e 40 ae 09 be ef d6 c4 3e c7 d9 af 3e
       0.4596538 -0.13445377 0.3844523 0.34345838
0001e0 67 b9 8d be e8 38 e8 bd 35 e9 58 bd 5d aa 17 be
       -0.27680513 -0.11338979 -0.05295678 -0.14811082
0001f0 65 c4 06 3e c2 d9 04 bd 96 70 48 be 87 69 11 be
       0.13160856 -0.032434233 -0.19574198 -0.14200412
000200 50 07 d9 3d c1 fb 3c 3e ab 93 6c bd 21 fd ad bd
       0.10597098 0.18455411 -0.057758015 -0.08495546
000210 af a7 13 be 3b 3b 47 3d 37 dd 99 be 08 12 42 3e
       -0.14419435 0.04864047 -0.30051586 0.18952191
000220 46 9e b3 3e 5b 51 83 be 3c 7e a6 3e 39 c4 85 be
       0.3508169 -0.25648007 0.32518184 -0.26126269
000230 c7 41 6c 3e c1 8f af be 7c 3a 79 be 08 8c b5 be
       0.23071967 -0.34289363 -0.24338716 -0.35458398
000240 68 b9 63 3e 94 82 fc 3b 52 35 e7 3e 55 07 9b be
       0.22238696 0.007705996 0.45157868 -0.3027903
000250 26 95 be 3e fe db 1e bd
       0.37223166 -0.03878402

fc2.bias f4 [10]
000000 49 e4 5d be ec 22 c3 be ac 67 3b be 1c 83 df 3c
       -0.21669115 -0.3811258 -0.18301266 0.027284198
000010 ba 75 4d be 54 a7 25 3f 3b 83 3e be 43 65 3c bf
       -0.2006444 0.6470845 -0.18604748 -0.73592013
000020 02 d6 c0 3f 46 5e 86 b8
       1.506531 -6.407178e-05
