proj5/task4/results/exp4_3.pth (torch, 29007 bytes, 8 tensors)

conv1.weight f4 [10, 1, 5, 5]
0	0x3e63c942	0.22244743
1	0x3ea4a035	0.32153478
2	0x3e2fd335	0.17170413
3	0x3e80e169	0.25171974
4	0xbd0217d5	-0.03176101
5	0x3d9ac5ce	0.075572595
6	0x3d6acecf	0.057326134
7	0x3e662407	0.22474681
8	0x3e230f73	0.15923862
9	0xbdd7ddae	-0.10540329
10	0x3daa0c7d	0.08303163
11	0x3dd95ec9	0.10613782
12	0x3e53f736	0.20699772
13	0x3d2b56bd	0.041830767
14	0x3d921698	0.07133216
15	0xbdc213b4	-0.09476414
16	0x3e41f62d	0.18941565
17	0x3e4184c0	0.18898296
18	0xbcaacd19	-0.020849751
19	0x3c8e5160	0.017372787
20	0xbe114db3	-0.14189796
21	0x3d039f51	0.032134358
22	0x3e00c7a2	0.12576154
23	0x3e958c5a	0.29208642
24	0xbd673e73	-0.05645604
25	0xbaba9dbf	-0.0014237686
26	0xbe370fcc	-0.1787712
27	0xbec3a8e9	-0.38214806
28	0xbe95eb39	-0.29281023
29	0xbebf7355	-0.3739268
30	0x3ee1b02a	0.44079715
31	0xbbc1f7d0	-0.005919434
32	0x3ca0100c	0.019538902
33	0xbe4241fc	-0.18970484
34	0xbe91418e	-0.28370327
35	0x3eb3e0c6	0.35132426
36	0x3ec09c4c	0.37619245
37	0x3ec6ef03	0.38854226
38	0x3d0e3a13	0.034723353
39	0xbe16eaaa	-0.14737955
40	0x3db8638a	0.090033606
41	0x3e5332f6	0.20624909
42	0x3ead2ae6	0.3382179
43	0x3ec7fc05	0.39059463
44	0x3ebaab73	0.3645893
45	0xbe5058d1	-0.20346381
46	0xbc27cebc	-0.01024216
47	0xbd844e72	-0.06460275
48	0x3e359f8a	0.1773664
49	0x3e808009	0.25097683
50	0xbddd245a	-0.10797949
51	0x3dbefe60	0.09325862
52	0xbcd6112c	-0.026131235
53	0x3e00f537	0.12593542
54	0xbd564b15	-0.052317698
55	0x3dd88c4e	0.10573636
56	0x3e20f1f9	0.15717305
57	0xbd28b69e	-0.041189782
58	0x3c9eab9b	0.019368937
59	0xbebc948e	-0.36832088
60	0x3e110ddc	0.14165443
61	0x3da84ab3	0.08217373
62	0x3dcaa535	0.09894792
63	0xbe6a2175	-0.22864325
64	0xbe5064e0	-0.20350981
65	0x3e48db9f	0.19615029
66	0x3ecdd817	0.40203926
67	0xbe4fabd3	-0.2028039
68	0xbe9dc221	-0.3081217
69	0xbe9e0d50	-0.30869532
70	0x3ef7f5a4	0.48429596
71	0x3e7d98fb	0.24765389
72	0x3d9d24e6	0.076730534
73	0xbeb61d82	-0.35569388
74	0xbec07883	-0.37591943
75	0xbedcb019	-0.43103102
76	0xbec66baa	-0.38754016
77	0xbe05a072	-0.13049486
78	0x3d8fef6a	0.070280865
79	0x3ec54108	0.38526177
80	0xbea0307b	-0.31286988
81	0xbe8d05a0	-0.27543354
82	0x3ddd13cd	0.10794792
83	0x3de5247a	0.11188598
84	0x3e94004a	0.2890647
85	0xbe998777	-0.29986164
86	0x3b0de6ab	0.0021652381
87	0x3d04b1f8	0.032396287
88	0x3e454f28	0.19268477
89	0x3e3e7d46	0.18602476
90	0xbe3443db	-0.1760401
91	0xbdd8aae6	-0.10579471
92	0x3e411934	0.1885727
93	0x3eaf4058	0.34228778
94	0xbd06e86a	-0.03293649
95	0xbe2b2703	-0.167141
96	0x3e6589c8	0.2241584
97	0x3dfb5de3	0.12273767
98	0x3e552b45	0.20817287
99	0xbd043341	-0.032275442
100	0xbdf08f30	-0.11746061
101	0xbce87859	-0.028377699
102	0xbe109a3c	-0.14121336
103	0xbe7e13e8	-0.24812281
104	0xbdcb8514	-0.09937492
105	0xbdfc40e2	-0.12317063
106	0xbe7a82b0	-0.24463916
107	0xbe56343d	-0.20918365
108	0xbe886eff	-0.26647183
109	0xbe64677c	-0.22305101
110	0x3e848846	0.25885218
111	0xbc70d986	-0.014700299
112	0xbce96b1a	-0.028493453
113	0xbe9088dc	-0.28229415
114	0xbe63dd50	-0.22252393
115	0xbc071d0e	-0.008246673
116	0x3bd002bb	0.0063479817
117	0xbe796095	-0.2435325
118	0xbe34a50d	-0.17641087
119	0xbe4c6a45	-0.19962414
120	0x3d816cf6	0.06319611
121	0xbdba4664	-0.09095457
122	0xbda99172	-0.082796946
123	0xbe6db86b	-0.23214881
124	0xbe72d949	-0.237157
125	0xbdb212b5	-0.08694974
126	0xbd26ddbf	-0.040738817
127	0xbe1f1d81	-0.15538599
128	0x3da82986	0.08211045
129	0xbd6f3420	-0.05839932
130	0x3e6d9064	0.23199612
131	0xbb769f70	-0.0037631653
132	0xbeac4d02	-0.33652502
133	0xbd6891fa	-0.05677984
134	0xbe044241	-0.12915899
135	0xbd190329	-0.03735653
136	0xbea013c4	-0.3126508
137	0xbee05490	-0.43814516
138	0xbe2afc7e	-0.1669788
139	0xbd55330a	-0.052050628
140	0x3e3a46ef	0.18191122
141	0xbde6ab6c	-0.11263165
142	0x3e2165fc	0.1576156
143	0xbd829203	-0.06375506
144	0x3e2a6a1a	0.16642037
145	0x3ea87673	0.3290287
146	0x3efc18a4	0.4923755
147	0x3f01148b	0.5042197
148	0x3eddfbb0	0.43356085
149	0x3d77dfbe	0.06051611
150	0xbc6004fe	-0.013673065
151	0xbdbacf28	-0.09121543
152	0x3e054d3c	0.13017744
153	0x3b02c8bd	0.0019956075
154	0x3eabaa92	0.33528572
155	0xbe0c5748	-0.1370517
156	0x3e57dc84	0.21080214
157	0x3e880ce7	0.26572344
158	0x3e108729	0.1411406
159	0xbd5c4e0d	-0.053785373
160	0x3e6d0474	0.2314623
161	0x3e2842d7	0.16431747
162	0x3e2974fb	0.16548531
163	0xbe3e2eff	-0.18572615
164	0x3cb2db63	0.021833127
165	0x3d8bf6d1	0.06834186
166	0x3c6ce193	0.014458078
167	0x3e6a71c6	0.22894964
168	0xbc550deb	-0.013003807
169	0xbe35307b	-0.17694275
170	0x3cbed444	0.023294576
171	0x3dea6195	0.114443935
172	0x3e487322	0.1957517
173	0xbd955bac	-0.07292876
174	0xbe2af699	-0.16695632
175	0xbe22f414	-0.15913421
176	0xbe063b27	-0.13108502
177	0x3e4320a2	0.19055417
178	0x3e7cdb7b	0.246931
179	0xbdfabcdf	-0.122430556
180	0x3d32f7e9	0.043693457
181	0x3e45191b	0.19247858
182	0x3e14f21f	0.14545487
183	0xbdd7952a	-0.10526498
184	0x3d61f252	0.055162735
185	0x3e19c2e3	0.1501575
186	0x3d7efa79	0.062250588
187	0xbdb32a17	-0.087482624
188	0xbe2420e6	-0.16028175
189	0xbd2d06bb	-0.042242747
190	0x3d00d2cf	0.031451043
191	0xbdbfd420	-0.093666315
192	0x3d8150b8	0.06314224
193	0x3e2af86a	0.16696325
194	0x3bcda4a2	0.0062757293
195	0x3d36647a	0.044529416
196	0xbcd7a472	-0.02632353
197	0xbd5af10b	-0.053452533
198	0x3df1a353	0.1179873
199	0x3e520d43	0.20512871
200	0xbe85ad0b	-0.26108584
201	0xbdf36b2b	-0.11885675
202	0x3e8240aa	0.2543996
203	0x3ea0d0fc	0.31409442
204	0x3e57bed9	0.21068896
205	0xbe8a9b31	-0.27071527
206	0xbed0ee61	-0.4080687
207	0xbec14f90	-0.37756014
208	0xbceaaa4c	-0.028645657
209	0x3e682e4f	0.22673915
210	0x3d9faf24	0.07797077
211	0xbe2a4e38	-0.166314
212	0xbee378c1	-0.44428065
213	0xbeacbd2c	-0.33738077
214	0xbe1cfc28	-0.15330565
215	0x3e51bc35	0.20481952
216	0x3cce797f	0.025204418
217	0xbe21a27a	-0.15784636
218	0xbdca98ca	-0.098924235
219	0xbe85bafc	-0.2611922
220	0xbdcd72f8	-0.10031694
221	0x3e9de079	0.30835322
222	0x3d871f28	0.065977395
223	0xbcad528a	-0.021157522
224	0xbe9144d4	-0.28372824
225	0x3ea01d24	0.31272233
226	0x3ea50a5a	0.3223446
227	0x3ea2b69b	0.31779942
228	0x3e6cc284	0.23121077
229	0x3e8b953c	0.27262294
230	0xbd63c675	-0.055609185
231	0x3ea199e6	0.31562728
232	0x3ea1ff58	0.31640124
233	0x3ed213a9	0.41030625
234	0x3e79a27d	0.2437839
235	0xbde4b5bd	-0.11167476
236	0xbdfd3734	-0.12364045
237	0xbe5ae0b8	-0.21374786
238	0xbe665211	-0.22492243
239	0xbeb37205	-0.35047927
240	0xbe4b0d7c	-0.19829363
241	0xbe91a573	-0.2844654
242	0xbe8c6abc	-0.27425182
243	0xbea2adcf	-0.3177323
244	0xbe91cd90	-0.28477144
245	0xbea8f4b7	-0.32999203
246	0xbe8861d7	-0.26637146
247	0xbe16334e	-0.14668009
248	0xbe16e849	-0.14737047
249	0x3c71874f	0.014741733

conv1.bias f4 [10]
0	0xbd264e8d	-0.040602256
1	0xbe4f7905	-0.20261009
2	0xbdfb9125	-0.122835435
3	0xbe305454	-0.17219669
4	0x3e14ec05	0.1454316
5	0xbdfbfda5	-0.12304238
6	0x3dd6cfec	0.10488877
7	0xbe251c1b	-0.16124003
8	0x3e315584	0.17317778
9	0x3c6e9d0f	0.014563813

conv2.weight f4 [20, 10, 5, 5]
0	0x3d906117	0.070497684
1	0xbd4e7b6f	-0.050410684
2	0xbd4c7f2c	-0.049925968
3	0x3c8f2b84	0.017476805
4	0xb9d578ec	-0.0004071662
5	0x3df08c6f	0.117455356
6	0xbd1b9e55	-0.037992794
7	0xbd4ea566	-0.050450705
8	0x3dafb1f6	0.08578865
9	0xbad8eede	-0.001655068
10	0x3dbb8cbf	0.091577046
11	0xbddea8ac	-0.10872015
12	0x3d6f799b	0.05846558
13	0x3e1a4b82	0.15067866
14	0x3ddb6c12	0.10713972
15	0xbd31d73e	-0.04341816
16	0xbd002811	-0.03128821
17	0x3e087562	0.13326028
18	0x3db77c34	0.08959237
19	0xbd8e889e	-0.069596514
20	0xbd8b6273	-0.06805887
21	0x3d2c6e45	0.04209735
22	0x3e00a74f	0.12563823
23	0xbcb532c2	-0.02211893
24	0xbd9712b7	-0.073766164
25	0x3cab76d1	0.02093068
26	0xbd1f12c8	-0.03883627
27	0xbdb217b6	-0.08695929
28	0x3ab96673	0.0014144912
29	0xbc2ecdd5	-0.010669191
30	0x3c04ee9f	0.008113532
31	0xbd2e9047	-0.042618062
32	0xbde9febe	-0.11425541
33	0x3cd61399	0.026132392
34	0x3d8af088	0.06784159
35	0x3c680b5e	0.014162866
36	0xbdae3d8c	-0.08507833
37	0xbe051fd3	-0.13000421
38	0xbd7f6bc9	-0.06235865
39	0xbd3ac070	-0.04559368
40	0xbdd1a0e6	-0.10235767
41	0xbe447f7c	-0.19189256
42	0xbe21c2c6	-0.15796956
43	0xbcf7b9ba	-0.030239929
44	0x3c0ee52f	0.008721634
45	0xbe176f78	-0.14788616
46	0xbe4307e8	-0.19045985
47	0xbd596435	-0.05307408
48	0xbccb41ee	-0.024811711
49	0xbd41eec4	-0.047346845
50	0x3d0ff4ef	0.035145696
51	0x3dc5b358	0.09653348
52	0xbd16e036	-0.036834918
53	0x3dbfbc52	0.09362091
54	0x3bf944a6	0.0076070605
55	0xbb2d5d51	-0.0026453326
56	0x3c1b1a57	0.009466729
57	0x3c70154f	0.014653518
58	0x3c208c99	0.009799146
59	0xbd0b4269	-0.03399888
60	0xbd88f48d	-0.06687269
61	0xbcc64b58	-0.024205849
62	0x3dbda21e	0.09259437
63	0x3dd04c47	0.10170799
64	0x3c357bee	0.01107691
65	0xbdb1a0a6	-0.086732194
66	0x3dd65e2f	0.10467183
67	0x3dbe3a26	0.09288435
68	0xbccc989c	-0.024975114
69	0x3d53a750	0.051673234
70	0x3da05c7a	0.078301385
71	0x3e3dd926	0.18539867
72	0x3cc980bb	0.024597516
73	0xbdbdb197	-0.09262388
74	0x3d60f0c1	0.0549171
75	0x3d8a344c	0.06748256
76	0xbcc0e663	-0.023547357
77	0x3d8d11d1	0.06888164
78	0xbca6f98d	-0.020382667
79	0x3d8cea9b	0.06880685
80	0x3dc790cc	0.09744415
81	0xbd97fb2e	-0.074209556
82	0xbd822f6a	-0.063567
83	0x3d3e1e04	0.046415344
84	0x3ba1974a	0.004931365
85	0x3c980347	0.01855625
86	0xbcd78ccf	-0.02631226
87	0x3d9873e4	0.074439794
88	0x3d49ee76	0.04929968
89	0xbda91122	-0.08255221
90	0x3c0b7c6a	0.008513549
91	0x3de4854a	0.11158235
92	0x3e4e64c3	0.20155625
93	0x3d5e6883	0.05429889
94	0xbde2aa4c	-0.11067638
95	0x3dba4548	0.090952456
96	0x3e22d567	0.15901719
97	0x3d3c7083	0.046005737
98	0x3c2c1a33	0.010504293
99	0x3c26aea6	0.010173475
100	0xbc2d66f2	-0.010583626
101	0xbc3c4b32	-0.011492537
102	0xbc83b260	-0.016076267
103	0x3d017952	0.03160984
104	0x3b4b811c	0.0031052297
105	0x3cec24b2	0.028826091
106	0x3ce531f3	0.02797792
107	0x3bcfce81	0.006341756
108	0xbcd05da7	-0.025435282
109	0xbd22bfe1	-0.03973377
110	0x3d7467a7	0.059669163
111	0x3d9b021e	0.07568763
112	0xbc6b35a8	-0.014356054
113	0xbc2d4511	-0.010575549
114	0xbc8f97e1	-0.017528476
115	0xbb05daca	-0.0020424598
116	0x3c3136d0	0.010816291
117	0x3d076098	0.033051103
118	0x3cfa505d	0.030555898
119	0xbd217310	-0.039416373
120	0x3d874545	0.06605009
121	0xbc15a0c4	-0.009132568
122	0x3d4ca862	0.04996527
123	0x3d49e21f	0.04928791
124	0x3d0435f2	0.03227801
125	0x3becccdc	0.0072265696
126	0xbd8f09ba	-0.06984277
127	0xbe1e8a5a	-0.15482464
128	0xbd33300d	-0.043746997
129	0x3c93fd41	0.018065097
130	0xbc8c89af	-0.017155496
131	0x3cc7a523	0.024370736
132	0xbd115f00	-0.03549099
133	0x3ce6a696	0.028155606
134	0x3d0902e3	0.03345002
135	0xbcf910a3	-0.03040344
136	0xbd03d9b6	-0.032190047
137	0xbdc10258	-0.09424275
138	0xbd5391a7	-0.051652577
139	0xbd9b7d7a	-0.07592292
140	0xbdc4f7af	-0.096175544
141	0xbd17b6c9	-0.037039552
142	0xbe275dd0	-0.1634438
143	0xbc2104a0	-0.009827763
144	0x3cc372c5	0.023858437
145	0xbe0c6b7b	-0.13712876
146	0xbe2d25d1	-0.16908957
147	0xbe33ad85	-0.17546661
148	0xbdd0558b	-0.10172566
149	0xbd8b8b07	-0.06813627
150	0xbc8594f8	-0.016306385
151	0xbc23f085	-0.010006075
152	0x3c12f46d	0.008969408
153	0x3d30e97c	0.043191418
154	0x3d27913b	0.040909987
155	0xbd016459	-0.03158984
156	0xbd2a96f6	-0.041647874
157	0xbd50a313	-0.05093677
158	0x3c2a287e	0.010385631
159	0x3cb3eaf6	0.021962624
160	0x3d0b4142	0.03399778
161	0xbd518d71	-0.05116028
162	0xbd2430e6	-0.040085696
163	0x3de81cd9	0.11333627
164	0x3d960776	0.07325642
165	0xbc5ec2dd	-0.013596264
166	0x3d3161c7	0.04330614
167	0x3d06af93	0.032882284
168	0xbc908a4c	-0.01764407
169	0xbc981832	-0.018566225
170	0x3cf10cdf	0.029425083
171	0x3d1a4916	0.037667356
172	0xbb8f84b7	-0.0043798345
173	0x3c9f533f	0.019448875
174	0xbd91df87	-0.071227126
175	0x3cbe9151	0.023262652
176	0xbc4c49d0	-0.01246877
177	0xbb805ccb	-0.003917312
178	0xbbbeceb3	-0.0058229803
179	0x3c874533	0.016512489
180	0xbc473b96	-0.0121602025
181	0x3d373309	0.044726405
182	0xbbb799a9	-0.0056030345
183	0x3d07ce30	0.03315562
184	0x3d79a6e3	0.06095017
185	0xbd1b05c3	-0.03784729
186	0xbd0a4769	-0.03375951
187	0x3d06c575	0.032903153
188	0x3d40a8fb	0.047036152
189	0xbd8a7bc2	-0.06761886
190	0xbc3cdfd2	-0.011527972
191	0xbda50429	-0.08057434
192	0xbc17ef8a	-0.009273419
193	0x3c3682f6	0.011139622
194	0xbc455011	-0.012043015
195	0xbb5a9eac	-0.0033358736
196	0xbca90012	-0.020629916
197	0x3d100423	0.035160195
198	0xbc9448f5	-0.018101195
199	0xbd0f4e9d	-0.03498708
200	0x3cabab04	0.02095557
201	0xb90c0bce	-0.00013355838
202	0x3d24121b	0.04005633
203	0xbd531581	-0.05153418
204	0xbd3a2526	-0.045445584
205	0xbc011e67	-0.007880784
206	0xbdbcdaee	-0.09221445
207	0xbd778364	-0.06042804
208	0x3d88936c	0.066687435
209	0x3cd25bc4	0.025678523
210	0x3d868c7a	0.065697625
211	0xbc19b680	-0.00938189
212	0xbd7c8c27	-0.061657097
213	0xbd335cec	-0.04378979
214	0x3c9e555a	0.019327808
215	0x3d441ff0	0.04788202
216	0xbdf250f0	-0.11831844
217	0xbe1c6925	-0.15274484
218	0xbd5b27be	-0.053504698
219	0x3d4e5f5b	0.050383907
220	0x3c138f67	0.009006358
221	0xbd8f84a6	-0.070077226
222	0xbc0c4d6b	-0.00856338
223	0x3d341e40	0.04397416
224	0xbca9e072	-0.020736907
225	0xbd1cd236	-0.03828641
226	0x3c0d79e3	0.008635017
227	0xbdd63ee5	-0.10461215
228	0xbb9a66d8	-0.004711967
229	0x3d168f15	0.036757547
230	0xbd45cee4	-0.04829301
231	0x3d0637ed	0.03276818
232	0xbdbce7f2	-0.092239276
233	0xbdcf0692	-0.10108675
234	0x3cc02d07	0.02345897
235	0x3d62d58c	0.055379435
236	0x3d933c82	0.07189275
237	0xbd5c5955	-0.05379613
238	0x3c87b6f1	0.016566725
239	0x3d703c68	0.058651358
240	0x3d8720e3	0.065980695
241	0xbda57c0f	-0.08080303
242	0xbd7eff38	-0.062255114
243	0xbc39f1b9	-0.011349135
244	0xba6dbf83	-0.000906937
245	0xbd8f20ac	-0.069886535
246	0xbe1d5795	-0.15365441
247	0xbd081c42	-0.033230074
248	0xbc97bdf9	-0.018523203
249	0x3c8d9771	0.017284127
250	0x3dac90a7	0.08426028
251	0x3d675a9b	0.056482892
252	0x3ddef84d	0.10887203
253	0xbc8e9202	-0.017403606
254	0xbcb4b86b	-0.022060594
255	0xbd695b71	-0.05697197

conv2.bias f4 [20]
0	0x3d924b41	0.0714326
1	0xbd8685bc	-0.065684766
2	0xbcfd526b	-0.030923089
3	0xbddcf0d8	-0.10788125
4	0xbd5e1bf0	-0.054225862
5	0xbc6865ab	-0.014184396
6	0xbb89667d	-0.0041931258
7	0xbd164b1e	-0.03669273
8	0x3cb20016	0.021728557
9	0xbd3ea2b9	-0.046541903
10	0xbc1d409a	-0.009597922
11	0x3cc9ca98	0.024632737
12	0xbc346969	-0.01101146
13	0xbcc1b8e5	-0.023647735
14	0x3d27948d	0.040913153
15	0xbdb050f4	-0.086091906
16	0xbc80837c	-0.015687697
17	0xbd87e846	-0.066360995
18	0x3c4ba20f	0.0124287745
19	0x3ccef754	0.02526442

fc1.weight f4 [15, 80]
0	0xbcdce285	-0.026963482
1	0xbd47dad5	-0.04879268
2	0x3d1fc380	0.039004803
3	0x3cee9b06	0.029126655
4	0x3e22e2f3	0.15906887
5	0xbc09bc9a	-0.0084067825
6	0xbe06c5c2	-0.13161376
7	0x3d6c458a	0.057683505
8	0xbdc1d853	-0.09465089
9	0xbc3241ec	-0.010879975
10	0xbd021faa	-0.03176848
11	0xbde9e980	-0.1142149
12	0x3bea97df	0.0071592177
13	0xbe02448c	-0.12721461
14	0xbdaa7835	-0.08323709
15	0x3d834ac1	0.064107426
16	0x3e78f3a0	0.24311686
17	0x3d96d25c	0.073643416
18	0xbe8358e0	-0.25653744
19	0xbd19e3b5	-0.037570674
20	0x3d562435	0.052280623
21	0xbd4c28c0	-0.04984355
22	0x3dac1e3f	0.084042065
23	0xbbcf4888	-0.006325785
24	0x3e50745a	0.20356885
25	0x3e245733	0.16048889
26	0xbe3d3a36	-0.18479237
27	0xbb60ef2a	-0.003432224
28	0xbdfbaca6	-0.122887895
29	0xbdfa778f	-0.12229835
30	0x3d4fe5d1	0.05075628
31	0x3e35db09	0.17759337
32	0xbc11d066	-0.008899784
33	0x3dee66f0	0.116407275
34	0xbd0fe2c7	-0.03512838
35	0xbe2eeca6	-0.17082462
36	0xbd8bb4ca	-0.06821592
37	0x3e433e4d	0.19066735
38	0xbe1e4edf	-0.15459774
39	0xbc98ca9f	-0.018651305
40	0xbe3d0791	-0.18459918
41	0x3c318995	0.010836025
42	0x3d91871d	0.07105849
43	0xbaa36ad9	-0.0012467756
44	0xbe0bd1f8	-0.13654315
45	0x3d1921b2	0.03738565
46	0x3d8a7a41	0.06761599
47	0x3d3fef32	0.046858974
48	0x3d76a66b	0.060217302
49	0x3ca55f53	0.020187056
50	0xbc16e04d	-0.009208751
51	0xbcb05c6e	-0.021528449
52	0xbd1d2b3e	-0.038371317
53	0xbe98447b	-0.29739746
54	0x3e40b6c7	0.18819724
55	0x3c8a70b6	0.016899448
56	0xbdba4d1e	-0.0909674
57	0x3d99a955	0.07503001
58	0x3e3cff9c	0.18456882
59	0xbdfc2fc0	-0.12313795
60	0xbe276a41	-0.16349126
61	0xbdd26db8	-0.102748334
62	0x3c6681a0	0.014068991
63	0x3e0dc68e	0.13845274
64	0x3c9b5096	0.018959325
65	0x3d9f0a26	0.077656075
66	0x3de4396a	0.11143763
67	0xbd53b8ca	-0.0516899
68	0xbe15eaa4	-0.1464029
69	0x3e4f803d	0.20263763
70	0x3d72c8b6	0.059273444
71	0x3c78f5e9	0.015195348
72	0xbd03ba77	-0.03216025
73	0x3e6cc00a	0.23120132
74	0xbcfd3a41	-0.030911567
75	0x3e2c60f9	0.16833867
76	0x3d90e4be	0.07074879
77	0xbd88994d	-0.06669865
78	0x3d667604	0.056264892
79	0x3d2d560b	0.042318385
80	0x3e88e87e	0.26739877
81	0xbd83a887	-0.064286284
82	0xbbf27952	-0.0073997164
83	0xbe97ddcf	-0.29661414
84	0xbd14a1b5	-0.03628703
85	0x3db972b1	0.09055079
86	0x3c17a55b	0.009255732
87	0xbc962819	-0.018329667
88	0xbcdf61dd	-0.027268345
89	0x3e034b32	0.12821653
90	0x3dd2f4b8	0.10300583
91	0x3de265d9	0.11054582
92	0x3e057826	0.13034114
93	0x3da30ad0	0.07961047
94	0x3e31ee3a	0.17376032
95	0x3cb5d24a	0.022195
96	0xbea1c0aa	-0.31592304
97	0x3e3af6ca	0.18258205
98	0xbe34d5c7	-0.17659675
99	0x3db4944f	0.0881735
100	0x3daa88ab	0.083268486
101	0xbd6a8592	-0.05725629
102	0x3e05d1bd	0.1306829
103	0xbd64cca0	-0.055859208
104	0xbe83ec3a	-0.25766164
105	0xbdf0756e	-0.11741148
106	0x3deb21c6	0.11481051
107	0x3d86e995	0.06587521
108	0x3e727a64	0.23679501
109	0xbe01f10e	-0.12689611
110	0xbdb44f96	-0.08804242
111	0x3cf8e225	0.030381272
112	0x3de08fa0	0.10964894
113	0xbc41e777	-0.011834971
114	0xbe1dee75	-0.15422995
115	0x3d6ba6b0	0.057532012
116	0x3e32d7c2	0.17465118
117	0xbd914696	-0.07093541
118	0x3d4d1b42	0.050074823
119	0xbd1bb2c4	-0.03801228
120	0x3c5982f8	0.013275854
121	0xbcad721e	-0.02117258
122	0x3d7cc9df	0.061715957
123	0xbda3b0b6	-0.07992689
124	0x3d54b83a	0.051933505
125	0xbe0278f0	-0.12741446
126	0x3e493a9b	0.19651262
127	0xbdd01566	-0.101603314
128	0xbe5f7945	-0.21823604
129	0x3e3e5727	0.18587933
130	0x3e422a6b	0.18961494
131	0xbe0d09de	-0.13773295
132	0x3d62ed64	0.055402175
133	0x3e2f45f3	0.17116527
134	0x3e17171d	0.14754911
135	0xbdf1fa1e	-0.11815284
136	0xbd0dd34c	-0.034625337
137	0xbcfc2970	-0.030781478
138	0x3cd3a0d8	0.025833532
139	0x3e038ce5	0.12846716
140	0xbc1f4bc4	-0.009722654
141	0xbded92b9	-0.11600251
142	0x3d3cc6ba	0.046087958
143	0x3bf20fc6	0.0073871342
144	0xbdb3f273	-0.08786478
145	0xbd26c8fd	-0.04071902
146	0xbd99d296	-0.07510869
147	0xbdbd7070	-0.092499614
148	0x3c84308e	0.016136434
149	0xbe534022	-0.20629933
150	0x3e09ca68	0.13456118
151	0xbd9ed916	-0.077562496
152	0xbd04b7b3	-0.03240175
153	0xbd890e5f	-0.06692194
154	0x3cc463c6	0.023973357
155	0xbd119026	-0.03553786
156	0xbd66a095	-0.056305487
157	0x3d3f299d	0.046670545
158	0xbe645abe	-0.2230024
159	0x3e26a8cb	0.16275327
160	0xbda84b21	-0.08217455
161	0xbda97233	-0.08273735
162	0x3ce68c53	0.028143084
163	0xbe59e178	-0.21277416
164	0x3e255068	0.16143954
165	0x3a669692	0.00087962404
166	0xbdc8cebd	-0.09805057
167	0x3c944c25	0.018102715
168	0xbd5cbc66	-0.05389061
169	0x3b6b8990	0.0035940148
170	0xbe6e3dea	-0.23265806
171	0xbe1d764b	-0.15377156
172	0x3d8cbaa6	0.06871538
173	0xbe20bdaf	-0.15697359
174	0xbd1cde87	-0.038298156
175	0x3e8c64ad	0.2742056
176	0xbd1c240a	-0.038120307
177	0x3d9ba4b7	0.07599776
178	0x3d8e9263	0.06961515
179	0xbd343de3	-0.044004332
180	0x3d9067bf	0.07051038
181	0xbe1f7609	-0.1557237
182	0xbb1a8908	-0.0023580212
183	0x3e7dab40	0.24772358
184	0x3daf3401	0.08554841
185	0x3c2b930f	0.010472073
186	0x3de00970	0.109393
187	0x3d9509c0	0.0727725
188	0xbd9d055e	-0.07667039
189	0xbe3a9093	-0.18219213
190	0xbe013fb4	-0.12621957
191	0xbdae7e15	-0.08520142
192	0xbc9da3f2	-0.019243214
193	0xbd780187	-0.06054833
194	0xbe7419f8	-0.23838031
195	0xbe175ef2	-0.14782313
196	0x3d9c0eac	0.07619986
197	0xbcc80642	-0.024417046
198	0xbe58183d	-0.21102996
199	0x3e171d03	0.14757161
200	0x3c963b87	0.018338932
201	0x3d40c704	0.047064796
202	0xbdd87d96	-0.105708286
203	0x3cff600c	0.031173728
204	0xbe64a612	-0.22328976
205	0x3def9de9	0.11700041
206	0xbdbb86be	-0.091565594
207	0x3d2f7d5b	0.042844158
208	0x3de52244	0.11188176
209	0xbc4bf041	-0.012447418
210	0xbc5b449d	-0.013383058
211	0xbc871791	-0.01649073
212	0xbe4f4c07	-0.20243846
213	0xbdb00709	-0.08595092
214	0xbc900c24	-0.017583914
215	0xbdddd7db	-0.10832187
216	0x3b792e8f	0.0038022136
217	0x3e399469	0.1812302
218	0x3dffccc3	0.12490227
219	0xbdf29e24	-0.11846569
220	0xbd1e9134	-0.038712695
221	0xbd9f38f7	-0.07774537
222	0x3d9eca1b	0.07753392
223	0xbd27be11	-0.040952746
224	0x3c2abbc7	0.010420746
225	0xbd208989	-0.039193664
226	0xbcec9b92	-0.028882775
227	0x3bf30c8f	0.0074172686
228	0x3e0a3474	0.13496572
229	0x3e1675c5	0.14693363
230	0xbbb16ee8	-0.0054148324
231	0xbe22a028	-0.15881407
232	0x3d38cfec	0.045120165
233	0x3dbeb01e	0.093109354
234	0x3e0d5050	0.13800168
235	0xbe5bac73	-0.21452503
236	0xbe17c311	-0.14820506
237	0x3d953343	0.07285168
238	0xbbc951c0	-0.0061437786
239	0x3d9ed343	0.07755139
240	0xbd80d345	-0.062902965
241	0xbda3f97b	-0.08006569
242	0x3d630c57	0.05543169
243	0x3c8cd6b4	0.017192222
244	0x3d7ed33b	0.062213164
245	0xbdbfdc45	-0.09368185
246	0xbcbb61ef	-0.022873847
247	0xbdff0e9d	-0.12453959
248	0x3d382a98	0.044962496
249	0xbda27e6c	-0.07934269
250	0xbb65e7a6	-0.00350807
251	0xbdd5e880	-0.104447365
252	0xbd4f404a	-0.05059842
253	0x3dbe0961	0.09279133
254	0xbe03d68d	-0.12874813
255	0x3d270a65	0.040781397

fc1.bias f4 [15]
0	0x3d6d84d3	0.057988
1	0x3e267c9d	0.16258474
2	0x3deeb1cd	0.116550066
3	0xbd7dfbaa	-0.062007584
4	0x3e0aeab5	0.13566096
5	0x3e1232d8	0.14277208
6	0x3d46b085	0.048508186
7	0x3c70adff	0.014689921
8	0x3e07bf5b	0.1325659
9	0x3e2a3e6a	0.16625372
10	0x3e1fb2dc	0.15595573
11	0xbd323fa5	-0.043517727
12	0xbd0ef506	-0.03490164
13	0x3dc6d8e5	0.09709338
14	0x3ce4826a	0.027894218

fc2.weight f4 [10, 15]
0	0x3ec7b570	0.39005613
1	0x3ee3597b	0.44404206
2	0xbeb74a22	-0.35798746
3	0x3e34ec42	0.1766825
4	0x3e9d3f3a	0.307123
5	0xbe9a7b71	-0.30172303
6	0x3ec049fe	0.37556452
7	0xbe3a74ad	-0.18208571
8	0xbead20c6	-0.33814067
9	0xbeebee29	-0.4608014
10	0x3ecc495e	0.39899725
11	0xbed4abe0	-0.4153738
12	0xbd06117c	-0.03273152
13	0xbe53145d	-0.20613237
14	0xbe10a65e	-0.14125964
15	0xbd961f45	-0.07330183
16	0x3eb171e6	0.3465721
17	0xbe973418	-0.29531932
18	0xbea19174	-0.31556284
19	0x3e519d78	0.20470226
20	0xbed4183c	-0.4142474
21	0xbef27991	-0.47358373
22	0x3edafe7a	0.42772275
23	0xbea433f7	-0.32070896
24	0x3ece218f	0.40259978
25	0xbe8741c4	-0.26417363
26	0xbe586c09	-0.21134962
27	0x3edaa1e4	0.42701638
28	0xbebb2a85	-0.36555877
29	0x3ea4f762	0.32219988
30	0x3ed1ef19	0.4100273
31	0xbd5de49e	-0.054173104
32	0x3e635da7	0.22203694
33	0x3eb85597	0.360028
34	0xbe773396	-0.24140772
35	0xbe61665f	-0.22011708
36	0xbe37b0b9	-0.17938508
37	0x3e8606f6	0.26177186
38	0xbdc43da0	-0.095820665
39	0x3bd7a7cd	0.0065812827
40	0x3e9c588f	0.30536315
41	0x3e4943dd	0.19654794
42	0x3eeddaf9	0.46456125
43	0xbea6bdd1	-0.32566693
44	0x3ea32a41	0.31868175
45	0x3ea15943	0.31513414
46	0xbe464fa2	-0.19366315
47	0x3e9dd093	0.30823192
48	0xbe2ff76e	-0.1718423
49	0x3e6f315f	0.23358677
50	0x3ea6c9a7	0.32575724
51	0xbeb93bb7	-0.3617837
52	0xbe5cfb72	-0.21580294
53	0xbe7bf7a9	-0.24606194
54	0xbe7ce8f4	-0.2469824
55	0xbe0d1037	-0.13775717
56	0x3eb1be9d	0.3471574
57	0x3ed26325	0.41091266
58	0xbe074342	-0.1320925
59	0xbd892b70	-0.06697738
60	0xbeb595cd	-0.3546585
61	0xbe4fe691	-0.20302798
62	0xbeaf8970	-0.34284544
63	0x3eb6b765	0.35686794
64	0xbf1298e0	-0.5726452
65	0x3e92da1b	0.28682026
66	0x3ea160a2	0.31519037
67	0x3ee0125a	0.43764
68	0xbe012af8	-0.12614048
69	0x3ecab5a3	0.39591703
70	0xbe47ead7	-0.19523178
71	0x3ea3d722	0.3200007
72	0xbddec9b1	-0.10878313
73	0x3e80f8cd	0.2518982
74	0xbe851c2e	-0.25998062
75	0xbdbc3460	-0.09189677
76	0x3eaf9f85	0.3430139
77	0x3e8f13f0	0.279449
78	0xbdaaf4f5	-0.08347503
79	0x3e6fea72	0.23429278
80	0x3e9ee193	0.31031474
81	0x3e931fc0	0.2873516
82	0xbe0ef8cf	-0.139621
83	0xbe1c9b5c	-0.1529364
84	0xbea1f978	-0.31635642
85	0xbe87318d	-0.26404992
86	0x3ea84c2b	0.32870612
87	0xbdeadb0d	-0.11467562
88	0x3e9b196b	0.3029283
89	0xbe8df812	-0.27728325
90	0xbe84290b	-0.25812563
91	0x3edfdb6b	0.4372209
92	0xbe8f34c7	-0.27969953
93	0x3ecbe0f1	0.39820054
94	0xbdfaa5ab	-0.1223863
95	0xbf1055e1	-0.5638104
96	0x3ecabfd7	0.39599487
97	0x3ee7cdf0	0.45274305
98	0xbef40b54	-0.47664893
99	0xbe5eb868	-0.21750033
100	0xbe7cfe81	-0.2470646
101	0xbeb6a783	-0.35674676
102	0xbe0499bd	-0.12949272
103	0x3e9a406e	0.3012728
104	0xbe8f82a9	-0.28029373
105	0x3eb82dd6	0.3597247
106	0xbe9bc651	-0.3042474
107	0xbe67b97f	-0.22629355
108	0xbeccb27c	-0.39979923
109	0xbe96bbd0	-0.29440165
110	0x3e9e816c	0.30958116
111	0xbe69df9c	-0.22839206
112	0xbe719dbb	-0.23595326
113	0x3eb4fad6	0.35347623
114	0x3ed42995	0.41437975
115	0x3ec9280e	0.39288372
116	0xbd5817da	-0.05275712
117	0x3e4b0714	0.19826919
118	0xbe7badc1	-0.24578
119	0x3e8f9b1f	0.28048036
120	0x3e951402	0.29116827
121	0x3e927a00	0.28608704
122	0x3e931f5b	0.2873486
123	0x3e9abdf9	0.30223063
124	0x3d5ac6e0	0.05341232
125	0xbd2a1bc7	-0.041530397
126	0xbc7905e6	-0.01519916
127	0xbd8a1779	-0.06742758
128	0x3e8a1570	0.2696948
129	0xbd9d65a4	-0.07685402
130	0xbe147c17	-0.14500462
131	0xbe0c74e8	-0.13716471
132	0xbe017f1e	-0.12646148
133	0x3e95c665	0.29252926
134	0x3e8d7ed8	0.27635837
135	0xbb473412	-0.0030396027
136	0xbe6ecf92	-0.2332137
137	0xbc8e4b45	-0.017369876
138	0xbe1195d9	-0.14217319
139	0xbe91641f	-0.283967
140	0x3eb1f89e	0.34759992
141	0x3e88eeae	0.26744598
142	0xbe420b99	-0.18949737
143	0x3e9f0dc5	0.31065193
144	0x3ea0de2e	0.3141951
145	0x3e956b65	0.29183498
146	0x3e9f2d2b	0.31089148
147	0xbee27361	-0.44228652
148	0x3e95c43a	0.2925127
149	0xbe736789	-0.23769964

fc2.bias f4 [10]
0	0xbe8f4afc	-0.27986896
1	0x3e85c147	0.2612402
2	0xbe8b0045	-0.27148643
3	0x3ddbe647	0.10737281
4	0xbe99db0b	-0.3004993
5	0xbe84a083	-0.2590371
6	0x3d332242	0.043733843
7	0x3c36c58c	0.011155497
8	0x3e6cd1b9	0.23126878
9	0xbc6de6b2	-0.014520334
