proj5/task4/results/exp5_relu.pth (torch, 89871 bytes, 8 tensors)

conv1.weight f4 [10, 1, 5, 5]
0.10644423 0.21953626 0.06744844 0.31611767 -0.010591633 -0.03752947 0.04211749 0.39073974
0.31183606 -0.17206837 0.16098543 0.23769736 0.42387426 0.1120819 0.112997115 -0.019343928
0.26702893 0.18325186 0.013755957 0.13373893 -0.12126189 0.0030614496 0.010933948 0.22692654
-0.10006601 -0.1700068 -0.1654161 -0.20075038 -0.05099934 -0.2779385 0.13320318 -0.24251369
0.09042257 -0.054850787 -0.18057506 0.17788613 0.13079646 0.32817933 0.13831367 -0.05201262
0.13577321 0.116764374 0.36236992 0.40837637 0.23310164 -0.12714896 0.14612284 0.11856342
0.22210556 0.021462591 -0.14790028 0.1204507 0.07457466 0.24402775 0.063160464 0.08114222
0.266277 0.18934923 0.15604046 -0.23721796 0.15336321 0.2111819 0.27782163 -0.13790995
-0.13343988 0.17757213 0.46342534 -0.015722655 -0.25003284 -0.30457264 0.35354903 0.2525701
0.15620123 -0.37470624 -0.43329147 -0.28868377 -0.21573214 0.077097625 0.1816118 0.2932433
-0.2766061 -0.19215825 0.17946398 0.09424399 0.2529037 -0.22430374 0.111961074 0.01663777
0.116974086 0.14498816 -0.07757614 -0.022164784 0.25036252 0.25796103 -0.120032184 -0.09631752
0.253929 0.06660978 0.033752427 -0.15908511 -0.18830365 -0.0018182454 -0.05652203 -0.17460574
-0.039356396 -0.21743278 -0.2342015 -0.15778996 -0.21949849 -0.1754895 0.09905583 -0.044517577
0.00044615238 -0.23714115 -0.18013787 -0.11065925 -0.008201334 -0.22273953 -0.13391952 -0.16877238
0.023754053 -0.064535365 -0.035854835 -0.18528602 -0.19413422 -0.13848223 -0.09741275 -0.1823571
0.13347092 -0.0062679285 0.14801614 -0.009399326 -0.25651047 0.05412689 -0.059985477 -0.05008212
-0.20649616 -0.27175727 -0.02343598 -0.03780977 0.18818785 -0.07274573 0.19635619 -0.13212672
0.0071786735 0.19805321 0.31136352 0.32587886 0.25805348 -0.12250753 0.017237103 -0.14447668
-0.10583717 -0.19013363 0.20575267 -0.19636352 0.12466096 0.12588467 0.16140652 -0.028244177
0.27791172 0.19146152 0.14242741 -0.13426845 0.117177725 0.0057077217 -0.043022525 0.2298037
0.024950726 -0.13018055 -0.1826803 -0.02645249 0.13598216 -0.06697849 -0.12532403 -0.14395705
-0.12744518 0.12294586 0.16686723 -0.23121567 0.06995472 0.23190533 0.13057978 -0.12754044
-0.060154267 0.16635628 0.19187288 0.0875586 -0.053759884 -0.039424762 -0.040335417 -0.010705919
0.29328805 0.38277015 0.13056758 -0.12996839 -0.08193129 -0.010056834 0.20066212 0.2794587
-0.20908706 -0.15389082 0.081125736 0.06006841 -0.014310244 -0.13176577 -0.28886333 -0.32225585
-0.13965644 -0.0058057434 0.24840465 0.047005884 -0.2640522 -0.22845028 -0.16055046 0.36837858
0.19119774 -0.010098168 0.016948227 -0.17665873 -0.013511991 0.33374673 0.054990534 0.025614522
-0.22822568 0.2724334 0.39399138 0.3935779 0.20152865 0.14309081 0.022204537 0.4112167
0.38344407 0.45161217 0.32062796 0.04869771 -0.063272685 -0.2271853 -0.21020748 -0.21424374
-0.11252465 -0.35628757 -0.31495985 -0.28820094 -0.17325395 -0.38918924 -0.38850027 -0.16427088
-0.1546695 -0.013398547
00000000: 6fff d93d 1dce 603e 6822 8a3d 2dda a13e
00000010: 8788 2dbc 80b8 19bd 6483 2c3d 0a0f c83e
00000020: faa8 9f3e b132 30be 5dd9 243e f066 733e
00000030: 0c06 d93e 328b e53d 086b e73d 2877 9ebc
00000040: 04b8 883e 60a6 3b3e aa60 613c dcf2 083e
00000050: 2758 f8bd 9aa2 483b 4d24 333c 6e5f 683e
00000060: 69ef ccbd 4316 2ebe d762 29be 8291 4dbe
00000070: afe4 50bd f44d 8ebe 6a66 083e 8255 78be
00000080: 782f b93d 38ab 60bd abe8 38be c827 363e
00000090: 82ef 053e 1f07 a83e 19a2 0d3e 2f0b 55bd
000000a0: 2208 0b3e 2922 ef3d 8d88 b93e b516 d13e
000000b0: 32b2 6e3e 5633 02be 3aa1 153e 61d1 f23d
000000c0: a46f 633e 51d2 af3c 2c73 17be dbae f63d
000000d0: 99ba 983d 69e2 793e 465a 813d e42d a63d
000000e0: 7555 883e c4e4 413e 12c9 1f3e 44e9 72be
000000f0: 3f0b 1d3e 1140 583e a33e 8e3e 4438 0dbe
00000100: 77a4 08be 78d5 353e 1646 ed3e cccc 80bc
00000110: 4e04 80be f2f0 9bbe 6104 b53e de50 813e
00000120: 37f3 1f3e 7fd9 bfbe 61d8 ddbe 5cce 93be
00000130: e3e8 5cbe 5ce5 9d3d 72f8 393e fc23 963e
00000140: 519f 8dbe 22c5 44be 68c5 373e fe02 c13d
00000150: 987c 813e e1af 65be d94b e53d ef4b 883c
00000160: 1c90 ef3d c777 143e 3de0 9ebd ec92 b5bc
00000170: 842f 803e 7813 843e 6fd3 f5bd 1f42 c5bd
00000180: fb02 823e b56a 883d fc3f 0a3d 35e7 22be
00000190: acd2 40be 3152 eeba a583 67bd d9cb 32be
000001a0: 2c34 21bd b3a6 5ebe 85d2 6fbe b193 21be
000001b0: 36c4 60be 85b3 33be c8dd ca3d 1058 36bd
000001c0: 8fe9 e939 21d5 72be 1076 38be 51a1 e2bd
000001d0: e35e 06bc d515 64be 3322 09be abd2 2cbe
000001e0: dc97 c23c 1e2b 84bd 85dc 12bd 9ebb 3dbe
000001f0: 1fcb 46be 49ce 0dbe 5680 c7bd d2bb 3abe
00000200: 9aac 083e 3263 cdbb 8b91 173e a1ff 19bc
00000210: 5755 83be 28b4 5d3d 55b3 75bd e922 4dbd
00000220: bb73 53be c523 8bbe d0fc bfbc 6bde 1abd
00000230: 51b4 403e b7fb 94bd 9911 493e 3a4c 07be
00000240: 143b eb3b 76ce 4a3e 0a6b 9f3e 98d9 a63e
00000250: 961f 843e 3ae5 fabd d334 8d3c b2f1 13be
00000260: 28c1 d8bd 64b2 42be d4b0 523e 8513 49be
00000270: 3f4e ff3d e9e7 003e c047 253e 5560 e7bc
00000280: 724a 8e3e 7d0e 443e 7ed8 113e ab7d 09be
00000290: e0fa ef3d d707 bb3b 6338 30bd a951 6b3e
000002a0: 7765 cc3c 0d4e 05be 8b10 3bbe e4b2 d8bc
000002b0: e83e 0b3e 052c 89bd f154 00be 7a69 13be
000002c0: fd80 02be 0acb fb3d 3edf 2a3e cdc3 6cbe
000002d0: 6c44 8f3d 9778 6d3e b5b6 053e f699 02be
000002e0: 5264 76bd 4d59 2a3e 537a 443e ec51 b33d
000002f0: 5333 5cbd dc7b 21bd c036 25bd e167 2fbc
00000300: da29 963e 73fa c33e 82b3 053e 6f16 05be
00000310: 98cb a7bd 6bc5 24bc 5f7a 4d3e 3615 8f3e
00000320: eb1a 56be 8e95 1dbe 4025 a63d 4b0a 763d
00000330: 8375 6abc 9bed 06be e5e5 93be b8fe a4be
00000340: 1902 0fbe 1b3e bebb ca5d 7e3e 3e89 403d
00000350: da31 87be dfee 69be 5767 24be 1e9c bc3e
00000360: 57c9 433e c972 25bc 02d7 8a3c 07e6 34be
00000370: 6661 5dbc dae0 aa3e c13d 613d 8cd5 d13c
00000380: feb3 69be 647c 8b3e 3db9 c93e 0b83 c93e
00000390: 875d 4e3e 6686 123e 4ae6 b53c ff8a d23e
000003a0: c852 c43e b639 e73e 5929 a43e 4077 473d
000003b0: 1c95 81bd 43a3 68be a140 57be b662 5bbe
000003c0: 5373 e6bd 536b b6be 6b42 a1be 138f 93be
000003d0: 7c69 31be d043 c7be 82e9 c6be a036 28be
000003e0: ae61 1ebe 9485 5bbc

conv1.bias f4 [10]
0.11114562 0.06143041 -0.06681397 -0.12773047 0.039312486 -0.13131736 0.16153769 -0.0009191732
0.13638376 0.05841765
00000000: 51a0 e33d 749e 7b3d c3d5 88bd c7cb 02be
00000010: 2106 213d 0f78 06be 236a 253e abf4 70ba
00000020: 2fa8 0b3e 5947 6f3d

conv2.weight f4 [20, 10, 5, 5]
0.057876244 -0.048561927 -0.02777692 -0.053245362 -0.074771315 0.043794096 -0.016820118 -0.060253654
-0.06677461 -0.11264169 0.05098341 0.022542505 0.06658153 0.09677217 0.099784285 -0.016003037
-0.12027001 -0.055226177 0.025987187 -0.046249103 0.0015456418 -0.1597917 -0.19205527 -0.18674192
-0.07984869 -0.04648013 -0.09177622 -0.011780758 0.023435561 -0.06315229 -0.019112071 0.029266698
-0.067662135 -0.037270103 0.020061804 -0.014429103 -0.005844919 0.04230057 0.078216195 0.07837491
-0.032896955 -0.13451622 -0.1371313 -0.085470185 -0.04864012 0.21348572 0.07485658 0.020260818
-0.011971013 -0.023414912 0.025588311 0.028174303 -0.0012540251 0.05425812 0.11601388 -0.008441587
0.041902263 0.09597453 0.01156608 0.044328142 -0.06965531 -0.046759486 -0.046538487 -0.051988147
-0.10567398 -0.04526269 -0.07953259 -0.15918508 -0.19273993 -0.15212297 0.026024967 0.059117995
-0.030816238 -0.087494634 0.05003818 -0.079231694 -0.021253292 0.03289454 0.027855033 0.015599865
-0.044287603 -0.03433687 -0.05507718 -0.029661426 -0.067338325 -0.06690757 0.01553039 -0.04397447
-0.026086707 -0.029029392 -0.056630895 0.013405227 0.09160898 0.046550546 -0.09793827 -0.09280399
0.0033127533 -0.026702004 -0.03477677 0.07114924 -0.014660341 -0.022442367 -0.063104406 -0.0059712003
0.02095354 0.023428425 0.01309528 -0.077467404 -0.08453475 -0.013199578 0.07061748 0.02809002
-0.06520895 -0.05048499 -0.06221281 -0.0002575821 0.033913165 0.07025562 0.05809208 -0.037535552
0.056442562 -0.008617646 0.06848423 0.07604916 0.052118886 0.025221046 -0.06865675 -0.024722645
0.031250898 -0.015861426 0.014273732 -0.0008606805 0.086869106 0.07181669 0.07794558 -0.023232544
-0.06124565 0.006980935 0.04925298 0.014758994 0.021329055 0.073418766 0.0025670745 -0.009165855
-0.013813679 0.010495397 0.028829642 0.036558572 0.03432692 0.057750978 -0.03715559 -0.016032815
0.054191973 0.03748002 0.05628813 -0.0674973 -0.013860428 0.029546749 -0.016643848 -0.005651967
0.0013046989 0.004835366 -0.011719275 0.08789862 0.11892614 0.0084771905 -0.040912464 -0.08142378
-0.037436742 0.03537438 0.053006526 -0.011087679 -0.06883965 -0.010326017 -0.06582764 0.030123122
-0.061350293 -0.0399147 -0.037251443 -0.04392778 -0.026795767 0.06457965 -0.01528701 0.07916561
0.05888197 -0.03793506 -0.017894246 0.06503838 0.11231837 0.012447523 -0.016427824 -0.13480917
-0.12886775 -0.017394325 0.007118095 0.09892579 -0.0028781726 0.03165126 -0.020433929 -0.1262611
-0.034253377 0.0006437018 0.027811628 -0.08176433 -0.015149627 -0.043570135 -0.04396587 0.0082356725
0.07641309 0.05619618 0.06850289 0.063557714 0.084977955 0.03472947 0.019638442 0.097996786
0.032739874 -0.009328565 -0.012767291 0.019396102 0.10961337 0.1122633 0.05828008 0.039714754
-0.026779862 0.0017556415 0.018680783 -0.046439078 0.033926778 0.082991 0.0032123828 0.02004435
0.023673039 0.006180039 0.014749978 -0.020796139 0.05481496 0.09389822 0.012589774 0.049608834
0.022308176 0.032156326 0.11772634 0.21053103 0.2174789 0.034307007 -0.059366763 0.0059156376
0.029057406 -0.0018263524 0.008755906 -0.07328144 0.018970808 0.00701329 -0.053466506 0.002061887
00000000: a40f 6d3d dfe8 46bd 6c8c e3bc cf17 5abd
00000010: b421 99bd 7061 333d 58ca 89bc 89cc 76bd
00000020: 20c1 88bd b0b0 e6bd fbd3 503d 0fab b83c
00000030: e65b 883d 7d30 c63d b45b cc3d cd18 83bc
00000040: 1f50 f6bd d834 62bd 15e3 d43c b36f 3dbd
00000050: 2297 ca3a 6fa0 23be 23aa 44be 4639 3fbe
00000060: b687 a3bd f361 3ebd 2cf5 bbbd 1504 41bc
00000070: effb bf3c fd55 81bd eb90 9cbc b7c0 ef3c
00000080: 7292 8abd 89a8 18bd a758 a43c 0b68 6cbc
00000090: bc86 bfbb 5d43 2d3d d02f a03d 0683 a03d
000000a0: f5be 06bd 9fbe 09be 266c 0cbe fe0a afbd
000000b0: dd3a 47bd 009c 5a3e 684e 993d 04fa a53c
000000c0: 1122 44bc a1d0 bfbc 949e d13c cccd e63c
000000d0: 1a5e a4ba c33d 5e3d af98 ed3d 954e 0abc
000000e0: b5a1 2b3d 4b8e c43d a87f 3d3c 6d91 353d
000000f0: 71a7 8ebd e086 3fbd 249f 3ebd 86f1 54bd
00000100: 9a6b d8bd 5f65 39bd fce1 a2bd 6a01 23be
00000110: 9e5d 45be 20c6 1bbe 5032 d53c b625 723d
00000120: 5672 fcbc 6330 b3bd d6f4 4c3d 3a44 a2bd
00000130: 621b aebc 6dbc 063d 3d30 e43c 9396 7f3c
00000140: eb66 35bd d1a4 0cbd 9c98 61bd 85fc f2bc
00000150: ade8 89bd d606 89bd 2d73 7e3c 931e 34bd
00000160: cab3 d5bc 0ccf edbc ccf5 67bd 99a1 5b3c
00000170: 7d9d bb3d c9ab 3e3d dc93 c8bd 0510 bebd
00000180: c71a 593b 29be dabc 1672 0ebd b1b6 913d
00000190: ed31 70bc 0ed9 b7bc e23c 81bd 0faa c3bb
000001a0: c2a6 ab3c f8ec bf3c 968d 563c 3ba7 9ebd
000001b0: 8e20 adbd 0b43 58bc e69f 903d 0b1d e63c
000001c0: 458c 85bd 59c9 4ebd dcd2 7ebd 160c 87b9
000001d0: 88e8 0a3d 2ee2 8f3d f6f1 6d3d e1be 19bd
000001e0: 5130 673d 0731 0dbc 7641 8c3d a9bf 9b3d
000001f0: 9d7a 553d 5e9c ce3c e99b 8cbd 2587 cabc
00000200: f100 003d d2ef 81bc 5fdc 693c 4a9f 61ba
00000210: 6ee8 b13d a114 933d efa1 9f3d 2d52 bebc
00000220: b8dc 7abd 54c0 e43b 7ebd 493d b5cf 713c
00000230: 45ba ae3c 945c 963d 5d3c 283b 622c 16bc
00000240: c552 62bc e3f4 2b3c 242c ec3c 71be 153d
00000250: 629a 0c3d 4a8c 6c3d 7630 18bd 4057 83bc
00000260: 67f8 5d3d a684 193d 628e 663d 063c 8abd
00000270: d916 63bc 060c f23c ae58 88bc 2334 b9bb
00000280: 6e02 ab3a fd71 9e3b 3402 40bc 3104 b43d
00000290: 8c8f f33d eae3 0a3c d493 27bd 83c1 a6bd
000002a0: 4557 19bd bae4 103d 5f1d 593d 19a9 35bc
000002b0: cdfb 8cbd 742e 29bc a4d0 86bd c4c4 f63c
000002c0: 724a 7bbd 997d 23bd f894 18bd 9eed 33bd
000002d0: cc82 dbbc 5642 843d 5e76 7abc 9421 a23d
000002e0: 382e 713d cb61 1bbd f496 92bc d832 853d
000002f0: 2c07 e63d b2f0 4b3c a593 86bc 6a0b 0abe
00000300: e8f5 03be 8b7e 8ebc e93e e93b 9b99 ca3d
00000310: b99f 3cbb c0a4 013d 0e65 a7bc 974a 01be
00000320: 454d 0cbd 19be 283a 36d5 e33c 0f74 a7bd
00000330: 2436 78bc 9976 32bd 8e15 34bd eaee 063c
00000340: 777e 9c3d f72d 663d 3e4b 8c3d 8c2a 823d
00000350: ec08 ae3d 7d40 0e3d cce0 a03c 8ab2 c83d
00000360: 3f1a 063d d6d6 18bc e62d 51bc 93e4 9e3c
00000370: f97c e03d 4dea e53d 18b7 6e3d f0ab 223d
00000380: 7161 dbbc 8e1d e63a 7108 993c e736 3ebd
00000390: cef6 0a3d 2ff7 a93d d786 523b 0c34 a43c
000003a0: f6ed c13c ed81 ca3b e4a9 713c aa5c aabc
000003b0: a785 603d b64d c03d 5745 4e3c a232 4b3d
000003c0: a3bf b63c 5ab6 033d 821a f13d 7295 573e
000003d0: cab2 5e3e 8185 0c3d 902a 73bd f7d7 c13b
000003e0: cc09 ee3c 3862 efba ee74 0f3c 9414 96bd
000003f0: ab68 9b3c becf e53b b2ff 5abd b920 073b

conv2.bias f4 [20]
0.07654497 -0.05741754 -0.035591796 -0.057640836 -0.06684726 0.010236317 0.03268423 -0.045595936
0.010407972 -0.06464347 0.013149149 0.026784237 -0.031084374 -0.0041159373 0.059423473 -0.044512678
-0.016570827 -0.048313554 0.027526435 -0.0030256137
00000000: 9cc3 9c3d a82e 6bbd b4c8 11bd cc18 6cbd
00000010: 37e7 88bd 3ab6 273c e6df 053d cec2 3abd
00000020: 3386 2a3c cc63 84bd 876f 573c 9e6a db3c
00000030: a8a4 febc fcde 86bb 0766 733d ed52 36bd
00000040: 8bbf 87bc 6fe4 45bd 1e7f e13c 6049 46bb

fc1.weight f4 [50, 320]
-0.024450647 0.021627424 0.01211524 0.011868435 -0.09481772 -0.086213425 -0.0141108995 -0.0041402015
-0.14189154 -0.024455654 -0.06701264 0.029278956 -0.039912023 0.06514944 0.07376434 0.14073637
-0.024318991 -0.031307768 -0.092667386 -0.094014935 -0.036273547 -0.049670443 -0.023691216 0.030154983
-0.0023059214 -0.013193126 -0.014674143 0.048757568 -0.015104109 0.0006027878 0.09584949 0.051559687
0.021213476 0.047999147 0.073294155 -0.011408568 -0.050032772 -0.0042925933 -0.0323155 0.01947425
0.0979063 0.0010584212 -0.036263306 0.002952236 -0.028484741 0.04173953 -0.032332897 -0.09391589
0.03423089 0.001760562 0.052888777 0.019063625 0.04722006 -0.0156040415 0.04090626 -0.03090698
-0.053377878 -0.029565055 -0.009909246 -0.028158188 -0.00690601 0.020242345 -0.032096565 0.0682147
0.014677995 0.06940899 0.12822212 0.05918445 0.04193074 0.026488641 0.04744728 -0.028655041
-0.047919177 -0.018376006 0.07647787 0.0047419216 0.0050697112 -0.013295478 0.0024719036 -0.05060987
0.032646216 0.0645115 0.093414776 -0.03954514 -0.00195238 -0.036521215 -0.045672745 -0.12842712
-0.09596336 -0.054787077 0.01935696 -0.051488094 -0.0023641714 0.12119313 0.032009196 -0.0431568
-0.04879969 -0.023708325 0.005664897 -0.004990683 0.03822438 0.05924627 -0.033913385 0.005233749
0.023406167 0.013256147 0.015142454 0.0034576254 0.011228242 0.028203022 0.039713636 0.0014744415
-0.03277642 -0.09075361 0.014534582 -0.052454844 -0.059814304 0.039680563 0.09569891 0.044689797
0.0077406415 0.09502135 0.09198744 -0.0100827245 -0.036498345 -0.04715285 -0.026227452 0.030000532
-0.042366695 0.033878498 0.024172667 -0.00880295 0.0005206859 -0.015042506 -0.025262604 -0.041997887
-0.0239421 -0.052346982 -0.05816081 -0.007104641 0.009694286 -0.0072410447 0.05406618 0.049387533
-0.059687685 -0.016746208 -0.005247146 -0.08962039 -0.04752863 -0.044493895 -0.016416237 -0.019173155
-0.036628246 -0.04218544 0.030029038 -0.024991628 -0.013382116 0.05280747 0.071713276 0.013786944
-0.07012162 -0.045709915 -0.017768418 -0.06448961 0.0036623469 -0.030412737 -0.0065206573 0.024462257
0.018548764 -0.009765743 -0.038349766 0.026783625 -0.009680495 -0.02940878 -0.019720271 0.15462382
-0.018058209 0.046334296 0.099747404 -0.050174568 -0.002167901 -0.02621108 0.021297332 0.025099257
0.02201377 0.008686437 0.039448522 -0.01769611 -0.023145167 -0.036404036 -0.101964764 0.020695196
0.03144163 0.016276853 -0.012374015 -0.050084986 -0.0038335242 0.021229435 -0.016386837 0.044693273
0.0123603605 -0.0027578317 0.022178251 0.028300658 -0.04114404 0.016784256 -0.050725706 -0.013040493
0.002852107 0.035407357 -0.020448452 -0.016508838 -0.029167566 0.0054604714 0.03579711 -0.052064013
0.042712886 0.04058881 -0.0113859335 -0.09144283 -0.0059024976 0.015680574 -0.0033458224 -0.037046283
0.00042636812 0.025084168 0.044821553 0.005946776 0.06597154 -0.024385104 0.03559037 -0.019640222
0.008677955 0.016478729 0.04198154 -0.043357223 -0.033935897 0.0446014 -0.02419564 -0.12760623
0.008833555 -0.027104422 -0.032935455 -0.0054369676 -0.015001902 0.012730873 -0.02549328 -0.020687325
-0.08845682 -0.0475946 -0.00867752 0.004678923 -0.07811924 0.001781751 0.097784616 0.115978
00000000: b94c c8bc ff2b b13c 007f 463c d373 423c
00000010: cb2f c2bd aa90 b0bd 6731 67bc 87aa 87bb
00000020: 044c 11be 3957 c8bc ec3d 89bd 6cda ef3c
00000030: ca7a 23bd 126d 853d c211 973d 321d 103e
00000040: 9f38 c7bc 933c 00bd 66c8 bdbd e78a c0bd
00000050: 9293 14bd 3c73 4bbd 1514 c2bc 9507 f73c
00000060: f11e 17bb fb27 58bc d16b 70bc 04b6 473d
00000070: 3a77 77bc 6804 1e3a bd4c c43d 4030 533d
00000080: e2c7 ad3c c19a 443d 3f1b 963d 01eb 3abc
00000090: 2aef 4cbd e2a8 8cbb 425d 04bd 7688 9f3c
000000a0: 1983 c83d b9ba 8a3a d588 14bd 4d7a 413b
000000b0: d558 e9bc 12f7 2a3d 806f 04bd f956 c0bd
000000c0: b135 0c3d a8c2 e63a e7a1 583d 522b 9c3c
000000d0: d269 413d 18a8 7fbc 538d 273d a330 fdbc
000000e0: c3a2 5abd 6a32 f2bc 645a 22bc 00ac e6bc
000000f0: d04b e2bb 46d3 a53c b077 03bd 26b4 8b3d
00000100: f97b 703c 4d26 8e3d a94c 033e 656b 723d
00000110: 91bf 2b3d b5fe d83c 1458 423d fabd eabc
00000120: e646 44bd 4789 96bc 6ea0 9c3d 1f62 9b3b
00000130: d21f a63b 47d5 59bc a9ff 213b 4c4c 4fbd
00000140: 0ab8 053d 9b1e 843d 3f50 bf3d 16fa 21bd
00000150: 00e7 ffba 4597 15bd 5813 3bbd 6682 03be
00000160: 7088 c4bd 6a68 60bd 7d92 9e3c 2ee5 52bd
00000170: 37f0 1abb 1b34 f83d 131c 033d 2fc5 30bd
00000180: 2fe2 47bd f637 c2bc 9aa0 b93b e288 a3bb
00000190: 2b91 1c3d 38ac 723d c3e8 0abd de7f ab3b
000001a0: 4abe bf3c 4f30 593c 0e18 783c 5499 623b
000001b0: a9f6 373c 060a e73c c4aa 223d 0c42 c13a
000001c0: 9140 06bd 07dd b9bd 7522 6e3c e4da 56bd
000001d0: d8ff 74bd 1688 223d cafd c33d a60c 373d
000001e0: 35a5 fd3b 8e9a c23d e963 bc3d 0332 25bc
000001f0: 4a7f 15bd 5923 41bd f4da d6bc adc3 f53c
00000200: b388 2dbd 2ec4 0a3d c205 c63c 403a 10bc
00000210: a47e 083a d874 76bc 85f3 cebc fa05 2cbd
00000220: 3922 c4bc ca69 56bd 083a 6ebd 0cce e8bb
00000230: c8d4 1e3c 4946 edbb 8074 5d3d 954a 4a3d
00000240: 137b 74bd 582f 89bc 40f0 abbb e58a b7bd
00000250: 61ad 42bd 3b3f 36bd 587b 86bc 0511 9dbc
00000260: 8007 16bd a4ca 2cbd 75ff f53c 3ebb ccbc
00000270: aa40 5bbc a54c 583d 69de 923d a2e2 613c
00000280: ed9b 8fbd 523a 3bbd 138f 91bc 2113 84bd
00000290: fc03 703b 2224 f9bc 3dab d5bb 1265 c83c
000002a0: 94f3 973c 7f00 20bc a514 1dbd 5569 db3c
000002b0: f09a 1ebc afea f0bc 688c a1bc b555 1e3e
000002c0: cfee 93bc 08c9 3d3d 5e48 cc3d d983 4dbd
000002d0: 5813 0ebb 9eb8 d6bc be77 ae3c f59c cd3c
000002e0: 3956 b43c 8f51 0e3c c694 213d 6ff7 90bc
000002f0: ef9a bdbc 661c 15bd e7d2 d0bd f988 a93c
00000300: f0c8 003d 0957 853c 61bc 4abc ea25 4dbd
00000310: dd3b 7bbb 5ae9 ad3c b03d 86bc 4b10 373d
00000320: 1c83 4a3c bdbc 34bb 2aaf b53c c8d6 e73c
00000330: a786 28bd 237f 893c c2c5 4fbd cba7 55bc
00000340: 6aea 3a3b 4e07 113d 8383 a7bc 8b3d 87bc
00000350: d2f0 eebc c1ed b23b fe9f 123d 1341 55bd
00000360: b5f3 2e3d 7440 263d 118c 3abc 6146 bbbd
00000370: bd69 c1bb 8c74 803c 9645 5bbb d8bd 17bd
00000380: 298a df39 507d cd3c ce96 373d 2cdd c23b
00000390: 161c 873d 45c3 c7bc 35c7 113d 88e4 a0bc
000003a0: fb2d 0e3c 66fe 863c d6f4 2b3d 5897 31bd
000003b0: 5e00 0bbd f5af 363d ef35 c6bc 35ab 02be
000003c0: 9dba 103c 180a debc 54e7 06bd 9728 b2bb
000003d0: 8aca 75bc 2795 503c 48d7 d0bc 7778 a9bc
000003e0: d928 b5bd 8ef2 42bd 282c 0ebc a751 993b
000003f0: fbfc 9fbd a589 e93a 4d43 c83d e085 ed3d

fc1.bias f4 [50]
0.028804278 0.020259779 0.06804852 -0.0065501425 0.032773733 0.015115097 0.051125348 -0.0088884
0.05955241 0.04656081 0.064316005 -0.05140317 0.004600413 0.005116205 -0.01757686 0.008747764
-0.044598468 0.03743142 0.055555526 0.009784751 0.056343064 0.04169965 0.04971805 0.023083912
-0.020789078 -0.04817914 0.031117762 -0.0031085531 0.04476765 0.014278674 -0.006454706 -0.034619465
0.02413343 0.025478441 0.078879595 -0.008994598 -0.008389418 -0.031426966 0.02302422 0.0063085146
0.007663177 0.05644207 0.0017840263 0.087032236 0.076485604 0.006975594 0.047475696 -0.016650168
0.0619377 -0.00048592704
00000000: f3f6 eb3c d6f7 a53c 065d 8b3d 94a2 d6bb
00000010: c03d 063d 50a5 773c d068 513d a7a0 11bc
00000020: 3aed 733d 8cb6 3e3d 1cb8 833d 218c 52bd
00000030: 10bf 963b d7a5 a73b 59fd 8fbc c852 0f3c
00000040: e2ac 36bd b051 193d 318e 633d 3850 203c
00000050: fcc7 663d 41cd 2a3d 27a5 4b3d 791a bd3c
00000060: db4d aabc 7d57 45bd adea fe3c deb8 4bbb
00000070: 495e 373d 19f1 693c 0082 d3bb 24cd 0dbd
00000080: 79b3 c53c 2ab8 d03c a08b a13d 145e 13bc
00000090: c573 09bc 90b9 00bd 4a9d bc3c a8b7 ce3b
000000a0: 631b fb3b cd2f 673d fdd5 e93a f53d b23d
000000b0: 7ca4 9c3d 8693 e43b e075 423d ef65 88bc
000000c0: 63b2 7d3d 06c4 feb9

fc2.weight f4 [10, 50]
-0.09412868 0.15514533 0.12937719 -0.114622004 0.13679348 0.16444635 -0.20004304 0.22335164
-0.14109685 -0.16681483 0.21416673 -0.013399713 -0.22813506 -0.13104823 -0.14320897 0.2073871
0.15213832 -0.16723655 -0.07709917 0.19972458 -0.03203686 0.107932895 -0.27038187 -0.075598106
-0.15198797 -0.06706084 -0.20194001 -0.116661586 -0.19977334 -0.16933405 0.24537225 0.11571465
-0.19671008 -0.19465958 -0.18773645 0.16019587 -0.2428909 0.18084297 -0.06203054 0.09953644
-0.061314803 -0.14837556 0.18867221 0.22228035 -0.21707429 0.12837872 0.15674028 0.2831375
-0.16895528 0.1704939 0.2088559 0.20142603 -0.0017144533 0.2852851 -0.13712578 0.027787516
-0.06147398 -0.078324646 0.18679437 0.23693539 -0.09941012 -0.19458304 0.21717332 -0.06939132
-0.111882515 -0.10556047 -0.09469364 -0.091568835 -0.050400015 -0.14951761 -0.18893503 0.18544558
0.14925669 -0.035804335 -0.06497581 0.02494759 -0.11659672 0.18524052 -0.058589984 -0.031556014
0.17224018 -0.12352772 -0.08898412 0.15358622 0.1737948 -0.15734482 0.13786153 -0.2584525
-0.011714439 0.12224342 -0.24516033 -0.070540495 -0.1447194 0.18425192 0.15597843 0.14581215
-0.27531585 0.082384445 0.26754993 -0.18035765 0.22974446 -0.07150171 0.18890738 -0.0069568083
-0.21437171 -0.11925145 -0.0280934 -0.05842151 -0.19220503 -0.12960055 0.2167954 -0.10386415
-0.14555976 -0.18679714 0.014841104 -0.087660685 -0.07089258 0.11829846 0.17588636 0.18029141
-0.24332115 -0.02785366 -0.09376289 -0.14966191 0.11108796 -0.052221075 -0.15969141 0.14813247
-0.06729486 0.067366704 -0.049941007 0.071359545 -0.25988704 0.14676729 0.1688111 0.112071015
-0.22618097 0.14717014 -0.025279105 0.09664895 0.070334025 0.1665207 -0.01661367 0.08353915
0.18760183 -0.142371 0.11580184 0.22181672 0.28660452 0.14376931 -0.1659076 0.19911449
0.19738235 -0.12946129 -0.0868868 -0.102010064 0.26666686 -0.062339734 -0.034659978 -0.2602854
-0.0050670803 0.19673921 -0.14696126 0.24436757 -0.084283 -0.037169255 -0.051825285 0.14000735
0.17035238 0.11127462 -0.19312942 -0.05259938 -0.008967852 -0.2161168 0.17300795 -0.0011080836
0.16580863 0.18045396 -0.09144717 0.16448863 -0.10721056 0.08167264 0.1945001 0.12821399
-0.1984398 0.1353301 0.03142044 -0.009725869 -0.14515036 0.12872171 -0.14889735 -0.08165352
0.0012233914 -0.13188286 0.12856092 -0.07064104 -0.20527104 -0.058824044 0.14180306 0.0032496355
-0.010380827 -0.18300182 -0.23912144 -0.07896145 -0.10049882 0.20705388 -0.09304401 -0.095199116
0.17307536 0.15918249 -0.019026738 0.122693844 0.2288963 -0.08416054 -0.13012294 -0.14369792
0.043075353 -0.14108329 0.19900718 -0.05302325 0.082438275 0.21147105 -0.06644688 0.17945316
0.16600612 -0.13610107 0.13542485 -0.17923623 0.22118476 -0.041048486 -0.046451654 0.21103609
0.09211636 -0.09993725 0.16184488 -0.2301102 0.1781647 -0.1359675 0.23321153 -0.17433253
0.11619571 0.13468015 -0.08436261 -0.17540595 -0.20464855 -0.017157424 0.12912907 0.08963543
-0.13710912 -0.15672696 -0.06730576 0.19359797 0.19643666 -0.029872112 0.18854307 -0.12509343
00000000: 8ac6 c0bd 6bde 1e3e 747b 043e f1be eabd
00000010: 9713 0c3e a064 283e 15d8 4cbe 4bb6 643e
00000020: b17b 10be 82d1 2abe 864e 5b3e 788a 5bbc
00000030: 3d9c 69be 8231 06be 5fa5 12be 495d 543e
00000040: 26ca 1b3e 0f40 2bbe 2be6 9dbd 9a84 4c3e
00000050: 1539 03bd ec0b dd3d 7e6f 8abe 2ed3 9abd
00000060: bca2 1bbe 3257 89bd 5dc9 4ebe 45ec eebd
00000070: 6291 4cbe e865 2dbe dd42 7b3e cdfb ec3d
00000080: 5e6e 49be d754 47be fc3d 40be 630a 243e
00000090: 64b8 78be e62e 393e bc13 7ebd c3d9 cb3d
000000a0: 3b25 7bbd c3ef 17be 4a33 413e 769d 633e
000000b0: b948 5ebe b675 033e 8680 203e 66f7 903e
000000c0: 9d02 2dbe f495 2e3e 52de 553e a042 4e3e
000000d0: 82b7 e0ba e310 923e b36a 0cbe a5a2 e33c
000000e0: 24cc 7bbd ac68 a0bd 0647 3f3e 319f 723e
000000f0: 8897 cbbd c740 47be af62 5e3e 091d 8ebd
00000100: a922 e5bd 1630 d8bd bdee c1bd 7188 bbbd
00000110: 3f70 4ebd 251b 19be 2f78 41be 72e5 3d3e
00000120: bfd6 183e 91a7 12bd 0a12 85bd e35e cc3c
00000130: 43ca eebd b1af 3d3e 0dfc 6fbd e140 01bd
00000140: bb5f 303e 1afc fcbd 4e3d b6bd b545 1d3e
00000150: 44f7 313e 001f 21be 932b 0d3e e353 84be
00000160: ebed 3fbc c25a fa3d 4f0b 7bbe 8977 90bd
00000170: 5331 14be 89ac 3c3e cfb8 1f3e c84f 153e
00000180: 33f6 8cbe 2db9 a83d 4efc 883e adaf 38be
00000190: 2242 6b3e 7d6f 92bd f070 413e f0f5 e3bb
000001a0: 4284 5bbe 1b3a f4bd 2124 e6bc 654b 6fbd
000001b0: 65d1 44be 02b6 04be 9dff 5d3e bab6 d4bd
000001c0: 9e0d 15be c047 3fbe 1a28 733c 7287 b3bd
000001d0: 2130 91bd 7746 f23d 8e1b 343e 509e 383e
000001e0: 2e29 79be 5c2d e4bc c206 c0bd f940 19be
000001f0: 1682 e33d c4e5 55bd 2586 23be 0ab0 173e
00000200: e3d1 89bd 8ef7 893d f18e 4cbd f424 923d
00000210: ea0f 85be 2a4a 163e d1dc 2c3e 7d85 e53d
00000220: fc9b 67be c5b3 163e 2016 cfbc e2ef c53d
00000230: 490b 903d 6784 2a3e 6419 88bc 9316 ab3d
00000240: b21a 403e b4c9 11be 8429 ed3d ec23 633e
00000250: d4bd 923e 4338 133e afe3 29be abe4 4b3e
00000260: 991e 4a3e 8091 04be b5f1 b1bd a7ea d0bd
00000270: 8f88 883e f357 7fbd 9ff7 0dbd 2144 85be
00000280: c009 a6bb 0176 493e 037d 16be 7e3b 7a3e
00000290: 919c acbd ca3e 18bd c046 54bd 165e 0f3e
000002a0: db70 2e3e f3e3 e33d b8c3 45be 7372 57bd
000002b0: e6ed 12bc b94d 5dbe ff28 313e 1e3d 91ba
000002c0: bdc9 293e ecc8 383e a748 bbbd b56f 283e
000002d0: 3691 dbbd fc43 a73d 092b 473e 874a 033e
000002e0: ce33 4bbe f993 0a3e b8b2 003d 4059 1fbc
000002f0: 4ca2 14be a0cf 033e 8c78 18be f639 a7bd
00000300: 345a a03a 4d0c 07be 79a5 033e 40ac 90bd
00000310: 9232 52be 7bf1 70bd d234 113e d6f7 543b
00000320: 5814 2abc d464 3bbe 40dc 74be 8ab6 a1bd
00000330: 53d2 cdbd ef05 543e dc8d bebd c1f7 c2bd
00000340: ab3a 313e bc00 233e f6dd 9bbc e946 fb3d
00000350: cb63 6a3e 5c5c acbd f33e 05be 8c25 13be
00000360: c86f 303d 2378 10be 8ac8 4b3e e82e 59bd
00000370: 66d5 a83d de8b 583e 4d15 88bd 92c2 373e
00000380: 82fd 293e 145e 0bbe d0ac 0a3e b489 37be
00000390: 427e 623e 7522 28bd 1744 3ebd d819 583e
000003a0: 81a7 bc3d e7ab ccbd aaba 253e 02a2 6bbe
000003b0: cf70 363e 103b 0bbe 01cf 6e3e 3a84 32be
000003c0: 04f8 ed3d 98e9 093e 4ec6 acbd 9e9d 33be
000003d0: 648f 51be ba8d 8cbc 693a 043e c892 b73d
000003e0: 5566 0cbe 087d 20be 9ad7 89bd 8c3e 463e
000003f0: b126 493e 5cb6 f4bc 6f11 413e 7e18 00be

fc2.bias f4 [10]
0.033984005 0.12681147 -0.077948205 -0.044552077 -0.05231824 0.12356427 0.10199706 -0.10948027
0.06499499 -0.15084684
00000000: d032 0b3d deda 013e 4fa3 9fbd 3d7c 36bd
00000010: a74b 56bd 440f fd3d d6e3 d03d 3137 e0bd
00000020: 181c 853d 9877 1abe
