proj5/task4/results/exp5_tanh.pth (torch, 89871 bytes, 8 tensors)

conv1.weight f4 [10, 1, 5, 5]
00000000: 68e0 393e 9447 813d c366 2ebe 8902 463e
00000010: 7dae e23d 958a 703e f7d3 60bd 7010 133e
00000020: f588 a63e c1a1 d73d 3478 933e 3057 3c3d
00000030: 9694 f63d 830c dd3d c1b2 543e eddf 0b3d
00000040: c134 293e 21f7 bf3b cc9a efbc 272c 2b3c
00000050: f2c0 9fbb 4ad9 12bd ee8a 28be 766f 253d
00000060: 4f42 abbe 057a 67be 1539 fdbd 4c25 42be
00000070: 820d c2bc 05a6 9ebe bfc9 2d3d 89ab 45be
00000080: b5d2 143e 6d48 eeba f227 85be bd28 b83d
00000090: 6888 6e3d 506f 2d3e 2294 ba3a 3265 48be
000000a0: 1ba7 763e 2e5c 033e 2e4e 363e 6754 823e
000000b0: e05c 103e 0c62 b13d 425e 8b3e 883d c83d
000000c0: 8231 303e 0751 b5bd 22fa 0dbe cafc f1bc
000000d0: c417 d6bd 1742 7a3e ab54 513e fd76 0d3e
000000e0: 47b3 fe3d 7d8a ab3d 7b7c 6e3e 26be 00be
000000f0: 9ef1 ee3d d342 fabc a7ad d83d 68e7 aebd
00000100: 6a46 62bd 42f4 ce3d 6d29 553e 4613 63be
00000110: e162 5fbe 2b5e 77be 6101 a43e 1107 e13d
00000120: 0f7c fd3d 8df3 61be 15a2 71be 1bee 1abe
00000130: 99f6 45be e11f 9a3d c3d3 c03d f1de 873e
00000140: 6e84 19be 8786 22be 1a30 9e3d 0ae9 92bd
00000150: 2ac9 563e e6ca 53bd 02e5 c73d 6e3b 7abe
00000160: 84ea 22be f66e b03c 90f9 ac3d 8c20 3fbd
00000170: 916c 9d3d 3ba6 133d ac7b a5be d6ab 63bd
00000180: ad80 7c3e 26e7 023c e679 f8bd 23f4 96be
00000190: 1fd5 6f3d d815 193e f2ed 203d fe45 6dbe
000001a0: 1abd a6be 1205 02bd ac59 d4bc 0b0e 2abd
000001b0: d77e 88be 8911 3ebe bb9d 003e c330 073d
000001c0: cd44 50bd 58a4 d6be e61c cabc 27bc 81bc
000001d0: cb5b 2c3c 363d 9bbe 4451 51be 6b5a 6b3d
000001e0: 9d89 b53d 3546 32be 6f27 65be b37c 58be
000001f0: 6cbd 1c3c 5d1f 5dbd 2994 4ebc 16ff 373b
00000200: 17ca 393e a5d0 d4bd 0fb0 313e d7b6 9e3c
00000210: afd1 8fbe 6461 bebd 2f8a 29be 620c bebd
00000220: eef5 5ebe d6ed b9be d04f f1bd cf4e 78bc
00000230: 9902 0b3e 5d86 c2bd 7d13 143e 2941 08be
00000240: e177 b13d 1413 183e 00d2 6d3e 3cee 803e
00000250: 7ac7 803e 180a 1dbd 402e 803d 0375 d0bd
00000260: 9ef2 34bd 4c0d 3cbe 9cc5 603e 023f 05be
00000270: e7be 0e3e 4f86 123d 7ea9 3bbc 2e57 10bd
00000280: c72c 763e f2b8 ca3d 18b8 003d 684b 51be
00000290: 16b5 223e c252 c33c 8e63 88bd 9a9e 5b3e
000002a0: 8af3 8c3d 341d 3cbd 1aff a1bd eb6d b1bc
000002b0: c481 f63d 786d 5ebd 48ce f5bd ae34 17be
000002c0: 254d e1bd d91c 6e3d 1597 d73d 39df 40be
000002d0: fdd6 f83d acc4 663e f2d8 77bc 2a27 ebbd
000002e0: c064 233e 4b92 9f3e 04cd 333e c346 97bd
000002f0: ed39 59bb f341 473e efb7 0b3e 981a e43b
00000300: 6abb 1c3e 27d4 ad3e 8258 853e e418 09bd
00000310: 1fe9 88bd 7e24 e6bd 4da9 fc3c df65 ff3d
00000320: 3390 88be b910 87bd 9a8f 303e db7b 133e
00000330: 790b 833d 756b 92be 0c97 c4be ff94 b7be
00000340: 9c8e d2bd 0411 913d 470a ae3b 28b8 b8bd
00000350: 7459 a0be 0029 a2be 8d0a 53be 2376 1e3e
00000360: 2e38 813d 268d edbc 7984 37bd 02ab 73be
00000370: 441d d2bd bde9 093e 9810 11b8 ed44 3e3d
00000380: d127 57be c9d6 c03d d511 283e 9005 133e
00000390: bc87 9b3c 6f86 fd3c 8f95 edbd 0d35 5d3e
000003a0: 5ef7 da3d 3e02 343e fdeb 1b3e ace0 1c3e
000003b0: 40d6 923d e490 38be 9600 54be 9e79 88be
000003c0: 7c29 503c 424a 7ebe 30f4 34be cf59 34be
000003d0: 6c12 36be 0232 b8be 3373 7dbe 13a2 183e
000003e0: 5e35 163e f011 0c3e
0.1815201 0.063124806 -0.17031388 0.19336905 0.11068437 0.23490365 -0.054889645 0.14361739
0.32526365 0.10528899 0.28802645 0.045981586 0.12040059 0.10793402 0.20771314 0.0341491
0.1652403 0.0058583175 -0.029248618 0.010447538 -0.004875296 -0.035851754 -0.16459247 0.0403895
-0.33449027 -0.2260514 -0.12364403 -0.1895954 -0.023688082 -0.30986038 0.04242873 -0.19303717
0.14533503 -0.0018179544 -0.26007038 0.08992145 0.058235556 0.16936994 0.0014234821 -0.19569853
0.24087183 0.12828133 0.1780326 0.2545502 0.14097929 0.08661279 0.2722035 0.09777361
0.17206386 -0.08853345 -0.1386495 -0.029539485 -0.10453752 0.24439274 0.20442455 0.13814922
0.12436538 0.08376024 0.23289673 -0.12572536 0.116671786 -0.030549442 0.105799966 -0.08540231
-0.055242933 0.10105182 0.20816584 -0.22175321 -0.21815063 -0.24157016 0.32032302 0.10987676
0.12377178 -0.22065563 -0.23596986 -0.15129893 -0.19332351 0.07525612 0.0941539 0.26537278
-0.14991924 -0.1587163 0.077240184 -0.07173355 0.20975175 -0.05170717 0.09760477 -0.24436733
-0.15909773 0.021537285 0.08446038 -0.0466619 0.07686723 0.0360472 -0.32320917 -0.055583797
0.24658461 0.00798968 -0.12132625 -0.29483137 0.058552857 0.14949739 0.039289422 -0.23171231
-0.32566148 -0.031743117 -0.025921665 -0.0415173 -0.2665927 -0.18561377 0.1256017 0.033005487
-0.050846864 -0.4192226 -0.024671983 -0.015836788 0.010519932 -0.30320138 -0.20441157 0.057459276
0.08864138 -0.17409594 -0.22378324 -0.21141319 0.009566646 -0.05398499 -0.012608566 0.0028075627
0.18143497 -0.10391358 0.17352317 0.019374294 -0.28089663 -0.092959195 -0.16556619 -0.092797056
-0.21773502 -0.36314267 -0.11782801 -0.015155508 0.1357521 -0.09498284 0.14460559 -0.13306107
0.08665443 0.14851028 0.2322464 0.25181758 0.2515219 -0.038339704 0.062588215 -0.10178568
-0.04417669 -0.18364447 0.21950382 -0.13012317 0.13940011 0.035772618 -0.011453984 -0.03523939
0.24040519 0.09898557 0.031425565 -0.20438921 0.15889391 0.023843173 -0.066596135 0.2144722
0.06882389 -0.045926288 -0.07909985 -0.021658858 0.120364696 -0.054303616 -0.12002236 -0.1476619
-0.11001042 0.05813298 0.105268635 -0.18835153 0.12150381 0.22535962 -0.015127407 -0.11482079
0.15956402 0.311663 0.17558676 -0.073865436 -0.0033146099 0.19458751 0.13644384 0.006961178
0.15305868 0.33950922 0.2604409 -0.033471003 -0.06685089 -0.11237429 0.030842448 0.12470602
-0.26672515 -0.065949865 0.1724228 0.14402716 0.063986726 -0.28597608 -0.3839649 -0.35855862
-0.10281107 0.070833236 0.0053112837 -0.090195 -0.31318247 -0.31671906 -0.20609494 0.15474753
0.063095436 -0.028997969 -0.04480407 -0.23795703 -0.10259488 0.1346807 -3.4586148e-05 0.04645245
-0.21011283 0.09415967 0.16413052 0.1435759 0.018985622 0.030947892 -0.11600792 0.21602269
0.10691713 0.1757898 0.15226741 0.1532008 0.07169771 -0.18024021 -0.20703349 -0.26655287
0.012705203 -0.24833015 -0.17671275 -0.17612384 -0.17780465 -0.35975653 -0.24750976 0.14905576
0.14668795 0.13678718

conv1.bias f4 [10]
00000000: 36fa d4bd e51e a6bd 5faf 04be 8afe 29be
00000010: 462b 16be 3622 a1be 961b 803e 8d01 33be
00000020: ace9 c1bd 94de 003d
-0.103992864 -0.081113614 -0.12957524 -0.16601005 -0.14664945 -0.31471413 0.25021046 -0.1748106
-0.094683975 0.031462267

conv2.weight f4 [20, 10, 5, 5]
00000000: 539c 923d ac97 91bb c6a0 b53d 8da8 3dbc
00000010: 19b0 923c 3ff2 743d 695d 113d 2fdf a03c
00000020: 4a66 fe3a e144 28bd 58cc 5abc 30ee 87bd
00000030: ba42 973c 1fcc 1a3d 9eb8 533d 8bab d9bd
00000040: 707e 07be 9cd4 75bd 2f2e 73bd 02fb babd
00000050: 2cf1 5abc 2042 b4bc 59b7 c7bc 4cfb bdbd
00000060: e03a 97bd 120c efbc 225b e6bc 46d4 bc3d
00000070: 1114 d73d dd6c 563d bb65 15bd 60a4 0dbc
00000080: decf b3bd 891a 1abd 9c5d 3f3d d9bb 12be
00000090: 2b23 b1bd 3844 36bd 2cb5 03bd be21 70bd
000000a0: 2b24 4ebd 273d e43b 71b6 89bd d483 9abd
000000b0: 6f8b cfbd 4961 ab3d 7d44 c83c a96b 2e3d
000000c0: 67b0 39bd 4bb5 42bd a526 5f3d fb7a 1c3c
000000d0: e219 97bd 9a9d 48bd 3521 993c 01e4 29bd
000000e0: ebcb b43c 2f1d d1bb aaf7 9ebd a247 853c
000000f0: 7e08 623c af9d b23d 051b a73d 00eb ccbb
00000100: 44f0 03bd 2957 d6bd 237e 38bd 4f61 dcbc
00000110: 3ea9 75bc ab1a 93bc 13b3 3ebc ea56 303d
00000120: 7bcb d8bc e467 74bd 38c8 0d3c 9e32 b1bd
00000130: ead2 05bd b3cf a2ba e7be 9abd abb4 d7bd
00000140: 36d1 86bd ba71 b4bb 96ca 83bd fcef ecbd
00000150: 6f43 fdbd 59e5 90bc cbae 953d 98f1 12bd
00000160: 033b c2bd 0be7 cdbd aecf fabc af57 4b3d
00000170: ad35 843d 5467 803c 5e1e dfbd e7af 5e3c
00000180: 35c8 5a3d 36e8 b5bc 59e9 84bd 8967 1dba
00000190: 14ab 94bd 2850 d5bd 46fb f5bd 43ba cdbd
000001a0: fefc edbc c999 e8bc 8287 16bd 638d bdbd
000001b0: 8165 0cbe 376e 18bc 83a3 0a3d 6e0c 5d3c
000001c0: 7336 81bd 012b 36bd 282f 52bc fa0d acb9
000001d0: ec37 ccbb 2393 603c 7e7e 183b 19e7 92bc
000001e0: 4c3d 3c3d 269c aabd 150b 103d 525d 593d
000001f0: 2494 9f3d dabf 033c 8277 18bc 320e 94bb
00000200: b05b 893c a26c d8bc 5567 27bd dec6 4c3b
00000210: 17a1 6e3d 2531 4b3c 2e3c cabc 1b42 07bd
00000220: 79c7 a8bc 843d 763c dce9 06bc 5931 72bd
00000230: 99c3 8d3d ed81 2b3e 2147 e53d 9a78 863d
00000240: f7fb 5cbc 7501 8abc 9a54 41bd c54b 06bd
00000250: a0ee 8ebd b899 2ebd 08f6 cbbc bedc 99bc
00000260: 029a 6f3d b6bb df3c 4233 433d c60a 31bd
00000270: 1442 82bc 88b6 943c 1ef9 13bd 14aa 0dbd
00000280: 4e79 22bd cbb3 1cbd 684d 82bd 19a1 f03c
00000290: 23e9 373d df73 4bbd 45cc d9bc 5294 bdbd
000002a0: e9ae a9bd bba1 30bc 1261 bd3c d0ee b33c
000002b0: 2b0e 27bc 6d80 ab3c 9e2a 90bd 6d68 9e3c
000002c0: 19fa 11bd e565 8f3b 15a7 21bb a6eb e93b
000002d0: 6938 94bd df68 313c 6cd7 063c 2648 823d
000002e0: 60c2 753d b5f4 ffbd 77ba 05be 800f 2dbb
000002f0: 1ebf 953c a995 1ebd 68c6 40bd 7839 bebd
00000300: b895 dbbd aa34 3abd ba05 1cbd 307e 113d
00000310: 0cc6 9e3c 2fab a53d 099c d8bc 8190 babd
00000320: e5f2 c2bc 8071 05bd 4178 9c3c aeff 58bd
00000330: 295d 513b e1ab 283b 810d f2bc a120 02bb
00000340: fc9d 653d 021d c43c b790 0d3e 9bff 913d
00000350: c0eb 423d 8092 7ebd e564 71bd 4dc9 e93d
00000360: b677 b93d 4412 963d 54a4 773c 0252 2c3c
00000370: e00a c4bc f9b7 73bd 78f8 d1bc c8a0 343c
00000380: 40e7 70bd 659d a6bd 9bd7 583b 2a23 3c3c
00000390: 35a7 cb3d 80a4 3e3d 60d8 b6bc 3068 043b
000003a0: e5f0 253d 152c 5e3c 6342 2d3c 8aee 9e3d
000003b0: dce6 c73d 7260 ee3d f5f3 5e3c 3a32 11bd
000003c0: c4be 073c 1e8f fc3a 7b07 b93b 6eb5 cd3c
000003d0: dc11 36ba 8eea a53c 7773 02bd 7e03 1abd
000003e0: 40d0 11bd 6173 1bbd 6e59 b5bb 0b77 7fbd
000003f0: 99cf e63c ea25 cfbc 6ea9 00bd 180f 68bd
0.07158723 -0.0044431295 0.08868556 -0.01157583 0.017906236 0.059801336 0.035489473 0.019637672
0.0019409147 -0.041081313 -0.013354383 -0.066372275 0.018464435 0.03779232 0.051689737 -0.10628422
-0.13231826 -0.060017213 -0.059370216 -0.09129907 -0.013363164 -0.022004187 -0.02437942 -0.09276447
-0.073842764 -0.02918056 -0.028119627 0.092201754 0.10501874 0.052349914 -0.03647397 -0.008645147
-0.08779882 -0.037622962 0.046720132 -0.1432947 -0.08649286 -0.044498652 -0.0321552 -0.05862593
-0.05032746 0.0069652977 -0.06724251 -0.075446755 -0.10134017 0.08368165 0.02444672 0.04258314
-0.045334246 -0.047536176 0.054480214 0.009550805 -0.07377984 -0.048978426 0.018692592 -0.041477207
0.022069892 -0.006381653 -0.07762082 0.016269509 0.01379597 0.08721482 0.081594504 -0.0062536
-0.032211557 -0.10465843 -0.04504217 -0.02690187 -0.014993964 -0.017957052 -0.011639374 0.043051638
-0.026464215 -0.05966939 0.008653693 -0.086522326 -0.032671846 -0.0012421518 -0.07555943 -0.105325066
-0.065828726 -0.0055067213 -0.064351246 -0.11569211 -0.123663776 -0.017687486 0.0730873 -0.035874933
-0.09483912 -0.100538336 -0.030616608 0.04964417 0.0645555 0.01567427 -0.10894464 0.013591743
0.05341359 -0.022205453 -0.0648982 -0.00060045026 -0.07259193 -0.10415679 -0.12010817 -0.10045292
-0.0290513 -0.028393643 -0.036750324 -0.09255483 -0.13710596 -0.009303621 0.033847343 0.013491733
-0.063092135 -0.044474605 -0.012828626 -0.0003281681 -0.0062322523 0.013706955 0.0023268755 -0.017932462
0.045956895 -0.08330564 0.03516682 0.053067513 0.077919275 0.008041346 -0.009305837 -0.004518294
0.016767353 -0.026418988 -0.04087003 0.0031246464 0.058259096 0.012401854 -0.024686899 -0.033022027
-0.020602928 0.015029315 -0.008234467 -0.059129093 0.06922073 0.16748782 0.111952074 0.06565972
-0.0134878075 -0.016846398 -0.047199823 -0.032787103 -0.06979108 -0.042627066 -0.02489759 -0.018782016
0.058496483 0.027311187 0.047656305 -0.043223165 -0.01590065 0.018153444 -0.03612625 -0.034586027
-0.039666466 -0.0382574 -0.0636242 0.029373692 0.04490007 -0.04967105 -0.026586661 -0.092568055
-0.082853146 -0.010780747 0.023117576 0.02196446 -0.010196249 0.020935262 -0.070393786 0.019336903
-0.035638902 0.0043761604 -0.002466624 0.007138687 -0.07237322 0.010828226 0.0082300715 0.063614175
0.059999824 -0.12497846 -0.13059412 -0.0026406944 0.018279608 -0.038716946 -0.047064215 -0.09288305
-0.10721916 -0.04546038 -0.0380914 0.035520732 0.019381545 0.08089291 -0.02644159 -0.09109593
-0.023797462 -0.032578945 0.01910031 -0.05297821 0.0031946397 0.0025737213 -0.029547455 -0.0019855874
0.05605887 0.023939613 0.13824736 0.07128831 0.04758811 -0.062151432 -0.05893411 0.11415348
0.09056036 0.07327703 0.0151148625 0.010517599 -0.023930967 -0.059501622 -0.025631174 0.011024661
-0.058814287 -0.081354894 0.0033087495 0.011482993 0.099440016 0.0465436 -0.022319973 0.0020203702
0.040512938 0.013560315 0.01057491 0.077603415 0.0976083 0.11639489 0.013607969 -0.03544829
0.008285228 0.0019268726 0.0056466437 0.025110926 -0.000694541 0.020253446 -0.031848397 -0.037600987
-0.035598993 -0.03795183 -0.0055343425 -0.062369388 0.028175162 -0.025286634 -0.03141158 -0.05665502

conv2.bias f4 [20]
00000000: 08d8 733c e66f 05be 8793 97bd 02bf c8bd
00000010: 1889 fcbd ebcf a7bd f2db 203d 3740 d5bd
00000020: 8610 81bd a98b afbd dac8 aabd 1b58 c1bd
00000030: 1de9 bdbd 5b8b 9cbc 8c73 cc3c 4c86 c5bd
00000040: 63a2 a4bd b516 d9bd b51a 75bd 1996 c9bd
0.014883049 -0.13030967 -0.074011855 -0.09802057 -0.12330836 -0.08193954 0.039272256 -0.10412639
-0.0630198 -0.0857156 -0.08339091 -0.09440633 -0.092729785 -0.019109419 0.02495744 -0.09644756
-0.08038785 -0.10600034 -0.059839923 -0.09843082

fc1.weight f4 [50, 320]
00000000: 3558 ddba d8d0 6d3c 3349 0c3d 7944 8e3d
00000010: e526 20bc 6267 00bc f07d cf3d faaf 303d
00000020: 160f 03bd 662c 22bd 8655 2fbd 81db 473b
00000030: f16c d03d c7d8 2b3c 0894 7bbd 9e5e a03d
00000040: 44aa e43c b488 743d 4cac 0dbd 15d3 00bd
00000050: 976c 2cbc 7890 d1ba d7fe 8cbd bc0d cfbc
00000060: f463 653c c3c0 68ba 77bc 693d a85e d13d
00000070: e4ee 953c ee6c a33d df34 a03d a9f2 cf3c
00000080: caf2 f63c 1dd4 b73c 68c4 cc3d 0d43 2c3d
00000090: ded6 623c d3c3 b53b 57e8 d23c 7e3d 343d
000000a0: eda5 923d ee56 c2bc 0b39 10bd e1ea c63c
000000b0: 5b4d 09bd c2cd 0ebd d321 0abd 5b8c 07bd
000000c0: e72e 1a3c ada9 f13c 724f 933d 6871 f5bb
000000d0: a508 b43d d9e8 b73d c9bb 883d 0b55 17bd
000000e0: 9c0e e5bc ad6c 823d 3fce a83c 7623 a9bb
000000f0: e57d 69bd 2838 42bd 0a8f 12bd 967d c93c
00000100: cfb7 043c 2a2a 6d3d e9d7 4a3d f6ba a93c
00000110: d33f 753d 4da2 993d 8e66 94bb 4b5c 4ebd
00000120: 11df 053d 943e 973d dcbe 493d beba f1bc
00000130: 52c3 13bc 4422 8fbd 615e 4ebd d29c 06bd
00000140: 9497 0b3d f162 fd3b 9366 1b3d 190a 63bd
00000150: 9936 e8bb 4d56 4ebb e3d6 85bd 596c ebbc
00000160: 0d25 94bc 1e0f 7bbc 804b 533c 5c70 0b3c
00000170: c934 673c f34d 463d f01b 563d bb47 96bc
00000180: 18a5 47ba f0fa 66ba ea7f 093d 5a4b 4e3d
00000190: 2c77 e13c c78f 9e3d a735 03bd e0c2 79bb
000001a0: 3d61 173d e0df 833d 44ce b23d 10ad 643d
000001b0: 2902 3e3d fe4e 083d df51 813d e47b bd3b
000001c0: ded5 1a3d fbc4 1d3c 9a52 ba3d 1d31 0d3d
000001d0: 3534 683d 393c 543d 7f84 b23d 7429 013d
000001e0: 1299 b63d bee5 733d f4ad a43d 6500 f93b
000001f0: 4d82 04bd 6750 fdbc a015 9bbc db55 bbbb
00000200: 3350 8ebd dad8 c2bc 6722 21bd 80f7 c3bd
00000210: d453 fd3c f42e 003c 238c 873d dda2 90bb
00000220: 388d bfbc 5012 0cbe 8216 92bd 9d2f 413d
00000230: cfa4 633d 507f c7bc 3ae0 943b 5e7b 1d3d
00000240: 5486 9dbc 18a4 beba cc52 a3bc c720 89bb
00000250: 7ed3 d43a e3da 5abb 7e7f c53c 79e9 813d
00000260: 043a ba3b 626b 203d b601 373d 6b3a 97bd
00000270: 392e 283c 78a4 553c a89f 65bd cfbf f2bd
00000280: f57e 69bd 7c34 f8bc 1d92 5e3a db32 8abc
00000290: 4f7d eebc 6080 84bb 8078 92bd cc43 efbd
000002a0: 673d 183d 177a 893c 49cd 03bc e8e7 e2bc
000002b0: 0458 183d 8204 863d 26b1 2cbb b7f1 513d
000002c0: 5982 b1bc 8fe3 303c b9af 853d a672 debc
000002d0: 616d 763c 992d a9bc cda1 01bd 36b4 473c
000002e0: 8e42 4d3b 3307 5bbd 5142 59bc c9cf cbbc
000002f0: 4f56 0dbe fc9d d6bd cde7 90bd 7a02 6c3c
00000300: b7cf bf3c 8ed1 78bb a397 48bb 2d70 52bd
00000310: 54f7 1dbd f7f4 88bd 1864 8ebc 9b66 813d
00000320: 2d4c 2cbc 03bf e2bc 75bc a93c 36b8 9c3d
00000330: bc89 59bd 5ef6 2e3d dd1f 76bd 4db4 e0bc
00000340: 6342 173d 541f e63d a2e3 403c d972 b53d
00000350: 151d 1c3d 0f88 a93d eb05 0e3d f13f a33c
00000360: f2fc b33d 1955 e53d a18a 063d 57c1 92bd
00000370: 410f 42bd 3482 843c d51e f7bc 6573 58bc
00000380: c62b 973d 9d19 983c 93f2 273d 2dd7 113d
00000390: 3aea d43c 02fc 39bd 404f 133a 8627 a4bc
000003a0: 1e84 31bd 85c1 c93c cf5b 233c 202b babc
000003b0: 34ef 17bc 0684 8e3d e6f1 f83d dc63 073d
000003c0: ce6d 4f3d fe6d 1cbd b3fb 4fbd 9704 803c
000003d0: 5406 033d 8bc1 d23d e342 8dbc ec13 98bb
000003e0: 727b 33bd f580 0bbb 2687 e8bc a5c9 bcbc
000003f0: 78ba 85bd fe69 ae3c c1f9 4c3d 0e2a b63c
-0.001688725 0.014515124 0.034249496 0.06946654 -0.009774898 -0.007837148 0.101314425 0.043136574
-0.03199681 -0.039593123 -0.04280617 0.0030495825 0.10177029 0.010488695 -0.06142047 0.07830547
0.02791322 0.059700683 -0.034588143 -0.031451304 -0.010523937 -0.001598849 -0.06884544 -0.025275104
0.014000881 -0.00088788214 0.0570645 0.10223132 0.018302388 0.07979761 0.07822584 0.025384264
0.030145068 0.02244001 0.09998399 0.042056132 0.013845174 0.0055470257 0.025745554 0.044003956
0.07160554 -0.023723092 -0.03521065 0.02428192 -0.033521038 -0.034864195 -0.033723664 -0.033092838
0.009410596 0.029499853 0.07192887 -0.0074903257 0.08790711 0.08979959 0.06676442 -0.036946338
-0.027961068 0.063683845 0.020606158 -0.005161698 -0.057004828 -0.047416836 -0.035780944 0.024596017
0.008100464 0.05790154 0.049522314 0.020719033 0.05987532 0.075016595 -0.004528827 -0.050380986
0.032683436 0.07384983 0.049254283 -0.02950799 -0.009018736 -0.069889575 -0.050382975 -0.0328644
0.034080103 0.007732742 0.03793962 -0.05542955 -0.0070865867 -0.0031484545 -0.06535127 -0.028738188
-0.018084073 -0.015323428 0.012896419 0.008510675 0.014111706 0.048414182 0.052272737 -0.01834475
-0.00076158484 -0.00088111963 0.033569254 0.05036483 0.027522646 0.07742267 -0.03203359 -0.003811054
0.036957968 0.06439185 0.08730748 0.055829108 0.04638878 0.033278458 0.06314444 0.005782591
0.037801616 0.009629483 0.09097786 0.034470666 0.056690414 0.051815245 0.08716678 0.031533673
0.089159146 0.05954527 0.080409914 0.007598924 -0.032350827 -0.030922128 -0.01893121 -0.005717022
-0.069488905 -0.023785044 -0.03933945 -0.09568691 0.030923761 0.0078236945 0.06618526 -0.004413946
-0.023382768 -0.1367886 -0.07133199 0.04716455 0.055577096 -0.0243527 0.0045433315 0.03844773
-0.019229092 -0.0014544753 -0.019936942 -0.0041848156 0.0016237346 -0.0033394627 0.024108645 0.063433595
0.0056831855 0.03916491 0.044679366 -0.07384189 0.010264927 0.013039701 -0.056060463 -0.11852991
-0.05700584 -0.030298464 0.00084904005 -0.016869953 -0.029112486 -0.004043624 -0.0715189 -0.11682853
0.037167933 0.01678185 -0.008044549 -0.027698472 0.037193313 0.065438285 -0.0026350706 0.051255908
-0.0216686 0.010796442 0.06527657 -0.027154278 0.015040726 -0.020651625 -0.031648446 0.012188962
0.0031320187 -0.053473663 -0.01326044 -0.024879353 -0.13802455 -0.10479352 -0.070754625 0.014404887
0.023414476 -0.0037966701 -0.003060796 -0.05137651 -0.03856595 -0.06687348 -0.017381713 0.063183986
-0.010516209 -0.027678972 0.020719746 0.07652323 -0.05310987 0.042715423 -0.06008898 -0.027429724
0.036928546 0.11236444 0.011773022 0.08859796 0.038113672 0.08277904 0.034673613 0.01992795
0.0878848 0.11197872 0.03284705 -0.07165783 -0.04737783 0.016175367 -0.030166069 -0.013211106
0.07381396 0.0185669 0.04100282 0.0356056 0.025990594 -0.04540635 0.0005619414 -0.020038377
-0.043338887 0.02462841 0.009970619 -0.022725642 -0.009273339 0.06958775 0.121555135 0.033054218
0.050641827 -0.038190834 -0.05077715 0.015627189 0.031988457 0.10290822 -0.017243808 -0.0046410467
-0.0438189 -0.0021286581 -0.028384756 -0.02304537 -0.06529707 0.021290775 0.05004287 0.02223685

fc1.bias f4 [50]
00000000: b8a6 bc3d cdbb b13d a9f1 8b3d ae1f a2bd
00000010: 1423 073d 0225 6ebc dad6 8b3d 0bd1 72bc
00000020: 8f16 823d f177 04bd 51c8 9b3d 3b2a cf3c
00000030: 13fb d03b fb8e f6bd 796f 39bd 7d63 07bc
00000040: 2a88 f9bd f932 303c cc27 d03d e18b 4bbd
00000050: 80b8 3bbc 965d 833d ba8e cdbc 27f7 76bc
00000060: 1952 34bd eab7 a9bc dcff 75bd f59d 5fbd
00000070: 41b2 cdbc f16e e33c 3c8b 8bbd c911 efbb
00000080: e802 c13c 4add ce3c 8764 ad3d 3ac3 87bd
00000090: 3cd4 ddbd 5ee7 d2bd c339 18bd 535b b63c
000000a0: 73e9 9cbb 3ba8 49bd 38c1 563a c515 5a3d
000000b0: 765f 9abc 7fa8 29bc 3b62 83bd 1d39 183d
000000c0: 94f3 2e3d 1e3c b63c
0.092114866 0.08678398 0.068332024 -0.07916199 0.032992437 -0.014535191 0.06828089 -0.014820348
0.06351959 -0.032340948 0.07606567 0.025288692 0.0063775866 -0.1203899 -0.045272324 -0.008263466
-0.12184174 0.01075434 0.10163841 -0.049693946 -0.011457562 0.064143345 -0.025092471 -0.015073574
-0.044023607 -0.02071758 -0.06005846 -0.054594 -0.025109412 0.027762862 -0.06813666 -0.0072958213
0.023560956 0.025252003 0.0846644 -0.066290334 -0.10831496 -0.10298036 -0.03716446 0.022260344
-0.0047885715 -0.049232703 0.0008192244 0.053243417 -0.018844347 -0.010355114 -0.0641522 0.037163842
0.042712763 0.022245463

fc2.weight f4 [10, 50]
00000000: 46ea aa3e 3aff fb3d 0fcd 943e a304 86be
00000010: 706e 453e cf28 e33e eb6b 91be cad6 9d3e
00000020: 0f0f 01be d65c 2abe 8c41 4a3e b69f 4b3e
00000030: 42ae c9be 77c9 44be db57 4d3e 8e47 ad3e
00000040: 7bc1 443d 89b5 e1be 1dab 49be 5bc3 713e
00000050: e1a9 403e a52e cf3e bacb ddbe 22e5 2fbe
00000060: a5bf b4be 4d48 bdbd 1090 b9be 5954 debc
00000070: 0375 90be 663b f6be 759e 1a3e 2ff1 b43e
00000080: 382a abbd 550a d4be 00a1 52be 43f8 283e
00000090: c38d 91be d21b c33e 929d 54be 8c0b 683e
000000a0: df21 4b3d a2f5 2dbe e736 b83e 07ec 053f
000000b0: 8ff6 9dbe 8b7d 343e 599b 813e 7629 d33e
000000c0: 30ef 58be 9ffc 7e3e 7b7d 1e3e ae98 dc3e
000000d0: 4d16 7abe 06d5 b23e 8a9f 9a3d 0d93 3cbe
000000e0: 19d6 2b3d 4823 6bbe 9c1d be3e b045 d93e
000000f0: 556f 96bd 987d c9be c8d3 9c3e 5a71 ebbd
00000100: 2d79 e33d 85ab 8cbe 3311 c3be 4682 cdbe
00000110: bc04 a83d 1545 d9be 3107 babe 9b01 0b3e
00000120: a6bb 723e ccf7 3b3e 9dc6 81bd 6369 103e
00000130: b261 b2bc 423e b23e 46d1 6d3e ea3d 0c3e
00000140: b106 c73e dc52 79be b376 a5be f96e 113e
00000150: 033e 9c3e 1fb6 69be 0a16 22be 1288 c8be
00000160: cb6b 793e c639 853e e09a ebbe 9831 78be
00000170: 95e1 88be 5bf4 913e 7ba3 503e 9f0a d13e
00000180: f7dc dbbe 02cf 533e fdc4 d63e 2ade e9be
00000190: 2415 963e 6675 41be 7363 a23e 91a2 6fbe
000001a0: a3ac dfbe c9f6 bfbe b795 9b3e d8d4 5cbe
000001b0: f4e9 bcbe 48cf bcbe aab4 a83e b949 8bbe
000001c0: fa5c 64be f6b7 ccbe 84d5 5ebe 819d b7be
000001d0: 4c02 b3be 291c 1ebe 23fa 9bbd 468d b63e
000001e0: 8c00 dbbe dbf2 00be d377 2fbe 5652 cabe
000001f0: f44e 823e 0c08 21be 1d82 a4bd 2f71 d63c
00000200: 9678 70be 27a3 5e3e c0fe b1be c5b4 953a
00000210: 5cf4 d8be 3f8b 8f3e c661 743e 052d a0bc
00000220: 4e38 90be 17ae 373d e258 9bbe d751 d2bd
00000230: 68da 593e 429f 57be b79c a7bc 1388 0dbe
00000240: 7b4c 883b 062c 5abe 171b 42be c372 fe3e
00000250: b2a7 e93e e65e 993e eb01 8fbe 7ab2 9abd
00000260: 09cb b63e c86f 8fbd fb72 123e d50b 88be
00000270: a0f8 d33e b5ca 81be 3d15 313e d467 b2be
00000280: b021 bdbe e8fb 4a3e 071a 343e 15f0 d93e
00000290: 74ac b4be 4462 423e 5757 9fbe 0832 ad3e
000002a0: 11d6 b23e a791 be3e 03b3 e2be fc1e 543e
000002b0: 66ac 0dbe 0948 96be a3f7 823e 682d 553e
000002c0: bb70 7c3e f6d7 e23e 914c 07be e13f 273e
000002d0: b03c 4fbe a98e d83e 3ceb 8a3e 5b8e 273e
000002e0: 067d 9cbe 6e66 693e 5d42 febc cce7 23be
000002f0: b7bb 54be 8193 573e 7a5c 54be b740 79be
00000300: 3d1d 2cbe a010 65be 7817 9dbe 5fb7 20be
00000310: 88c0 e0be dd1c 42be 8844 6d3d 2db7 3f3e
00000320: 282f 49be c8a1 74be 4b03 afbe f5c3 74be
00000330: e09b fbbd 988f bf3e a169 36be ce0b 023d
00000340: ed8b ad3e 2987 963e 52a8 953e f703 873e
00000350: fdeb 783e ac91 0abe df6d d9be 57a5 64be
00000360: 7d6e a73e 4259 093e 11db 973e 633d 8cbe
00000370: 7f1e 683e caab c23e 7954 20be c206 a13e
00000380: 7ce7 bb3e 2a80 07bf f3d1 ff3c 02d7 8abe
00000390: 7e83 cc3e 944a ab3d 21de 04be 0cc6 e9bd
000003a0: 43d8 343e da8d 7ebd 2c3b fa3e f465 88be
000003b0: 02e6 c83e 7265 20be 4558 da3e 2402 c8be
000003c0: 5410 943d 3c0d e23e 778a 39be f192 47be
000003d0: 0ef9 2c3e 89d2 8e3e f1e8 853e cb4c b13c
000003e0: 5932 8bbe 152c b3be 79d3 2bbe 81c2 ff3e
000003f0: 86fb 8d3e f115 5abd 3a3a 8a3e 846f b3be
0.3338186 0.1230454 0.29062697 -0.26175413 0.1928041 0.44367072 -0.28402647 0.30827934
-0.126034 -0.16636977 0.19751567 0.19885144 -0.3939076 -0.19217478 0.20053045 0.33843654
0.04803608 -0.44083813 -0.19694181 0.23609678 0.18814804 0.40465274 -0.43319494 -0.17177251
-0.35302463 -0.09242306 -0.36242723 -0.02713983 -0.28214273 -0.48092192 0.15099509 0.35340258
-0.08357662 -0.41414133 -0.20569229 0.16500954 -0.28428468 0.38107163 -0.20763233 0.22660655
0.04959285 -0.16988233 0.35979387 0.52313274 -0.30852172 0.17626016 0.25313833 0.4124257
-0.21184993 0.24901055 0.15477555 0.43085235 -0.2442257 0.3492815 0.07549961 -0.1841547
0.041952226 -0.22962677 0.37131965 0.4243598 -0.07345454 -0.39353633 0.30630326 -0.114962295
0.11107097 -0.2747461 -0.3809906 -0.40138453 0.08204028 -0.42435518 -0.36333612 0.13574831
0.23704395 0.18356246 -0.063367106 0.14102702 -0.0217751 0.34813124 0.23224363 0.13695493
0.38872293 -0.24348015 -0.32317123 0.14202489 0.3051606 -0.2282338 -0.1582872 -0.39166313
0.24357526 0.2602064 -0.46016598 -0.24237669 -0.26734605 0.2850674 0.20374863 0.40828416
-0.4294202 0.20684436 0.41947165 -0.4567731 0.29313004 -0.1889244 0.317165 -0.23401858
-0.436864 -0.3749297 0.3038766 -0.21565568 -0.36897242 -0.36876893 0.32950336 -0.27204683
-0.22301093 -0.399841 -0.21761137 -0.35862353 -0.3496269 -0.1544043 -0.07616069 0.35654658
-0.42773855 -0.12592642 -0.17135553 -0.39515942 0.2545086 -0.15725726 -0.0803263 0.026177017
-0.234835 0.21741925 -0.3476467 0.0011421671 -0.4237393 0.28035924 0.23865423 -0.019552717
-0.28167957 0.04484376 -0.3034125 -0.10269516 0.21274722 -0.21056846 -0.02046047 -0.1382144
0.004159508 -0.21305856 -0.18955646 0.4969693 0.45635754 0.29955214 -0.2793115 -0.07553573
0.3570178 -0.070037425 0.14301674 -0.26571527 0.41400623 -0.25349966 0.17293258 -0.3484484
-0.36939764 0.19822657 0.17588054 0.4256598 -0.3528782 0.18982798 -0.31121323 0.33827233
0.34928945 0.372205 -0.442772 0.20714945 -0.13835296 -0.29351833 0.25579557 0.20818102
0.24652378 0.4430539 -0.13212802 0.16332962 -0.20237994 0.4229634 0.27132595 0.16362898
-0.30564135 0.2279298 -0.031037504 -0.16006392 -0.20774733 0.21052362 -0.20738402 -0.24341093
-0.16808029 -0.22369623 -0.30681968 -0.1569495 -0.4389689 -0.18956323 0.057926685 0.1872222
-0.19646895 -0.2388984 -0.341822 -0.23902877 -0.1228559 0.3741424 -0.17813732 0.03174954
0.33895817 0.29399994 0.2922998 0.26370212 0.24308772 -0.13532132 -0.42466637 -0.22328697
0.32701483 0.13412955 0.29659322 -0.27390584 0.22667883 0.3802169 -0.15657224 0.31450468
0.36700046 -0.5292994 0.031228041 -0.27117163 0.3994407 0.08363834 -0.1297536 -0.114147276
0.17660622 -0.062147 0.4887327 -0.26640284 0.39237982 -0.15663698 0.4264547 -0.39064133
0.07229677 0.44150722 -0.18119226 -0.19489647 0.16891882 0.27895 0.26154283 0.021643063
-0.2718685 -0.3499457 -0.16779889 0.49953082 0.2773096 -0.05324358 0.26997548 -0.35046017

fc2.bias f4 [10]
00000000: 21ad 12bd a85d c1bc e2cb 0a3e 2d29 50bd
00000010: e8c7 e13c 260d 7e3e 5e4a bebd 0eee bbbc
00000020: 3030 67bd 9052 e6bd
-0.03580964 -0.02360423 0.13554338 -0.05082052 0.027561143 0.24809703 -0.09291528 -0.022940662
-0.05644244 -0.11246216
