proj5/task4/results/exp5_softmax.pth (torch, 89871 bytes, 8 tensors)

conv1.weight f4 [10, 1, 5, 5]
0.15262006 0.16577983 -0.046950717 0.18372837 -0.043860145 0.040113203 -0.09759487 0.117343746
0.17627162 -0.14678045 0.1737413 0.037333556 0.14772254 0.027038468 0.096421994 -0.028165089
0.15424015 0.02957715 -0.09336938 0.051038433 -0.09200927 -0.023355732 -0.081192985 0.1327397
-0.15777394 -0.09224266 -0.056499306 -0.12026314 0.018868871 -0.19753297 0.18066971 -0.16981362
0.15447442 0.03330853 -0.06497476 0.123670466 0.03126652 0.16167489 0.021873852 -0.063185774
0.053756367 -0.05421259 0.08418668 0.17850573 0.1154273 -0.08748974 0.11539343 0.035707608
0.101457 -0.122077875 -0.19793417 -0.07725011 -0.15343395 0.16401072 0.05748189 0.08286173
0.06321223 -0.0036038037 0.15636326 -0.14224307 0.012575163 -0.13659105 0.06150282 -0.069047876
0.061154824 -0.041707966 0.1657945 -0.11866891 -0.11940678 -0.11937192 0.179843 0.066604294
0.19238494 -0.16513182 -0.19843566 -0.15642938 -0.1344987 0.08102961 0.07163339 0.16623227
-0.103276655 -0.1363429 0.10610228 -0.08084847 0.1214108 -0.047475986 0.114392705 -0.15540566
-0.10093169 0.060979046 0.042267658 -0.051008582 0.11920829 0.13595997 -0.14503211 -0.106759965
0.18313171 -0.06748822 -0.07090658 -0.19351283 -0.11454531 0.049952738 -0.026402324 -0.14516677
0.0047181593 -0.13662647 -0.16968824 -0.11013757 -0.17503826 -0.12733282 0.19988687 0.037752528
0.0616263 -0.18653522 -0.13134779 -0.066620365 0.031234132 -0.17599821 -0.08617614 -0.11973442
0.00048911315 -0.074466966 -0.013878438 -0.13552664 -0.1372775 -0.116635494 -0.06841986 -0.15784283
0.16764493 -0.03976752 0.1721088 0.062337745 -0.16937907 0.13831018 -0.05513851 -0.076685525
-0.16603576 -0.19890462 0.057087425 -0.043827396 0.07777921 -0.16423492 0.14830819 -0.14699267
-0.034688428 0.04161075 0.103044204 0.16123791 0.18199416 -0.15870179 0.050402764 -0.08595917
-0.021861952 -0.14961237 0.18230619 -0.14672863 0.10698357 0.07041321 0.06513376 -0.10798296
0.18185845 0.044044778 0.025849177 -0.17610396 0.08413908 -0.029962461 -0.091567 0.17190708
0.044751443 -0.11048795 -0.10121271 -0.009521753 0.1117531 -0.050989017 -0.11398653 -0.06849065
-0.14942816 0.07127425 0.15473834 -0.18834405 0.046445735 0.103319526 0.03623828 -0.0712557
0.10438657 0.10509095 0.074785665 -0.035163425 -0.052970983 0.021424115 -0.03535458 -0.059613194
0.12780964 0.17184535 -0.019801324 -0.044820517 0.0028822008 -0.01200625 0.047993813 0.05598648
-0.18160078 -0.07378868 0.16842265 0.07791149 -0.0099570695 -0.120508514 -0.12234985 -0.17917036
-0.06519342 0.06752952 0.12757982 0.09234199 -0.17681605 -0.120283134 -0.031570822 0.19354062
0.028983653 -0.051794056 0.08274334 -0.07616627 -0.12934323 0.1460693 -0.09090263 -0.040061884
-0.19893825 0.1338784 0.15158927 0.07299341 -0.13937876 -0.19733961 -0.16238815 0.14922364
0.096126296 0.16836318 0.10482328 0.05067181 -0.0018797395 -0.15202405 -0.17128839 -0.18700455
0.08188661 -0.09815148 -0.040172428 -0.115008704 -0.036360756 -0.14076336 -0.13061385 0.06647649
-0.059272353 0.12360309
00000000: 6f48 1c3e 30c2 293e 654f 40bd 4a23 3c3e
00000010: b2a6 33bd be4d 243d d2df c7bd eb51 f03d
00000020: 8c80 343e 9d4d 16be 3de9 313e 12eb 183d
00000030: 9444 173e c77f dd3c e578 c53d 79ba e6bc
00000040: 21f1 1d3e c74b f23c 7238 bfbd ad0d 513d
00000050: 5b6f bcbd 8554 bfbc 8248 a6bd eaec 073e
00000060: 7e8f 21be b8e9 bcbd d16b 67bd 854c f6bd
00000070: e492 9a3c 1546 4abe 7b01 393e 9fe3 2dbe
00000080: 8b2e 1e3e 866e 083d 7d11 85bd f146 fd3d
00000090: 5311 003d 1a8e 253e cb30 b33c 8b67 81bd
000000a0: a32f 5c3d 050e 5ebd 116a ac3d 35ca 363e
000000b0: 2665 ec3d d22d b3bd 6453 ec3d 2442 123d
000000c0: b0c8 cf3d f703 fabd 41af 4abe 4e35 9ebd
000000d0: ca1d 1dbe 6df2 273e 2172 6b3d 69b3 a93d
000000e0: 6a75 813d cb2d 6cbb b11d 203e 2ba8 11be
000000f0: 0e08 4e3c 86de 0bbe 62ea 7b3d f968 8dbd
00000100: 7b7d 7a3d f9d5 2abd 09c6 293e af08 f3bd
00000110: 8b8b f4bd 4479 f4bd c328 383e d567 883d
00000120: 8f00 453e 5118 29be b832 4bbe 062f 20be
00000130: 07ba 09be daf2 a53d 87b4 923d cb38 2a3e
00000140: b682 d3bd 799d 0bbe 274c d93d e293 a5bd
00000150: 3aa6 f83d 2e76 42bd b946 ea3d a922 1fbe
00000160: 46b5 cebd 2ac5 793d da20 2d3d 60ee 50bd
00000170: 7a23 f43d 1739 0b3e 4c83 14be f8a4 dabd
00000180: e186 3b3e 4437 8abd 7837 91bd 3a28 46be
00000190: bb96 eabd 3e9b 4c3d b049 d8bc 99a6 14be
000001a0: ca9a 9a3b cfe7 0bbe c1c2 2dbe ce8f e1bd
000001b0: 3b3d 33be 8963 02be 25af 4c3e 65a2 1a3d
000001c0: dc6b 7c3d 1703 3fbe 0980 06be 4270 88bd
000001d0: b9de ff3c e038 34be 1e7d b0bd 5237 f5bd
000001e0: d437 003a 2382 98bd 6362 63bc 7fc7 0abe
000001f0: 7992 0cbe 97de eebd b61f 8cbd 8da1 21be
00000200: 1dab 2b3e 44e3 22bd 4a3d 303e dd55 7f3d
00000210: b571 2dbe 2fa1 0d3e ebd8 61bd 4d0d 9dbd
00000220: 4705 2abe a7ad 4bbe 81d4 693d 5b84 33bd
00000230: b54a 9f3d 332d 28be 1ade 173e 3f85 16be
00000240: 7415 0ebd 0970 2a3d d708 d33d 8d1b 253e
00000250: ad5c 3a3e b982 22be 2173 4e3d 5c0b b0bd
00000260: d617 b3bc fc33 19be 79ae 3a3e 0840 16be
00000270: 341a db3d cd34 903d d964 853d 2c26 ddbd
00000280: 1a39 3a3e 4c68 343d a7c1 d33c 9954 34be
00000290: 1c51 ac3d d673 f5bc 7b87 bbbd 6908 303e
000002a0: 4a4d 373d 8247 e2bd 9c48 cfbd 2001 1cbc
000002b0: cfde e43d dcd9 50bd c571 e9bd d344 8cbd
000002c0: b203 19be 3cf8 913d ba73 1e3e 43dd 40be
000002d0: e23d 3e3d 3099 d33d 976e 143d 82ee 91bd
000002e0: a0c8 d53d ed39 d73d 3a29 993d 8607 10bd
000002f0: 1af8 58bd a081 af3c f7cf 10bd f72c 74bd
00000300: 88e0 023e 3af8 2f3e 6336 a2bc b895 37bd
00000310: 4ee3 3c3b ddb5 44bc 2995 443d 1452 653d
00000320: 8ef5 39be 851e 97bd fd76 2c3e 0f90 9f3d
00000330: fa22 23bc 2bcd f6bd 8f92 fabd 6f78 37be
00000340: 2184 85bd eb4c 8a3d 49a4 023e cc1d bd3d
00000350: 440f 35be 0157 f6bd 6850 01bd 832f 463e
00000360: 206f ed3c 0126 54bd 5775 a93d 10fd 9bbd
00000370: 8d72 04be 3193 153e 282b babd ee17 24bd
00000380: 78b6 4bbe 6b17 093e 383a 1b3e 927d 953d
00000390: 4eb9 0ebe 6513 4abe 1449 26be 15ce 183e
000003a0: dddd c43d 6667 2c3e 96ad d63d 3e8d 4f3d
000003b0: 9761 f6ba 31ac 1bbe 3966 2fbe 1f7e 3fbe
000003c0: 2bb4 a73d a503 c9bd d88b 24bd af89 ebbd
000003d0: 04ef 14bd 4524 10be a3bf 05be d324 883d
000003e0: 91c7 72bd 9e23 fd3d

conv1.bias f4 [10]
-0.0641831 -0.14671786 -0.035263654 -0.09693935 -0.06117706 -0.19040717 0.11190933 -0.13923658
0.100516595 0.09073606
00000000: 6e72 83bd 353d 16be 9f70 10bd 2388 c6bd
00000010: cc94 7abd 19fa 42be b830 e53d 0994 0ebe
00000020: a5db cd3d d4d3 b93d

conv2.weight f4 [20, 10, 5, 5]
0.04513479 -0.048570637 0.045544833 -0.029805565 0.02347782 0.05928075 -0.009052277 -0.0004862392
-0.01446417 -0.052751165 0.030277941 -0.06289759 0.039229423 0.047455363 0.060044833 -0.014908163
-0.05206406 0.014114332 0.03500408 -0.06268176 -0.014327344 -0.03803034 -0.005678099 -0.031162314
-0.025736134 -0.020177485 -0.06018649 0.051858146 0.0530784 -0.009866309 -0.0072270622 -0.025876004
-0.057154097 -0.061465073 0.023620507 -0.034717504 -0.040708855 -0.00496115 -0.020969626 -0.020306231
0.0020496505 -0.0134605495 -0.021818668 -0.030273562 -0.051424664 0.05303749 -0.025337439 0.016740814
-0.021958726 0.0050889235 0.05897456 0.029122967 -0.054829687 0.025051452 0.06004719 0.016650518
0.042443436 0.062315855 -0.009774672 0.01312518 -0.043927234 -0.012993299 0.04679861 0.03234162
-0.040072862 -0.05068583 -0.043211736 -0.062442686 -0.048833825 -0.015672134 0.042702634 0.010576049
-0.04811159 -0.05072667 0.031483065 -0.04703251 -0.007726299 0.030367022 -0.029299019 -0.0069170613
-0.0054927208 -0.014881288 -0.03205134 -0.05641393 -0.051160347 -0.03385632 0.06112961 -0.0305114
-0.042464003 0.01528448 0.017412348 0.034659207 0.048141353 0.035283964 -0.062726155 0.005569332
0.038279932 -0.005805262 -0.037208594 0.06032007 -0.023601256 -0.035956576 -0.05702059 0.002764283
0.027976068 0.014062114 0.012585527 -0.047963195 -0.05913543 0.0010290792 0.057705637 0.036572106
-0.036825076 -0.008298756 -0.046753712 -0.030492324 0.011544782 0.034465045 0.052308213 -0.058199596
0.042313598 -0.0445165 0.023726987 0.053478118 0.0008294634 0.05753082 -0.05387478 -0.02418095
0.036864605 -0.013778939 -0.012914257 -0.02633839 0.043599557 0.031020004 0.020287585 -0.035510235
-0.051340654 0.0068626385 0.0187244 -0.029228425 -0.017686423 0.0427072 0.0050727287 0.0028479293
-0.015609695 -0.057277232 -0.059455376 -0.030188564 -0.032130953 0.01967751 -0.018407406 -0.024733925
0.060293294 0.022050358 0.045094214 -0.030618222 -0.025816198 0.023234231 -0.04213446 -0.04134474
-0.0030538014 -0.023129243 -0.047425654 0.03749913 0.050846204 0.010251572 -0.011007016 -0.05858367
-0.023051472 0.016082307 0.029810173 -0.007992691 -0.024990935 0.035243902 -0.05037469 0.0399435
-0.024559887 0.0009948952 -0.012461872 0.0076784063 -0.019141568 0.045930803 -0.0015894244 0.04944927
0.06086369 -0.030846491 -0.046193834 0.050765976 0.049635746 -0.04823156 -0.00493882 -0.06242014
-0.051786833 0.012245635 0.016839113 0.013350108 -0.01725507 0.058332838 0.009051609 -0.03734458
-0.0035381243 0.0152145345 0.022137096 -0.044764094 0.023707142 -0.032273497 -0.052494034 -0.03453434
0.060929935 0.054020844 0.056656264 0.037186317 0.047797434 -0.008528381 -0.034879245 0.031620264
-0.032709524 -0.04263032 -0.020214291 0.013200892 0.03258711 -0.024506383 -0.0371837 0.00853636
-0.03729351 -0.041111812 0.03298558 -0.010638769 0.05779186 0.061498348 0.018928953 0.021718867
0.014561543 0.0009830866 -0.004680016 0.0008400764 0.023602897 0.058816634 -0.016436957 -0.02683448
-0.0153443385 -0.030526204 0.010764535 0.047192384 0.049448293 0.029039772 -0.04648001 -0.033939034
-0.01391118 -0.011639283 0.0049661566 -0.058293864 0.019477833 -0.048390992 -0.040067676 -0.05276063
00000000: 42df 383d 01f2 46bd 388d 3a3d cd2a f4bc
00000010: 8f54 c03c 5fd0 723d 0050 14bc eced feb9
00000020: 20fb 6cbc 9b11 58bd 7209 f83c 74d0 80bd
00000030: 08af 203d 8e60 423d 92f1 753d 5e41 74bc
00000040: 2041 55bd cd3f 673c 7060 0f3d 4b5f 80bd
00000050: 3cbd 6abc b4c5 1bbd 590f babb 1c48 ffbc
00000060: 96d4 d2bc 414b a5bc 1c86 76bd 3569 543d
00000070: bd68 593d 4da6 21bc fed0 ecbb eaf9 d3bc
00000080: 6a1a 6abd cdc2 7bbd cb7f c13c f133 0ebd
00000090: 54be 26bd 2591 a2bb 7ec8 abbc 4159 a6bc
000000a0: 6e53 063b a389 5cbc 10bd b2bc 4300 f8bc
000000b0: aba2 52bd d73d 593d 7690 cfbc 0824 893c
000000c0: c9e2 b3bc fcc0 a63b 4f8f 713d 4a93 ee3c
000000d0: 1895 60bd b438 cd3c 0bf4 753d ab66 883c
000000e0: 2bd9 2d3d e93e 7f3d f225 20bc ff0a 573c
000000f0: 0bed 33bd d9e1 54bc e6af 3f3d a678 043d
00000100: 7123 24bd f29b 4fbd cafe 30bd e7c3 7fbd
00000110: fa05 48bd d962 80bc f5e8 2e3d 2a47 2d3c
00000120: a910 45bd c5c6 4fbd 63f4 003d 29a5 40bd
00000130: e52c fdbb 43c4 f83c 7f04 f0bc 84a8 e2bb
00000140: 48fc b3bb a5d0 73bc 4448 03bd 4b12 67bd
00000150: 838d 51bd edac 0abd 0b63 7a3d 0bf3 f9bc
00000160: bcee 2dbd c16b 7a3c 57a4 8e3c d0f6 0d3d
00000170: de2f 453d eb85 103d 9276 80bd f17e b63b
00000180: 6bcb 1c3d 113a bebb 0a68 18bd 2d12 773d
00000190: 6c57 c1bc 3447 13bd 6c8e 69bd f928 353b
000001a0: 112e e53c c864 663c 8733 4e3c 0e75 44bd
000001b0: fe37 72bd 2be2 863a bf5c 6c3d a2cc 153d
000001c0: e4d5 16bd 81f7 07bc d280 3fbd 0acb f9bc
000001d0: 5326 3d3c 382b 0d3d 2341 563d b362 6ebd
000001e0: 0651 2d3d ef56 36bd 195f c23c df0b 5b3d
000001f0: 5970 593a 70a5 6b3d cdab 5cbd 2117 c6bc
00000200: 57ff 163d 0fc1 61bc 5296 53bc 9bc3 d7bc
00000210: 7395 323d aa1d fe3c 2632 a63c 2e73 11bd
00000220: 944a 52bd fcdf e03b ea63 993c 7370 efbc
00000230: 1ee3 90bc bfed 2e3d 2239 a63b 53a4 3a3b
00000240: cebf 7fbc 889b 6abd 7b87 73bd 024e f7bc
00000250: bf9b 03bd bb32 a13c 21cb 96bc cd9e cabc
00000260: 1af6 763d f4a2 b43c b6b4 383d 11d3 fabc
00000270: 7e7c d3bc b755 be3c 2f95 2cbd 1a59 29bd
00000280: 4922 48bb 8a79 bdbc 6741 42bd b098 193d
00000290: 1c44 503d 36f6 273c c556 34bc 6ef5 6fbd
000002a0: 71d6 bcbc 0bbf 833c 7734 f43c c7f3 02bc
000002b0: cab9 ccbc e95b 103d b155 4ebd cc9b 233d
000002c0: d131 c9bc 2567 823a e12c 4cbc 249b fb3b
000002d0: c7ce 9cbc f021 3c3d 3c54 d0ba 518b 4a3d
000002e0: 344c 793d c8b1 fcbc bf35 3dbd fcef 4f3d
000002f0: da4e 4b3d 758e 45bd d3d5 a1bb 43ac 7fbd
00000300: 6e1e 54bd eaa1 483c 2ef2 893c 69ba 5a3c
00000310: 815a 8dbc 6aee 6e3d 334d 143c a1f6 18bd
00000320: e0df 67bb 6246 793c db58 b53c 8e5a 37bd
00000330: 7b35 c23c 3731 04bd fc03 57bd e173 0dbd
00000340: ab91 793d f644 5d3d 6610 683d ae50 183d
00000350: 3ec7 433d 9fba 0bbc 8add 0ebd 4084 013d
00000360: 6cfa 05bd 219d 2ebd 7198 a5bc 8e48 583c
00000370: 107a 053d 9cc1 c8bc ef4d 18bd 17dc 0b3c
00000380: 14c1 18bd dc64 28bd e31b 073d 3b4e 2ebc
00000390: 28b7 6c3d b1e5 7b3d e410 9b3c c4eb b13c
000003a0: 8a93 6e3c eada 803a d25a 99bb 9338 5c3a
000003b0: dd5a c13c b6e9 703d cca6 86bc fcd3 dbbc
000003c0: d266 7bbc 1712 fabc bb5d 303c cd4c 413d
000003d0: 4b8a 4a3d d1e4 ed3c d361 3ebd a803 0bbd
000003e0: b8eb 63bc b1b2 3ebc 24bb a23b 8cc5 6ebd
000003f0: fa8f 9f3c a235 46bd 011e 24bd 881b 58bd

conv2.bias f4 [20]
0.059987005 -0.047018323 -0.039519373 -0.06105738 -0.04849865 0.014389807 0.030304583 -0.052785255
0.005075494 -0.046820566 0.011946651 0.037761044 -0.024305018 -0.02776793 0.041219372 -0.04081929
-0.012893732 -0.05274806 0.04437194 0.020233115
00000000: efb4 753d 4996 40bd 11df 21bd 4e17 7abd
00000010: 85a6 46bd 3ac3 6b3c 5141 f83c 5a35 58bd
00000020: 5450 a63b ecc6 3fbd e3bb 433c 53ab 1a3d
00000030: 511b c7bc 9279 e3bc a5d5 283d 2132 27bd
00000040: 3b40 53bc 5a0e 58bd 5abf 353d ebbf a53c

fc1.weight f4 [50, 320]
-0.022187777 0.039810713 0.052982524 0.022865476 -0.03948268 -0.012153562 0.045021724 0.040672537
-0.018458653 0.03692239 -0.036593415 0.014991858 0.04936426 0.010224675 -0.04443896 0.016789008
0.031116782 0.03883988 -0.036807243 -0.010061843 -0.0029273406 -0.009819469 -0.0124470955 -0.020125972
0.019276118 0.026576562 -0.010838266 0.04395352 -0.00023024765 0.013690348 0.014018805 -0.019026088
-0.0024351992 -0.0062010386 0.02116869 -0.029995507 -0.025652057 -0.053919327 -0.024254046 0.017864646
0.04519591 -0.055067 -0.020075498 0.0351642 -0.030238524 0.03772985 0.0022754893 -0.05255661
0.009491564 -0.03344842 0.01090708 -0.050060242 0.05257372 -0.02379135 0.035794552 -0.03520086
-0.046860937 0.021995755 0.033618424 -0.0005106711 -0.047313537 -0.015361929 -0.038737386 0.015813194
0.009080414 0.038874533 0.055799745 -0.025839202 0.044202343 0.038874038 0.0085949255 -0.05483325
-0.03876253 0.02432993 0.04145289 0.029819172 0.005261885 -0.033921316 -0.049035672 -0.031916056
0.00045772403 0.007412225 0.04280252 -0.04031429 0.029269839 0.047388144 -0.050537895 -0.02982029
-0.01558132 0.010681882 0.049970083 0.0114001 0.037873924 0.045324583 0.043901652 -0.050937556
-0.036506504 -0.003626113 -0.00017288583 0.0047439006 0.046986096 0.050695755 -0.01630797 -0.025843607
0.0044622743 0.0070527466 0.03451245 0.019866055 0.017453192 0.018368961 0.041637532 0.033298414
-0.0054824613 -0.039006077 0.03768701 -0.004545592 -0.04002213 -0.009266749 0.041181676 -0.025668398
-0.0053504943 0.018938465 0.040295966 -0.008357954 -0.040152084 -0.023362244 -0.018047472 0.00606645
-0.037970122 0.04925534 0.01477004 -0.04025022 0.030526938 0.0028539465 0.054758646 -0.0010759562
-0.00074496306 -0.054013953 -0.046204433 0.00019656973 0.04744314 -0.03459481 0.010947463 -0.038493514
-0.04330421 -0.020524625 -0.03738909 -0.046246216 -0.017173205 -0.007651948 0.027845785 0.02568297
-0.0007621742 -0.012787071 -0.011886035 -0.04590707 0.038894262 0.050165642 -0.05133271 -0.053290974
-0.052391585 -0.009030672 -0.00012923797 -0.036474183 0.030911924 0.0036946363 -0.028283844 -0.05405034
0.043568082 0.05549923 0.0052700867 -0.026750885 0.0355125 0.032853793 -0.008085245 0.052382793
-0.041277837 -0.0063724597 0.047425076 -0.034603253 -0.017215783 -0.023771042 -0.022930313 0.049197834
0.034505054 -0.0507727 -0.034145758 -0.00071754813 -0.018272107 -0.030893795 -0.05500803 0.041241474
0.031313393 0.016245028 -0.012554618 -0.05415033 -0.003489819 0.021344274 -0.016210478 0.044035632
0.012808568 -0.0027659014 0.022103453 0.029145574 -0.04098961 0.017001942 -0.050836686 -0.011739513
-0.018105745 0.04269848 -0.053853523 0.019849023 -0.050917767 0.024229314 0.013696809 -0.021963956
0.016581247 0.053734876 0.03402632 -0.051013082 -0.014540181 0.050675895 0.008630041 0.006892498
0.004023542 -0.019653162 -0.014603785 0.0037217091 0.042073295 -0.01580363 -0.014635668 0.010638522
-0.020413138 0.048733335 0.041981965 0.0023411452 -0.03613485 0.015724463 0.047502443 0.018472351
0.023449594 -0.029582683 -0.05505769 -0.021038648 0.0018205423 0.049667113 0.011659289 -0.010280596
-0.014033439 -0.010663992 -0.030035902 -0.023438808 0.010402927 0.037927523 0.047546223 0.021500865
00000000: 24c3 b5bc 8f10 233d 3404 593d 6150 bb3c
00000010: 97b8 21bd bc1f 47bc b368 383d 3f98 263d
00000020: 9a36 97bc ef3b 173d fae2 15bd 69a0 753c
00000030: 2e32 4a3d 6585 273c a005 36bd 1a89 893c
00000040: 9fe8 fe3c 9116 1f3d 31c3 16bd 6eda 24bc
00000050: a0d8 3fbb d7e1 20bc e7ee 4bbc 39df a4bc
00000060: f3e8 9d3c 17b7 d93c fc92 31bc 9b08 343d
00000070: a26e 71b9 7b4d 603c 21af 653c 99dc 9bbc
00000080: dd97 1fbb 1532 cbbb f669 ad3c 23b9 f5bc
00000090: 4324 d2bc 83da 5cbd 6cb0 c6bc e158 923c
000000a0: 591f 393d ef8d 61bd 5f75 a4bc 5608 103d
000000b0: c8b6 f7bc 9d8a 1a3d 6020 153b 9a45 57bd
000000c0: 8182 1b3c 3601 09bd 9cb3 323c f80b 4dbd
000000d0: 8b57 573d 14e6 c2bc 4f9d 123d c72e 10bd
000000e0: 41f1 3fbd 7130 b43c 79b3 093d 8fde 05ba
000000f0: d7cb 41bd 9ab0 7bbc 18ab 1ebd ac8a 813c
00000100: 04c6 143c e73a 1f3d 468e 643d bcac d3bc
00000110: 840d 353d 623a 1f3d bbd1 0c3c d498 60bd
00000120: 75c5 1ebd 904f c73c 81ca 293d 5647 f43c
00000130: e46b ac3b 14f1 0abd a1d9 48bd 69ba 02bd
00000140: aefa ef39 40e2 f23b b251 2f3d 9920 25bd
00000150: 4dc7 ef3c 121a 423d d300 4fbd ae49 f4bc
00000160: cb48 7fbc 0f03 2f3c 6ead 4c3d 7cc7 3a3c
00000170: b021 1b3d 45a6 393d 38d2 333d e6a3 50bd
00000180: d887 15bd 15a4 6dbb b048 35b9 b972 9b3b
00000190: 7e74 403d 5aa6 4f3d 4b98 85bc f9b5 d3bc
000001a0: 4538 923b ba1a e73b ed5c 0d3d 23be a23c
000001b0: fff9 8e3c 817a 963c 1e8c 2a3d eb63 083d
000001c0: 38a6 b3bb d6c4 1fbd b25d 1a3d 30f3 94bb
000001d0: 3fee 23bd 90d3 17bc 1eae 283d 8846 d2bc
000001e0: 3353 afbb d724 9b3c 620d 253d cdef 08bc
000001f0: 8376 24bd 2d62 bfbc 4bd8 93bc 12c9 c63b
00000200: 8f86 1bbd f8bf 493d 0afe 713c 6add 24bd
00000210: a113 fa3c 4709 3b3b 9a4a 603d 1907 8dba
00000220: a049 43ba bc3d 5dbd dc40 3dbd 491e 4e39
00000230: bd53 423d 4ab3 0dbd fd5c 333c 60ab 1dbd
00000240: c15f 31bd 4223 a8bc 4d25 19bd ac6c 3dbd
00000250: d2ae 8cbc 31bd fabb d81c e43c 1865 d23c
00000260: a5cc 47ba dd80 51bc a5bd 42bc 0d09 3cbd
00000270: 974f 1f3d 7d7a 4d3d 3f42 52bd a347 5abd
00000280: 8f98 56bd 62f5 13bc 0e84 07b9 f465 15bd
00000290: 013b fd3c b621 723b 85b3 e7bc e463 5dbd
000002a0: 7274 323d 2953 633d b1b0 ac3b ac24 dbbc
000002b0: 8e75 113d b391 063d fa77 04bc 578f 563d
000002c0: f312 29bd 11d0 d0bb cc40 423d 24bc 0dbd
000002d0: 1d08 8dbc 7dbb c2bc 5ad8 bbbc ab83 493d
000002e0: 2c55 0d3d 09f7 4fbd 6cdc 0bbd d719 3cba
000002f0: 63af 95bc fc14 fdbc 1a50 61bd d2ec 283d
00000300: 7942 003d 4b14 853c e2b1 4dbc bdcc 5dbd
00000310: 72b5 64bb 30da ae3c d6cb 84bc b55e 343d
00000320: 07db 513c 2044 35bb 4d12 b53c b3c2 ee3c
00000330: b9e4 27bd a847 8b3c 213a 50bd 1657 40bc
00000340: 8052 94bc 9ae4 2e3d 8395 5cbd 6b9a a23c
00000350: 268f 50bd 8e7c c63c 9568 603c c1ed b3bc
00000360: 65d5 873c 1a19 5c3d 2f5f 0b3d 18f3 50bd
00000370: f039 6ebc 8791 4f3d 0465 0d3c 77da e13b
00000380: ebd7 833b abff a0bc b744 6fbc ebe7 733b
00000390: 0c55 2c3d 9d76 81bc 71ca 6fbc 324d 2e3c
000003a0: 7439 a7bc 9b9c 473d 48f5 2b3d e66d 193b
000003b0: 2302 14bd 97d0 803c ec91 423d 5453 973c
000003c0: 5d19 c03c 6257 f2bc 2c84 61bd 3e59 acbc
000003d0: 439f ee3a be6f 4b3d 9a06 3f3c f26f 28bc
000003e0: 82ec 65bc 06b8 2ebc da0d f6bc be02 c0bc
000003f0: 0a71 2a3c e459 1b3d d4bf 423d 9522 b03c

fc1.bias f4 [50]
-0.011149177 -0.010939966 0.04908915 -0.035888225 0.01670093 0.012002803 0.050808445 -0.022422908
0.045368567 -0.0071575656 0.053593956 -0.05694558 -0.03176841 -0.012182132 -0.055031292 -0.005166233
-0.045348234 0.034570646 0.04787196 -0.0036322104 0.031680062 0.027168088 0.02257944 0.0070144795
-0.036456466 -0.048889227 0.023171682 -0.037384745 0.043003716 0.0125076845 -0.028262757 -0.023792934
0.013800476 -0.0011908844 0.049498085 -0.020641703 -0.033113737 -0.05116193 0.010884012 -0.0420313
-0.006728073 0.055013135 -0.024631731 0.05010133 0.034416568 -0.03482615 0.02931495 -0.02161109
0.030882007 -0.03379095
00000000: 0aab 36bc 8b3d 33bc b411 493d 88ff 12bd
00000010: 64d0 883c 68a7 443c 841c 503d 3fb0 b7bc
00000020: 64d4 393d 038a eabb 5685 5b3d c53f 69bd
00000030: 981f 02bd 9197 47bc 7e68 61bd 8149 a9bb
00000040: 12bf 39bd f399 0d3d 6315 443d 610a 6ebb
00000050: f4c2 013d 9c8f de3c 85f8 b83c b8d9 e53b
00000060: 6053 15bd 1240 48bd 8ad2 bd3c bf20 19bd
00000070: aa24 303d 08ed 4c3c 4c87 e7bc 66e9 c2bc
00000080: 641b 623c 7317 9cba 81be 4a3d ca18 a9bc
00000090: 45a2 07bd 2c8f 51bd db52 323c 0329 2cbd
000000a0: 2b77 dcbb 7455 613d 7cc8 c9bc 0d37 4d3d
000000b0: 63f8 0c3d dda5 0ebd e825 f03c be09 b1bc
000000c0: 43fc fc3c 6168 0abd

fc2.weight f4 [10, 50]
0.03686616 0.07677957 0.10189636 -0.053140417 0.08245668 0.09955611 -0.036218237 0.096429996
-0.029378422 -0.07990105 0.048195936 0.039454788 -0.1295563 -0.05708569 -0.034144692 0.090290405
-0.010786229 -0.13473453 0.019388132 0.038170386 0.023075625 0.11323557 -0.14125994 0.013414781
-0.08000424 -0.06403637 -0.091726705 -0.03322389 -0.13098682 -0.13101588 0.09475488 0.08468702
-0.054217655 -0.048102554 -0.04868865 0.03327053 -0.055740662 0.057487424 -0.0015279813 0.03541796
-0.071043685 -0.070556186 0.06130489 0.10758288 -0.07712989 0.0726595 -0.01085356 0.13734096
-0.0604644 0.11854318 0.06226046 0.112980105 0.0051079537 0.10054306 0.0069208215 0.0068762433
-0.018863635 0.043828875 0.13976441 0.11642346 -0.07132332 -0.053281702 0.07968995 -0.050262243
-0.04263411 0.03262315 -0.07646968 -0.099837705 0.11840028 -0.12336293 -0.08094313 0.06771346
-0.016863192 0.0747476 -0.014640975 0.0036963085 -0.023181554 0.04357632 0.04498968 -0.015887896
0.101220034 -0.081976034 -0.03235195 0.013373481 0.072951704 -0.04573729 0.008966431 -0.12536027
0.07426973 0.08829438 -0.11249907 -0.11213686 0.010706648 0.12715062 0.056381926 0.11309577
-0.111729115 0.10635522 0.13488147 -0.10823424 0.034155894 -0.025065 0.1410658 -0.06991684
-0.13160789 -0.112838104 0.10410637 0.04040407 -0.12871292 -0.1118369 0.078458264 -0.069852546
-0.095226035 -0.059491787 -0.053671498 -0.08288887 -0.059155863 0.020576581 0.029989444 0.12141064
-0.13278505 -0.03316314 -0.039300304 -0.07608202 0.05072124 -0.06729558 -0.04935088 -0.10848664
-0.054140903 0.008247123 -0.075406834 -0.025249595 -0.08024708 0.03142014 0.05099025 -0.081452854
-0.05649171 -0.018092705 -0.07312267 -0.059653502 0.06880769 -0.020076264 0.056280844 0.0026839664
0.008038559 -0.098132014 0.012652524 0.13585639 0.13227701 0.10080139 -0.0437694 -5.249808e-05
0.12793092 -0.030954864 0.034233045 0.013223178 0.09207081 -0.06521305 0.02580392 -0.12353946
-0.032789245 0.06195157 0.0149112595 0.12980759 -0.09901749 0.06463159 -0.0052423757 0.13185365
0.1245914 0.12451268 -0.0926294 0.13983473 -0.088306315 -0.065415666 0.08138132 0.001457838
0.06677631 0.12008273 -0.015674505 0.03875466 0.003240514 0.09594194 0.073599525 0.006748918
-0.10228455 0.043774534 0.08847132 0.008840392 0.066504665 0.03535517 -0.067241676 -0.07290884
-0.023801968 -0.11934512 -0.0022038089 -0.032907374 -0.11535454 0.019131193 0.027179202 0.055197928
-0.008881752 -0.05164801 -0.025585422 -0.11393329 0.0014256265 0.07313518 -0.0014077246 0.0138186235
0.117388666 0.11147643 0.12521341 0.114168845 0.07490868 -0.0055734 -0.13477913 0.014203565
0.07736123 0.00447012 0.07524054 -0.11006585 -0.004239512 0.13687392 -0.13105616 -0.022336496
0.05983954 -0.13657083 -0.055302165 -0.06436641 0.091816075 -0.02396674 0.001924225 0.11113607
0.032411512 -0.049940836 0.067556396 -0.0612776 0.12139347 -0.04485952 0.12414382 -0.04406625
0.073451474 0.12344189 -0.052858878 -0.013793052 -0.06900709 0.07080598 -0.0523665 0.10252
-0.0931859 -0.052095186 -0.035786774 0.1123371 0.07296356 -0.010197999 0.06834228 -0.12717007
00000000: f800 173d 9b3e 9d3d 0aaf d03d c4a9 59bd
00000010: 0cdf a83d 13e4 cb3d 9359 14bd 177d c53d
00000020: 04ab f0bc 29a3 a3bd 1a69 453d 589b 213d
00000030: 68aa 04be afd2 69bd 4edb 0bbd 2dea b83d
00000040: b9b8 30bc d9f7 09be dcd3 9e3c 8d58 1c3d
00000050: 1809 bd3c 0de8 e73d 72a6 10be abc9 5b3c
00000060: 43d9 a3bd 8025 83bd 36db bbbd c615 08bd
00000070: 6921 06be 0729 06be d90e c23d 6370 ad3d
00000080: 5513 5ebd 2f07 45bd c06d 47bd ae46 083d
00000090: 5250 64bd ef77 6b3d 8b46 c8ba 6c12 113d
000000a0: 5a7f 91bd c37f 90bd d61a 7b3d 6a54 dc3d
000000b0: 47f6 9dbd 81ce 943d 21d3 31bc 1ca3 0c3e
000000c0: 85a9 77bd c4c6 f23d d304 7f3d 1d62 e73d
000000d0: 9f60 a73b 85e9 cd3d 0fc8 e23b 1c52 e13b
000000e0: e987 9abc e885 333d 671e 0f3e 6c6f ee3d
000000f0: f611 92bd ea3d 5abd 7c34 a33d c8df 4dbd
00000100: 1ba1 2ebd da9f 053d 239c 9cbd b677 ccbd
00000110: d97b f23d b4a5 fcbd 83c5 a5bd 5bad 8a3d
00000120: ad24 8abc 4515 993d b3e0 6fbc c43d 723b
00000130: 3ee7 bdbc 157d 323d 1947 383d 5527 82bc
00000140: 734c cf3d 0de3 a7bd 7a83 04bd 721c 5b3c
00000150: b467 953d 0657 3bbd f0e7 123c 715e 00be
00000160: ba1a 983d afd3 b43d ea65 e6bd 03a8 e5bd
00000170: f06a 2f3c c633 023e bcf0 663d c19e e73d
00000180: 3cd2 e4bd c4d0 d93d 5e1e 0a3e eaa9 ddbd
00000190: 0de7 0b3d 1d55 cdbc 8e73 103e 8f30 8fbd
000001a0: 38c4 06be aa17 e7bd b835 d53d bd7e 253d
000001b0: 52cd 03be bf0a e5bd baae a03d da0e 8fbd
000001c0: de05 c3bd a9ad 73bd a5d6 5bbd a4c1 a9bd
000001d0: 6b4d 72bd 3890 a83c 6cac f53c 24a6 f83d
000001e0: cef8 07be 13d6 07bd 5bf9 20bd e4d0 9bbd
000001f0: 13c1 4f3d 44d2 89bd 2624 4abd 3e2e debd
00000200: dac2 5dbd f11e 073c e66e 9abd 3dd8 cebc
00000210: 9558 a4bd 68b2 003d 27db 503d c1d0 a6bd
00000220: da63 67bd 2737 94bc 57c1 95bd 3b57 74bd
00000230: 0ceb 8c3d fa76 a4bc be86 663d 7ce5 2f3b
00000240: 29b4 033c 70f9 c8bd 884c 4f3c f01d 0b3e
00000250: a073 073e f670 ce3d 8b47 33bd 6231 5cb8
00000260: 5300 033e 0e95 fdbc f337 0c3d 07a6 583c
00000270: 9f8f bc3d 6b8e 85bd be62 d33c 4202 fdbd
00000280: 044e 06bd eec0 7d3d 5b4e 743c 48ec 043e
00000290: afc9 cabd 915d 843d 3cc8 abbb a504 073e
000002a0: c729 ff3d 8100 ff3d 7cb4 bdbd d630 0f3e
000002b0: f1d9 b4bd a6f8 85bd 40ab a63d ed14 bf3a
000002c0: 05c2 883d efed f53d d267 80bc 35bd 1e3d
000002d0: ce5e 543b 357d c43d 59bb 963d 0726 dd3b
000002e0: 907a d1bd ed4c 333d 7430 b53d 4bd7 103c
000002f0: 9933 883d 95d0 103d 01b6 89bd 3b51 95bd
00000300: 58fc c2bc 376b f4bd c76d 10bb e2c9 06bd
00000310: 003f ecbd 05b9 9c3c eba6 de3c 3917 623d
00000320: c584 11bc dd8c 53bd 8598 d1bc db55 e9bd
00000330: 16dc ba3a e6c7 953d 6683 b8ba 8267 623c
00000340: 7869 f03d c14d e43d f237 003e 5bd1 e93d
00000350: b969 993d 11a1 b6bb 8a03 0abe 12b6 683c
00000360: 916f 9e3d 167a 923b b617 9a3d 346a e1bd
00000370: 9beb 8abb ad28 0c3e 9633 06be 07fb b6bc
00000380: 4e1a 753d 39d9 0bbe 8684 62bd 89d2 83bd
00000390: 110a bc3d e655 c4bc 4736 fc3a 4f9b e33d
000003a0: efc1 043d c38e 4cbd 025b 8a3d 38fe 7abd
000003b0: 249d f83d 9ebe 37bd 1d3f fe3d d07e 34bd
000003c0: ba6d 963d 1acf fc3d 8d82 58bd 41fc 61bc
000003d0: 9753 8dbd ba02 913d 417e 56bd 01f6 d13d
000003e0: 40d8 bebd c361 55bd 2795 12bd fe10 e63d
000003f0: eb6d 953d 8215 27bc 0af7 8b3d df38 02be

fc2.bias f4 [10]
-0.0010104405 0.10023543 0.024003193 0.016192656 -0.029343683 -0.08448272 -0.00700453 0.040172707
-0.015000975 -0.027555164
00000000: c270 84ba 3c48 cd3d 58a2 c43c 76a6 843c
00000010: 2a62 f0bc 4705 adbd 4286 e5bb 238c 243d
00000020: a6c6 75bc 5ebb e1bc
