proj5/task4/results/exp6_280.pth (torch, 394319 bytes, 8 tensors)

conv1.weight f4 [10, 1, 5, 5]
0.2163667 0.27072245 0.028483834 0.24079609 -0.038423695 0.019896887 0.0911087 0.3881738
0.30238783 -0.17556103 0.1740703 0.20726965 0.42332354 0.21724613 0.14144969 -0.10444176
0.13131006 0.15200663 0.06593261 0.18498126 -0.32854152 -0.19135088 -0.09164105 0.23849063
-0.003436687 -0.06313475 -0.0565985 -0.13911481 -0.09436517 -0.34939593 0.19849202 -0.19622235
0.038102906 -0.2027464 -0.26147273 0.15812317 0.13796465 0.25110346 0.054971706 0.007658729
0.08740277 0.09964493 0.36356553 0.44301257 0.3236605 -0.12063155 0.17794593 0.15306
0.23305386 -0.004782412 -0.114252694 0.12617628 0.053373344 0.2406783 0.023357563 0.17029394
0.27466333 0.18542683 0.13984008 -0.306842 0.21440673 0.18978658 0.24208525 -0.15542689
-0.16228715 0.15447666 0.3993909 -0.04760157 -0.22705017 -0.2999791 0.35563582 0.22308195
0.15266684 -0.32504672 -0.42339838 -0.3165652 -0.24725813 0.031967018 0.1519404 0.3012221
-0.251627 -0.16760509 0.17713629 0.078514464 0.29278064 -0.18769774 0.13520505 0.006786876
0.10218572 0.19518334 -0.057071578 -0.009811282 0.2261848 0.26936877 -0.06326521 -0.07026395
0.28265303 0.08249805 0.048703317 -0.14700931 -0.16847862 -0.015348706 -0.08091581 -0.17325729
-0.009440688 -0.15827678 -0.22305487 -0.166379 -0.2230388 -0.1677138 0.19235003 -0.01837771
-0.008137127 -0.24572308 -0.18593949 -0.017831216 0.034907445 -0.21833728 -0.13907975 -0.16444555
0.09166405 -0.049023207 -0.035794187 -0.18003972 -0.16585763 -0.1244386 -0.10535004 -0.21318415
0.20480728 0.10441114 0.08862515 -0.011391241 -0.19344507 0.23099123 0.10401378 -0.16917776
-0.22780177 -0.14521508 0.2658082 0.146744 -0.044366512 -0.24107422 0.2341397 0.08185631
0.09755998 0.012740764 0.11357493 0.23267289 0.27766895 -0.13213064 0.032425765 -0.10859279
-0.07512038 -0.2022106 0.11268539 -0.15181796 0.13189894 0.086181745 0.062094808 -0.13368116
0.27463913 0.18534139 0.12502778 -0.16717292 0.09579104 -0.043743305 -0.06555033 0.2390282
0.04048481 -0.14703922 -0.17535332 -0.010335182 0.18628153 -0.028717378 -0.14991915 -0.028786149
-0.060434356 0.16044742 0.24385354 -0.14636442 0.12831065 0.19052547 0.07582158 -0.09156034
0.044855364 0.13995042 0.11175638 0.00898298 -0.060343903 0.0050990363 -0.03878656 -0.039567467
0.25529218 0.37960613 0.10794229 -0.05149064 -0.010669734 0.041863192 0.22735389 0.20115103
-0.25015044 -0.16389552 0.14991459 0.10276039 0.015812255 -0.18257844 -0.26656497 -0.26205346
-0.09703457 0.026519962 0.17658328 0.050376076 -0.22549526 -0.18037795 -0.12302918 0.3128389
0.124907896 -0.024988264 0.051335417 -0.11824434 -0.0711188 0.23603909 -0.008233186 -0.0012467391
-0.17966849 0.27041268 0.36726636 0.355777 0.20077953 0.15232237 0.058086548 0.36115655
0.2850925 0.35550645 0.25592113 0.048376597 -0.10806954 -0.28113884 -0.27090305 -0.2917208
-0.07516403 -0.31118974 -0.2715067 -0.24922246 -0.15810779 -0.29665372 -0.30062243 -0.084909074
-0.07119564 0.06314161
00000000: 3b8f 5d3e 229c 8a3e ee56 e93c 4093 763e
00000010: 2a62 1dbd ccfe a23c 3397 ba3d b7be c63e
00000020: 94d2 9a3e 45c6 33be 7c3f 323e 7f3e 543e
00000030: ddbd d83e c575 5e3e 30d8 103e 90e5 d5bd
00000040: 2576 063e a0a7 1b3e ad07 873d ba6b 3d3e
00000050: 9836 a8be 7cf1 43be 4eae bbbd e336 743e
00000060: 0a3a 61bb cb4c 81bd d4d3 67bd 1d74 0ebe
00000070: 8742 c1bd 06e4 b2be 7e41 4b3e 83ee 48be
00000080: cb11 1c3d c19c 4fbe c1df 85be 0aeb 213e
00000090: 9b46 0d3e a290 803e 032a 613d 13f6 fa3b
000000a0: 3900 b33d a412 cc3d 4325 ba3e 8bd2 e23e
000000b0: d4b6 a53e ad0d f7bd 7537 363e c3bb 1c3e
000000c0: aca5 6e3e c8b5 9cbb 51fd e9bd 5b34 013e
000000d0: 029e 5a3d 5f74 763e 5c58 bf3c 8961 2e3e
000000e0: aca0 8c3e 88e0 3d3e 3d32 0f3e 651a 9dbe
000000f0: 708d 5b3e 6a57 423e 32e5 773e 3a28 1fbe
00000100: 9a2e 26be 212f 1e3e f77c cc3e ddf9 42bd
00000110: d77f 68be dc96 99be e615 b63e 986f 643e
00000120: b254 1c3e 866c a6be acc7 d8be d514 a2be
00000130: 3c31 7dbe d9ef 023d 4496 1b3e c839 9a3e
00000140: 41d5 80be aba0 2bbe 3763 353e 31cc a03d
00000150: 58e7 953e d633 40be 3173 0a3e 7164 de3b
00000160: bf46 d13d 24de 473e e3c3 69bd 80bf 20bc
00000170: fd9c 673e b4ea 893e 3191 81bd 8ce6 8fbd
00000180: e6b7 903e bdf4 a83d 217d 473d 9c89 16be
00000190: a985 2cbe 2479 7bbc 30b7 a5bd 5c6a 31be
000001a0: 1ead 1abc 4f13 22be 7f68 64be 425f 2abe
000001b0: 4864 64be 2bbd 2bbe 68f7 443e da8c 96bc
000001c0: 9651 05bc d59e 7bbe ec66 3ebe c512 92bc
000001d0: 1cfb 0e3d cf93 5fbe ec6a 0ebe 6a64 28be
000001e0: 5dba bb3d 8fcc 48bd ed9c 12bd 555c 38be
000001f0: 95d6 29be aad9 febd c3c1 d7bd f24c 5abe
00000200: 00b9 513e 82d5 d53d 1a81 b53d 54a2 3abc
00000210: 7716 46be f788 6c3e 2d05 d53d ef3c 2dbe
00000220: de44 69be 43b3 14be 0318 883e 0f44 163e
00000230: a9b9 35bd 29dc 76be 51c2 6f3e 48a4 a73d
00000240: 87cd c73d a3be 503c f999 e83d cd41 6e3e
00000250: a02a 8e3e 414d 07be e1d0 043d e665 debd
00000260: b7d8 99bd 4c10 4fbe 99c7 e63d 2b76 1bbe
00000270: 8410 073e 0e80 b03d 2057 7e3d b7e3 08be
00000280: 809d 8c3e 22ca 3d3e 4807 003e 612f 2bbe
00000290: 182e c43d 2e2c 33bd 403f 86bd cfc3 743e
000002a0: 66d3 253d 7391 16be d28f 33be e554 29bc
000002b0: 96c0 3e3e b540 ebbc 6884 19be eed0 ebbc
000002c0: 048a 77bd 544c 243e beb4 793e 8ee0 15be
000002d0: de63 033e 1c19 433e 5848 9b3d fd83 bbbd
000002e0: 42ba 373d 2a4f 0f3e 87e0 e43d 592d 133c
000002f0: 2b2b 77bd d115 a73b a8de 1ebd 7f11 22bd
00000300: a8b5 823e bc5b c23e d910 dd3d d9e7 52bd
00000310: 1cd0 2ebc bd78 2b3d 75cf 683e 89fa 4d3e
00000320: b813 80be 3ad4 27be 3683 193e 0a74 d23d
00000330: b488 813c d8f5 3abe 347b 88be df2b 86be
00000340: 10ba c6bd 6440 d93c 3fd2 343e 2557 4e3d
00000350: 3be8 66be ffb4 38be b9f6 fbbd 6c2c a03e
00000360: b6cf ff3d 30b4 ccbc 1645 523d 172a f2bd
00000370: bca6 91bd 3bb4 713e 7ce4 06bc 9f69 a3ba
00000380: 04fb 37be 8873 8a3e 560a bc3e 6728 b63e
00000390: 2699 4d3e 65fa 1b3e 29ec 6d3d 83e9 b83e
000003a0: a5f7 913e f104 b63e 1808 833e 8a26 463d
000003b0: 9053 ddbd 6ef1 8fbe ceb3 8abe 6e5c 95be
000003c0: 99ef 99bd 4354 9fbe ed02 8bbe 2c34 7fbe
000003d0: 02e7 21be ffe2 97be 2feb 99be cfe4 adbd
000003e0: 05cf 91bd 6350 813d

conv1.bias f4 [10]
0.15553494 0.08528447 -0.091334514 -0.12574014 0.04299244 -0.20496406 0.12544753 -0.019253755
0.13747928 0.10718686
00000000: 8d44 1f3e a0a9 ae3d 970d bbbd 06c2 00be
00000010: d718 303d 19e2 51be 5175 003e 0dba 9dbc
00000020: 5ec7 0c3e c984 db3d

conv2.weight f4 [20, 10, 5, 5]
0.0001650394 -0.027990146 0.12166185 0.02125411 -0.017307403 0.046642296 0.03718285 0.061997917
0.057633597 -0.030974992 -0.0013378089 -0.04068319 0.08835243 0.16049185 0.07308036 -0.1141748
-0.10151011 0.027449235 0.12423107 0.018607128 0.0070608794 -0.023670675 -0.05142214 -0.060542945
-0.0011343946 -0.01942845 -0.034058716 0.08424483 0.12509185 0.014142427 -0.007937665 -0.033689693
-0.057665695 -0.009695208 -0.015882866 -0.09633714 -0.09026729 -0.0058282246 0.048574943 0.013378763
0.028580474 -0.03892048 -0.05059099 0.010070626 0.012712147 0.17425182 0.05988298 0.029579164
-0.067160465 -0.05883147 0.034141064 0.036002733 -0.02844771 0.067476 0.1342995 -0.038660076
0.02016155 0.06567561 0.06357231 0.085583806 -0.12905315 -0.117770456 0.008597633 0.06530535
-0.029969769 -0.11187478 -0.10604862 -0.08270053 -0.104919456 -0.09536768 0.07121554 0.02642291
-0.038835432 -0.09434774 -0.0022781647 -0.05331151 0.008403253 -0.0026015579 -0.034002166 0.0403554
0.013600327 -0.022961134 -0.04508684 -0.04120084 -0.032267846 -0.029675992 0.030390691 -0.029779932
-0.054783918 -0.027304329 -0.0013477772 0.036190394 0.08069527 0.014524639 -0.12586229 0.018608468
0.030584434 0.0074110217 -0.016922984 0.02991264 -0.044790573 -0.06559499 -0.083976395 -0.015774863
0.029479928 0.008930243 0.012023407 -0.050720982 -0.07241365 -0.004644946 0.0745853 0.06340491
-0.03146699 -0.03126853 -0.047788758 -0.015424791 0.027095322 0.035239145 0.02739505 -0.056075502
0.040564027 -0.032497738 0.039580736 0.052109018 0.0022638515 0.053409707 -0.029458767 -0.061267525
0.025761686 0.0036773218 -0.025854293 -0.042168498 0.05257108 0.0469725 0.0040602395 -0.060776796
-0.0736992 0.0137746995 -0.0042843116 -0.048736688 -0.034699548 0.01590791 -0.00050490804 -0.011258742
-0.06339118 -0.04429898 -0.05089017 -0.037374713 -0.03299152 -0.016750358 -0.023891553 -0.017856533
0.0968991 0.10035859 0.074447855 -0.030765262 -0.032153092 0.029478975 -0.0008213957 -0.036548827
-0.027852895 -0.05930259 -0.05020954 0.08213424 0.068982616 -0.011320776 -0.038554933 -0.07821842
-0.033733826 0.037443098 0.041209836 0.0031993906 -0.037617248 0.008808065 -0.048251428 0.04457998
-0.025008626 0.050853666 0.04354716 -0.0055112853 -0.023767117 0.068041936 0.08447962 0.09800582
0.020565681 -0.06987156 -0.05237488 0.09336083 0.12949207 -0.03427161 -0.020219266 -0.09308459
-0.04985063 0.05476073 0.025847198 0.068533815 0.002172307 0.032316256 -0.034599863 -0.083238676
-0.035369173 -0.016122451 -0.0059391903 -0.048759684 0.04114884 -0.033651628 -0.0654472 -0.06590665
0.023854882 0.022446096 0.06892153 0.045506064 0.03439635 -0.02261508 -0.040133234 0.057671476
-0.0047845463 -0.04081419 -0.04338652 0.017920682 0.033557188 -0.0047671525 -0.019352484 0.008687576
-0.038861 -0.052734688 0.029417945 -0.045395307 -0.0071255793 0.0036222034 -0.013835471 0.004743842
-0.0700184 -0.094798096 -0.034701478 0.0054891757 -0.017930148 -0.10182537 -0.112988696 -0.012270786
0.014433415 -0.022101143 -0.005908618 0.050142758 0.03698888 0.03105586 -0.02581752 -0.037159722
0.022950307 0.05029822 -0.034067642 0.0024717313 0.12623875 0.051312573 -0.0076377694 -0.095871836
00000000: 6d0e 2d39 974b e5bc d929 f93d 191d ae3c
00000010: 41c8 8dbc fe0b 3f3d 0b4d 183d 87f1 7d3d
00000020: 3511 6c3d 44bf fdbc 6b59 afba 6ba3 26bd
00000030: 1ef2 b43d fa57 243e 28ab 953d 7ad4 e9bd
00000040: 88e4 cfbd 38dd e03c dc6c fe3d fa6d 983c
00000050: f35e e73b 01e9 c1bc 06a0 52bd e1fb 77bd
00000060: f7af 94ba 6a28 9fbc 2781 0bbd 8e88 ac3d
00000070: 1418 003e a3b5 673c fb0c 02bc 34fe 09bd
00000080: dd32 6cbd a6d8 1ebc c91c 82bc 684c c5bd
00000090: 0fde b8bd b1fa bebb 85f6 463d 9932 5b3c
000000a0: 9921 ea3c 156b 1fbd 7f38 4fbd 44ff 243c
000000b0: 9c46 503c 126f 323e db47 753d 0150 f23c
000000c0: 6d8b 89bd 44f9 70bd 80d7 0b3d 9a77 133d
000000d0: 2c0b e9bc db30 8a3d cf85 093e 075a 1ebd
000000e0: d629 a53c ef80 863d 3332 823d 9046 af3d
000000f0: 8226 04be a331 f1bd 16dd 0c3c d0be 853d
00000100: 2983 f5bc 9b1e e5bd 0530 d9bd e55e a9bd
00000110: 03e0 d6bd 2150 c3bd 74d9 913d dc74 d83c
00000120: e711 1fbd 6339 c1bd 434d 15bb 2b5d 5abd
00000130: ccad 093c e67e 2abb db45 0bbd b44b 253d
00000140: e8d3 5e3c fd18 bcbc faac 38bd 36c2 28bd
00000150: 4a2b 04bd 111b f3bc e6f5 f83c 0bf5 f3bc
00000160: 1a65 60bd 54ad dfbc e6a7 b0ba 613c 143d
00000170: 9043 a53d c0f8 6d3c 0be2 00be c970 983c
00000180: 358c fa3c 28d8 f23b 12a2 8abc 5a0b f53c
00000190: 5276 37bd ab56 86bd d1fb abbd 493a 81bc
000001a0: e47f f13c 2750 123c d3fd 443c cec0 4fbd
000001b0: 9c4d 94bd a234 98bb 2ec0 983d 6fda 813d
000001c0: 88e3 00bd 6e13 00bd 25be 43bd 43b8 7cbc
000001d0: 02f7 dd3c ec56 103d 956b e03c 6daf 65bd
000001e0: 7726 263d 591c 05bd 691f 223d 4470 553d
000001f0: 205d 143b 23c4 5a3d 8353 f1bc a8f3 7abd
00000200: 2c0a d33c 39ff 703b 62cc d3bc e0b8 2cbd
00000210: c654 573d 3c66 403d c20b 853b 17f1 78bd
00000220: 9bef 96bd 47af 613c 6963 8cbb 1fa0 47bd
00000230: 1d21 0ebd 4e51 823c ce5b 04ba 9676 38bc
00000240: 3cd3 81bd d972 35bd 3672 50bd 3a16 19bd
00000250: 1e22 07bd 0c38 89bc 38b8 c3bc dd47 92bc
00000260: 0973 c63d ce88 cd3d 1e78 983d 6e07 fcbc
00000270: f6b2 03bd e47d f13c ef52 57ba 39b4 15bd
00000280: c12b e4bc 46e7 72bd 85a8 4dbd ff35 a83d
00000290: c246 8d3d c77a 39bc c7eb 1dbd fb30 a0bd
000002a0: 7b2c 0abd ef5d 193d a5cb 283d deac 513b
000002b0: 8b14 1abd b44f 103c 4aa3 45bd 7f99 363d
000002c0: e4de ccbc ef4b 503d 825e 323d 0398 b4bb
000002d0: 42b3 c2bc 9259 8b3d a703 ad3d 46b7 c83d
000002e0: 5c79 a83c d218 8fbd 0b87 56bd f633 bf3d
000002f0: 9299 043e 6360 0cbd e0a2 a5bc 22a3 bebd
00000300: 2d30 4cbd ca4c 603d 81bd d33c 755b 8c3d
00000310: 445d 0e3b 0d5e 043d 96b8 0dbd 0a79 aabd
00000320: 44df 10bd 3b13 84bc 8a9d c2bb 3cb8 47bd
00000330: b08b 283d 4ad6 09bd 2e09 86bd 11fa 86bd
00000340: 506b c33c e0e0 b73c bb26 8d3d 9164 3a3d
00000350: 30e3 0c3d 4343 b9bc bf62 24bd ed38 6c3d
00000360: afc7 9cbb c82c 27bd 10b6 31bd 65ce 923c
00000370: 4373 093d c635 9cbb 1a89 9ebc 5656 0e3c
00000380: b62c 1fbd 5400 58bd e7fd f03c 6ef0 39bd
00000390: b17d e9bb 7d62 6d3b 2cae 62bc 3b72 9b3b
000003a0: cf65 8fbd 8125 c2bd 2323 0ebd 8bde b33b
000003b0: 3fe2 92bc d289 d0bd 9e66 e7bd 680b 49bc
000003c0: 217a 6c3c 750d b5bc 159d c1bb 7e62 4d3d
000003d0: a781 173d dc68 fe3c 447f d3bc cb34 18bd
000003e0: 4802 bc3c 8205 4e3d 838a 0bbd c5fc 213b
000003f0: bb44 013e 222d 523d 4146 fabb 7458 c4bd

conv2.bias f4 [20]
0.054955255 -0.048839282 -0.037430003 -0.04195651 -0.05339438 0.012318414 0.041618787 -0.036747586
0.017768791 -0.046378866 0.005575109 0.025868863 -0.01925942 -0.03202567 0.031172695 -0.05659287
-0.008422121 -0.06710237 0.030022942 0.004684215
00000000: c318 613d b30b 48bd 3450 19bd 97da 2bbd
00000010: 11b4 5abd 2cd3 493c 7678 2a3d a384 16bd
00000020: db8f 913c c4f7 3dbd 67af b63b f0ea d33c
00000030: eec5 9dbc 592d 03bd e15d ff3c edcd 67bd
00000040: f0fc 09bc f86c 89bd acf2 f53c 0b7e 993b

fc1.weight f4 [280, 320]
-0.010364455 0.067153916 0.072427854 0.040763363 -0.029248552 -0.031749666 0.006535109 0.016541319
-0.026237344 0.002698326 -0.023207357 -0.0033158606 0.058186878 -0.01737692 -0.031381812 0.03570273
-0.0025613187 -0.010105543 -0.07186533 -0.049540833 0.05033547 -0.012614886 -0.010619381 -0.025422037
0.06621333 -0.01093213 -0.001624419 0.07046031 0.012435984 -0.0022331674 -0.014237756 -0.013416023
0.015591883 0.004358929 0.035047226 -0.028528167 -0.0211354 -0.058050133 -0.017588178 0.018069042
0.049042292 -0.060474765 -0.019272992 0.03404813 -0.021734377 0.03306003 0.0018243067 -0.056191426
0.02868924 -0.02898566 0.006040451 -0.045392487 0.05825603 -0.046134625 0.015743619 -0.04075224
-0.04635922 0.023046222 0.034075916 0.0003059093 -0.046466596 -0.0072255605 -0.034705758 0.034350496
-0.002024978 0.028430019 0.0141465645 -0.046338458 0.03172098 0.025658192 -0.009985285 -0.05746289
-0.054809734 0.01333688 0.059760205 0.040258978 -0.0053546974 -0.031489562 -0.03663345 -0.0062475456
-0.016974745 -0.048560075 -0.016015124 -0.08894353 0.009738052 0.038000923 -0.059702437 -0.0624244
-0.03469613 0.02174309 0.040281363 0.021515321 0.0158516 0.021487877 0.059436854 0.0035464666
-0.03830062 -0.0009191522 0.008557936 0.0072685434 0.044257358 0.050786268 -0.016237427 -0.027754772
-0.0046625743 0.007400707 0.033920716 0.012898621 0.007302369 0.01876903 0.03970342 0.024687352
-0.014711068 -0.032080352 0.042277962 0.003993492 -0.037129007 -0.0024783476 0.03775591 -0.03337075
0.0026550672 0.017527094 0.039119367 -0.012874352 -0.04093909 -0.031421814 -0.013341424 0.0031258487
-0.032548502 0.02909148 0.0013452581 -0.05789749 0.016771238 -0.032732945 0.03829109 -0.02759775
0.01885663 -0.032822732 -0.027709085 0.009269552 0.022806285 -0.055036027 0.022357238 -0.0067602387
-0.049073268 -0.04733865 -0.05584987 -0.08306397 -0.004691493 0.006748026 0.014201926 0.006891634
0.023336424 0.010717782 0.0078090094 0.005826629 0.05813026 0.045853607 -0.020198574 0.0019824377
-0.05009451 -0.0055873464 0.0022461761 -0.050098833 0.04785771 0.029252239 -0.04263676 -0.07313939
0.040453263 0.05354052 0.0027746228 -0.019452633 0.030353678 0.02660209 -0.01371652 0.056586385
-0.061526988 -0.020768818 0.0458162 -0.033884604 -0.0006053658 0.028874986 -0.02784542 0.052352343
0.042577498 -0.028621199 -0.04077903 -0.0069074524 0.00022525115 -0.037103083 -0.06890465 0.0051973825
0.043626595 0.023746472 -0.017963292 -0.06701545 -0.0010859295 0.02815084 -0.023654675 0.029950736
0.008953492 -0.007644971 0.022213247 0.024288561 -0.042004604 0.015112405 -0.046966866 -0.006354867
-0.019818349 0.076368675 -0.053505987 0.07213241 -0.057448458 0.02220405 0.0068324883 0.0029808076
0.023924155 0.041520808 0.007940797 -0.0531286 -0.014521304 0.024586506 -0.012896119 -0.0044298493
-0.0064271474 -0.049753964 -0.052707434 -0.024821024 0.041848797 -0.0014857089 -0.01308331 0.01503243
-0.024372619 0.044037286 0.054873813 0.03108017 -0.03746843 0.009119314 0.037320696 0.045832288
0.022038445 -0.03182297 -0.06359837 0.0014015159 -0.0046638874 0.05640637 0.00395499 0.018099174
0.023817837 0.020813785 -0.02830144 0.013062014 0.033539575 0.04879129 0.047376033 0.03839801
00000000: adcf 29bc fe87 893d 0e55 943d 7cf7 263d
00000010: a99a efbc f00b 02bd 7824 d63b a981 873c
00000020: b3ef d6bc 66d6 303b 5b1d bebc e94e 59bb
00000030: 5d55 6e3d 0b5a 8ebc 378a 00bd 073d 123d
00000040: ccdb 27bb b891 25bc 212e 93bd 54eb 4abd
00000050: 912c 4e3d abae 4ebc eafc 2dbc e041 d0bc
00000060: db9a 873d ad1c 33bc 75ea d4ba 7f4d 903d
00000070: 4cc0 4b3c 555a 12bb 7a45 69bc e1ce 5bbc
00000080: 1975 7f3c 59d5 8e3b ae8d 0f3d e7b3 e9bc
00000090: 2524 adbc fac5 6dbd 1515 90bc 8705 943c
000000a0: 92e0 483d 63b4 77bd 65e2 9dbc 0d76 0b3d
000000b0: 4b0c b2bc f469 073d 931d ef3a fb28 66bd
000000c0: b205 eb3c 5673 edbc faee c53b 79ed 39bd
000000d0: e09d 6e3d a9f7 3cbd c3f8 803c d2eb 26bd
000000e0: 2ae3 3dbd 6ecb bc3c 3093 0b3d 7462 a039
000000f0: c253 3ebd 65c4 ecbb a027 0ebd 1bb3 0c3d
00000100: 7eb5 04bb 12e6 e83c fec6 673c 65cd 3dbd
00000110: dced 013d 2131 d23c 5299 23bc 355e 6bbd
00000120: 2c80 60bd ee82 5a3c 1ec7 743d 99e6 243d
00000130: 7576 afbb 33fb 00bd f50c 16bd 36b8 ccbb
00000140: 9f0e 8bbc eee6 46bd 2632 83bc 0728 b6bd
00000150: 5a8c 1f3c dba6 1b3d 8b8a 74bd bab0 7fbd
00000160: 871d 0ebd 911e b23c 12fe 243d e640 b03c
00000170: 37db 813c 5807 b03c 0f74 733d d66b 683b
00000180: 1ce1 1cbd 43f3 70ba 9636 0c3c f62c ee3b
00000190: 3447 353d 4305 503d 5a04 85bc fa5d e3bc
000001a0: 82c8 98bb a181 f23b 73f0 0a3d bd54 533c
000001b0: b648 ef3b 82c1 993c 0ea0 223d 213d ca3c
000001c0: b106 71bc b066 03bd a82b 2d3d d7db 823b
000001d0: 9614 18bd c66b 22bb f1a5 1a3d c4af 08bd
000001e0: a300 2e3b fb94 8f3c a13b 203d f2ee 52bc
000001f0: bfaf 27bd 29b4 00bd fd95 5abc 0adb 4c3b
00000200: 9451 05bd 4151 ee3c 5f53 b03a eb25 6dbd
00000210: d663 893c fb12 06bd 1ed7 1c3d ad14 e2bc
00000220: 3879 9a3c 2171 06bd 2afe e2bc 52df 173c
00000230: 3fd4 ba3c 756d 61bd 8726 b73c fe84 ddbb
00000240: 0d01 49bd 2ce6 41bd d5c2 64bd 711d aabd
00000250: 19bb 99bb 8b1e dd3b 32af 683c 37d3 e13b
00000260: 072c bf3c a399 2f3c b8e2 ff3b 4fed be3b
00000270: ff19 6e3d fed0 3b3d 7b77 a5bc c9eb 013b
00000280: e72f 4dbd 0f16 b7bb 9534 133b 6f34 4dbd
00000290: 7206 443d 64a2 ef3c e2a3 2ebd 1bca 95bd
000002a0: 52b2 253d 4e4d 5b3d 72d6 353b 215b 9fbc
000002b0: 47a8 f83c a0ec d93c 41bb 60bc 20c7 673d
000002c0: b903 7cbd 5e23 aabc c5a9 3b3d 95ca 0abd
000002d0: 69b1 1eba 3c8b ec3c 141c e4bc 696f 563d
000002e0: be65 2e3d 0177 eabc ea07 27bd e957 e2bb
000002f0: 6531 6c39 67f9 17bd e21d 8dbd ce4e aa3b
00000300: cdb1 323d f687 c23c c127 93bc 653f 89bd
00000310: bf55 8eba 979c e63c 73c7 c1bc 3f5b f53c
00000320: abb1 123c aa82 fabb 8ef8 b53c cef8 c63c
00000330: 050d 2cbd 059a 773c 5460 40bd 7d3c d0bb
00000340: 175a a2bc 2e67 9c3d 1829 5bbd 28ba 933d
00000350: 134f 6bbd 45e5 b53c 11e3 df3b a759 433b
00000360: 97fc c33c b911 2a3d 1e1a 023c 609d 59bd
00000370: c3ea 6dbc a469 c93c 3e4a 53bc 4528 91bb
00000380: d29a d2bb d0ca 4bbd c0e3 57bd 7655 cbbc
00000390: a569 2b3d 1ebc c2ba 615b 56bc 954a 763c
000003a0: 16a9 c7bc 7160 343d 5dc3 603d d79b fe3c
000003b0: 7f78 19bd 2d69 153c 96dd 183d a3ba 3b3d
000003c0: f889 b43c cd58 02bd dd3f 82bd 12b3 b73a
000003d0: 86d3 98bb 5e0a 673d dc98 813b b844 943c
000003e0: a01d c33c ac81 aa3c 6cd8 e7bc 0f02 563c
000003f0: cb60 093d 60d9 473d 5f0d 423d 3b47 1d3d

fc1.bias f4 [280]
-0.009356857 0.055013616 -0.0054333606 -0.038378328 0.0022607886 0.042300716 0.015009997 -0.041514724
-0.0041688564 0.059197932 0.035090372 -0.041064978 0.04634907 0.053684898 0.033468 0.040008467
-0.049871538 0.053066675 0.012126329 0.016190622 -0.013382006 -0.001364619 0.052661102 0.05218437
0.009969626 -0.041596282 0.054947823 -0.0069007636 0.023945574 0.04210815 -0.008696975 -0.026559604
-0.008156434 -0.042535532 -0.01616734 -0.020794585 0.036815807 -0.038854945 0.056116898 -0.04625106
-0.007480269 -0.017925547 0.021573653 0.0020683669 0.048476376 0.036785066 -0.009844268 -0.038490884
0.04737837 -0.010163695 0.021262044 0.012912572 0.008110316 0.027703846 0.0020961615 -0.015942415
0.000728656 -0.05414988 0.046174392 -0.033640407 -0.042280488 0.0054115113 0.06441623 -0.022971896
-0.03672634 0.0338133 -0.0009891167 0.0398277 -0.03278793 0.04250824 0.027901176 0.027063556
-0.04119985 0.059006874 -0.035431758 0.03608587 -0.026910277 0.015973266 -0.014785518 0.06563037
0.05727255 -0.004422925 0.021812787 0.023840817 -0.011571127 -0.01624655 -0.009397585 0.014464348
0.045020428 0.008543169 0.04220388 0.021236137 0.035725303 -0.0076798433 0.0803705 0.03961652
0.009836365 -0.035945255 -0.048092697 -0.03377555 -0.035879005 -0.0027183252 -0.009086611 0.018840248
-0.04878927 0.014504861 0.031022971 -0.010703783 0.03032582 -0.022894181 0.0506286 0.070961885
-0.010076427 0.048706096 0.03743226 0.0006001806 0.039234325 0.042940885 0.0048500975 0.008654777
0.033890717 -0.01538518 -0.03864387 0.045878977 0.028031036 -0.0069098054 0.060090512 -0.0111158
0.0043018823 0.041566137 0.035806663 -0.046935458 -0.02326712 -0.022948261 0.033871368 0.011217477
0.002838648 0.023363667 -0.0019222749 -0.00022394456 -0.019268354 -0.0029338326 0.05559332 0.047510434
-0.007348051 0.016613048 0.056708604 -0.033769593 -0.0012728991 0.045194674 -0.051335875 0.049537305
0.054525875 0.04361035 0.043216325 -0.004678494 0.0137513075 -0.032009415 0.028246121 0.012816007
-0.009619807 -0.021557387 -0.01622595 -0.052611154 -0.022053624 0.01254883 -0.044572733 -0.028411219
-0.018629063 0.036089335 0.043803584 0.042121723 0.047619727 -0.036482047 0.010972788 0.018256644
-0.020805594 0.03608837 -0.0111235995 -0.018333595 0.029601824 -0.017443005 -0.024546834 -0.010004637
0.035003576 -0.009004379 0.00042979824 0.045702506 -0.051589657 0.018651217 0.0021792857 0.026778555
0.046435792 -0.025285473 0.0016294043 0.043044273 -0.011832895 -0.007955736 -0.037776902 -0.008106648
0.043072324 -0.054697067 0.0010078541 0.057840694 0.005920846 0.051146325 0.042657398 0.0023555525
0.05680538 0.008951354 -0.020277617 0.0022603113 -0.019707821 -0.038694177 -0.016905028 0.061984822
0.049312733 0.042888828 0.06452246 0.030018426 -0.016488153 -0.016997956 0.05928015 0.0347677
0.0044083963 0.041963343 -0.011359143 0.03533968 -0.010085733 0.057673495 0.039851308 0.05123999
0.029401215 -0.0070492397 0.04380799 -0.021718042 -0.014445563 -0.01138006 -0.026440704 -0.018491777
0.056790087 -0.051806834 -0.0366317 0.030446317 0.03196362 -0.0053160223 -0.03428388 -0.0032199118
0.04803561 0.046901807 0.058163702 0.062845305 0.019639302 -0.043206256 0.045713242 0.06342195
00000000: 814d 19bc f555 613d 550a b2bb 9832 1dbd
00000010: bd29 143b 8443 2d3d 7eec 753c 580b 2abd
00000020: e79a 88bb 8879 723d ecba 0f3d c033 28bd
00000030: 86d8 3d3d b2e4 5b3d be15 093d ebdf 233d
00000040: 1946 4cbd 715c 593d 83ad 463c 32a2 843c
00000050: 3440 5bbc 04dd b2ba 2bb3 573d 47bf 553d
00000060: a457 233c dd60 2abd f810 613d cd1f e2bb
00000070: 8229 c43c 9879 2c3d c27d 0ebc 8793 d9bc
00000080: 90a2 05bc bd39 2ebd 5f71 84bc 6859 aabc
00000090: 2ccc 163d 5d26 1fbd d5da 653d c071 3dbd
000000a0: 0b1d f5bb 99d8 92bc 3bbb b03c 708d 073b
000000b0: 2a8f 463d f0ab 163d da49 21bc 9ea8 1dbd
000000c0: d20f 423d a085 26bc bd2d ae3c 418f 533c
000000d0: 21e1 043c 2df3 e23c c15f 093b ab99 82bc
000000e0: 4703 3f3a 44cc 5dbd 5c21 3d3d 86ca 09bd
000000f0: 4e2e 2dbd 0c53 b13b a8ec 833d 8f2f bcbc
00000100: 5c6e 16bd d17f 0a3d 40a5 81ba 5f22 233d
00000110: a34c 06bd 1f1d 2e3d 0291 e43c 64b4 dd3c
00000120: 2dc1 28bd 31b1 713d e420 11bd c7ce 133d
00000130: f172 dcbc 5eda 823c f53e 72bc 3769 863d
00000140: 9f96 6a3d 2fee 90bb bbb0 b23c d14d c33c
00000150: d394 3dbc 7c17 85bc 54f8 19bc dffb 6c3c
00000160: 5767 383d a6f8 0b3c fadd 2c3d 68f7 ad3c
00000170: b254 123d 32a7 fbbb 4a99 a43d ef44 223d
00000180: b428 213c 553b 13bd d9fc 44bd 3b58 0abd
00000190: ddf5 12bd ee25 32bb 02e0 14bc dd56 9a3c
000001a0: 42d7 47bd cca5 6d3c e323 fe3c eb5e 2fbc
000001b0: db6d f83c 948c bbbc ef5f 4f3d 7754 913d
000001c0: 9917 25bc 0b80 473d 9252 193d 7055 1d3a
000001d0: 2cb4 203d c8e2 2f3d 91ed 9e3b c4cc 0d3c
000001e0: fed0 0a3d 1f12 7cbc 0949 1ebd 98eb 3b3d
000001f0: 58a1 e53c a66b e2bb 7821 763d 0b1f 36bc
00000200: cef6 8c3b 4141 2a3d 02aa 123d 653f 40bd
00000210: b09a bebc fefd bbbc b4bc 0a3d 82c9 373c
00000220: 9c08 3a3b 2965 bf3c d8f4 fbba a9d2 6ab9
00000230: abd8 9dbc 8b45 40bb d2b5 633d 4d9a 423d
00000240: ebc7 f0bb 1618 883c 4847 683d fc51 0abd
00000250: 68d7 a6ba 0d1e 393d 9145 52bd a1e7 4a3d
00000260: 8656 5f3d c4a0 323d 9a03 313d 0d4e 99bb
00000270: 2a4d 613c 4e1c 03bd 6964 e73c 3bfa 513c
00000280: 659c 1dbc 1e99 b0bc 49ec 84bc cb7e 57bd
00000290: cda9 b4bc 9c99 4d3c e691 36bd a5be e8bc
000002a0: fa9b 98bc 69d2 133d 636b 333d d487 2c3d
000002b0: e70c 433d 336e 15bd 35c7 333c f58e 953c
000002c0: 7e70 aabc 66d1 133d c23f 36bc 5630 96bc
000002d0: 867f f23c a2e4 8ebc 7116 c9bc 7dea 23bc
000002e0: e95f 0f3d 1a87 13bc 8b56 e139 8d32 3b3d
000002f0: ad4f 53bd 70ca 983c 59d2 0e3b b35e db3c
00000300: 7533 3e3d 7b23 cfbc bc91 d53a 314f 303d
00000310: c2de 41bc c658 02bc f4bb 1abd bfd1 04bc
00000320: 9b6c 303d 080a 60bd f919 843a 5dea 6c3d
00000330: a803 c23b cf7e 513d 86b9 2e3d 9d5f 1a3b
00000340: c2ac 683d b3a8 123c 3f1d a6bc bb21 143b
00000350: 4c72 a1bc c97d 1ebd 6a7c 8abc cce3 7d3d
00000360: 26fc 493d 32ac 2f3d 5a24 843d 34e9 f53c
00000370: 2a12 87bc 4c3f 8bbc becf 723d 9368 0e3d
00000380: 4f74 903b c1e1 2b3d b31b 3abc 57c0 103d
00000390: a13e 25bc 0b3b 6c3d 203b 233d 06e1 513d
000003a0: d1da f03c 4ffd e6bb 0270 333d 09ea b1bc
000003b0: 15ad 6cbc 6e73 3abc 2d9a d8bc 117c 97bc
000003c0: b99c 683d 6733 54bd 1f0b 16bd 8e6a f93c
000003d0: 49ec 023d 0732 aebb 416d 0cbd 2805 53bb
000003e0: fdc0 443d 1c1c 403d 103d 6e3d 0ab5 803d
000003f0: 9ae2 a03c 0bf9 30bd cf3d 3b3d 5ee3 813d

fc2.weight f4 [10, 280]
0.07038557 -0.0065855775 -0.053279288 0.11392729 0.026102675 -0.008477746 -0.08978399 0.050587196
0.12527649 0.17358702 0.048033983 -0.01771234 -0.06518062 0.100140795 -0.00068545766 0.08159356
-0.034161206 0.13485199 -0.0088313855 -0.048502393 -0.09788166 -0.050568603 -0.10666104 -0.0020464994
-0.0011528623 -0.04123068 0.083991766 -0.0062827296 0.040020294 -0.018186893 -0.06663991 -0.0004929645
0.005571246 0.052519083 0.025411714 0.04983371 -0.02874007 0.08374205 0.07021141 0.13442738
0.03867901 0.04216204 0.023231285 0.010029779 0.039547175 0.0855166 -0.028992428 -0.05214086
0.09892789 -0.034747705 -0.010636554 -0.07105571 0.05282265 -0.042192772 0.06484875 -0.10402719
0.023606438 -0.053029343 0.10316998 -0.13507138 0.05555538 0.07466629 0.070383556 0.050762422
0.058536336 0.04864944 -0.082998306 0.048852295 -0.01399304 0.06187845 -0.0063837715 -0.053548545
0.092105836 -0.06089367 0.0400823 -0.048814353 -0.03805195 -0.045168668 0.0577909 -0.049293675
-0.13815041 -0.03822485 0.11189779 -0.029851781 0.032299075 -0.054254968 -0.04831505 -0.04104534
-0.038010757 0.07274808 0.066327006 0.06165787 0.06538937 0.03526633 0.014548255 -0.034275297
0.094059765 0.028574442 -0.1635943 -0.07286663 -0.10995582 -0.12774092 0.042228222 0.092277505
0.08923523 -0.12713955 -0.08845467 -0.023893408 0.0463014 -0.050736755 -0.0253125 -0.08911646
-0.07115719 0.07130229 0.001930361 -0.024799602 -0.064330764 -0.07911404 0.07337795 0.06298257
-0.035258956 0.01010896 0.062530234 0.037759565 -0.0006011744 0.059294056 -0.09755653 -0.046347126
0.05566126 -0.073927276 0.0992185 0.046824925 -0.015210512 -0.009423933 -0.035561938 0.0014234171
-0.023690505 -0.06404554 -0.07335123 -0.027096327 -0.0007748223 0.06433587 -0.01547669 0.07729973
-0.09283602 -0.18313017 0.08025042 -0.029920202 -0.0048515624 -0.063672386 -0.07853967 -0.07045828
-0.01999159 -0.050305154 -0.017695554 -0.077098615 -0.025565993 0.039058395 -0.02310553 0.01275922
0.0486432 -0.07826729 0.040817447 -0.0024728668 0.066083826 0.121882774 -0.10063128 -0.018303415
0.029549584 0.11170149 -0.17209254 0.018474434 -0.05792133 0.031126594 0.10164765 0.021877619
0.033409797 0.038828604 -0.069577925 0.026099259 0.03851381 -0.036294013 0.021068066 0.009778234
-0.052752648 0.012425074 -0.053427726 -0.034662563 -0.0339961 -0.0016650972 -0.06747232 -0.04631539
-0.0475985 -0.04426693 -0.05257487 -0.050889045 -0.005487978 0.038557086 -0.0031570639 0.024118016
-0.05844299 -0.081784636 0.05092812 0.12815729 -0.07470167 0.0315676 0.05901235 -0.0030549616
0.09734727 -0.14588685 -0.0040008514 0.025196373 0.035212852 -0.03661613 0.040823743 -0.04329941
-0.028940665 -0.017596327 0.0057250387 0.015944745 -0.088355675 -0.08435889 -0.038601704 -0.056803495
-0.027785935 0.07073225 -0.11639999 0.05512347 -0.021339644 0.03428931 -0.14006464 0.065666996
0.012528904 0.065833546 0.029410645 -0.0092384545 0.0330438 -0.06444318 -0.04365944 -0.11565978
0.0050882427 -0.026954683 0.052574042 0.00418977 0.07595092 -0.07906909 0.007850403 0.053884655
-0.0076297927 0.056225464 -0.025499023 -0.069304556 0.06436228 0.03892051 -0.0315426 -0.11938808
00000000: 4f26 903d d4cb d7bb 623b 5abd b652 e93d
00000010: 47d5 d53c 3ee6 0abc abe0 b7bd 8534 4f3d
00000020: 7b48 003e ccc0 313e 48bf 443d 7819 91bc
00000030: 6b7d 85bd 9e16 cd3d 49b0 33ba 861a a73d
00000040: 9fec 0bbd a416 0a3e 84b1 10bc 72aa 46bd
00000050: 2e76 c8bd 0621 4fbd 1a71 dabd 901e 06bb
00000060: a41b 97ba 80e1 28bd e003 ac3d 5bdf cdbb
00000070: 52ec 233d aefc 94bc 817a 88bd 4a3a 01ba
00000080: 008f b63b 401e 573d 3a2c d03c 6f1e 4c3d
00000090: 4c70 ebbc f480 ab3d 00cb 8f3d 55a7 093e
000000a0: e26d 1e3d 1ab2 2c3d 894f be3c f153 243c
000000b0: 38fc 213d 5423 af3d 8781 edbc a891 55bd
000000c0: b59a ca3d 9c53 0ebd f144 2ebc a885 91bd
000000d0: 905c 583d 54d2 2cbd 6ccf 843d 350c d5bd
000000e0: 4a62 c13c 4c35 59bd c84a d33d 2750 0abe
000000f0: 0a8e 633d a4ea 983d 4125 903d 42ec 4f3d
00000100: ccc3 6f3d a344 473d 04fb a9bd 5819 483d
00000110: 1043 65bc 4274 7d3d f52e d1bb b855 5bbd
00000120: fca1 bc3d a46b 79bd 562d 243d 8ff1 47bd
00000130: 5ddc 1bbd c802 39bd 27b6 6c3d 2ae8 49bd
00000140: 4d77 0dbe a991 1cbd ab2a e53d b98b f4bc
00000150: 094c 043d 753a 5ebd 00e6 45bd 291f 28bd
00000160: 2bb1 1bbd f2fc 943d 74d6 873d f68c 7c3d
00000170: ddea 853d 6d73 103d ce5b 6e3c 4164 0cbd
00000180: 68a2 c03d f314 ea3c 4485 27be 1a3b 95bd
00000190: 8430 e1bd 84ce 02be 80f7 2c3d fdfb bc3d
000001a0: f6c0 b63d df30 02be b927 b5bd 1cbc c3bc
000001b0: 89a6 3d3d 58d1 4fbd 295c cfbc b182 b6bd
000001c0: dcba 91bd ef06 923d 2b04 fd3a 8928 cbbc
000001d0: d9bf 83bd 8b06 a2bd 2e47 963d 01fd 803d
000001e0: b26b 10bd 0da0 253c da0f 803d c6a9 1a3d
000001f0: 2298 1dba 53de 723d b8cb c7bd 7cd6 3dbd
00000200: 10fd 633d 2f67 97bd 1233 cb3d 7ecb 3f3d
00000210: 8335 79bc d766 1abc 65a9 11bd f491 ba3a
00000220: 9712 c2bc 4f2a 83bd 2b39 96bd 1ef9 ddbc
00000230: 721d 4bba 86c2 833d f191 7dbc 524f 9e3d
00000240: d020 bebd 7a86 3bbe 555a a43d 361b f5bc
00000250: dbf9 9ebb ab66 82bd 68d9 a0bd 6e4c 90bd
00000260: 67c5 a3bc c70c 4ebd 44f6 90bc e1e5 9dbd
00000270: c66f d1bc b2fb 1f3d cf47 bdbc 0c0c 513c
00000280: 183e 473d 9a4a a0bd 3230 273d d20f 22bb
00000290: f556 873d ad9d f93d c617 cebd 0bf1 95bc
000002a0: f811 f23c c0c3 e43d 0739 30be b257 973c
000002b0: eb3e 6dbd 33fd fe3c a52c d03d b138 b33c
000002c0: b6d8 083d be0a 1f3d df7e 8ebd 1dce d53c
000002d0: a8c0 1d3d 08a9 14bd f096 ac3c e334 203c
000002e0: 2913 58bd 8a92 4b3c 08d7 5abd 55fa 0dbd
000002f0: 7f3f 0bbd 643f daba ed2e 8abd 35b5 3dbd
00000300: a5f6 42bd 3e51 35bd bf58 57bd 0871 50bd
00000310: 7fd4 b3bb 09ee 1d3d bee6 4ebb 2593 c53c
00000320: eb61 6fbd b47e a7bd 019a 503d aa3b 033e
00000330: 30fd 98bd 074d 013d efb6 713d c035 48bb
00000340: 015e c73d 5d63 15be 9319 83bb a068 ce3c
00000350: 5a3b 103d ccfa 15bd cc36 273d b95a 31bd
00000360: f914 edbc 2c26 90bc 1b99 bb3b 8e9e 823c
00000370: d2f3 b4bd 5bc4 acbd d21c 1ebd c8aa 68bd
00000380: 549f e3bc 12dc 903d 1e63 eebd 26c9 613d
00000390: 7ad0 aebc f372 0c3d 1b6d 0fbe 6b7c 863d
000003a0: 0846 4d3c bdd3 863d 98ee f03c e35c 17bc
000003b0: f058 073d c9fa 83bd 3ed4 32bd 09df ecbd
000003c0: 46bb a63b 11d0 dcbc e157 573d 574a 893b
000003d0: 288c 9b3d faee a1bd fa9e 003c 28b6 5c3d
000003e0: 5703 fabb ac4c 663d 54e3 d0bc 8cef 8dbd
000003f0: 5fd0 833d 1d6b 1f3d d032 01bd bd81 f4bd

fc2.bias f4 [10]
-0.010302237 0.15307422 -0.08499769 -0.057792854 -0.001552812 -0.022584207 -0.024942657 -0.0693744
0.04486456 0.049988683
00000000: b7ca 28bc 7dbf 1c3e 4513 aebd 33b8 6cbd
00000010: ba87 cbba 8402 b9bc 8b54 ccbc 2a14 8ebd
00000020: e7c3 373d efc0 4c3d
