proj5/task4/results/exp6_80.pth (torch, 129487 bytes, 8 tensors)

conv1.weight f4 [10, 1, 5, 5]
00000000: f4fa 543e 884e 883e 1120 ab3d 394b 903e
00000010: 5cdc 2bbc 3c2d f33c d5c5 d83d b586 da3e
00000020: f100 963e a352 35be 8a79 603e d442 8b3e
00000030: d8a9 dd3e 5aa5 173e fd1b 1f3e 443e d33b
00000040: dfe4 8e3e 1ac7 383e 2d3c eb3c c630 323e
00000050: 31ae 3fbe ce3e 91bd 69e3 3abd 62a2 4f3e
00000060: 557c 80bd 7354 cfbd 7b0c 30be e1e9 a9be
00000070: cf39 79be 661f ddbe ee8a 893e 9d30 56be
00000080: 6431 48bd 6071 80be 4458 91be b706 913e
00000090: 1dc9 333e b723 7a3e ebab ba3d 3dc0 703d
000000a0: 5613 053e d508 c43d b7e7 b03e d18b f23e
000000b0: 4180 c63e 0d0a 25be 3b05 1d3e 79c2 213e
000000c0: 2fca 5b3e 13b4 a43c 78b5 4fbe 3e35 b43d
000000d0: c41b 823d 3559 8d3e 50d1 a83d 0892 dd3d
000000e0: 9ac9 a13e 2349 863e ca91 4e3e ecd2 84be
000000f0: c1b5 533e aa68 813e e843 9a3e c1ca 16be
00000100: 52d7 3abe 73e4 503e 5540 dd3e e1f2 a8bc
00000110: 617f 80be a3aa a4be db5f ae3e 198e 6e3e
00000120: 85c1 143e b279 afbe 0ad5 d3be 7037 95be
00000130: d614 82be 2efc ab3c 6267 d63d fa40 843e
00000140: b233 76be 2d0a 38be b376 2c3e 928a 7b3d
00000150: 5c2f 7f3e 690f 31be 0d7b fc3d c27f 31bc
00000160: f618 c23d 12a7 283e 21c0 8cbc fef5 9cbc
00000170: 8f0b 663e 2517 8e3e 0590 96bd 70d5 7ebd
00000180: c754 6d3e b036 ec3c 87bb 043d 9ebe 24be
00000190: 743c 56be ca8a 5dbd c00c cebd 4c61 46be
000001a0: f6e7 6abd 7b6f 41be ef65 82be 1a72 39be
000001b0: a615 75be fa8d 46be c6da 3e3e 5314 0bbd
000001c0: 9285 a8bc 66dd 84be ab5b 4cbe 6802 a4ba
000001d0: 62f7 3a3d cce0 67be 1e37 1cbe b3cb 37be
000001e0: 9140 0a3e 95f9 38bc edce 10bd c7e4 4fbe
000001f0: c30e 53be ed54 14be 00b0 d9bd 1694 52be
00000200: 422a f23d fff5 cebc d094 023e f4d2 fe3b
00000210: a02d 5fbe dbff c43d 41f4 62bd e51a a4bd
00000220: a8da 42be 27c0 56be beea 593d 52ef 92bc
00000230: f366 163e faa6 d9bd 317e 523e 167b d9bd
00000240: 8422 8cbc f3fd f43d 8181 613e 0dbd 8e3e
00000250: 90df 713e 3b6c 2abe 7bd7 a53d 625a 7cbd
00000260: e8c0 a7bc 945c 16be 06fd 573e 25ab 11be
00000270: ea72 093e 9132 d33d fac6 b93d 16a1 d7bd
00000280: f2bd 493e 2680 e73d 20c1 e83d 611f 1ebe
00000290: ed4f b23d 1b1a 14bd df44 8cbd a619 7f3e
000002a0: 765e 743d bd0a 12be 2662 01be 326c c73b
000002b0: d369 3c3e 31e9 f3bc b289 08be 2aed 19bd
000002c0: fcab a6bd b9a2 393e 50aa 733e 3868 55be
000002d0: ab17 a33d e022 453e 7e91 133e 58ad 87bd
000002e0: c882 22bd 8e25 cf3d d06e 273e f1b9 033e
000002f0: e0ad 413c 19fd 18bd 714b 80bd d33d 02bc
00000300: 8bb0 a63e ee86 c53e f0b5 c43d 2e42 debd
00000310: c6e2 4abd d5b2 193d 231a 663e f9ef 853e
00000320: 3e9b 5cbe 49d9 b2bd 9334 2d3e d98f 953d
00000330: 0bc2 16bd dd9c dbbd ffee f1bd bba5 34be
00000340: af36 acbd 2f28 243b db57 483e 07e1 e13d
00000350: fa3a 4cbe 9314 38be 2f6c f3bd 89b3 913e
00000360: 9274 d33d fba1 83bd e2de ed3b 53ad 2cbe
00000370: 7491 06bd 73bd 833e 40ab 58bd e18e 7dbd
00000380: e48c 81be 4ac8 993e 59a2 c43e 7118 bc3e
00000390: 20fe 583e 6638 1b3e ec2b f13c 3e21 c73e
000003a0: b22d b93e 91df ea3e f6bf a73e 8885 a33c
000003b0: 969f b0bd c7d1 72be 1e46 65be 30dc 60be
000003c0: e975 f1bd 12a2 acbe c7e6 9dbe b914 96be
000003d0: aef7 2bbe 37da b3be d5ab aebe 2a03 00be
000003e0: c71d 03be 41de bb3c
0.20798856 0.26622415 0.083557256 0.2818239 -0.0104895495 0.029684655 0.105846085 0.42680898
0.29297593 -0.17707305 0.21921363 0.27199423 0.43293643 0.1480917 0.1553802 0.0064466316
0.2790899 0.18044701 0.028715217 0.17401418 -0.18718792 -0.07092057 -0.04562703 0.20276788
-0.062737145 -0.10123529 -0.17192261 -0.33186248 -0.24338458 -0.43188018 0.26863807 -0.20916982
-0.048875228 -0.25086498 -0.28387654 0.28325436 0.17557187 0.24427687 0.09114822 0.058777083
0.12995657 0.09571997 0.34551784 0.47372296 0.38769725 -0.16117115 0.15334027 0.15796842
0.21463846 0.020105397 -0.20284069 0.08799218 0.06352952 0.27607122 0.08243048 0.10818869
0.31599122 0.26227674 0.20172802 -0.2594217 0.20674802 0.25275165 0.30129933 -0.14725782
-0.182462 0.20399646 0.43213144 -0.020623626 -0.25097182 -0.32161435 0.34057507 0.23296393
0.14526947 -0.34272534 -0.41373473 -0.29143858 -0.25406522 0.020994272 0.104689375 0.25830823
-0.24043158 -0.17972632 0.16842155 0.061411448 0.2492041 -0.17291035 0.123281576 -0.0108336825
0.09477417 0.16469982 -0.017181458 -0.019160267 0.22465347 0.27752033 -0.07351688 -0.06221527
0.23176871 0.02883467 0.032405403 -0.1608834 -0.20921499 -0.054087438 -0.100610256 -0.19373053
-0.05735012 -0.18890183 -0.25468394 -0.18109933 -0.2393404 -0.19390097 0.18638143 -0.03395493
-0.020571504 -0.25950164 -0.19956844 -0.0012512924 0.04564608 -0.22644347 -0.152554 -0.17948799
0.13501193 -0.011289974 -0.03535359 -0.20302115 -0.206111 -0.14485522 -0.106292725 -0.20564303
0.11824466 -0.025263784 0.1275208 0.0077766124 -0.21794748 0.09619113 -0.05540872 -0.08012942
-0.19028723 -0.20971738 0.053202383 -0.017936382 0.1468771 -0.106275514 0.2055595 -0.1061918
-0.017106302 0.119624995 0.22022058 0.2787861 0.23620439 -0.16642849 0.0809774 -0.061609633
-0.020477727 -0.14683753 0.21092615 -0.14225443 0.13422742 0.10312379 0.09071155 -0.105287716
0.19701365 0.11303739 0.11364961 -0.15441658 0.08706651 -0.03615771 -0.068490736 0.24912128
0.059660397 -0.14261909 -0.12635097 0.006085896 0.18399744 -0.02977428 -0.13333777 -0.037579693
-0.08138272 0.1812848 0.23795438 -0.20840538 0.07963499 0.19251585 0.1441097 -0.066248596
-0.039675504 0.10114585 0.16350865 0.128639 0.01182124 -0.037350748 -0.06264389 -0.00794931
0.32556567 0.38579506 0.09605014 -0.108524665 -0.049532674 0.037524063 0.22470908 0.26159647
-0.21543595 -0.0873285 0.16914587 0.073028274 -0.036806148 -0.10723279 -0.11813163 -0.17641346
-0.084088676 0.0025048365 0.19564764 0.11029249 -0.19944373 -0.17976598 -0.11885869 0.28457287
0.103249684 -0.0642738 0.0072592357 -0.16862993 -0.03285356 0.25730476 -0.05289769 -0.061903838
-0.25302804 0.3003562 0.3840511 0.36737397 0.21190691 0.15158233 0.029439889 0.3889255
0.36167675 0.45873693 0.32763642 0.019961134 -0.086241886 -0.23712836 -0.22390029 -0.21958995
-0.11790068 -0.337174 -0.30840132 -0.29312685 -0.16793701 -0.35127422 -0.34115472 -0.12501207
-0.12804328 0.022933127

conv1.bias f4 [10]
00000000: 1d31 0d3e 4912 8e3d 079a b6bd e41d bbbd
00000010: b89b 9f3d a6b5 15be ce51 033e b6e0 bebc
00000020: 0448 083e b185 b73d
0.13788266 0.06937081 -0.08916097 -0.091365606 0.07793373 -0.14620075 0.12824175 -0.02330051
0.13308722 0.089610465

conv2.weight f4 [20, 10, 5, 5]
00000000: 1747 5e3d 42b9 683c cc43 b03d 2273 f63b
00000010: 2ac1 7ebc 5250 153c 4d7c 363c 72a1 9b3b
00000020: b7ce b13c 290e 1dbc c038 95bd 1d16 94bd
00000030: 3df4 ad3c c27e 143e 9fa1 033e 0614 c5bd
00000040: ee0c fcbd 46bf 55bd ec1c 963d 8890 d5bc
00000050: 3f0b 723c 333e 42bd 429e 97bd bca6 dfbd
00000060: 506e 84bd abdf cebb eda7 e3bc 8ab2 793d
00000070: 1de7 f03d 8f08 813c 1736 50bd 80e0 73bd
00000080: 725f acbd fee3 b4bc 47a8 c23c fe6b debd
00000090: dad4 ebbd ad58 9dbc b05c 843d bfd3 2e3d
000000a0: f6c6 0e3d ca62 57bd bdcd c6bd b455 71bd
000000b0: f8fb 6cbd 5652 133e ac8a ac3d 4b1d b73d
000000c0: f432 393a abe6 2abd 397f 923c 35d6 083d
000000d0: 9716 84bd 1cdc 253d 58b8 d73d 29dd 59bd
000000e0: 5ac9 2dbc 09d9 023d fe69 213b 77f5 873d
000000f0: 9c2c cabd e061 9dbd 02cf d5bc 0689 eabc
00000100: b01f 27bd e234 a7bd 4ac7 80bd 77bd 0abe
00000110: 2d9a 04be eb16 8bbd e507 963d ab76 1c3d
00000120: c03a 39bd 7dbe 78bd 097e 2c3d c246 87bd
00000130: a09f 60bc 150c 0ebc 47f5 38bd 3449 003b
00000140: 80f1 b9bc a5f8 1abd e212 63bd 9388 6fbd
00000150: 8234 20bd c865 38bd e767 543d 9725 11bd
00000160: 998a dcbc a3eb 0a3c 617e 173c d435 1d3d
00000170: 1816 a03d 9a79 4f3d 81b1 e7bd c1fd 753c
00000180: 47c0 9d3c 69f8 0dbb 7dd3 673b b34c ec3c
00000190: 4205 cfbc d5fb 28bd 0b91 8dbd 1f13 58bb
000001a0: 703e 393c 6184 ef3c a903 e43c 0790 4dbd
000001b0: 017e abbd 7fe0 bfbc e2bb a33d c94f 913d
000001c0: fba8 e0bc 9a3d 0fbd f016 58bd 1fbe 07bc
000001d0: 5171 423d c815 413d 897c 1e3d 683b 20bd
000001e0: 26ea 413d d418 fabc f1ab 0f3d dfd4 853d
000001f0: e2bf d63c ee45 fa3c 1016 5abd 2401 5dbd
00000200: 0cf9 fb3b 1f97 b5bc 1808 17bd f0b7 27bd
00000210: 8439 a23c c485 ee3c b002 023d 4349 edbc
00000220: 9e45 81bd eeb0 f8bc 1488 40bc 9980 c6bc
00000230: cbeb bcbb 7cf9 353d 1d78 af3b 0331 9dbb
00000240: 92ba 12bd 8996 2fbd 2c37 0ebd 3644 923c
00000250: ae48 0ebc af3d 6d3c 9772 86bc 52cc 09bc
00000260: 0545 883d c42f 873d c2f4 853d 014c 45bd
00000270: af33 08bd a77d 0a3c 71b0 b0bc b731 00bd
00000280: 907d e7bc 432f 5abd 8067 90bd 0c72 663d
00000290: b9ce b03d 1271 3d3b 1b67 edbc 67f7 b7bd
000002a0: f2c4 53bd ee3b a43c 7572 133d 8642 5fbc
000002b0: d2df 1fbd f003 673c 0211 76bd d1c1 6f3d
000002c0: 98fd b9bc f200 ce3c e837 bf3c 6d6b cbbb
000002d0: d208 4dbd cf91 703d 379e df3c fafb ed3d
000002e0: c7b3 823d 1426 aabd bd1e 80bd 9f98 5b3d
000002f0: 03b9 103e 0432 a4bc 6199 12bc 7681 c9bd
00000300: 5396 b1bd 19be 1f3c f036 bebc 48b7 7b3d
00000310: 499b 0a3c 2612 4b3d 02e8 62bc 1525 b4bd
00000320: 6b69 d4bc 62a6 203c 0207 d73c e310 5ebd
00000330: a88d 273c 7109 2fbd fc64 53bd bfd5 c6bc
00000340: cfb2 6c3d e9fe 343d 7bd5 7a3d c879 343d
00000350: cd1c 543d 2cfc 6cbc daac f7bc f70e 3b3d
00000360: 854f 26bb 12d9 26bd b860 3dbd cec5 c13a
00000370: 812f fd3c cf7d 49bc 6411 11bd 7b18 44bb
00000380: ba00 2ebd 30cd 12bd 4d6b 3f3d 52e2 1abc
00000390: 30d8 4e3c f152 ebbb 0886 843c 4137 123d
000003a0: ef39 f03a 443d 42bc e668 e5bb 6016 23bc
000003b0: 0af9 a9bc b396 0ebd 6563 64bd d5d8 b43b
000003c0: 25bb f9bb 0832 d3bc c437 403d c405 fa3d
000003d0: 3328 dc3d 7204 ce3c e72b 33bd b5c4 3dbd
000003e0: be01 9fbc e780 69bc 2592 bbbc a20b babd
000003f0: f887 1d3d cea5 0f3d 8fc2 82bd ae6f 03bd
0.054267015 0.014204325 0.08606681 0.007521049 -0.015548984 0.009113388 0.011138034 0.0047494704
0.021705015 -0.009585896 -0.07286215 -0.0723078 0.021234626 0.1450148 0.12854622 -0.0962296
-0.12307154 -0.052184366 0.07329735 -0.026069894 0.014773189 -0.0474226 -0.07403232 -0.10920474
-0.06466353 -0.0063132844 -0.027790034 0.060961284 0.11762831 0.015751151 -0.050832834 -0.05954027
-0.08416642 -0.022081371 0.023761882 -0.108604416 -0.115152076 -0.019207323 0.06462991 0.042682406
0.034857713 -0.052584447 -0.0970721 -0.058919623 -0.057857484 0.14386877 0.08424887 0.08941134
0.00070647825 -0.04172389 0.01788293 0.03340741 -0.06449621 0.040493116 0.10533208 -0.05318943
-0.010607088 0.031945262 0.0024629827 0.066386156 -0.0987179 -0.07684684 -0.026099686 -0.028629791
-0.040801704 -0.081643835 -0.06288011 -0.13548838 -0.12949438 -0.06791481 0.073257245 0.038199108
-0.045222044 -0.06072854 0.042112384 -0.06605293 -0.013709933 -0.008669873 -0.04515579 0.0019574882
-0.022698164 -0.037834782 -0.05543793 -0.058479857 -0.039112575 -0.04501894 0.0518569 -0.03543624
-0.026921557 0.008479032 0.00924644 0.038381413 0.07816714 0.050653078 -0.11313153 0.015014113
0.019256724 -0.0021662957 0.003537386 0.028845167 -0.025271062 -0.04125579 -0.069124304 -0.0032970381
0.01130639 0.029237928 0.027833777 -0.050186183 -0.08373643 -0.023422478 0.0799482 0.07095296
-0.027424326 -0.034970857 -0.05275625 -0.0082850745 0.04747135 0.047139913 0.038692985 -0.039119154
0.047342442 -0.030529417 0.035076085 0.065347426 0.026214544 0.030550923 -0.053243697 -0.053956166
0.007689601 -0.022166787 -0.036872953 -0.0409469 0.019802816 0.029116519 0.031740844 -0.028965598
-0.063121065 -0.030357804 -0.011751194 -0.024231242 -0.0057654134 0.04442738 0.005354895 -0.0047971024
-0.03582246 -0.04286817 -0.034720585 0.017854791 -0.00868432 0.014480039 -0.016412063 -0.00841053
0.066537894 0.066009074 0.065408245 -0.048168186 -0.033252414 0.008452809 -0.021568509 -0.03129741
-0.028258115 -0.05326773 -0.07050991 0.056261107 0.08633179 0.0028906506 -0.028979829 -0.08982735
-0.051701494 0.020048108 0.035997827 -0.0136267 -0.03903181 0.01410006 -0.060074814 0.058534447
-0.02270393 0.025146935 0.023342088 -0.0062078745 -0.05005724 0.058732804 0.027297122 0.11620326
0.06381946 -0.08308044 -0.06255863 0.053612348 0.14133076 -0.02004338 -0.008947701 -0.09839146
-0.0867125 0.009749913 -0.023219556 0.061454087 0.008459874 0.049577855 -0.01384926 -0.08796135
-0.025929173 0.009805294 0.026248459 -0.054215323 0.010226645 -0.042733613 -0.051609978 -0.024271844
0.057787713 0.044188414 0.061238747 0.044061452 0.05178528 -0.014464419 -0.03023379 0.04566857
-0.0025376987 -0.040734358 -0.046234816 0.0014783682 0.03090644 -0.0122980615 -0.035416976 -0.0029921818
-0.04248116 -0.035840213 0.04673319 -0.009453373 0.012624785 -0.0071815182 0.016177192 0.035697225
0.0018327812 -0.011855427 -0.0070010303 -0.009954065 -0.020748634 -0.034811687 -0.055758853 0.0055190125
-0.0076211863 -0.025780693 0.046928182 0.12208131 0.10749855 0.025148604 -0.04374304 -0.046330173
-0.01941001 -0.014251924 -0.022896836 -0.0908425 0.038459748 0.035070233 -0.06384765 -0.032088928

conv2.bias f4 [20]
00000000: fa75 733d dc63 6dbd 1341 e3bc 3fcd 16bd
00000010: 4e73 82bd 8399 803c 8d66 0e3d 5aba 2fbd
00000020: d230 253c 890c 50bd 947a 3e3c 37d9 663c
00000030: 7e7a c3bc 00ac 54bc 9121 863d 4131 33bd
00000040: 1e40 e2bc 071d 74bd 8dc9 193d 11a0 06bc
0.059438683 -0.05795656 -0.02774099 -0.03681683 -0.06369649 0.0156982 0.03476577 -0.042902328
0.01008244 -0.050793204 0.011625905 0.014089874 -0.02386212 -0.012980461 0.06549371 -0.043748144
-0.027618464 -0.059597995 0.03754573 -0.008216874

fc1.weight f4 [80, 320]
00000000: bb53 d0bb a403 873d e80f 983c dd12 903c
00000010: c8b5 4e3c e70a 3fbc 3985 73bc 892a 073b
00000020: 69ad 87bd 967f 023d 2ea2 cabd 2f2f 36bc
00000030: 7e6b e33b 2617 1c3d 0c5f 12bc d251 283d
00000040: f7ff 4cbd c736 e6bc b77e 8bbd 7996 743c
00000050: bc32 063b 8b5f f83b 983c 123d b339 363c
00000060: 2464 b238 59c5 6b3c f7a0 07bd 32c0 293c
00000070: 79ec 68bd 3072 9439 2152 893d f680 fc3c
00000080: 94d9 0a3d 98c7 3b3d 78d1 b73d f1b7 16bb
00000090: 6ee1 3abd d893 09bd b7e5 12bd 2111 3f3c
000000a0: 6347 c93d e9bf 40bb c18b 2fbd 4c37 803c
000000b0: 1ae5 8e3c 702a 2d3d 87d6 f8bc 9ed4 e9bd
000000c0: 9fd0 81bc b158 42bd 3664 4b3d b0d5 c83c
000000d0: be31 353d ae90 5ebd 6759 2b3d 778b 3d3c
000000e0: b6ae 35bd b53c 33bd 2163 193c b908 7d3d
000000f0: c92a 82bd 75eb 21bd 3e57 79bd 6c93 da3c
00000100: 4133 9cbc 3578 10bb d874 473b 1a20 a3bd
00000110: 6fc0 933d f04f b03d 4e25 84bc c00b a0bd
00000120: a7f6 83bd 4853 ad3c afd6 b93c 7d97 bd3b
00000130: 5044 cdbc 96bb 573d a240 e53c 3878 df3c
00000140: 7f78 1f3b c2df 05bd 919b 18bd ae63 43bd
00000150: f439 8f3d 9a98 233d 1291 f3bd e75e 78bd
00000160: 1033 a3bd 2262 53bc 7134 2d3c 3e12 bf3c
00000170: 27f4 e53c 28be 913d 6201 9e3d 3418 b3bc
00000180: 45da 89bc 7c25 b33c 24e2 b73c 5b6a 27bc
00000190: 899e 8b3d 8a43 a93d 4a73 99bd 10f9 3abd
000001a0: 4a39 0f3d 7091 353b 25e2 79bc 2ec1 aebc
000001b0: 1d32 953c f513 383b 8ead 4e3c 908f 273d
000001c0: 88af 2b3d cec0 4a3c 55dc bd3d fdcd 5dbc
000001d0: b7a9 79bd eec0 0e3a 5007 c73d b8d2 0cbc
000001e0: 2503 e2bc b978 ca3c 44fd f53c 67fc 893c
000001f0: ed4d e63c 4dec 6dbc a063 76bd 734c db3c
00000200: ac5d 84bc 42bc d83d 892d 753d 22e8 6bbc
00000210: 6049 f03c 4adf e0ba 780f 673b 9941 06bd
00000220: 9092 983c 0290 b9bc 55ce fcbc 3032 0fbd
00000230: 19e8 aa3d 44db a53c cf87 02bd f209 80bd
00000240: dfa0 61bd 5f73 983c 76d6 6b3d 15fb 803c
00000250: 5b1c b3bc 5330 48bd b376 e83c 9138 573d
00000260: 2d69 743c 8a0d edbb 5cb4 8b3c b1a3 2fbd
00000270: 5ccb 4c3c 83c8 213d 070e 86bd d82c 46bc
00000280: 304d bdbc 3b2d ffbc 767f 2dbd cd3c cfbc
00000290: e4dd af3b 658e d9bc 237d 633c 9349 0c3a
000002a0: d246 453d ed5f cf3b 57ed e6bc 6d9e 04bb
000002b0: 4dcc 443d eb60 00bd b84b ccbc 075a c63d
000002c0: 7dc6 d9bc b12c b43d 6ff0 b63d eb58 3abd
000002d0: 5ae9 2abd c8fa 45bd 7db6 ebbc de06 f63c
000002e0: e77e 243d 1045 b43c b1ab 8a3d 77ad a0bc
000002f0: b4b8 333c 289c 8e3c 5f5b bdbd 8902 23bd
00000300: 6286 2a3c 81d8 f6bb 3c5a 99bc c46f 1abd
00000310: 09f6 fcbc e841 11bc 0bbc fcbc eefb 403d
00000320: 44da 093c 98a7 9dbc f685 643c 7603 443d
00000330: e283 aabd f86c d2bc c7e5 88bd b614 b8bb
00000340: 7589 623c d1fd ba3d 9c03 c8bc e50a 413d
00000350: 4125 7dbd 6ef3 bf3c de53 c53b b26b e8bc
00000360: c094 d33c 7f50 353d 8953 df3a 8682 a3bd
00000370: 4ede b3bc f26f b43c 4845 54bc e8cc 353a
00000380: 088f bf3a cad1 1d3d 9e6f 333d a165 81bc
00000390: 764a 5d3d 116b 02bd 0fd1 13bb f0ef 10bc
000003a0: 5473 39bc a044 153d cfb5 533d 94ed f0bc
000003b0: fe04 13bd 740d 9bbc 6857 c33b 60e5 813c
000003c0: b2de 853c c69e d6bc 8143 01bd f4e7 cf3c
000003d0: 82cf 71b8 002d a03a 7656 1fbd 2c73 cabb
000003e0: 16ae bdbc e448 13bc 2536 94bb 9f6f 4f3b
000003f0: a314 d8bc b049 e3bc b432 cf3c 3fa8 aa3d
-0.0063576377 0.06592491 0.018562272 0.01758712 0.012616582 -0.011660314 -0.014863306 0.0020624718
-0.06624872 0.031859957 -0.098942146 -0.011119648 0.0069403043 0.038108014 -0.008933794 0.041093655
-0.050048795 -0.028102292 -0.06811278 0.014928454 0.0020477017 0.007579749 0.035702318 0.011122155
8.506354e-05 0.014390313 -0.033112492 0.010360764 -0.056866143 0.00028313836 0.06705118 0.030823212
0.033898905 0.045844644 0.089755 -0.0022997821 -0.045625143 -0.03358826 -0.035863604 0.011661799
0.09828069 -0.0029411262 -0.04285789 0.015651368 0.017443229 0.0422768 -0.030375732 -0.11417507
-0.015846549 -0.047447864 0.049656115 0.024515957 0.04423689 -0.054337196 0.041833308 0.011568896
-0.04435607 -0.043759067 0.009362013 0.061775897 -0.06355817 -0.03953119 -0.060874216 0.026681624
-0.019067409 -0.0022044305 0.0030434635 -0.07965107 0.07214438 0.08608997 -0.01613107 -0.07814741
-0.064435296 0.021157876 0.022685377 0.005785881 -0.025056988 0.05266913 0.02798492 0.027279004
0.0024333296 -0.032684095 -0.037257735 -0.047702484 0.069934756 0.039940454 -0.11892904 -0.06063738
-0.07968724 -0.012901815 0.010571585 0.023324128 0.028070522 0.071163476 0.077151075 -0.021862127
-0.016827712 0.02186846 0.0224467 -0.010218228 0.068173476 0.08264835 -0.07492693 -0.04564768
0.034966744 0.0027705096 -0.015251671 -0.02133235 0.018212372 0.0028088067 0.012614621 0.040908396
0.041915447 0.01237507 0.092705406 -0.013537881 -0.06095287 0.0005445619 0.097181916 -0.008595161
-0.02758939 0.024715768 0.030027993 0.016843988 0.02811333 -0.0145216705 -0.060153604 0.026769852
-0.016157947 0.10582782 0.05985788 -0.0143986065 0.029331863 -0.0017156389 0.0035257023 -0.032777403
0.018624574 -0.022651676 -0.030860106 -0.034959972 0.0834505 0.020246156 -0.0318678 -0.06251897
-0.05508506 0.0186097 0.057577573 0.015744725 -0.021864107 -0.04887421 0.028376913 0.05254418
0.014917654 -0.00723428 0.017053775 -0.042880718 0.0124996565 0.039497864 -0.06545644 -0.0120956525
-0.023108095 -0.031149497 -0.042357884 -0.025297547 0.0053670276 -0.026557157 0.013884815 0.00053515396
0.048163243 0.006328574 -0.028189344 -0.002023603 0.0480464 -0.03134243 -0.02493845 0.0968514
-0.026583904 0.08797587 0.08932578 -0.045494955 -0.041726448 -0.048334867 -0.02877354 0.030032571
0.040160086 0.022005588 0.06771029 -0.019613964 0.01096933 0.017408445 -0.09245943 -0.03979734
0.010408016 -0.0075331335 -0.018719785 -0.037704244 -0.030879037 -0.008865811 -0.030851385 0.04711526
0.008413855 -0.019244954 0.013947954 0.047854863 -0.08325936 -0.025686726 -0.066844516 -0.0056177033
0.013826718 0.09130443 -0.024415784 0.04712953 -0.061803106 0.023431506 0.0060219606 -0.028371666
0.025827765 0.04426622 0.0017038445 -0.0798388 -0.02195659 0.022026036 -0.012955971 0.00069351355
0.001461477 0.03853015 0.04380762 -0.01579553 0.05402609 -0.031840388 -0.0022555029 -0.008846268
-0.011319 0.0364424 0.051687058 -0.029410161 -0.035893433 -0.018927313 0.0059613474 0.015856445
0.016341541 -0.026198756 -0.031558517 0.025379159 -5.7652134e-05 0.0012220442 -0.038900815 -0.0061782803
-0.0231543 -0.008989546 -0.004523056 0.0031652225 -0.026377028 -0.027745098 0.025292732 0.08332872

fc1.bias f4 [80]
00000000: 84da 823d a548 77bc fae5 ffbb 47f6 f33b
00000010: 533c cd3c 67e1 a33c d35a 1e3d 0b03 4ebc
00000020: 50dc 03bd c70d 403d 687b e7bc 508d 37bc
00000030: 77a6 703c 6e70 ee3c 51fb 3d3d b9f0 2cbd
00000040: 6ddb ebbc ef12 713d 773d 203d 7c12 4b3c
00000050: 1baa 783d 5ade 52bc 31d5 b03d 687b 5bbc
00000060: 1766 2dbd ff51 993c 1f5c c8ba b858 763c
00000070: 2c54 353d 366e 3f3d 5470 cfbb ccf8 f5bc
00000080: 2ff0 2a3d cb32 c73c 9967 5d3b 40bb f1bb
00000090: 2695 ad3d 0d22 e63c 16ca 8dbb 6f83 593d
000000a0: 8102 53bb 8a28 663d 4ef7 8ebc cb66 ee3c
000000b0: a1f5 2d3c f079 fb3c 435f 87bc f456 d1bc
000000c0: 623f 9ebc 36d1 1fbd 981f 493c 488b b73c
000000d0: 345b a53d 69a6 183d 56b4 95bc 7273 a93b
000000e0: b9b9 bc3c 2143 4b3d 5283 0ebd 927e 37bc
000000f0: 0297 31bd 9fd8 87bb 86ee 233d 4061 473a
00000100: 3dc6 15bd 2d14 0abd 616a 0a3d 8af0 0a3d
00000110: 1c4e bbbc 486b 16bd 0733 42bd 8def 4b3d
00000120: fb24 73bc fc09 5b3d d842 413d 1ab5 d4bc
00000130: 75d7 49bd 4007 07bd bd76 613d d3bf ca3a
0.06389335 -0.015093003 -0.0078093978 0.00744513 0.025053179 0.020004941 0.038660835 -0.012573968
-0.03219253 0.04688814 -0.028257087 -0.011203125 0.014688126 0.029106345 0.046382252 -0.04222176
-0.028791154 0.058855947 0.039121117 0.012394544 0.0607091 -0.012870396 0.08634413 -0.013396122
-0.04233369 0.018715857 -0.0015286243 0.015035801 0.044269726 0.046735965 -0.006330529 -0.030025862
0.041732963 0.024316212 0.0033783673 -0.0073770583 0.084757134 0.028092409 -0.004327069 0.05310386
-0.0032197537 0.056191005 -0.017451908 0.02910175 0.0106176445 0.030697793 -0.016524917 -0.025554158
-0.019317333 -0.03901788 0.012275599 0.022405282 0.08074036 0.037268076 -0.018274467 0.005171233
0.023037778 0.049624566 -0.034793206 -0.01119961 -0.043356903 -0.0041456963 0.040022396 0.0007605739
-0.036566008 -0.033710647 0.033792857 0.033920802 -0.022864394 -0.036723405 -0.047411945 0.049789
-0.01484036 0.05347632 0.047182888 -0.025965262 -0.04927774 -0.0329659 0.05504488 0.0015468545

fc2.weight f4 [10, 80]
00000000: d019 1dbe 3b7f 6e3d 33aa 01be f4bc 0dbe
00000010: 0e9a 2abe 8fc0 05be 0446 993c 3618 123e
00000020: e7b7 123e 284f 1c3e 584e 7fbd bb46 35be
00000030: 0932 aabc bc1c 6b3d 2060 613d 4412 493e
00000040: 86e3 573e 2f6e cd3a e812 8f3d 6dd4 05be
00000050: c4fd 9c3d 8466 953d e394 95bd 582f 49bd
00000060: 7c5f bbbd 2ad6 9cbc ef3a 00be 1e41 433e
00000070: 9bdb 873d 181a 623d f00e ae3b 4f64 03bc
00000080: 872a 8cbd 3abc f3bd 3ca1 643c d56c 383e
00000090: e5c6 353d e7d4 46be 5eea abbd 0313 053e
000000a0: e94b 143e 5624 70be 4a59 dcbd 967d 353e
000000b0: 7321 25be 99ee 243e 8d09 1ebc 1412 213e
000000c0: 91c1 863c 641c b7bd 4efd 1fbe 8d93 f23d
000000d0: ce20 4dbe ac5e 0bbe ef94 28be 2b2a 663e
000000e0: 6097 653c d0a0 09bd 7e39 d93d 1a88 043e
000000f0: d10f fb3d 2a85 0e3e cd19 42be f02a e5bd
00000100: a965 2e3c b1b5 173e c998 0fbe 9ec6 dabc
00000110: 5a17 13be 62c8 3f3e 9f2d 12be 8b02 04be
00000120: 0d1f 5d3b 2d58 5c3e c4f6 863d 5760 a03d
00000130: b4fd 153d ac70 27be 5c7b a63d 9ed1 3cbc
00000140: eb73 2d3e 8d9c 3b3e 802e 73bc 2cd8 f13c
00000150: b659 3cbe 1dfc ea3d 1463 3cbe fd94 79bd
00000160: 9cda ef3d 38e9 c6bd b41f bebd 8b21 a5bc
00000170: a01b 1dbd a8ec 9abd 4727 fa3d 54ad ca3d
00000180: 1f1d 0dbe acd7 44be 9abb 6a3d 74dc 85bc
00000190: 5da1 15be a3b8 b8bd c877 4a3e 3bf8 6dbd
000001a0: 6dbf f6bd d2d0 a63d f2d1 173e fdbf 8c3d
000001b0: 8fe2 eb3d 2dad 66bd bdd2 313e a1b6 0e3e
000001c0: e75f 0e3e b3e0 083e 0aed 24be a9ec 70bd
000001d0: 8ffc 993e 8db8 593e 44ef 153e 7335 c9bd
000001e0: b066 f9bd f310 c83d 2299 043e 8641 493e
000001f0: 4a6d 9a3d ad54 acbd ab03 c5bd 7531 f3bd
00000200: 430e 243e 6f43 46be 8793 1d3e 306f 7f3d
00000210: 8b22 f23d b6a5 923b e6e7 07bd ff2c 3abe
00000220: 34ed 063e dad0 f9bd dc21 5dbe b631 ebbd
00000230: 3c2d a6bd 0fc1 0c3e 6542 933d 808f d1bd
00000240: 4237 4fbe e8f1 113d b086 3bbe 7aaa 9bbd
00000250: 9e5c 0cbe 8d33 f2bd 43e3 03be dac8 1fbd
00000260: 659f 40be 38f6 67bd 64d0 0abd 1b8b 28be
00000270: da6d 923d 5c77 723d e236 f2bd 2582 6b3e
00000280: b1d2 f03d 3019 c8bd 2908 6c3b 4a0f f43d
00000290: 5ff7 c6bd a8a0 153e 10f2 51bd 8622 bc3d
000002a0: 4527 b5bd 74bf fdbd 4fb8 23bd 9991 11be
000002b0: 8503 373e 9046 09be ccc0 c33d 00eb 98bc
000002c0: e654 5e3c e725 0f3e e494 c4bd cf6d 2bbe
000002d0: 25da 983d 8ac0 493d 772c 47be 3c5a 1fbe
000002e0: 5d8f 6b3d c598 a03d d323 c0bd f8b9 393e
000002f0: c6d9 0b3e ed7e f83d c31c bfbd 74a5 0f3d
00000300: 686d d13d 9e50 123e 508e febd 2a0c 163e
00000310: 9368 7cbc 5e50 3a3e 8ff7 d8bd 74ec a6ba
00000320: 56c7 95bd 8ac0 44be b53e 163e b14a 3cbe
00000330: 6e6a 223e 5db1 e03d 1a62 16be bd54 29be
00000340: 4589 103e 8588 0a3e 2b6f 343e b4a7 913d
00000350: a587 1fbe 48a4 eb3d c094 d63d 190e 35bd
00000360: 1b05 1abd 9f3e 07bd 8ca1 3bbe 7436 043e
00000370: 1976 99bd b4d3 2c3e 4d17 70be 31ee 88bd
00000380: 3ac5 50bd 8aca 223e 03d5 f6bd f342 34bc
00000390: 323e 7bbd fb15 1c3e 993f c03d 82aa 7b3d
000003a0: 076f a4ba 9254 fb3d ec46 103e bc4e 8e3d
000003b0: cea5 59bd 6b85 a5bd bfb3 103d 5fd7 e1ba
000003c0: 5b75 d6bd 61b7 113e f58d bb3c 0624 f63d
000003d0: ff75 b6bd 6147 a73d 920f 0bbe e9a1 8abd
000003e0: 270b 043d 17bd 3abe 6624 433e 1eb9 003e
000003f0: bf61 0b3e c3a4 ac3d 1030 5dbd 7168 aebd
-0.15341878 0.058226805 -0.12662582 -0.13841611 -0.1666033 -0.13061737 0.018710144 0.14267048
0.14327966 0.1526457 -0.062330574 -0.17702763 -0.020775812 0.05740045 0.055023313 0.19635874
0.21082887 0.0015673096 0.06986028 -0.13069315 0.076655895 0.07294944 -0.073037885 -0.049117416
-0.091490716 -0.01914509 -0.12522481 0.19067809 0.06633683 0.055200666 0.0053118393 -0.008019521
-0.06844049 -0.11901136 0.013954457 0.18010266 0.044379134 -0.19417153 -0.08394311 0.12995534
0.14482082 -0.23451361 -0.10759218 0.17723688 -0.16126041 0.16106643 -0.009645832 0.15729553
0.016449722 -0.08940962 -0.15623972 0.11844549 -0.20032045 -0.13610333 -0.16463064 0.22477023
0.014013141 -0.03360063 0.10606669 0.12942544 0.12258876 0.13917986 -0.18955155 -0.1118983
0.010644355 0.14815404 -0.14023127 -0.026706036 -0.14364377 0.18728784 -0.14275216 -0.12891595
0.0033740432 0.21518011 0.065900356 0.07830875 0.036618903 -0.16351575 0.08128998 -0.011524586
0.1693875 0.18321438 -0.014842629 0.029522024 -0.18393597 0.11473868 -0.1839717 -0.060933102
0.11711618 -0.09712452 -0.09283391 -0.020157596 -0.038356423 -0.0756467 0.12214523 0.09896341
-0.1378064 -0.19222897 0.057307817 -0.016340472 -0.14612336 -0.09019592 0.19772255 -0.05809806
-0.1204823 0.08145298 0.14826182 0.06872556 0.11517822 -0.056317497 0.17365547 0.13936855
0.13903771 0.13366966 -0.16106048 -0.058819447 0.300755 0.21261807 0.14642054 -0.09824648
-0.12177789 0.09768858 0.1294904 0.19653901 0.075403765 -0.08414588 -0.0961984 -0.118746676
0.16021065 -0.19361661 0.15388308 0.062361896 0.11822995 0.0044753207 -0.03318014 -0.18181227
0.13176423 -0.121980384 -0.21594948 -0.11484091 -0.081140965 0.13745521 0.07190398 -0.102324486
-0.20235923 0.03563109 -0.18313098 -0.07600875 -0.13707206 -0.11826239 -0.12879662 -0.039009906
-0.18810804 -0.056631297 -0.033890143 -0.16459315 0.07149859 0.05919586 -0.11826874 0.22998865
0.11758936 -0.09770429 0.0036015606 0.11916979 -0.09715151 0.14612067 -0.05125624 0.09186272
-0.08845381 -0.123900324 -0.039970692 -0.14215697 0.17872436 -0.13405824 0.095582575 -0.018666744
0.013570046 0.13979302 -0.09598711 -0.16741107 0.07463483 0.049255885 -0.19450556 -0.15561765
0.05750977 0.078416385 -0.09381833 0.18137348 0.13657293 0.12133584 -0.09331658 0.035069898
0.10225946 0.14288566 -0.12429488 0.14653078 -0.015405792 0.1819472 -0.10594093 -0.0012735263
-0.07313411 -0.19214073 0.14672358 -0.18387868 0.15860912 0.10971329 -0.1468586 -0.16536231
0.14114864 0.1352864 0.17620532 0.07112065 -0.15579088 0.115059435 0.104775906 -0.044202898
-0.037602525 -0.033018705 -0.18323344 0.12911397 -0.074932285 0.16877633 -0.23446389 -0.066860564
-0.05096934 0.15897575 -0.120523475 -0.01100229 -0.06133861 0.1524276 0.0938713 0.061441906
-0.0012545296 0.1227199 0.14089555 0.06948611 -0.05313664 -0.08082088 0.03532767 -0.0017230323
-0.104716025 0.1423011 0.022894839 0.1201859 -0.08909225 0.08167911 -0.13580158 -0.06769163
0.0322372 -0.18236195 0.19056854 0.12570617 0.13611506 0.08429863 -0.054000914 -0.08516014

fc2.bias f4 [10]
00000000: 4dd4 39bd c044 0a3e 2871 10bd 4869 9bbc
00000010: 6185 9cbd b7d1 123d 11f2 3ebd 69d3 29be
00000020: 78f3 913b c3fd 8abd
-0.04536848 0.13502789 -0.035264164 -0.0189711 -0.076426275 0.03584453 -0.04661757 -0.16584553
0.0044540726 -0.067866825
