proj5/task4/results/exp6_30.pth (torch, 63311 bytes, 8 tensors)

conv1.weight f4 [10, 1, 5, 5]
0.27587837 0.2961466 -0.014232334 0.14590509 -0.061683424 0.051001925 0.110431895 0.3544661
0.21429572 -0.18409754 0.17182669 0.25972927 0.43856624 0.17016582 0.109168775 -0.04170868
0.23020406 0.21704236 0.10266994 0.1803907 -0.22459678 -0.1289141 -0.012714217 0.29178098
-0.0085031055 -0.13960248 -0.06973173 -0.06637096 0.08749661 -0.19408096 0.09042553 -0.20117286
0.20441465 0.07971545 -0.10962433 0.024171328 0.04553033 0.31743997 0.17363307 -0.071718305
0.006485985 0.054329254 0.37146118 0.4264204 0.11682637 -0.079566255 0.23646349 0.21193932
0.2537927 -0.123285756 -0.20340496 0.025761506 0.03531692 0.3169496 0.15226983 0.0691032
0.24751158 0.24762502 0.25116885 -0.23895706 0.17872986 0.19937555 0.32899642 -0.06817855
-0.16667388 0.20180553 0.43328527 -0.018559098 -0.19791074 -0.25015002 0.3144764 0.16737351
0.10181105 -0.3288035 -0.3523141 -0.3813764 -0.31420916 0.04056322 0.20005006 0.34232548
-0.2896123 -0.22725807 0.17262784 0.12282213 0.2888303 -0.23096003 0.06670788 -0.008859098
0.1352641 0.18645118 -0.095735565 -0.07203612 0.20115581 0.2878189 -0.05728823 -0.16928163
0.16762929 0.021397216 0.07136254 -0.1445363 -0.20860833 -0.025423668 -0.07473639 -0.17856802
-0.02076204 -0.20650394 -0.22766306 -0.15632986 -0.21671055 -0.15887783 0.11830098 -0.03967969
-0.0026480719 -0.2361081 -0.17600471 -0.09449845 -0.0037312729 -0.22006458 -0.13273987 -0.17361413
0.03766821 -0.05766611 -0.020584652 -0.17943445 -0.21081986 -0.08587101 -0.060749132 -0.19839464
0.10007625 -0.028660636 0.11121891 -0.018672349 -0.25290233 0.07997215 -0.031199504 -0.16309185
-0.25134936 -0.22122264 0.12385659 0.039108176 0.02630599 -0.19268173 0.24686475 0.0129870055
0.05398392 0.103488944 0.21061563 0.31474617 0.26547328 -0.13838549 0.06502222 -0.08407508
-0.051108565 -0.18996617 0.15362142 -0.1043994 0.17059146 0.09372488 0.029390112 -0.14527011
0.20249936 0.12838206 0.1052978 -0.1705247 0.065765485 -0.10616652 -0.100677386 0.23911798
0.068635754 -0.12879606 -0.188508 -0.056165848 0.16493413 -0.0019622215 -0.11793362 -0.10596383
-0.14021438 0.018832149 0.036799114 -0.31536537 0.05014396 0.12193761 -0.057069816 -0.29120216
-0.15748419 0.12018361 0.1541104 -0.02453758 -0.19454028 -0.1285341 0.022496615 0.098866
0.34767622 0.35113975 0.08560474 -0.0052190414 0.057150036 0.10148169 0.25141016 0.27070653
-0.20955198 -0.13704437 0.13739417 0.12580226 0.06463316 -0.13487588 -0.25604525 -0.28155315
-0.09234376 0.08501663 0.21075846 0.037777975 -0.25779918 -0.19890077 -0.10575635 0.30122858
0.09896092 -0.04759741 0.03852421 -0.121677056 -0.08951204 0.250217 0.012606855 0.02143501
-0.1634807 0.3069923 0.37465602 0.38054308 0.2803568 0.26689285 0.055928305 0.38938093
0.3731902 0.48528624 0.44942987 0.0018004343 -0.10612266 -0.2531994 -0.23859859 -0.19898717
-0.15580766 -0.32757062 -0.2948919 -0.31949994 -0.23233294 -0.38150996 -0.35585183 -0.1736492
-0.20078817 -0.05812423
00000000: ee3f 8d3e 87a0 973e bc2e 69bc 2568 153e
00000010: c2a7 7cbd 65e7 503d 1e2a e23d 957c b53e
00000020: 5670 5b3e 1184 3cbe 56f3 2f3e 3cfb 843e
00000030: c18b e03e f33f 2e3e e193 df3d b9d6 2abd
00000040: 9dba 6b3e 5a40 5e3e 9e44 d23d 57b8 383e
00000050: b3fc 65be 0f02 04be 4b4f 50bc 5164 953e
00000060: 9c50 0bbc f4f3 0ebe 82cf 8ebd 7fed 87bd
00000070: 6c31 b33d 29bd 46be 0531 b93d 4200 4ebe
00000080: 1352 513e db41 a33d b982 e0bd f302 c63c
00000090: 037e 3a3d 7e87 a23e decc 313e 0ce1 92bd
000000a0: 6388 d43b 5a88 5e3d 2930 be3e c653 da3e
000000b0: aa42 ef3d a2f3 a2bd 7c23 723e 9f06 593e
000000c0: 1ef1 813e 3e7d fcbd 6449 50be cb09 d33c
000000d0: 7aa8 103d 3847 a23e 9fec 1b3e fb85 8d3d
000000e0: ad73 7d3e 6a91 7d3e 3499 803e 29b1 74be
000000f0: f604 373e 1b29 4c3e 3872 a83e 32a1 8bbd
00000100: 8fac 2abe 1ca6 4e3e 91d7 dd3e 4009 98bc
00000110: 1da9 4abe aa13 80be 0d03 a13e f663 2b3e
00000120: 5082 d03d ef58 a8be 8462 b4be c443 c3be
00000130: 06e0 a0be 9e25 263d ecd9 4c3e 4945 af3e
00000140: 1048 94be 57b6 68be 5ac5 303e 2b8a fb3d
00000150: 91e1 933e c980 6cbe 249e 883d c025 11bc
00000160: ac82 0a3e 0fed 3e3e 0211 c4bd ac87 93bd
00000170: cafb 4d3e 005d 933e 10a7 6abd 2a58 2dbe
00000180: 03a7 2b3e 3749 af3c 8626 923d 5301 14be
00000190: 6c9d 55be 4c45 d0bc 640f 99bd 89da 36be
000001a0: 2715 aabc c575 53be 8120 69be ef14 20be
000001b0: 5fe9 5dbe dfb0 22be c947 f23d 2c87 22bd
000001c0: 468b 2dbb 52c6 71be 943a 34be 6788 c1bd
000001d0: 5f88 74bb 9c58 61be f6ec 07be e7c7 31be
000001e0: fb49 1a3d 4d33 6cbd 25a1 a8bc aabd 37be
000001f0: 29e1 57be 24dd afbd 15d4 78bd f727 4bbe
00000200: c7f4 cc3d b6c9 eabc bdc6 e33d c1f6 98bc
00000210: 6a7c 81be 70c8 a33d 1a96 ffbc 8d01 27be
00000220: ddb0 80be 3088 62be 86a8 fd3d e52f 203d
00000230: a97f d73c 5c4e 45be 1dca 7c3e 73c7 543c
00000240: 3e1e 5d3d 03f2 d33d a0ab 573e 6926 a13e
00000250: 1dec 873e edb4 0dbe 5f2a 853d 8e2f acbd
00000260: 3757 51bd 7e86 42be ef4e 1d3e 5acf d5bd
00000270: 87af 2e3e d4f2 bf3d 88c3 f03c b0c1 14be
00000280: fe5b 4f3e 9676 033e 5fa6 d73d 079e 2ebe
00000290: 0eb0 863d d56d d9bd f22f cebd 58db 743e
000002a0: e790 8c3d 1de3 03be 3e08 41be 290e 66bd
000002b0: 7ee4 283e 9d98 00bb 2f87 f1bd 9103 d9bd
000002c0: 5c94 0fbe e145 9a3c abba 163d 9277 a1be
000002d0: c163 4d3d 6dba f93d 0ac2 69bd 7318 95be
000002e0: 8943 21be d322 f63d 1ecf 1d3e 0903 c9bc
000002f0: 9135 47be 719e 03be d24a b83c 427a ca3d
00000300: 9e02 b23e 97c8 b33e 8a51 af3d 7e04 abbb
00000310: 2816 6a3d a2d5 cf3d d5b8 803e 0c9a 8a3e
00000320: cb94 56be 5c55 0cbe 0fb1 0c3e 4fd2 003e
00000330: 645e 843d e71c 0abe 5d18 83be bc27 90be
00000340: ba1e bdbd 331d ae3d 11d1 573e 14bd 1a3d
00000350: 41fe 83be a5ac 4bbe c996 d8bd a23a 9a3e
00000360: 06ac ca3d 80f5 42bd 90cb 1d3d d231 f9bd
00000370: 1752 b7bd 711c 803e fb8c 4e3c 7998 af3c
00000380: 7c67 27be 182e 9d3e ead2 bf3e 8bd6 c23e
00000390: ed8a 8f3e 2ea6 883e 1415 653d f05c c73e
000003a0: c912 bf3e 7077 f83e ac1b e63e 8dfc eb3a
000003b0: d656 d9bd 5aa3 81be 3053 74be 4bc3 4bbe
000003c0: 0b8c 1fbe 56b7 a7be 12fc 96be 7f95 a3be
000003d0: b0e8 6dbe 4655 c3be 3632 b6be 19d1 31be
000003e0: 6a9b 4dbe ac13 6ebd

conv1.bias f4 [10]
0.128229 -0.016012471 -0.08024151 -0.07367571 0.03547654 -0.13784921 0.09629737 -0.026261397
0.12588549 0.069344684
00000000: 774e 033e 962c 83bc a955 a4bd 4ae3 96bd
00000010: d94f 113d 5828 0dbe 8e37 c53d 2422 d7bc
00000020: 20e8 003e 9604 8e3d

conv2.weight f4 [20, 10, 5, 5]
0.08169477 -0.06776334 -0.014666232 -0.05692018 -0.08978599 0.028007373 -0.057263914 -0.073333606
-0.06895526 -0.11919586 0.039797436 -0.010001718 0.0972614 0.08575946 0.08417733 -0.0649682
-0.13568658 -0.0428894 0.0043938546 -0.122719795 0.01580809 -0.1413242 -0.15883553 -0.1446008
-0.11956654 -0.077634074 -0.10972106 -0.0062038414 0.050559543 -0.07135577 -0.039349567 0.008084415
-0.05935297 -0.03624665 0.026425557 -0.06365399 -0.050172377 0.0068198857 0.012079929 -0.022277402
-0.08575431 -0.14939015 -0.14089154 -0.14724986 -0.14689782 0.15101556 0.018370135 -0.019480722
-0.02753986 0.021882256 0.05022801 0.01490693 -0.023568897 0.07388964 0.08467541 -0.013658323
0.031382397 0.08414485 0.0059374957 -0.008941734 -0.06931915 -0.06019287 -0.012055363 -0.0053114425
-0.033005524 -0.07442363 -0.124293014 -0.15566237 -0.11315999 -0.044170115 0.011662383 -0.010862558
-0.04791645 -0.105035946 0.04070794 -0.08194302 -0.04220222 0.06818367 0.02261091 -0.054183926
-0.03523889 -0.044768784 -0.031085879 -0.030262502 -0.092839785 -0.064459555 0.041386686 -0.02621778
0.0071471944 0.0015439708 -0.040477376 0.029891776 0.08128917 0.033141784 -0.11134598 -0.095124505
-0.0024637445 -0.037504423 -0.07364017 -0.017173734 -0.025183111 -0.020642638 -0.07418714 -0.028209763
0.012514537 0.0041689193 0.0024419364 -0.0746358 -0.08930758 -0.012560266 0.05116083 0.019048048
-0.06677296 -0.04505594 -0.0542472 -0.018420525 0.02451427 0.050185528 0.056764573 -0.032371927
0.041491847 -0.015570898 0.05958169 0.070023336 0.045015734 0.024681747 -0.0720465 -0.015220612
0.050841063 0.0015865541 0.009077516 0.0036172331 0.088324964 0.070894904 0.06458314 -0.05018475
-0.076918975 -0.0061737285 0.03564867 -0.017449407 -0.040151745 0.025234468 -0.019983163 -0.015759766
-0.0038262845 -0.012642917 -0.0047149155 -0.0034712849 0.0005748647 0.044432744 -0.013459666 -0.0025979474
0.06200773 0.041552033 0.037103295 -0.039351355 -0.016782073 0.023523169 -0.035284314 -0.03440595
0.0008937505 -0.0030928142 -0.012971994 0.062043253 0.065486655 0.0077869594 -0.017678488 -0.068763085
-0.03008941 0.022765666 0.046974294 -0.008080216 -0.04791841 0.0029067 -0.07144083 0.017997522
-0.058784403 -0.0493779 -0.020542456 0.0054509505 -0.0020244427 0.07409949 0.011767848 0.08700409
0.08811139 -0.026512023 -0.026461614 0.10259611 0.098089926 -0.05215654 -0.01011974 -0.1109996
-0.11920535 -0.033947535 -0.03743325 0.14020936 0.037558652 0.06630739 0.030818112 -0.043573324
-0.024521485 0.008726349 0.016875071 -0.07642635 0.001553383 -0.031372357 -0.044435997 -0.019093923
0.052225765 0.035213638 0.07345655 0.058215324 0.07806851 0.019566517 -0.019415487 0.078722924
0.012280828 -0.012867777 -0.009848312 0.016771067 0.08885479 0.06310353 0.03547182 0.029435359
-0.04073611 0.03118738 0.03347996 -0.017169528 0.058339305 0.06158965 0.027243743 0.007471433
0.013418557 0.007899025 0.00026405568 0.01819875 0.056473795 0.072466575 0.023816548 0.07547237
0.063569546 0.0912365 0.17186715 0.23222215 0.20383452 0.0002944513 -0.076109216 -0.008141739
0.01674379 -0.08577478 -0.06166115 -0.09909996 -0.0099615045 -0.065942794 -0.023305671 0.02872204
00000000: 964f a73d 82c7 8abd a34a 70bc 2225 69bd
00000010: b8e1 b7bd b86f e53c 918d 6abd ee2f 96bd
00000020: 6a38 8dbd f61c f4bd a302 233d 3fde 23bc
00000030: fc30 c73d a8a2 af3d 2a65 ac3d 0c0e 85bd
00000040: 6cf1 0abe ccac 2fbd 53fa 8f3b 8454 fbbd
00000050: f87f 813c 4bb7 10be c8a5 22be 3b12 14be
00000060: 4ddf f4bd 9dfe 9ebd 6fb5 e0bd 9849 cbbb
00000070: 8617 4f3d f922 92bd 032d 21bd 7f74 043c
00000080: 1a1c 73bd 5e77 14bd 697a d83c 065d 82bd
00000090: 8d81 4dbd 5979 df3b e5ea 453c 197f b6bc
000000a0: f59f afbd bbf9 18be df45 10be abc8 16be
000000b0: 626c 16be d3a3 1a3e f77c 963c 0996 9fbc
000000c0: 469b e1bc 6b42 b33c e3bb 4d3d 323c 743c
000000d0: 8f13 c1bc 7453 973d 4d6a ad3d 29c7 5fbc
000000e0: d48a 003d 2354 ac3d 538f c23b 5a80 12bc
000000f0: 33f7 8dbd cd8c 76bd db83 45bc 9c0b aebb
00000100: cd30 07bd 6b6b 98bd 568d febd f565 1fbe
00000110: 6dc0 e7bd b9eb 34bd 9413 3f3c dff8 31bc
00000120: 0a44 44bd 161d d7bd 5ebd 263d bed1 a7bd
00000130: 3cdc 2cbd e1a3 8b3d 843a b93c f7ef 5dbd
00000140: a856 10bd 795f 37bd d0a7 febc 11e9 f7bc
00000150: c922 bebd 5f03 84bd 1685 293d abc6 d6bc
00000160: 0333 ea3b 105f ca3a 9bcb 25bd 99df f43c
00000170: f07a a63d aebf 073d 5c09 e4bd a3d0 c2bd
00000180: c676 21bb 3d9e 19bd a8d0 96bd eeaf 8cbc
00000190: d04c cebc c01a a9bc 6def 97bd 2918 e7bc
000001a0: c609 4d3c 6e9b 883b e508 203b a8da 98bd
000001b0: e4e6 b6bd 93c9 4dbc 058e 513d a70a 9c3c
000001c0: 43c0 88bd 948c 38bd 5032 5ebd a4e6 96bc
000001d0: 26d2 c83c 578f 4d3d f881 683d 6d98 04bd
000001e0: 5bf3 293d 141d 7fbc ee0b 743d 6568 8f3d
000001f0: 6b62 383d 6031 ca3c 1e8d 93bd e05f 79bc
00000200: b83e 503d ecf3 cf3a ddb9 143c 1a0f 6d3b
00000210: b8e3 b43d 5931 913d 2a44 843d 868e 4dbd
00000220: b287 9dbd fd4c cabb 5704 123d 0ff2 8ebc
00000230: 2876 24bd 84b8 ce3c bbb3 a3bc a01a 81bc
00000240: 67c2 7abb 3d24 4fbc 947f 9abb 7f7e 63bb
00000250: 84b2 163a 1cff 353d ee85 5cbc 5342 2abb
00000260: d1fb 7d3d 7732 2a3d a0f9 173d e32e 21bd
00000270: 8f7a 89bc a9b3 c03c 4986 10bd 41ed 0cbd
00000280: 954a 6a3a d0b0 4abb 7c88 54bc 1121 7e3d
00000290: de1d 863d c029 ff3b 7ad2 90bc a9d3 8cbd
000002a0: 117e f6bc 107f ba3c 1e68 403d e262 04bc
000002b0: 1846 44bd 557e 3e3b 924f 92bd 8a6f 933c
000002c0: eac7 70bd 7b40 4abd a748 a8bc e39d b23b
000002d0: 83ac 04bb 79c1 973d efcd 403c 332f b23d
000002e0: bf73 b43d be2f d9bc 07c6 d8bc e91d d23d
000002f0: 5fe3 c83d 19a2 55bd 44cd 25bc c253 e3bd
00000300: ef21 f4bd 920c 0bbd 9c53 19bd 0b93 0f3e
00000310: 1ad7 193d 2bcc 873d 4476 fc3c f179 32bd
00000320: 48e1 c8bc f6f8 0e3c 973d 8a3c 6b85 9cbd
00000330: e29a cb3a 4d80 00bd 8502 36bd dc6a 9cbc
00000340: afea 553d 2d3c 103d 6370 963d 3173 6e3d
00000350: 62e2 9f3d f649 a03c 3a0d 9fbc 7c39 a13d
00000360: 8735 493c 5ed3 52bc d05a 21bc 7a63 893c
00000370: 80f9 b53d 6c3c 813d e64a 113d 6c22 f13c
00000380: e8da 26bd ad7c ff3c 4822 093d 1ca7 8cbc
00000390: 32f5 6e3d 6e45 7c3d 452e df3c ecd2 f43b
000003a0: 82d9 5b3c ea6a 013c f470 8a39 8c15 953c
000003b0: 1151 673d 5b69 943d ec1a c33c 4291 9a3d
000003c0: c030 823d 34da ba3d f1fd 2f3e a5cb 6d3e
000003d0: ffb9 503e 9660 9a39 26df 9bbd ee64 05bc
000003e0: 462a 893c b0aa afbd 6790 7cbd ebf4 cabd
000003f0: 9435 23bc 040d 87bd 89eb bebc 7c4a eb3c

conv2.bias f4 [20]
0.06626709 -0.045169808 -0.043873165 -0.050604176 -0.038426783 0.010951231 0.0240065 -0.043079816
0.009124351 -0.045865275 -0.0013745639 0.0229381 -0.0053661945 -0.039160006 0.025491318 -0.042340938
-0.0075151105 -0.055471912 0.027105637 -0.010537895
00000000: 0ab7 873d fa03 39bd 59b4 33bd 5346 4fbd
00000010: 6765 1dbd cb6c 333c 48a9 c43c 7674 30bd
00000020: 4d7e 153c 3add 3bbd b62a b4ba afe8 bb3c
00000030: e7d6 afbb 3e66 20bd 2bd3 d03c b16d 2dbd
00000040: 5141 f6bb 8436 63bd a40c de3c 23a7 2cbc

fc1.weight f4 [30, 320]
-0.07279343 -0.025568804 0.024488717 0.10202505 -0.025287375 -0.013436885 0.035429634 0.07429868
-0.076984614 0.046400677 -0.027736718 -0.05522097 -0.030984696 0.03276026 0.0048670275 -0.036065586
0.051550638 -0.032543212 -0.14161141 0.015459852 0.027193641 -0.0293719 -0.042839423 0.08922546
-0.036397066 -0.0010299942 -0.053792626 0.047278184 0.058248825 0.020783208 0.01569225 -0.029715732
0.022926522 0.103698164 0.016268276 -0.017915158 0.008022948 -0.0547644 -0.05179946 0.03342154
0.028629923 -0.008051309 -0.004081541 0.03946722 -0.06092241 0.0440261 0.025922759 -0.058663346
0.07138374 0.031916328 -0.0033033185 -0.12348352 0.07482897 0.0082946755 0.06669778 -0.08418581
-0.02780548 0.058805 0.0124702295 0.02561678 -0.0676401 -0.048342925 -0.04932767 0.0042349473
-0.002982058 0.01947277 -0.02520579 -0.020954855 0.03533232 0.08525812 0.0007887348 0.031785667
-0.04398755 0.07472034 0.10858386 0.00057379686 0.01050093 -0.0015269999 -0.06654572 -0.083570816
-0.06369965 0.031024532 0.09280997 -0.004261056 0.016829241 0.0037652198 -0.10851177 -0.14583595
-0.03004623 -0.03228083 -0.06434461 0.024761783 0.08017602 0.09738473 0.006042575 -0.059752423
-0.08075213 -0.106769934 -0.032352936 0.036203396 -0.043592248 -0.027373193 -0.007967005 0.06650061
-0.007001205 0.008788854 0.042958282 0.03820977 0.055519722 0.032750666 -0.033110783 -0.03722773
0.0015266774 -0.03640878 -0.037819985 -0.061006602 -0.042084 0.0043325494 0.016610377 0.03539641
-0.0082418425 0.037663445 0.038758695 0.048282407 -0.047369957 -0.022614645 -0.030398222 -0.0124820545
-0.0891567 -0.026802493 -0.009625491 0.08116619 -0.07186206 -0.05298014 0.015693804 0.06750344
0.03257728 -0.0030913586 -0.017017882 -0.04961898 -0.0038065603 -0.029698972 0.056556277 0.0005338852
-0.11373143 -0.045928318 0.06937181 0.1569025 -0.011171559 -0.00493156 0.04368516 -0.06730016
0.024508188 -0.056736372 -0.11702537 -0.09464391 -0.017362813 -0.006408126 0.025240604 0.079031415
-0.11925293 -0.0659433 0.049063027 0.06282669 -0.004754425 -0.005626875 0.00094633654 0.030975327
-3.6683516e-05 -0.026350135 -0.00015558775 -0.024775084 0.03269759 0.048874084 -0.049045637 -0.050498668
0.030501489 0.02273244 0.046971828 -0.098433964 0.039246514 0.08570911 0.018695533 -0.1242682
0.048537433 -0.054079205 -0.053702574 -0.03476931 -0.07027638 -0.08134736 -0.02640777 0.044463582
0.07362445 0.033192787 -0.012768628 -0.03239059 0.022877801 0.04104733 -0.048317995 -0.09684964
0.04439314 0.041690927 0.021467796 0.04551742 -0.029857825 0.0023850598 -0.04141594 0.013851653
-0.025225978 -0.04099414 -0.15029323 -0.051268585 -0.034664504 0.019637471 0.0153762335 0.044135883
0.025991397 0.053782944 0.017694892 -0.08377738 0.014536933 0.066308156 -0.074719675 -0.08223729
-0.037741166 -0.07417422 -0.034811605 0.046531435 -0.028037943 -0.05334011 0.00733557 0.113122374
-0.07477293 0.021814942 0.048355 0.032949135 -0.0014058931 0.06131878 0.0018107982 -0.04956452
-0.062451065 0.0020006453 0.05942365 0.014499946 -0.06475896 0.017840324 -0.089627445 -0.056441877
-0.03920532 -0.08728717 -0.05308817 -0.040743057 -0.010879044 0.037841726 0.07060005 -0.03739542
00000000: b914 95bd ab75 d1bc 909c c83c 82f2 d03d
00000010: 7827 cfbc 6126 5cbc aa1e 113d e829 983d
00000020: 1caa 9dbd a30e 3e3d 1d38 e3bc 622f 62bd
00000030: 9ed3 fdbc 9f2f 063d 967b 9f3b 82b9 13bd
00000040: c326 533d 084c 05bd 9502 11be 524b 7d3c
00000050: 33c5 de3c 579d f0bc 6478 2fbd d7bb b63d
00000060: 1715 15bd df00 87ba a855 5cbd c5a6 413d
00000070: 5296 6e3d 8c41 aa3c 098d 803c 686e f3bc
00000080: 67d0 bb3c b45f d43d 0c45 853c cfc2 92bc
00000090: af72 033c a350 60bd ac2b 54bd 06e5 083d
000000a0: 4d89 ea3c a3e9 03bc 73be 85bb 61a8 213d
000000b0: c789 79bd b654 343d f75b d43c fa48 70bd
000000c0: a331 923d b2ba 023d 7d7c 58bb ede4 fcbd
000000d0: ee3f 993d 64e6 073c d898 883d 9c69 acbd
000000e0: 51c8 e3bc 83dd 703d ef4f 4c3c 48da d13c
000000f0: e586 8abd 3b03 46bd d00b 4abd 50c5 8a3b
00000100: a26e 43bb 5c85 9f3c 5f7c cebc 84a9 abbc
00000110: 9fb8 103d cf9b ae3d 19c3 4e3a b031 023d
00000120: 4a2c 34bd fa06 993d 3761 de3d db6a 163a
00000130: 180c 2c3c 9d25 c8ba 1f49 88bd 2d27 abbd
00000140: f674 82bd 2927 fe3c 2713 be3d 54a0 8bbb
00000150: 7add 893c e8c1 763b 6b3b debd 0556 15be
00000160: 8323 f6bc e738 04bd 1bc7 83bd 39d9 ca3c
00000170: 5333 a43d a571 c73d cb00 c63b f5be 74bd
00000180: 5f61 a5bd 32aa dabd 8384 04bd 034a 143d
00000190: c98d 32bd bf3d e0bc 0a88 02bc 7931 883d
000001a0: 5d6a e5bb 20ff 0f3c 06f5 2f3d d981 1c3d
000001b0: a668 633d 9025 063d 2c9f 07bd 1b7c 18bd
000001c0: cb1a c83a 5f21 15bd 21e9 1abd 0fe2 79bd
000001d0: 4660 2cbd 0ff8 8d3b 7c12 883c d3fb 103d
000001e0: cb08 07bc fc44 1a3d 70c1 1e3d c6c3 453d
000001f0: 0007 42bd 5942 b9bc b105 f9bc 8881 4cbc
00000200: ca97 b6bd e790 dbbc 3cb4 1dbc 763a a63d
00000210: 6a2c 93bd b401 59bd 4b90 803c 3e3f 8a3d
00000220: c16f 053d 6498 4abb 1669 8bbc 463d 4bbd
00000230: 7c77 79bb 424b f3bc 8ea7 673d 6ef4 0b3a
00000240: 06ec e8bd 551f 3cbd cf12 8e3d 0dab 203e
00000250: ea08 37bc ec98 a1bb 36ef 323d abd4 89bd
00000260: 65c5 c83c 6664 68bd ffaa efbd abd4 c1bd
00000270: 753c 8ebc 42fb d1bb 62c5 ce3c 39db a13d
00000280: e13a f4bd 480d 87bd 50f6 483d 48ab 803d
00000290: 02cb 9bbb a661 b8bb 9213 783a f8bf fd3c
000002a0: a0dc 19b8 3ddc d7bc 4525 23b9 1ef5 cabc
000002b0: e8ed 053d 3130 483d 14e4 48bd b1d7 4ebd
000002c0: 42de f93c 6239 ba3c 8865 403d bf97 c9bd
000002d0: f4c0 203d 4288 af3d 6027 993c 5380 febd
000002e0: 30cf 463d 2882 5dbd 3bf7 5bbd 446a 0ebd
000002f0: 10ed 8fbd 7299 a6bd 1c55 d8bc 721f 363d
00000300: 6ac8 963d 29f5 073d 8233 51bc ffab 04bd
00000310: 3a6a bb3c 3f21 283d 17e9 45bd 1b59 c6bd
00000320: 95d5 353d 1bc4 2a3d 3bdd af3c 7970 3a3d
00000330: 6698 f4bc aa4e 1c3b c3a3 29bd 0bf2 623c
00000340: b6a6 cebc 79e9 27bd 78e6 19be 02ff 51bd
00000350: 5efc 0dbd c3de a03c 99ec 7b3c d4c7 343d
00000360: e9eb d43c 814b 5c3d e1f4 903c 7a93 abbd
00000370: 512c 6e3c 92cc 873d a106 99bd 066c a8bd
00000380: 7b96 1abd a7e8 97bd 9d96 0ebd bf97 3e3d
00000390: d4af e5bc 297b 5abd 395f f03b b4ac e73d
000003a0: 8d22 99bd 40b5 b23c e40f 463d acf5 063d
000003b0: f245 b8ba 6729 7b3d 4e58 ed3a 2b04 4bbd
000003c0: b0cc 7fbd 421d 033b 3766 733d 2e91 6d3c
000003d0: 58a0 84bd df25 923c 988e b7bd 992f 67bd
000003e0: c295 20bd 9ec3 b2bd fb72 59bd 31e2 26bd
000003f0: 053e 32bc edff 1a3d c296 903d f12b 19bd

fc1.bias f4 [30]
0.0392187 -0.016450658 0.036852375 -0.008927795 0.049109697 0.064765796 -0.010648724 0.017349139
0.096982874 0.05830034 -0.0005285982 0.03316549 0.07867228 0.067830525 -0.0027273344 -0.050320845
-0.0017900816 0.022868633 0.053600166 0.04072805 0.06402732 0.052112788 0.04929984 0.014291809
0.027731791 -0.0013856512 0.020291368 0.003732797 -0.023968237 0.012631742
00000000: caa3 203d 88c3 86bc 84f2 163d e345 12bc
00000010: 4027 493d eea3 843d fc77 2ebc c81f 8e3c
00000020: f59e c63d 56cc 6e3d a091 0aba 89d8 073d
00000030: ef1e a13d bbea 8a3d 14bd 32bb 3b1d 4ebd
00000040: 2ca1 eaba 0057 bb3c d98b 5b3d 75d2 263d
00000050: c120 833d 3874 553d a1ee 493d 3128 6a3c
00000060: c82d e33c bd9e b5ba 153a a63c f1a1 743b
00000070: 0959 c4bc 5ef5 4e3c

fc2.weight f4 [10, 30]
0.2992562 -0.07054351 0.23599112 0.13716228 -0.14427607 0.25530878 -0.12505235 -0.307156
0.29685766 -0.29099187 0.21578832 -0.04812781 -0.3326309 -0.28744864 0.15026166 -0.18384604
-0.24296875 0.25945255 -0.19467199 0.17919527 -0.2901769 -0.16160896 -0.34083834 0.017226227
-0.095753685 -0.18807223 -0.15972729 0.2612092 -0.023399252 -0.09799658 -0.168359 -0.13666902
0.22442204 -0.04782251 0.22289589 -0.23266153 0.114659764 -0.22101553 0.17812194 0.19064686
-0.17817181 -0.054721437 0.25539717 0.3170788 -0.13838202 -0.14008105 -0.31793118 -0.3352046
-0.19823727 -0.2604295 0.25633729 0.33448032 -0.10168163 -0.07741334 -0.04048154 0.2751006
-0.2755496 -0.1837837 -0.2714985 0.347377 -0.07859979 0.2232788 0.059353698 -0.06450801
-0.26747864 -0.01974984 -0.110939555 -0.10565809 0.27567428 0.21524097 0.24737862 0.22103345
0.31292176 0.24226134 -0.089291126 0.22448641 0.017446296 -0.002113227 -0.10257631 -0.11369022
-0.15891434 -0.092434414 -0.18619929 0.27703962 0.18247189 0.24512681 0.029752083 0.21419786
-0.25552404 -0.013843195 0.01720554 0.23652603 -0.084088326 0.23536582 -0.25968936 -0.111194216
-0.2526716 0.20153181 -0.07611053 0.24057667 0.10342248 -0.06803126 0.050285496 0.29297814
0.12340298 0.015489739 0.19937816 -0.04583428 -0.06084195 0.19151387 -0.13416831 -0.09196421
0.21652795 -0.03141383 0.23742343 -0.07121829 -0.21065107 -0.1879056 -0.22047116 -0.24825658
-0.21896788 0.08559358 -0.29360473 -0.20525709 -0.08025879 -0.106622085 0.2030476 0.20088427
-0.088896796 -0.22381431 -0.2241987 0.29587638 -0.14017224 -0.13955645 -0.09005717 -0.101023674
-0.1526744 -0.3291581 0.27556872 -0.29421985 0.19964872 -0.09435529 0.24557152 -0.15351015
-0.25493658 -0.031760268 0.2938271 0.1412482 0.22356714 0.35829288 0.2753815 -0.22045694
-0.14970931 0.28631335 0.21579783 -0.25175917 -0.22741552 0.19985566 -0.21899429 -0.16251127
-0.19019157 -0.13662887 0.059226077 -0.12776178 0.12652008 -0.119069666 0.2335479 0.23045611
0.1710109 0.20287086 -0.24303804 0.14688909 0.2406442 0.10412001 -0.17791158 0.0069464166
-0.112563685 -0.1256751 0.19105853 -0.25049382 0.30618092 -0.25023216 -0.17634736 -0.12529686
0.20306678 -0.16511266 0.18627794 -0.30274528 -0.057153307 -0.025887424 -0.33516106 0.2427637
-0.082243614 -0.24513745 0.10949337 -0.24540669 -0.195228 0.18708749 -0.23640198 0.0057955757
-0.3494263 0.3609977 -0.22005564 0.27851748 -0.35782337 0.050309297 0.248696 0.22884609
0.22778904 -0.067021094 -0.18841414 0.07580792 0.23456053 0.21880308 -0.33003965 0.1790362
-0.2237258 0.21376643 -0.16106004 0.17326875 0.22294453 -0.11444659 0.07519325 -0.060053583
-0.21432494 0.22278684 -0.32905796 0.15962549 0.29030252 -0.22152686 0.2742712 -0.15519257
-0.02499044 -0.19112656 0.24231157 0.22369047 -0.23330721 -0.23598172 -0.25927106 -0.05796146
-0.037532467 -0.06293629 0.15559776 -0.11668689 0.22457151 0.159045 0.15718894 -0.06217218
-0.105234675 0.20260124 0.24276721 -0.20591031 0.32083714 -0.042777862 -0.020318508 -0.16736959
00000000: 1c38 993e 1e79 90bd a8a7 713e 4574 0c3e
00000010: 1bbd 13be d5b7 823e b90d 00be 8d43 9dbe
00000020: bafd 973e e3fc 94be 9df7 5c3e ab21 45bd
00000030: 994e aabe 782c 93be 31de 193e 2342 3cbe
00000040: cdcc 78be f7d6 843e 1858 47be f77e 373e
00000050: 1192 94be d27c 25be 5d82 aebe 041e 8d3c
00000060: 821a c4bd 0296 40be 8d8f 23be 36bd 853e
00000070: caaf bfbc 6eb2 c8bd 4d66 2cbe f7f2 0bbe
00000080: e4ce 653e 89e1 43bd d23e 643e d33e 6ebe
00000090: bdd2 ea3d e551 62be 9965 363e ee38 433e
000000a0: ac72 36be 9623 60bd 6bc3 823e 2758 a23e
000000b0: 04b4 0dbe 6871 0fbe e0c7 a2be f09f abbe
000000c0: b6fe 4abe 0457 85be a43e 833e 0141 ab3e
000000d0: 753e d0bd e38a 9ebd f9cf 25bd fcd9 8c3e
000000e0: d614 8dbe cb31 3cbe da01 8bbe 66db b13e
000000f0: edf8 a0bd 33a3 643e dd1c 733d c71c 84bd
00000100: f6f2 88be 6bca a1bc 4734 e3bd 4563 d8bd
00000110: 2e25 8d3e 2168 5c3e d250 7d3e 9856 623e
00000120: 4837 a03e 5b13 783e 44de b6bd c4df 653e
00000130: 89eb 8e3c 117e 0abb 8713 d2bd 6bd6 e8bd
00000140: 71ba 22be 414e bdbd 07ab 3ebe 23d8 8d3e
00000150: e9d9 3a3e 8602 7b3e a4ba f33c af56 5b3e
00000160: 0cd4 82be 91ce 62bc a2f2 8c3c e133 723e
00000170: 8036 acbd bd03 713e 01f6 84be cbb9 e3bd
00000180: 2c5e 81be 5b5e 4e3e d6df 9bbd bb59 763e
00000190: 2acf d33d f953 8bbd 2af8 4d3d 3b01 963e
000001a0: b4ba fc3d adc8 7d3c ca29 4c3e babc 3bbd
000001b0: 6935 79bd 361c 443e 6b63 09be bb57 bcbd
000001c0: 81b9 5d3e caab 00bd 211f 733e e5da 91bd
000001d0: eab4 57be 536a 40be 31c3 61be f936 7ebe
000001e0: 1e39 60be b04b af3d 5c53 96be ea2e 52be
000001f0: b85e a4bd ae5c dabd b6eb 4f3e 9bb4 4d3e
00000200: 860f b6bd 942f 65be 5894 65be 1c7d 973e
00000210: 5089 0fbe e3e7 0ebe e56f b8bd 80e5 cebd
00000220: ae56 1cbe 6987 a8be 5817 8d3e fca3 96be
00000230: b770 4c3e 593d c1bd 1a77 7b3e c431 1dbe
00000240: 0c87 82be 0e17 02bd 8170 963e 5ea3 103e
00000250: c9ee 643e 2a72 b73e cefe 8c3e 77bf 61be
00000260: 664d 19be aa97 923e 1bfa 5c3e 94e6 80be
00000270: 9ddf 68be f6a6 4c3e 0a40 60be 5b69 26be
00000280: 94c1 42be 70e8 0bbe 0b97 723d fcd3 02be
00000290: 7b8e 013e ccda f3bd 2e27 6f3e b0fc 6b3e
000002a0: 7b1d 2f3e 61bd 4f3e f7de 78be 186a 163e
000002b0: 6f6b 763e df3c d53d 742e 36be c49e e33b
000002c0: ca87 e6bd f9b0 00be d9a4 433e ba40 80be
000002d0: bfc3 9c3e 6e1e 80be 6794 34be d24d 00be
000002e0: bdf0 4f3e 4b13 29be a5bf 3e3e 6e01 9bbe
000002f0: 9619 6abd dd11 d4bc 3b9a abbe 0c97 783e
00000300: 576f a8bd 5005 7bbe 0f3e e03d e44b 7bbe
00000310: d9e9 47be dd93 3f3e 5c13 72be d0e8 bd3b
00000320: 01e8 b2be b1d4 b83e 4456 61be d899 8e3e
00000330: a034 b7be 1f11 4e3d 2aaa 7e3e a156 6a3e
00000340: 8841 693e 5b42 89bd a3ef 40be 2f41 9b3d
00000350: a330 703e ea0d 603e f5fa a8be 4455 373e
00000360: 6018 65be 96e5 5a3e ecec 24be 5d6d 313e
00000370: 924b 643e f962 eabd ebfe 993d bffa 75bd
00000380: ff77 5bbe 3c22 643e 497a a8be dd74 233e
00000390: 88a2 943e f0d7 62be 466d 8c3e cdea 1ebe
000003a0: c0b8 ccbc aeb6 43be 8620 783e 1d0f 653e
000003b0: 16e8 6ebe 31a5 71be 2dbf 84be ff68 6dbd
000003c0: a5bb 19bd bee4 80bd 0555 1f3e 89f9 eebd
000003d0: 13f6 653e b1dc 223e 23f6 203e 41a8 7ebd
000003e0: 4785 d7bd b376 4f3e f897 783e 27da 52be
000003f0: c444 a43e d737 2fbd 0073 a6bc ef62 2bbe

fc2.bias f4 [10]
-0.017466484 0.41694543 -0.395378 -0.05707193 0.20340025 -0.13301308 -0.1997371 -0.12413078
-0.04097786 0.11888029
00000000: df15 8fbc df79 d53e fc6e cabe 42c4 69bd
00000010: 2848 503e 9534 08be e287 4cbe 4738 febd
00000020: 67d8 27bd 8277 f33d
