proj5/task4/results/exp6_180.pth (torch, 261967 bytes, 8 tensors)

conv1.weight f4 [10, 1, 5, 5]
00000000: d557 793e 5d04 8f3e f573 d9bc 0c1e 343e
00000010: 5bc8 5ebd 47b5 a23d bd2d 0a3e 9003 bb3e
00000020: e860 853e 54cb 11be 677b 5a3e 386f 833e
00000030: 9a0d c83e 6591 1c3e b8aa 3d3e 3480 d5bd
00000040: b331 4f3e 6068 2e3e 04d1 5b3c b0cd 243e
00000050: 130c 91be d9d2 89bd d262 64bc d03a 653e
00000060: 75ed acbd 8c54 0cbd a409 fabc 714f b8bd
00000070: 5ee4 583c 0fdf 99be b6c8 483e 799d 1ebe
00000080: 0575 2a3e 222d a8bd b4dd 8fbe 221f cd3d
00000090: 959e c83d 2f04 a43e 37a4 ac3d 8316 ddbd
000000a0: ec48 503d 1e7d 5e3d 5629 c33e 3246 f03e
000000b0: 77e9 873e f66a e6bd 3ec4 293e 58ac 393e
000000c0: 3114 943e d4dc a13c 0e37 60be fb91 963c
000000d0: 138a e73c 3109 973e 6d9c 8c3d 5760 853d
000000e0: f2b0 6d3e bf44 8c3e 5b18 8f3e b1f7 76be
000000f0: 0c9b e73d 5d4a 293e c5f5 bd3e 42e1 42bd
00000100: 5e23 25be daee ce3d 45f7 c93e b2a8 833d
00000110: 8ea2 22be a520 93be d885 883e 0e31 3e3e
00000120: 8088 423e 438a 92be 0185 b7be b9e3 b6be
00000130: a3ed 94be 435e 123d d109 5c3e 522b b83e
00000140: 4a9a 97be e3cd 3abe 4f3a 5b3e f85f 2c3e
00000150: cfa7 8f3e 3538 69be 4023 003e 0345 c93d
00000160: 944f 6d3e 92f6 2f3e 6b9b 49bd aa94 e93b
00000170: e13a a13e e661 ba3e 3475 59bd ca2a 55bd
00000180: ef21 9e3e ab54 113e e483 fd3d cd31 17be
00000190: acca 34be 4372 26bd 4df4 b4bd d0b2 2cbe
000001a0: 3d68 f6ba 2133 1cbe b0df 6bbe 9dbf 26be
000001b0: 72d4 5bbe 7070 25be f376 583e 34ca debb
000001c0: 96fc 413b 8446 71be 6fe9 36be 46b3 f3bb
000001d0: 7611 4e3d 41e6 4fbe 23ad 03be dc3a 22be
000001e0: ffce e43d 1269 dcbc 43e3 c1bc 089a 32be
000001f0: 9cc7 2ebe 4237 d3bd 5280 87bd d392 32be
00000200: ace0 fa3d 9311 9fbc fcab 203e 8afc a33c
00000210: 2d32 7ebe 9ea6 4a3d 06af 8ebd acd5 a6bd
00000220: bf79 50be 38b6 85be c630 b5bb 5955 76bc
00000230: 9cb0 e13d 0df5 0dbe a4bb 493e 3e34 ccbd
00000240: 0aed 4d3d f4ac 133e 2b67 833e bb16 a93e
00000250: f964 953e e77c 9fbd 24cb 8a3d 6673 83bd
00000260: e3ab 333c b332 fdbd 6331 3e3e 31a1 e7bd
00000270: 7452 5b3e 60be 293e 0771 9d3d 3181 12be
00000280: 4f7d 913e a61d 653e c2d2 113e 2947 75be
00000290: 267c 2cbc 6642 1bbd 886b 1fbd f422 823e
000002a0: d95e c9ba 93f8 48be 8037 43be c08f 12bc
000002b0: 7d24 573e d579 87bc c495 0cbe 55c7 84bd
000002c0: a831 dcbd bdda c23d 4f7a 013e f930 88be
000002d0: a653 023e 48c8 603e 3048 bb3d c468 3cbe
000002e0: b80e b1bd bf89 363e 39a6 663e c5d5 b13d
000002f0: c1f2 e1bd 8086 99bd afe9 54bd d73c c53c
00000300: 7dad a03e d3ac b33e 7977 dd3d f67d f7bd
00000310: 35f0 1ebd 7f5d d23c 3e15 563e 101f 853e
00000320: d6b9 67be 124b f1bd fcc6 183e 2de8 d53d
00000330: 8268 d63c 154e 1cbe 4d9d 49be dd4d 66be
00000340: 2ad5 8cbd a7ca a83d 135c 283e 95b7 4c3d
00000350: 6125 60be 84fd 22be 8a5a 8cbd ba55 8e3e
00000360: 8795 a33d 6b9b 6fbd 4f09 483d c7fc 01be
00000370: 8948 19bd af63 6e3e 0864 62bd 05e7 43bd
00000380: 99de 6dbe 5659 843e 20e2 bf3e 02ec a93e
00000390: 2357 193e fada e73d e39d 3d3c 82bc bc3e
000003a0: 077f 9e3e 904e d23e aabf af3e 182b d23c
000003b0: caae a9bd 87f1 66be 79fd 4abe 3a05 3cbe
000003c0: 3c72 d0bd e058 9ebe 8371 77be 0b69 7fbe
000003d0: d6be 1cbe ce4c a2be 23ca 94be 7adc 8dbd
000003e0: 5e4c e3bd 54aa 5d3c
0.24349912 0.27933016 -0.02654455 0.17589587 -0.054390293 0.07944732 0.1349401 0.36526155
0.26050496 -0.1423772 0.21336137 0.2567079 0.39072877 0.15289839 0.18522155 -0.104248434
0.20233802 0.17032003 0.013416532 0.16094089 -0.28329524 -0.06729669 -0.013939576 0.22385716
-0.08443729 -0.034260318 -0.030522175 -0.08999527 0.013238041 -0.30052993 0.19607815 -0.15489759
0.16646202 -0.082117334 -0.28098834 0.10015704 0.09795872 0.32034442 0.08429759 -0.107953094
0.050850794 0.05431854 0.38117474 0.46928555 0.26545307 -0.1125087 0.16578767 0.1813215
0.28921655 0.01975862 -0.21896002 0.018380156 0.028264081 0.294992 0.06865773 0.06512516
0.2321203 0.273962 0.2794827 -0.24117924 0.1130887 0.16532274 0.3710157 -0.047578104
-0.16126773 0.10104151 0.39446464 0.064286605 -0.15882322 -0.28735843 0.26664615 0.185734
0.18997383 -0.2862111 -0.3584366 -0.35720614 -0.29087552 0.035734426 0.2148812 0.3597055
-0.296099 -0.18242602 0.21408962 0.16833484 0.28057715 -0.22775348 0.12513447 0.09827616
0.23174888 0.17183903 -0.049220484 0.007128318 0.31490234 0.36402816 -0.05309029 -0.05204276
0.30885264 0.14192455 0.12378672 -0.14765091 -0.17655438 -0.040636312 -0.08835659 -0.16865087
-0.0018799376 -0.15253879 -0.23034549 -0.16284032 -0.2146776 -0.16156173 0.21139126 -0.006799007
0.0029600016 -0.23562056 -0.17862485 -0.0074371425 0.05030962 -0.20302679 -0.12859015 -0.15842766
0.11172294 -0.02690557 -0.023667937 -0.17441571 -0.17068332 -0.10313274 -0.06616272 -0.17438821
0.12249884 -0.01941756 0.15690607 0.020017881 -0.24823828 0.049475305 -0.06966977 -0.081462234
-0.20358942 -0.26115584 -0.005529496 -0.015034997 0.11020014 -0.1386301 0.19700485 -0.09970902
0.050274886 0.14421445 0.25664648 0.33025154 0.291786 -0.07787495 0.06777027 -0.06418495
0.010966274 -0.12363186 0.18573527 -0.11310042 0.21418172 0.16576529 0.07687574 -0.14307095
0.28415915 0.22374591 0.14240554 -0.23952927 -0.010527646 -0.03790512 -0.03892091 0.25417292
-0.001536335 -0.19626074 -0.1906414 -0.0089454055 0.21010013 -0.016537586 -0.13729006 -0.06483332
-0.10751659 0.09514377 0.12644313 -0.26599863 0.12727222 0.21951401 0.09144628 -0.1839934
-0.086453855 0.17825983 0.22524346 0.086833514 -0.1103263 -0.07496357 -0.05198067 0.024076862
0.3138236 0.35092792 0.10813803 -0.12084572 -0.038803298 0.025679348 0.20906541 0.2600026
-0.22629485 -0.11781897 0.14919657 0.10444675 0.02617288 -0.15264161 -0.19688912 -0.2249064
-0.06876595 0.08241778 0.16441374 0.049979765 -0.21889259 -0.15917021 -0.068532065 0.2779978
0.079875045 -0.058497828 0.048837002 -0.12694083 -0.03742269 0.23280214 -0.05527118 -0.04782774
-0.23229446 0.25849408 0.37477207 0.33187872 0.14974646 0.11321063 0.011573288 0.3686257
0.3095629 0.41075563 0.34325916 0.025655314 -0.082852915 -0.22553073 -0.19823255 -0.18361369
-0.101780385 -0.3092718 -0.24164395 -0.24942414 -0.15307173 -0.31699222 -0.29060468 -0.06926818
-0.1109855 0.013529379

conv1.bias f4 [10]
00000000: b7fb 0c3e 5fe3 553d 6d6c f6bd 85c3 35be
00000010: 0072 b43c ab1e 0cbe a8af 2c3e 0bc9 1ebd
00000020: 870b 063e d6ab 253e
0.13767897 0.05221879 -0.12032399 -0.17750366 0.022027016 -0.13683574 0.16863883 -0.03876595
0.13090335 0.16178831

conv2.weight f4 [20, 10, 5, 5]
00000000: 9022 e53c c58a 23bd 54d0 ea3c e2b6 75bd
00000010: c387 e3bc 99cb a73d c1de 043d f321 5e3c
00000020: 7792 00bd 7417 16bd 601b 53ba b426 9dbd
00000030: c0ea 1f3d 69c3 c03d 9553 053e 69c5 8fbd
00000040: 14d2 35be 7d63 bbbd f29e bfbc 2734 b5bd
00000050: fecc 2a3d c3e5 39bd b8a2 bbbd 440b efbd
00000060: 6c89 96bd 54c3 2a3c 4136 1dbc e42e 353d
00000070: 82ae 603d 0e7c 753c 3100 c5bc 848d a7bc
00000080: e5c8 1ebd 6399 b4bb 146b aa3d 8b4d e4bd
00000090: 5b2d d6bd ab82 64bb 6fca f53b 2165 5f3a
000000a0: a041 313d 64d3 4dbd d608 f8bd b1af f0bd
000000b0: 9771 00be b4d3 0e3e 8470 603d c648 e13d
000000c0: 56ba ba3d 642a 993d fbd8 263d e116 513d
000000d0: 7eb0 65bc c566 273d 0bc9 203d b975 b0ba
000000e0: 7988 3e3d 6735 5f3d db75 9fbc ec86 043b
000000f0: 223f a3bd 7826 97bd fee2 d2bc 30e9 0cbc
00000100: dbf0 8abd c384 b5bd b607 b5bd a9d5 00be
00000110: baf3 04be 7b8d 83bd 7d6f 723d d1b3 c63b
00000120: 0545 94bd 12fe 8fbd 061b 823d ebf3 7cbd
00000130: fe3e 3dbc ba4f e93c b112 cabc db4d f4bb
00000140: 1a16 1abd 050e 1abd db73 59bd 2124 4ebd
00000150: 0ef1 81bc 9b0f d6bd 1204 743b cc4d 62bd
00000160: cbaf 2abd ff0f d13c 17e2 96bd 2da6 75bc
00000170: 76ea ac3b 04f1 98bc bbda c8bd 91dc b4bc
00000180: ba7c b9bc a185 75bd 3e14 6cbc 7cae 7a3d
00000190: 704e abbc 2e52 1fbd eace 54bd d860 9e3b
000001a0: 4ea4 003d 15db a53c d716 133c c2e8 57bd
000001b0: 2239 91bd c562 26bc a03f b23d b27d 7f3d
000001c0: a1e1 99bc ad39 c2bb 8ee2 30bd 9ee8 f93b
000001d0: ab29 883d 9cee 9a3d 659d 943d b149 0abd
000001e0: 1333 7e3d 776a cb3a 79cd 803d f566 943d
000001f0: 512f fa3c 099c 933d 59fb 36bd 1f05 9ebc
00000200: 299f 4a3d 6215 ad3c 700d 71bc d52a 08bd
00000210: e12c 613d 0597 943d f101 8b3d ebad 0abd
00000220: 3e53 87bd 9319 47bc f216 c83c 1b48 93bc
00000230: b0bd b13c 74e8 a23d 1a30 b83c 7bae a23c
00000240: 6d9d 0d3c 8172 46bd 39ab 36bd 9c11 623b
00000250: 2eb6 973c 1b2d 493d c9b6 debc 16dc 2ebb
00000260: c317 b73d 9805 0c3d a73d 513d b9c1 cdbc
00000270: a6da 803b db25 413d b977 0dbd 7e66 f7bc
00000280: 87f5 f1bc aeee 49bd 10a5 80bd 636b 2c3d
00000290: cfbe 943d cafe c5ba 7c60 73bd bdcf febd
000002a0: 1d50 9cbd 8821 9dbc 8077 5d3d 48f2 bd39
000002b0: b1c7 3dbd 416d ec3a 6924 81bd 31cb 643d
000002c0: 1e04 adbc 6e46 a0bc 6f4c 17bc 643c 9d3c
000002d0: 6f78 dbbc 6d04 683d c995 9f3c a86d 883d
000002e0: a5df a83d 070f a3bd 5fa0 9abd e7ac 4b3d
000002f0: c8e0 7a3d 77cd bcbc 8d27 6e3c 7936 d1bd
00000300: 5fcb 02be 408f 1bbd 2640 01bd c402 6f3d
00000310: 04e2 f33c 221c d13d d7fe fd3c cdfe 12bd
00000320: eac8 3bbc d8dd 9f3c bdb4 1a3d 296e 10bd
00000330: 6e2d 123d 915b 02bd 477e 2dbd 4429 cebc
00000340: 570a 813d bb1a 753d 5392 9d3d d86d 4c3d
00000350: 1244 6b3d 10ff cc3b c728 8abc c25d a13d
00000360: 1208 e03c 6b4a e03b cc9a 2abc 001f 893c
00000370: 12e6 583d 3232 743c 5d6a 00bc 406c 803c
00000380: ff18 2bbd bb57 dfbc 1e38 f73c 47f4 1abc
00000390: fd6c 4a3d ec3a 823d 80c2 1c3d 5c4e 6f3d
000003a0: 49a1 843d d0fb 733d 4287 753d ca1f e63c
000003b0: 66ee 6c3d 396d c93d deff 4f3d da50 ac3d
000003c0: 119e 38bd 9cb7 0abd 52f2 9f3d acf6 283e
000003d0: 1f23 183e 5d68 563d 273b b4bd e8d8 c4bd
000003e0: 1cb6 aabd 80f1 dabd 0ee5 12bc 1341 a2bd
000003f0: d35d 253b 33ed 42bd 9d08 a9bd 84eb 14bd
0.027970582 -0.039927263 0.028663792 -0.059988864 -0.027774697 0.0819313 0.032438997 0.013557899
-0.03138968 -0.03664346 -0.00080530904 -0.07673398 0.039042234 0.094122715 0.13020165 -0.07020075
-0.1775592 -0.09149835 -0.02339122 -0.08847838 0.041699402 -0.045385133 -0.091618955 -0.116720706
-0.0735043 0.010422546 -0.009595455 0.04423417 0.054853924 0.01498319 -0.024047943 -0.020453222
-0.038765807 -0.005511449 0.08321205 -0.11147603 -0.104578696 -0.0034867923 0.0075009386 0.0008521844
0.043275476 -0.050250426 -0.1211106 -0.117522605 -0.12543331 0.13947946 0.054794803 0.110002086
0.09117572 0.074787885 0.040734272 0.05104721 -0.01401913 0.040869493 0.03925423 -0.0013462818
0.04651687 0.054494288 -0.019465378 0.0020222021 -0.07971026 -0.07380384 -0.025743004 -0.008600518
-0.06784221 -0.08863213 -0.08839361 -0.12581505 -0.129836 -0.0642347 0.059188355 0.0060639163
-0.07239727 -0.07030882 0.063528106 -0.061756056 -0.011550663 0.0284804 -0.024667116 -0.00745557
-0.037618734 -0.037611026 -0.053089004 -0.050327424 -0.015862014 -0.10452195 0.0037233871 -0.055249974
-0.041671555 0.025520323 -0.07367342 -0.014993233 0.0052769734 -0.018669613 -0.098073445 -0.02207783
-0.022642482 -0.05994189 -0.014409123 0.061201558 -0.020911425 -0.038896732 -0.05195514 0.004833322
0.031406693 0.020246068 0.008977613 -0.05271221 -0.07090975 -0.010155384 0.08703542 0.06237573
-0.018784346 -0.0059272856 -0.04318481 0.007626607 0.066485725 0.075650424 0.07256583 -0.033761684
0.062060427 0.00155194 0.06289191 0.072462 0.03054014 0.07207496 -0.044673298 -0.019289551
0.049468193 0.02112836 -0.014712676 -0.033243973 0.05497444 0.07255367 0.0678748 -0.033857267
-0.06607674 -0.012152093 0.024425004 -0.017978719 0.021696895 0.07954493 0.022483874 0.01985859
0.00864349 -0.048449043 -0.044596884 0.003449536 0.018519487 0.04911528 -0.027186768 -0.0026681474
0.08940079 0.034185022 0.051084187 -0.025116788 0.003932315 0.047155242 -0.034538005 -0.03020024
-0.029536022 -0.04929989 -0.06281483 0.0420946 0.07262956 -0.001510584 -0.059418187 -0.12441967
-0.07632468 -0.019181028 0.054069042 0.00036229403 -0.04633302 0.0018037931 -0.06305773 0.05585784
-0.021120127 -0.019564833 -0.009234532 0.019193836 -0.026790826 0.056644846 0.019480603 0.0666154
0.08245782 -0.079618506 -0.075501196 0.04972544 0.061249524 -0.023047192 0.014535797 -0.10215468
-0.12772892 -0.03797841 -0.031555317 0.058352247 0.029770859 0.10210444 0.031005306 -0.03588753
-0.011461476 0.019514963 0.03777002 -0.035261307 0.035687856 -0.031825606 -0.042356756 -0.025166161
0.063008 0.059839945 0.07693925 0.049909443 0.057437964 0.0062559918 -0.016865147 0.07879211
0.027347598 0.006844809 -0.010412883 0.016738415 0.052953787 0.014904546 -0.007837859 0.015676618
-0.041771885 -0.027263513 0.030178126 -0.009457654 0.049420346 0.06358895 0.038271427 0.05842434
0.06476075 0.05956632 0.059943445 0.02809133 0.057844542 0.09835286 0.050781123 0.08413859
-0.04507262 -0.03386651 0.07809891 0.16500348 0.14857148 0.052345622 -0.08800345 -0.09611684
-0.08335516 -0.10690594 -0.008965744 -0.07922568 0.0025232926 -0.047589492 -0.08253596 -0.036357418

conv2.bias f4 [20]
00000000: eb3a a53d 6eef 45bd e4ae 23bd c4e7 63bd
00000010: 63da 6fbd 89d5 4d3c 117a f43c 6c95 80bd
00000020: d41d c13c 0e87 51bd 60a5 a93b cc6b 1d3d
00000030: 3ef1 96bc e471 e6bc 30b0 fa3c 7f8b 56bd
00000040: bff3 14bd f4e7 81bd ab29 d53c 7ff3 f839
0.08067878 -0.04832404 -0.03996171 -0.05564095 -0.05855788 0.012563118 0.029843362 -0.062785
0.023573793 -0.05115419 0.005177185 0.03843288 -0.01842558 -0.02813048 0.03060159 -0.052379128
-0.036365267 -0.0634307 0.026020845 0.00047483665

fc1.weight f4 [180, 320]
00000000: c67d 013c 3902 963d f389 723d bd60 0f3c
00000010: 4f8c acbb 1239 3bbd 884e 713c 1132 403d
00000020: af68 03bd 5d1c f93c dbeb 2fbd 4dba 443d
00000030: bea8 713c cc26 8d3c 7085 cfbc 09e6 b03c
00000040: e6d7 d03c c49d 753d e03c 1fbd bcb0 de3b
00000050: 9434 d13b d51d a63c 9238 46bd 8d18 81bc
00000060: ace2 363c 4793 683c df67 a93b bee0 833d
00000070: bcdd a03c c9d3 c9bc 56de 533c b360 973c
00000080: 26f2 063a c889 f7ba cf42 633c 2994 0cbd
00000090: 648e 53bd 4ac1 34bd cfd2 e3bc 6989 fa3b
000000a0: c3fc 3c3d c0ee 74bd ebb5 01bd 533b d73c
000000b0: 001f 2bbc e2b5 873c c0df b4bb 4e9d 45bd
000000c0: 858e fa3c 57e0 b6bc 9663 1d3d d810 32bd
000000d0: e8f2 843d 803d 65bd f918 393d 33b0 223b
000000e0: 7a70 2cbd dd55 963c 565b 863d b98c 163d
000000f0: a764 0fbd d406 a83c c52a 79bd 8ea5 93bb
00000100: c6e5 43ba 447c 493d bf6c 533d 9018 83bc
00000110: 278e 093d edea 4c3d 5916 25bd 3f7d cabd
00000120: 1606 87bd 3603 b4bb d861 323d eb82 8e3c
00000130: f5d4 b03b 5dfe 88bc 4065 4e3b 7122 02bd
00000140: 42a8 c13a 4c0e 273c 6d34 3a3d 9300 e7bc
00000150: 8ed3 1a3d c73e 033c d2d8 f4bd 05a6 3abd
00000160: 0520 c4bd 7078 2938 f252 b23c 842c 1ebc
00000170: 4713 ca3c e5b1 6a3d d9a9 e73c d617 63bd
00000180: 847d 1ebd 6579 3d3c 36c8 31b9 cb55 9c3b
00000190: 3aba 413d a8b9 5e3d 962a 8cbc c8f1 e7bc
000001a0: 5d59 6e3b d684 083c 51c0 113d 8864 a83c
000001b0: 7352 c2b9 69a6 913c bb6f 313d 99a8 123d
000001c0: abf4 06bb 3b6b cdbc 67ea 8c3c 9e7a 1fbc
000001d0: 956b a7bd 8bd0 8fbc de74 793d 6488 5fbb
000001e0: 8a88 d83c 8433 0e3d fd0e 9a3c 7c96 b8bc
000001f0: f1dd 67bc 0ca2 dcbc a13f b5bc 2dfe bdbb
00000200: 0f9e a5bc 7aa3 643d b668 563c e43e 4ebd
00000210: dffb 883d 0682 21bc 6f9c 343d 2eb5 083c
00000220: abcb 3d3c 905b 74bd 70e6 14bd 3501 403c
00000230: e538 1c3d 6555 cebc cfa6 e03c 06b1 b0bc
00000240: 508e e3bc 58e4 b23c 63a7 2ebd f891 52bd
00000250: 7194 acbc 6e4b ecbb 2c25 b83c ba43 4a3d
00000260: a15d 14bd f769 bfbc 5c0a fbbc 0156 55bd
00000270: e500 a23d 2cb8 433d 47a5 a5bd bd23 12bd
00000280: a316 4cbd 98bd 85bc d182 72bc 5741 38bd
00000290: bb63 653d 861a 023d 0f9a 9abb 7482 2abd
000002a0: 04f8 6f3d a0ca 223d 513f b43b c715 76bc
000002b0: 557e 013d c57d 613c 904d 6bbc 49ab 903d
000002c0: 97a3 a1bc bc9e 10ba 49c4 ab3c d874 81bd
000002d0: acc8 e0bb dc74 0cbd 050f e13c f104 6a3d
000002e0: 236f 553d a636 cbbc a5f7 303c 3d61 713b
000002f0: 8129 6c3c b69a 29bc ac02 a9bd a86c 253d
00000300: 0b10 e63c b776 103c f587 d2ba e3bf 31bd
00000310: b2e8 88bc bc7a 2bb7 409e 00bc 9ca9 903d
00000320: c966 fbbb 0601 b5bc 5885 8b3c 8741 c83b
00000330: 362d 3abd f490 4a3c 2ed7 94bd 7b67 adbc
00000340: 0654 0abd d7f5 3b3d 1551 71bd 51a7 8a3c
00000350: 7727 8abd fe86 e73c 9e53 263c 5c52 a8bc
00000360: 950f d23a 7150 483d fa88 99bb cd7d 81bd
00000370: 569b 86bc 8d4a 973c 9eb7 c2bc 0534 023b
00000380: f9c3 24bc 2a88 ebbc 60c5 b53b e233 7cbc
00000390: 9311 173d 737c e1bc 2c21 9fbc 2871 debc
000003a0: 8148 7cbd e6bb c93b 35d6 603d e82c 63bd
000003b0: 53f1 77bc 883e 193d 634c c93c e6d7 473c
000003c0: b1ad cc3c 2e6f 0ebd eb1b 1bbd 9c04 7bbc
000003d0: a3bc f339 75f1 d23c 9e92 113d eded 04bd
000003e0: 924d 92bc f15f e1bc 32cd a5b9 0fa4 15bd
000003f0: 6f8a af3c e9db feba af44 4d3d 351b 653d
0.007903522 0.07324643 0.05921359 0.008751092 -0.0052657495 -0.045708723 0.014728196 0.046922747
-0.032082256 0.030409032 -0.04294954 0.048029233 0.014749704 0.017230414 -0.025332183 0.021594064
0.025493573 0.05996491 -0.038876414 0.0067959707 0.0063844416 0.020277897 -0.048393793 -0.015758777
0.011162441 0.01419527 0.005169853 0.064393505 0.019636981 -0.02463712 0.012931427 0.018478727
0.0005147777 -0.0018885667 0.013870909 -0.034320984 -0.051649466 -0.044129647 -0.027810482 0.007645775
0.04613949 -0.059798002 -0.03166763 0.026273405 -0.010444403 0.01656622 -0.005519837 -0.04824572
0.030585537 -0.02232377 0.03842505 -0.043473095 0.06491643 -0.055966854 0.04518983 0.0024824261
-0.042099454 0.01835149 0.0656039 0.036755297 -0.0350081 0.020511068 -0.060831804 -0.0045058196
-0.00074728986 0.049190775 0.05161738 -0.016002923 0.033582833 0.05002873 -0.040304516 -0.0988717
-0.06592958 -0.005493547 0.043550342 0.01739641 0.00539648 -0.016722852 0.0031493455 -0.031771127
0.0014774876 0.01019628 0.045460153 -0.028198516 0.03779941 0.008010573 -0.11955418 -0.045568485
-0.0957642 4.0404906e-05 0.021768067 -0.009654168 0.024667395 0.05729856 0.028279232 -0.055442654
-0.03869392 0.011564587 -0.0001695462 0.0047709695 0.04729674 0.054376274 -0.01711015 -0.028313532
0.0036369183 0.008332452 0.035583798 0.02055575 -0.00037063993 0.017779546 0.043319445 0.03580532
-0.002059261 -0.025075546 0.017201615 -0.009733824 -0.081748165 -0.017555496 0.06090247 -0.0034108395
0.026432294 0.034717098 0.018805975 -0.022532694 -0.014152036 -0.026932739 -0.022125067 -0.0057981224
-0.02021697 0.055819966 0.0130864885 -0.050352946 0.066886656 -0.00985766 0.0440945 0.008343978
0.011584203 -0.059657633 -0.036352575 0.011719038 0.038140196 -0.025187204 0.02742329 -0.021568786
-0.02777782 0.021837398 -0.0426401 -0.051408738 -0.021066876 -0.0072111404 0.022478662 0.049380995
-0.036222104 -0.023365958 -0.030644588 -0.052083973 0.07910327 0.04778306 -0.08088165 -0.035678614
-0.049826276 -0.016325757 -0.014801697 -0.044984188 0.056003314 0.031763576 -0.0047180722 -0.041628316
0.058586136 0.03974402 0.005500712 -0.015019841 0.03161462 0.013762896 -0.014361754 0.0706392
-0.019731326 -0.00055168173 0.02096762 -0.06321114 -0.0068598595 -0.034291133 0.027472982 0.05713362
0.05210794 -0.024806332 0.010801231 0.003683164 0.014414192 -0.010351827 -0.08252463 0.040386826
0.028083822 0.008817366 -0.0016062247 -0.043395888 -0.01671252 -1.0220971e-05 -0.00785023 0.070636004
-0.007672165 -0.022095215 0.017031357 0.006111327 -0.045453273 0.012363661 -0.07267605 -0.021167507
-0.033771537 0.045888748 -0.058915216 0.016925486 -0.067458086 0.028262611 0.010151772 -0.020547085
0.0016026372 0.04890484 -0.0046855183 -0.06322823 -0.016431492 0.018468166 -0.023769196 0.0019867432
-0.010056489 -0.028751452 0.0055472106 -0.015393229 0.036881994 -0.027525162 -0.019424997 -0.027153566
-0.061592583 0.0061564324 0.054891784 -0.055462748 -0.01513322 0.03741315 0.024572557 0.01219747
0.024985166 -0.034773998 -0.03786842 -0.015320923 0.00046489117 0.025749901 0.035540216 -0.032453466
-0.017859254 -0.027511569 -0.00031624135 -0.03653341 0.021428315 -0.00194442 0.05011433 0.05593415

fc1.bias f4 [180]
00000000: 9640 e93c 3ef9 3cbd 279d 6cbc 6805 6f3d
00000010: b8c4 223d 8650 823d 27a3 3f3d 06d1 dabc
00000020: 4402 173d b7f1 a63c b08a b6bc 4100 a83c
00000030: 31f2 383d 8e20 90bc 3229 553d 278a cbbc
00000040: ba66 653d df0a 353d 60e8 2cbd 9122 d63c
00000050: ad19 173d b874 083d 2e87 d93c c374 e83c
00000060: 52d3 d8bc 3b42 553d 07a2 12bd eed9 133d
00000070: da00 093c a960 483c f136 08bd 0711 513d
00000080: 096f 00bc 8ab8 18bc a176 523d 5b1d 013d
00000090: fc6b e03c 4bcf 983c 7a99 8fbb 3d55 17bd
000000a0: 2bb8 dabc c766 4dbd cc8e babc 875b 14bc
000000b0: f40a 443d cb7a 953c 3123 5c3d 43c2 703d
000000c0: 542c fa3c 5087 053d 1f6f 30bc fd4c 17bd
000000d0: cd9a a8bb c521 e9bc a54e 113d dc9a 683c
000000e0: 6949 193c b701 833b 45a2 f4ba 0ee9 63bc
000000f0: 2a1d 63bd 85b5 a9bb 9db6 763d 8dea 443d
00000100: bf49 6b3c 7bf0 4c3d d600 243c aa58 d0bc
00000110: 6efd 8c3d 3416 9c3d df84 233c e537 20bc
00000120: c8bb b83c e3ec 30bd a01b 29bd c9d0 9abc
00000130: a2ec c03c 665b 8c3d 655e c93c edaf 3b3b
00000140: 3466 00bd 7b3a 1fbc 4994 3b3d 5116 0a3b
00000150: 234e 533d 7279 233d a526 df3b 30c0 d13c
00000160: f06d 43bc 0439 fcbc 8da0 97ba ea49 c93b
00000170: 85c1 03bd fd1e 6c3d 85c0 8a3c 7093 233d
00000180: 4c4d 023c 619d 3f3d ca78 22bb 362c 35bd
00000190: 5e3a 4cbd fa6b 8c3b 0e90 403d b4fe a0bc
000001a0: deeb 073d 7d9c ec3c abee 0e3c ab17 943d
000001b0: 85a4 c2bc aebf 25bd 71ff 7e3c 556e 323c
000001c0: 11b0 c93c e98c c63b 26cc 87bb 7f45 47bd
000001d0: 6622 61bd 1164 223d e9f1 0a3d 9af4 1d3d
000001e0: f1e2 ddbc 9cd5 cfbc b485 d6bc 77ba 2dbd
000001f0: 78de be3c 2dd8 133c 686f 2a3d 077c df3c
00000200: 8daf 533c 894f adbc b05b 28bb 7985 2d3d
00000210: 433b 41bd 9839 753d 488f 2f3d 453f b5bb
00000220: 495c 253d 4dba 7c3c b42e e13b d11a 26bd
00000230: 8952 80bc 85e0 b2bc 7734 3e3d c79f 15bd
00000240: 9e61 f33c 0179 84bc 57bd 793d 1a0d 04bd
00000250: 0e6c 70bc d0a1 de3c 8e65 1bbc 3b46 553c
00000260: 16d2 9abb fa24 07bd b107 3e3d e877 fabc
00000270: 3b3f 4c3d 1844 8d3c 31e7 95ba a236 873c
00000280: 237f 423c 74bc 09bd c3fc cebc 5b2d 573d
00000290: e473 b9bc 2687 2b3b e8cd 583c 63c3 903c
000002a0: 2e1b cebc fab1 98bc 316c c53c cf10 b3bc
000002b0: bbd5 103d 76de 033d e219 2ebc 526b 3e3d
000002c0: 4166 b3bc 4786 b83c 75aa 523d b551 bdbc
0.02847318 -0.046136133 -0.014441765 0.058354765 0.039738387 0.06363015 0.046786454 -0.026710998
0.036867395 0.02037893 -0.022282928 0.020507934 0.045152847 -0.017593648 0.05204124 -0.02484615
0.05600617 0.04419982 -0.042213798 0.02613953 0.03688972 0.033314437 0.026553717 0.028375989
-0.026467953 0.052065115 -0.035799053 0.036096506 0.008362019 0.012230077 -0.03325552 0.05104163
-0.007838973 -0.009321341 0.051382665 0.031522136 0.027395241 0.018653532 -0.0043823095 -0.036946524
-0.026699146 -0.050146844 -0.022773169 -0.009055025 0.04786201 0.018247029 0.0537445 0.058779012
0.030538715 0.032599747 -0.010768681 -0.036938656 -0.005145407 -0.028458485 0.035475392 0.014197078
0.009355881 0.003998007 -0.0018664083 -0.013910545 -0.055447735 -0.0051791095 0.060232747 0.048075248
0.014360844 0.050034028 0.010009965 -0.025432903 0.068842754 0.076214224 0.009980409 -0.009778951
0.022550479 -0.043194663 -0.04128611 -0.018898385 0.023550335 0.0685337 0.024581144 0.0028638795
-0.03134747 -0.009718533 0.045795713 0.002107043 0.05158819 0.03991074 0.0068100267 0.025604337
-0.011928067 -0.030788906 -0.0011568234 0.0061428444 -0.032166976 0.05764674 0.016937504 0.03993553
0.007952999 0.046780948 -0.0024791234 -0.044231616 -0.04986035 0.0042853327 0.04701238 -0.019652702
0.033183925 0.028883213 0.008723895 0.07231077 -0.02376009 -0.040466003 0.015563832 0.010890563
0.024620088 0.0060592783 -0.0041442094 -0.04865026 -0.054964446 0.039646212 0.03392211 0.03856335
-0.027085753 -0.025370412 -0.026186801 -0.042414155 0.02329944 0.009023708 0.04161015 0.02728082
0.012920273 -0.02115609 -0.0025689416 0.042363618 -0.047175657 0.05986938 0.042861253 -0.005531224
0.040371213 0.015425277 0.0068720225 -0.040552918 -0.015664356 -0.021835575 0.046436753 -0.03652933
0.029709633 -0.01617098 0.060971584 -0.032239057 -0.0146742 0.027176768 -0.009484662 0.0130172325
-0.004724751 -0.032994248 0.046394054 -0.030574754 0.04986499 0.017244384 -0.0011436698 0.016505543
0.011871132 -0.03362699 -0.02526701 0.05253349 -0.022638269 0.0026173084 0.013232686 0.017671293
-0.025159445 -0.018639553 0.024099441 -0.0218586 0.03536008 0.032194577 -0.010626288 0.046489067
-0.021899344 0.022524966 0.05143209 -0.02311025

fc2.weight f4 [10, 180]
00000000: 196e e1bd 974c 833d 8e13 23bd 85fe e6bd
00000010: 7d6a e3bd 1b07 cabd 8119 733c 2492 febc
00000020: 7922 fe3d 1f0b fa3d 9a40 a6bd b28d 503d
00000030: c813 aa3d 55ed 02be 33e9 63bd f028 843d
00000040: 0362 a43d e219 313e f45f dfbd 1b3f 9e3d
00000050: 272a 0a3c bf5c cfbd 35a4 08be cfea 8a3d
00000060: 4d81 2bbd 5295 b5bd 3bbc 653c b1e3 dbbd
00000070: 98a2 6a3d 3b9c ff3b 985c 03bd f319 ca3d
00000080: 3f83 c33d 97f3 f4bd 6b7a 853d 27cd c13d
00000090: c783 dabd a9c0 a83d 436e 943d 187b 4abd
000000a0: c149 b4bc 6d86 d4bc 3dce 8f3d bee8 59bb
000000b0: 6097 74bd d52f 253d 2dcd d2bd affd a13d
000000c0: 15b9 0c3e d61a 3ebb a408 e83d 1823 9f3d
000000d0: 5525 02be 881c 343d 3dc1 ad3d 9670 7a3d
000000e0: 2ba7 b03d a828 ae3d 8549 cb3d 7164 953d
000000f0: c10b 6e3c c6d2 d9bd 48a2 fdbc 45fc 5dbd
00000100: d3b5 c3bd f11e e83d aa7b efbd 2057 a3bd
00000110: fc86 d7bd 1e24 25bc f589 903c 680b 90bc
00000120: 1530 903d cf52 e03c 64f0 443d 7fdb 1ebd
00000130: 9df7 a0bd d455 c0bd c413 8d3d c38d 91bc
00000140: ec51 a93d fba0 b6bd 326b a63d 4047 13be
00000150: cc53 9a3d 6121 37bd e89f 0f3e 7473 4fb9
00000160: a337 b9bd 3b2e 913d ad17 493d d3f5 cabd
00000170: 9c1c b93d 1f97 823d 8aa6 e63d bd08 a63d
00000180: 10fb b63d 0516 be3d d75a 27be 9f5a 9bbd
00000190: 7985 9abb baaf c0bd 7bed 633d bfd7 15bc
000001a0: 633f 953d eb36 d4bd ed92 a33b 90f9 81bd
000001b0: a3cf 8f3d 7cde 06bc 9937 9c3d d870 3bbe
000001c0: 09a0 333c 830a 3ebd 169d 4dbd 9c5b c9bd
000001d0: 7e8f 0ebd 8735 10be cb57 8fbc 8874 f53c
000001e0: 7613 b7bd 8c44 cb3d 3829 a8bd 1840 503e
000001f0: 46e6 92bd 605b 56bb dc13 803d 200d c93d
00000200: d3c6 08be 6793 6cbb 47d0 933d f7e3 1a3e
00000210: 5a95 86bd 446f 673c af19 37bd 672b ba3d
00000220: 6775 22bd 7962 6abd e426 9dbc cddc 01be
00000230: 6628 cb3d 00fa 79bd ad2a be3d 0d8b afbd
00000240: 85f0 0a3c 6af0 e6bc 08a7 05be 4db4 e13d
00000250: d478 9c3c 05c7 873d 4804 84bb 2e9c e0bd
00000260: 0821 823c 92e6 9ebc 6b20 91bc 3f53 15be
00000270: 1a48 46be e710 673d 7132 dabd cb39 463c
00000280: 6fbe dd3d 2ebc 22bc 6be3 a0bc 38f7 70bd
00000290: bdb5 4e3b ea51 c9bc ddab 2bbd 3704 ecbb
000002a0: 0715 e1bd 67c1 a23d b123 6abd 57ab b63d
000002b0: ad19 b4bd 3fc2 283c ea91 783d 2cfb 5b3d
000002c0: 393d 293d 6493 0dbd 22fc bdbd b027 793c
000002d0: 9acf a83d 3afc 05bd 2fb6 363c 4804 d63d
000002e0: 6944 7a3c 1b66 aabd 7acd afbd dfb3 383d
000002f0: cc02 c8bd 19a5 d83c a127 1a3e d98e 3ebd
00000300: 9bed a93d add0 7dbd 8ed7 36bc 28b0 bb3d
00000310: db74 35be 87a9 123e f4af cfbd 6435 abbc
00000320: bfc1 e0bd eeb6 943d 070b 023d 39f2 3abe
00000330: c5da b73d 4476 a43d cfc1 b8bd 68e5 4d3d
00000340: cde7 2abb 24a0 8e3c ac5b 9b3c 2676 70bd
00000350: 0be7 1fbd 3c7a 3dbd e234 8ebc 6446 5cbd
00000360: 1551 c23c bf13 38bd e1d4 01be 5fff 093e
00000370: 7299 6abd a9d5 27bd 6cb9 e4bd f11e 1ebd
00000380: 4d2e 843b 259f d7bd 52e4 8f3c c401 1abe
00000390: 6c66 15bd 69f7 09be f257 603d e13e 4bbe
000003a0: 304b a3bb 06ad 3dbe 323a 24bd b980 acbd
000003b0: 5060 083d 54d8 edbc 02cd ee3c 37e3 e1bd
000003c0: 4e15 ddbd f8d7 7b3c 29ff cc3d c1d7 233d
000003d0: 6af0 5f3d b61e 1d3d 816a 023e 562f 1c3d
000003e0: 6922 fd3d ebca 183e fc43 583d a766 963d
000003f0: 5364 83bd 4446 a13d e062 aabc 8139 4bbc
-0.110073276 0.06411093 -0.03981357 -0.112790145 -0.111042954 -0.098646365 0.014837624 -0.031075545
0.12408919 0.122091524 -0.081177905 0.05091638 0.08304554 -0.12785847 -0.055642318 0.06453121
0.08026507 0.1729503 -0.109069735 0.0772688 0.008432901 -0.10125112 -0.1334389 0.067830674
-0.041871358 -0.08866371 0.014021928 -0.10736788 0.057283968 0.0078006065 -0.032070726 0.09868231
0.095465176 -0.119605236 0.0651749 0.09462958 -0.10669666 0.08239872 0.07247593 -0.049433798
-0.022007825 -0.025943005 0.07021759 -0.0033250297 -0.059714675 0.04032882 -0.102930404 0.079097144
0.13742478 -0.0029007695 0.11329773 0.077703655 -0.12709554 0.043972522 0.08484123 0.061142527
0.08625635 0.08503848 0.09926132 0.07294548 0.01452917 -0.10635905 -0.03096117 -0.05419566
-0.095561646 0.113340266 -0.11693509 -0.07975602 -0.10523793 -0.010079412 0.017643908 -0.017583564
0.07040421 0.027383236 0.048080817 -0.038783547 -0.078597285 -0.093913704 0.068885356 -0.017767793
0.082675785 -0.08917423 0.08125915 -0.14382648 0.07535514 -0.044709567 0.14025843 -0.00019784068
-0.09043815 0.07088896 0.049094845 -0.099101685 0.0903866 0.0637648 0.112622336 0.081071354
0.08934605 0.09281544 -0.16343246 -0.07585644 -0.004715618 -0.09408517 0.0556464 -0.009145676
0.07287481 -0.10362037 0.00499188 -0.063464284 0.070220254 -0.008231755 0.07627792 -0.18304765
0.010963448 -0.046396744 -0.050198637 -0.09831926 -0.034804814 -0.14082919 -0.017497918 0.029962793
-0.08939259 0.09925184 -0.08210987 0.2033695 -0.071728274 -0.0032708272 0.06253788 0.098169565
-0.13357095 -0.00360986 0.0721746 0.15126024 -0.06571455 0.014125649 -0.04470223 0.090903096
-0.039662745 -0.057222817 -0.019183584 -0.12681885 0.09919815 -0.061029434 0.092854835 -0.08571444
0.008480196 -0.02819081 -0.13051999 0.11020718 0.019100584 0.06629757 -0.0040288307 -0.10967289
0.015884891 -0.019397054 -0.017715653 -0.14582537 -0.19363442 0.056412604 -0.10654152 0.01209874
0.10827338 -0.009932561 -0.019639691 -0.058829516 0.003154143 -0.024575192 -0.04191195 -0.007202651
-0.10990339 0.07947045 -0.057162944 0.08919399 -0.0879396 0.010300218 0.06068603 0.053706333
0.041318152 -0.03456439 -0.09276606 0.015207216 0.08242722 -0.032711245 0.011151834 0.10450035
0.015275099 -0.08320256 -0.085841134 0.045093413 -0.097661585 0.026445912 0.1505418 -0.04652295
0.08297273 -0.061966587 -0.011159791 0.091644585 -0.17720358 0.14322482 -0.10140982 -0.020899482
-0.10974454 0.072614536 0.031748798 -0.18256463 0.08977274 0.0803037 -0.09021341 0.050267607
-0.0026078105 0.017410345 0.018964611 -0.058706425 -0.0390387 -0.04625915 -0.0173592 -0.053778067
0.023720304 -0.044940706 -0.12678863 0.13476323 -0.057275243 -0.040975247 -0.11168179 -0.038603727
0.00403384 -0.10528401 0.017564926 -0.15039736 -0.03647463 -0.13473286 0.05477137 -0.19848205
-0.0049833283 -0.18523034 -0.040094562 -0.084229894 0.033294976 -0.029033817 0.02915049 -0.11029666
-0.10795079 0.015371315 0.100096054 0.04000068 0.054672636 0.038359366 0.1273594 0.03813108
0.12360079 0.14921157 0.05279921 0.07343798 -0.0641562 0.0787473 -0.0207991 -0.012403847

fc2.bias f4 [10]
00000000: 666e 7bbd 6a7d ff3d 7273 f1bd 6b70 93bd
00000010: d7a2 96bd c1e2 a0bd 24ce 7cbd 50b8 47bd
00000020: 99c7 013e 9eb2 203d
-0.06138458 0.12475093 -0.117895976 -0.071991764 -0.07355278 -0.0785575 -0.06172003 -0.04875976
0.12673797 0.039232843
