proj5/task4/results/exp6_130.pth (torch, 195791 bytes, 8 tensors)

conv1.weight f4 [10, 1, 5, 5]
0.2235196 0.28353083 0.047729395 0.28263184 0.0071045207 0.03321874 0.102984555 0.37278783
0.27719754 -0.17847864 0.19532858 0.28199276 0.41099924 0.11321405 0.13940747 -0.028374804
0.30279776 0.19936274 0.028136432 0.15301117 -0.21477324 -0.030509777 0.008449795 0.22974643
-0.090904206 -0.028894616 -0.028315349 -0.084579885 0.034223855 -0.2754596 0.18444523 -0.20449165
0.14272456 -0.053581513 -0.25881767 0.11635821 0.051601734 0.28666148 0.107385084 -0.10661568
0.04220264 0.014602387 0.34953076 0.44697437 0.20493376 -0.15121146 0.13332765 0.1373895
0.25201982 0.0034407997 -0.15877818 0.0625373 0.017596334 0.24324861 0.06314371 0.12095002
0.24195564 0.1846031 0.17979929 -0.24722396 0.1619382 0.15178211 0.24074554 -0.12586932
-0.11151061 0.1362114 0.38374618 -0.058138367 -0.21662581 -0.25337967 0.2946713 0.16305535
0.105056226 -0.34379116 -0.38765916 -0.3367864 -0.25975692 0.07286819 0.19322903 0.2980902
-0.25957084 -0.19420877 0.16925512 0.10678733 0.26640943 -0.2263145 0.08956176 0.034478106
0.16151533 0.15716703 -0.11179408 -0.031505305 0.28597492 0.30891824 -0.11720322 -0.09299131
0.28984898 0.11499857 0.048887182 -0.21019006 -0.18225914 -0.045537118 -0.09242406 -0.17034684
-0.006344924 -0.16256194 -0.23101091 -0.1558614 -0.2082822 -0.15530361 0.19832198 -0.008037927
0.008504907 -0.22823843 -0.16685377 0.011528054 0.071966 -0.18738595 -0.11967137 -0.1527762
0.13503537 0.018803015 0.014492868 -0.15843374 -0.18017386 -0.11238818 -0.07165458 -0.17937705
0.11837483 -0.0126308035 0.1476445 0.00018907074 -0.2559071 0.054842986 -0.046724632 -0.09390783
-0.22559604 -0.26170745 0.028225917 -0.008211731 0.10403276 -0.13980502 0.227962 -0.073250726
0.022748338 0.15266508 0.27721846 0.32521158 0.24469076 -0.1499928 0.03670574 -0.11990549
-0.06966811 -0.15196384 0.22519071 -0.16524474 0.13722347 0.14232677 0.16455998 -0.044989463
0.26683894 0.17824958 0.1549759 -0.12866455 0.07780338 0.034217414 -0.02361043 0.21113552
0.0030588184 -0.15990464 -0.09008916 0.010667415 0.11812851 -0.10434091 -0.17738147 -0.09206515
-0.12614788 0.11716632 0.20005442 -0.21100248 0.07680068 0.17265674 0.07266511 -0.11907357
-0.05354085 0.15853292 0.11853014 0.024100434 0.0006046316 0.015657023 -0.0058093127 -0.048721317
0.25826842 0.43454528 0.18011911 -0.057152525 -0.081796646 -0.060316805 0.18108864 0.22465342
-0.28689614 -0.1698496 0.1079825 0.13872936 0.08486222 -0.2047523 -0.31993842 -0.3312656
-0.08810492 0.09936838 0.13987377 -0.044719286 -0.28599605 -0.2241293 -0.12034913 0.27272505
0.055643596 -0.06523775 -0.0053397 -0.14931618 -0.026454171 0.26068926 0.0154683925 0.010898454
-0.16509643 0.2508518 0.38969323 0.4047844 0.22764723 0.18468173 0.029682016 0.41504583
0.3970408 0.4621846 0.38787004 -0.012824397 -0.10190689 -0.22899258 -0.2282495 -0.20063968
-0.16364858 -0.35017663 -0.30860192 -0.30981994 -0.1777556 -0.3591894 -0.34584773 -0.15085118
-0.13989544 0.020778501
00000000: 52e2 643e f42a 913e e67f 433d 1fb5 903e
00000010: 0acd e83b 6010 083d 91e9 d23d 0cde be3e
00000020: d6ec 8d3e 1bc3 36be 3704 483e 5b61 903e
00000030: 7e6e d23e c5dc e73d d5c0 0e3e 4772 e8bc
00000040: 4f08 9b3e bf25 4c3e 607e e63c f6ae 1c3e
00000050: 84ed 5bbe a4ef f9bc 0271 0a3c a642 6b3e
00000060: fc2b babd 67b4 ecbc 97f5 e7bc 3838 adbd
00000070: 502e 0c3d 0a09 8dbe 36df 3c3e 4266 51be
00000080: 6326 123e 4a78 5bbd c083 84be 374d ee3d
00000090: 575c 533d 4bc5 923e b6ec db3d 5259 dabd
000000a0: addc 2c3d da3e 6f3c b2f5 b23e d3d9 e43e
000000b0: 28da 513e 2dd7 1abe 0b87 083e d5af 0c3e
000000c0: be08 813e 0a7f 613b bf96 22be 8e13 803d
000000d0: 3026 903c 2a16 793e 7d51 813d a5b4 f73d
000000e0: 38c3 773e 9808 3d3e 4e1d 383e 4728 7dbe
000000f0: 21d3 253e c56c 1b3e 0086 763e e3e3 00be
00000100: ad5f e4bd 007b 0b3e 617a c43e 7f22 6ebd
00000110: 28d3 5dbe fbba 81be 28df 963e fbf7 263e
00000120: b827 d73d 6505 b0be 437b c6be 446f acbe
00000130: dcfe 84be eb3b 953d d5dd 453e 479f 983e
00000140: 78e6 84be aade 46be 3751 2d3e 51b3 da3d
00000150: d166 883e fdbe 67be 286c b73d ea38 0d3d
00000160: 4664 253e 65f0 203e 4bf4 e4bd b50b 01bd
00000170: 4e6b 923e 882a 9e3e 3e08 f0bd 3a72 bebd
00000180: 1667 943e 5f84 eb3d ed3d 483d 103c 57be
00000190: 24a2 3abe 2185 3abd d348 bdbd 676f 2ebe
000001a0: 15e9 cfbb a376 26be 208e 6cbe 219a 1fbe
000001b0: ee47 55be e907 1fbe eb14 4b3e 82b1 03bc
000001c0: 2a58 0b3c 56b7 69be b7db 2abe 2ae0 3c3c
000001d0: e962 933d 1ae2 3fbe 4316 f5bd 5d71 1cbe
000001e0: b646 0a3e c808 9a3c 7f73 6d3c 743c 22be
000001f0: 7f7f 38be c62b e6bd a3bf 92bd 9eae 37be
00000200: 816e f23d 6ef1 4ebc 1f30 173e 4a41 4639
00000210: 4106 83be 0aa3 603d 5462 3fbd c052 c0bd
00000220: a602 67be 85fe 85be 0a3a e73c 7f8a 06bc
00000230: 210f d53d 0c29 0fbe df6e 693e 7a04 96bd
00000240: b95a ba3c 3c54 1c3e 94ef 8d3e 2282 a63e
00000250: 3790 7a3e b697 19be c258 163d 0291 f5bd
00000260: 27ae 8ebd 699c 1bbe 6598 663e eb35 29be
00000270: 4f84 0c3e 1cbe 113e 6982 283e df46 38bd
00000280: 1d9f 883e 0f87 363e 01b2 1e3e a4c0 03be
00000290: 6157 9f3d 8f27 0c3d a96a c1bc e933 583e
000002a0: 7576 483b 0bbe 23be aa80 b8bd 62c6 2e3c
000002b0: 5ced f13d b0b0 d5bd 7da3 35be a78c bcbd
000002c0: e92c 01be e5f4 ef3d 11db 4c3e 0911 58be
000002d0: ad49 9d3d eecc 303e 72d1 943d d8dc f3bd
000002e0: a64d 5bbd 7456 223e eebf f23d 466e c53c
000002f0: 2480 1e3a 2843 803c 0c5c bebb 0190 47bd
00000300: c23b 843e b87c de3e 2571 383e c418 6abd
00000310: 0085 a7bd c10e 77bd 4d6f 393e 8c0b 663e
00000320: 0de4 92be 0eed 2dbe ee25 dd3d 120f 0e3e
00000330: 3ecc ad3d 96aa 51be f8ce a3be a59b a9be
00000340: 5a70 b4bd a681 cb3d 123b 0f3e 922b 37bd
00000350: 136e 92be 2782 65be 9b79 f6bd 9ea2 8b3e
00000360: 8aea 633d 5f9b 85bd a6f8 aebb 57e6 18be
00000370: 6bb6 d8bc 1079 853e 246f 7d3c 6e8f 323c
00000380: 0a0f 29be a66f 803e df85 c73e e73f cf3e
00000390: 5b1c 693e 351d 3d3e b327 f33c e380 d43e
000003a0: ef48 cb3e 76a3 ec3e e796 c63e 6b1d 52bc
000003b0: 8fb4 d0bd 087d 6abe 3dba 69be 7d74 4dbe
000003c0: 7e93 27be 5a4a b3be 1201 9ebe b8a0 9ebe
000003d0: 9005 36be ace7 b7be f412 b1be bb78 1abe
000003e0: c040 0fbe ad37 aa3c

conv1.bias f4 [10]
0.14782102 0.02558388 -0.0736877 -0.1105495 0.0020968984 -0.14113115 0.1525521 -0.005511694
0.16377084 0.068504214
00000000: 655e 173e 4995 d13c 94e9 96bd c767 e2bd
00000010: 1e6c 093b af84 10be 9e36 1c3e 719b b4bb
00000020: 8bb3 273e f04b 8c3d

conv2.weight f4 [20, 10, 5, 5]
0.087590866 -0.10548771 -0.0022890011 -0.047731023 -0.007169052 0.034180027 -0.07723594 -0.026195997
-0.018281357 -0.067189224 0.043796282 -0.051351666 0.09099056 0.112735175 0.06493006 0.008065232
-0.10480164 -0.055928383 -0.0052824593 -0.124919705 0.04379685 -0.031872466 -0.049426302 -0.10110305
-0.0968755 -0.07935229 -0.1222366 0.02873107 0.049327515 -0.034539912 -0.027495887 -0.016360432
-0.0081452485 -0.019962152 0.010631074 -0.01691297 -0.032953694 0.02125679 0.0073033096 -0.06157638
0.009387505 -0.04814284 -0.10311183 -0.11351089 -0.13461044 0.1564704 0.09647643 0.099267885
0.020274825 -0.011879341 0.1011117 0.028854579 -0.035880078 0.053044975 0.065257594 0.021396514
0.017182887 0.104580425 0.022613084 0.041141625 -0.054086033 -0.040019706 0.024965338 0.014865962
-0.0062027057 -0.06188122 -0.07860177 -0.09741191 -0.09560502 -0.019350208 0.03371212 -0.009885514
-0.040085047 -0.055830363 0.0138392 -0.056897044 -0.027808167 0.05780656 0.00850946 -0.000805198
-0.033238325 -0.015551804 -0.0125590535 -0.024595907 -0.0134072015 -0.05535081 0.052499168 -0.029046869
-0.02067094 0.034217063 -0.037026532 -0.019709075 0.021424359 0.029034927 -0.12883432 -0.050714705
-0.018462341 -0.041438997 -0.062113103 -0.025197882 -0.0139914 -0.013565418 -0.041387077 0.0069809547
0.043127336 0.022828113 0.022529345 -0.044342693 -0.058802754 0.015194496 0.06539667 0.045850396
-0.04113027 -0.008439683 -0.024123715 -0.018446222 0.034074053 0.058608655 0.072366446 -0.02250679
0.04571464 -0.027940536 0.057933312 0.09303311 0.051252797 0.03662567 -0.074887305 -0.021976508
0.027538292 -0.018124301 -0.010209617 -0.015339964 0.06355769 0.049399752 0.03926892 -0.034757875
-0.060162105 -0.0083152 0.0162451 -0.029271873 0.0031480251 0.07224629 0.025493175 0.011258654
-0.005532545 -0.016345335 -0.0062842383 0.02274634 -0.0030040175 0.02155874 -0.009424083 -0.041993886
0.06346425 0.031671576 0.04343785 -0.04876634 -0.045387592 0.031388387 -0.02145259 -0.025062526
-0.004673759 -0.016681416 -0.038039837 0.06752273 0.0832905 0.0024110833 -0.02952377 -0.09702254
-0.044750568 0.005819797 0.038872864 -0.0069727013 -0.026694732 0.019008886 -0.073235355 0.00024584396
-0.05520072 -0.031770498 -0.025077092 -0.01889655 -0.039776903 0.042921763 0.007751789 0.058563627
0.02213451 -0.032681398 -0.052984204 0.06293874 0.06966167 -0.10570617 -0.0032280015 -0.08893003
-0.10538677 -0.036452934 -0.056865662 0.0706829 0.03866471 0.090183884 0.020968532 -0.0784361
-0.01554963 0.018845811 0.024467546 -0.05483335 0.009873412 -0.03998082 -0.044172402 -0.030867858
0.052528694 0.04254986 0.060905334 0.057305034 0.06521517 -0.0076458906 -0.021539558 0.04963017
0.011941114 0.015203729 0.015140308 0.032435786 0.043977994 0.00929056 0.02480735 0.06225302
-0.005133124 0.012482238 0.03277353 -0.02790165 0.045478787 0.026378857 0.009630988 -0.008661299
-0.00045021402 0.024518134 0.0010472056 -0.031310398 0.023999013 0.09928027 0.036377225 0.024087623
0.047769636 0.061570678 0.1420201 0.18845636 0.11768353 0.070684195 -0.037924252 -0.04762534
-0.03616285 -0.075243905 -0.018928029 -0.0679445 -0.0071600615 -0.06532138 -0.09391455 -0.05843234
00000000: d762 b33d f109 d8bd 1103 16bb 9b81 43bd
00000010: 5eea eabb 5b00 0c3d e02d 9ebd fd98 d6bc
00000020: c9c2 95bc 819a 89bd bb63 333d 2056 52bd
00000030: 4259 ba3d b3e1 e63d 0dfa 843d 0924 043c
00000040: 3ea2 d6bd 2915 65bd 7b18 adbb e7d5 ffbd
00000050: 5364 333d b48c 02bd 3c73 4abd 1e0f cfbd
00000060: aa66 c6bd 7483 a2bd 2f57 fabd 6c5d eb3c
00000070: a60b 4a3d b979 0dbd 0e3f e1bc 5006 86bc
00000080: a673 05bc ab87 a3bc f52d 2e3c 128d 8abc
00000090: 74fa 06bd b822 ae3c 9a50 ef3b 8437 7cbd
000000a0: 0dce 193c 6d31 45bd 4c2c d3bd 6678 e8bd
000000b0: 52d7 09be c739 203e 6f95 c53d f64c cb3d
000000c0: 6417 a63c 91a1 42bc a713 cf3d 7060 ec3c
000000d0: fdf6 12bd b045 593d c6a5 853d be47 af3c
000000e0: 20c3 8c3c 432e d63d 133f b93c 1f84 283d
000000f0: 5189 5dbd b4eb 23bd 1c84 cc3c 5d90 733c
00000100: 1140 cbbb 2a77 7dbd f7f9 a0bd e57f c7bd
00000110: 91cc c3bd 5484 9ebc b815 0a3d daf6 21bc
00000120: 3830 24bd 61ae 64bd d0bd 623c e00c 69bd
00000130: f4cd e3bc 92c6 6c3d 436b 0b3c ec13 53ba
00000140: e924 08bd fecc 7ebc 7dc4 4dbc 5b7d c9bc
00000150: e1a9 5bbc 88b7 62bd 5e09 573d b3f3 edbc
00000160: 1a56 a9bc 3127 0c3d 22a9 17bd ed74 a1bc
00000170: 2382 af3c a8da ed3c 25ed 03be 39ba 4fbd
00000180: 563e 97bc f0bb 29bd 4f6a 7ebd ca6b cebc
00000190: 2f3c 65bc 7d41 5ebc 7f85 29bd 7ec0 e43b
000001a0: 4aa6 303d 0602 bb3c 768f b83c afa0 35bd
000001b0: 28db 70bd 56f2 783c b0ee 853d a0cd 3b3d
000001c0: 3778 28bd 9946 0abc 199f c5bc 881c 97bc
000001d0: 3c91 0b3d a10f 703d dc34 943d 2960 b8bc
000001e0: 463f 3b3d 8de3 e4bc 7b4b 6d3d 2588 be3d
000001f0: 74ee 513d cc04 163d 845e 99bd 1408 b4bc
00000200: fc97 e13c 6a79 94bc 3d46 27bc 7954 7bbc
00000210: 892a 823d 6557 4a3d 72d8 203d 465e 0ebd
00000220: 8a6c 76bd 7a3c 08bc 7214 853c 91cb efbc
00000230: 194f 4e3b ddf5 933d 10d7 d03c 3876 383c
00000240: 5a4a b5bb a7e6 85bc 03ec cdbb 8856 ba3c
00000250: 0ddf 44bb f49b b03c 7867 1abc c801 2cbd
00000260: 8bf9 813d 0eba 013d e3eb 313d 37bf 47bd
00000270: 57e8 39bd 1c91 003d 58bd afbc ed4f cdbc
00000280: 5526 99bb 77a7 88bc a9cf 1bbd 5b49 8a3d
00000290: 3694 aa3d 4403 1e3b d5db f1bc c1b3 c6bd
000002a0: 5f4c 37bd ffb3 be3b 2739 1f3d 427b e4bb
000002b0: e9ae dabc 86b8 9b3c 6bfc 95bd 9ee4 8039
000002c0: 261a 62bd c821 02bd 796e cdbc f0cc 9abc
000002d0: 1bed 22bd bbce 2f3d b802 fe3b 6ae0 6f3d
000002e0: 6f53 b53c eedc 05bd f705 59bd 07e6 803d
000002f0: c7aa 8e3d 7a7c d8bd e18c 53bb f320 b6bd
00000300: 05d5 d7bd ac4f 15bd f8eb 68bd 32c2 903d
00000310: e35e 1e3d 54b2 b83d 33c6 ab3c 1ba3 a0bd
00000320: e0c3 7ebc 8862 9a3c 2a70 c83c ef98 60bd
00000330: 17c4 213c eec2 23bd 1fee 34bd 97de fcbc
00000340: 5428 573d c348 2e3d df77 793d afb8 6a3d
00000350: 888f 853d 618a fabb ba73 b0bc 0149 4b3d
00000360: aaa4 433c 1019 793c 0e0f 783c 63db 043d
00000370: 4522 343d 6f37 183c c938 cb3c 06fd 7e3d
00000380: c433 a8bb 4d82 4c3c 893d 063d 0092 e4bc
00000390: f747 3a3d 7918 d83c 4bcb 1d3c 1fe8 0dbc
000003a0: b40a ecb9 41da c83c 6442 893a 553f 00bd
000003b0: 9499 c43c 7453 cb3d 4900 153d 6853 c53c
000003c0: 18aa 433d 8931 7c3d b86d 113e b4fa 403e
000003d0: 1004 f13d e0c2 903d 7656 1bbd ca12 43bd
000003e0: 7f1f 14bd 7a19 9abd f40e 9bbc 7c26 8bbd
000003f0: f39e eabb 37c7 85bd 4656 c0bd c056 6fbd

conv2.bias f4 [20]
0.07784178 -0.05358179 -0.0514274 -0.050073124 -0.06536627 0.0048491247 0.011161563 -0.056499705
0.008033544 -0.05632261 0.0051899273 0.039530016 0.0025655546 -0.012199 0.037282836 -0.059079796
-0.015261721 -0.061657302 0.031389434 -0.0068298117
00000000: 836b 9f3d 9478 5bbd 8aa5 52bd 7a19 4dbd
00000010: c0de 85bd 68e5 9e3b fdde 363c 3c6c 67bd
00000020: 209f 033c 89b2 66bd 4410 aa3b 3aea 213d
00000030: dd22 283b 51de 47bc e3b5 183d a8fd 71bd
00000040: 4c0c 7abc 5e8c 7cbd 3592 003d 9dcc dfbb

fc1.weight f4 [130, 320]
-0.001221774 0.050953038 0.03335576 -0.016392382 -0.024946343 0.007721374 0.047712382 0.046906047
0.013117627 0.030504925 -0.021433264 0.012462841 0.053161345 -0.021472624 -0.038608182 0.031165857
0.007567302 0.045778085 -0.04772299 0.0061439034 0.023849422 0.019352261 -0.019161623 -0.06136137
0.077613205 0.0040035704 0.00096779625 0.07047572 0.0037616456 -0.012217397 -0.0025341182 -0.01804803
-0.0011610843 -0.019269375 0.075287394 -0.002067157 -0.03686918 -0.08201272 -0.012445559 0.018823922
0.053914726 -0.056629773 -0.025888946 0.03309458 -0.021866975 0.03460916 -0.0040965416 -0.053331163
0.05299611 -0.026558312 -0.017023202 -0.08525903 0.07957093 -0.051127832 0.0099438885 -0.057997007
-0.0014813003 0.03815637 0.020519068 0.0064727515 -0.019558934 0.020530906 -0.025605094 0.04096959
0.011089073 0.047300898 0.031841572 0.007754658 0.010854875 -0.022880306 -0.0040434906 -0.035938602
-0.070943065 -0.03531785 0.028952982 0.03455105 0.023933858 -0.023841742 -0.037314024 -0.023695808
0.049506508 0.008210183 0.00147278 -0.067412354 -0.007039478 0.057591848 -0.07319435 -0.005473293
-0.0738441 0.022405257 0.04608989 0.09510886 0.05364219 -0.009630746 -0.0041384413 -0.030341713
-0.026494415 -0.0071779587 -0.009479679 -0.012980656 0.031589273 0.022878215 -0.03842909 -0.038527798
-0.00064113 0.040633526 0.03880431 0.03855888 -0.037451565 0.012069853 0.08089228 0.07981776
-0.027759854 -0.023725528 0.0557559 0.02645123 -0.055134207 -0.029056406 0.030935103 0.0041266805
0.027673712 -0.005175729 0.006612914 -0.009755781 -0.020005746 -0.014813855 -0.0251412 0.0013981402
0.027744241 0.049561262 -0.028056238 -0.07696179 0.064598456 -0.02810557 0.0046932325 -0.028805831
0.018556988 0.012281244 -0.000662064 0.034201264 0.025571225 -0.037196983 -0.00037257 0.012455345
-0.042280998 -0.035463892 -0.032744866 -0.054622676 -0.0337657 -0.03329158 -0.0011018201 0.02391788
0.042189557 -0.011890155 0.012686458 0.015671263 0.032297526 0.02848116 -0.041654844 0.0048973374
-0.05050207 -0.018175311 -0.020602807 -0.10741559 0.08124797 0.04406764 -0.03251093 -0.0937143
0.05997583 0.01782379 -0.0020571921 0.02350669 0.036462378 -0.00060862425 -0.04017149 0.07219108
-0.057017006 0.0054737916 0.034027748 0.005225242 -0.0421764 0.038820405 -0.0003286036 0.11524002
0.043992907 -0.034024607 -0.03625653 0.003261512 -0.0024312045 -0.025081132 -0.04168249 0.012419113
0.0121552795 0.0025315788 0.027127706 0.019561132 -0.04575825 0.056700505 -0.0052203243 0.08771594
-0.022455264 -0.012892717 -0.0048615118 -0.013283497 -0.04330888 -0.014699893 -0.05442973 -0.06054254
0.015299877 0.12358415 -0.035197932 0.014349097 -0.013956242 0.06745209 0.0075807376 -0.06699665
0.036465146 0.041051973 0.058065724 -0.018652167 0.018849688 0.02453612 0.006402577 0.024894014
0.013511336 -0.03830238 -0.058499247 -0.034460157 -0.016601441 -0.0064225392 -0.016748628 0.03866522
-0.06151697 0.04025441 0.025570054 0.012376173 0.007205072 0.011977387 0.010474926 0.0093243895
-0.012871758 -0.05053726 -0.07917581 0.025105277 0.04040168 0.046025995 -0.014890909 -0.030032108
0.035558864 0.012710009 0.011226111 -0.027582299 -0.015765527 0.017187491 0.05770647 0.064679675
00000000: ef23 a0ba 22b4 503d 0da0 083d 5149 86bc
00000010: 465c ccbc 9403 fd3b 0f6e 433d 8e20 403d
00000020: 51eb 563c 77e5 f93c d094 afbc f230 4c3c
00000030: b6bf 593d 5be7 afbc 9d23 1ebd 8a4f ff3c
00000040: 21f7 f73b cd81 3b3d 2f79 43bd cc52 c93b
00000050: dd5f c33c a288 9e3c d6f8 9cbc 0f56 7bbd
00000060: acf3 9e3d 6230 833b b5b3 7d3a 9355 903d
00000070: f185 763b 7a2b 48bc 7313 26bb 76d9 93bc
00000080: 862f 98ba cfda 9dbc 4730 9a3d 2479 07bb
00000090: 2304 17bd 49f6 a7bd 75e8 4bbc a034 9a3c
000000a0: b0d5 5c3d 9ff4 67bd 0e15 d4bc 2f8e 073d
000000b0: 5f22 b3bc 56c2 0d3d 483c 86bb c771 5abd
000000c0: 7312 593d d190 d9bc 3e74 8bbc 499c aebd
000000d0: 15f6 a23d 6b6b 51bd b1eb 223c 458e 6dbd
000000e0: 3128 c2ba db49 1c3d 9b17 a83c 6019 d43b
000000f0: 0f3a a0bc 6e30 a83c c6c1 d1bc bbcf 273d
00000100: f1ae 353c 96be 413d 4f6c 023d c91a fe3b
00000110: a5d8 313c 7b6f bbbc 427f 84bb 5b34 13bd
00000120: 994a 91bd 73a9 10bd ce2e ed3c 6785 0d3d
00000130: f010 c43c c24f c3bc 97d6 18bd b61d c2bc
00000140: 56c7 4a3d 0184 063c 4c0a c13a 7d0f 8abd
00000150: 6cab e6bb 6ee5 6b3d ebe6 95bd 4f59 b3bb
00000160: 933b 97bd 3b8b b73c c1c8 3c3d 6fc8 c23d
00000170: eab7 5b3d 47ca 1dbc c39b 87bb 2f8f f8bc
00000180: d10a d9bc 1535 ebbb a850 1bbc d1ac 54bc
00000190: c163 013d 186b bb3c d267 1dbd 53cf 1dbd
000001a0: 8211 28ba 576f 263d 45f1 1e3d ebef 1d3d
000001b0: d066 19bd a2c0 453c daaa a53d 7e77 a33d
000001c0: a268 e3bc 0a5c c2bc 4c60 643d 40b0 d83c
000001d0: 68d4 61bd b307 eebc 9d6b fd3c 1b39 873b
000001e0: fbb3 e23c 2999 a9bb 25b1 d83b b6d6 1fbc
000001f0: 17e3 a3bc d0b5 72bc ebf4 cdbc cd41 b73a
00000200: e447 e33c c000 4b3d 32d6 e5bc 259e 9dbd
00000210: 324c 843d a73d e6bc b0c9 993b 35fa ebbc
00000220: d304 983c 4537 493c 5d8e 2dba a016 0c3d
00000230: bf7a d13c dd5b 18bd 8055 c3b9 8111 4c3c
00000240: d72e 2dbd 9642 11bd 7b1f 06bd 07bc 5fbd
00000250: e74d 0abd c05c 08bd f36a 90ba 6eef c33c
00000260: f5ce 2c3d edce 42bc ddda 4f3c 0561 803c
00000270: 694a 043d 5251 e93c 459e 2abd d879 a03b
00000280: 42db 4ebd 64e4 94bc 38c7 a8bc b4fc dbbd
00000290: 5665 a63d 4580 343d 2e2a 05bd 48ed bfbd
000002a0: 37a9 753d 3203 923c f5d1 06bb 1a91 c03c
000002b0: 9359 153d 158c 1fba dc8a 24bd ebd8 933d
000002c0: aa8a 69bd 7e5d b33b ae60 0b3d 8238 ab3b
000002d0: 29c1 2cbd 2502 1f3d 6e48 acb9 f602 ec3d
000002e0: e831 343d 635d 0bbd ba81 14bd 17bf 553b
000002f0: d854 1fbb f276 cdbc 42bb 2abd 8979 4b3c
00000300: f026 473c d8e8 253b ec3a de3c ab3e a03c
00000310: 016d 3bbd ca3e 683d 410f abbb 6aa4 b33d
00000320: 1af4 b7bc f93b 53bc 514d 9fbb 06a3 59bc
00000330: a764 31bd d2d7 70bc b5f1 5ebd 74fb 77bd
00000340: 56ac 7a3c b019 fd3d b52b 10bd 7a18 6b3c
00000350: b9a8 64bc 5224 8a3d d667 f83b 8a35 89bd
00000360: 7a5c 153d 1d26 283d 53d6 6d3d 6ecc 98bc
00000370: a96a 9a3c f9ff c83c b5cc d13b 88ee cb3c
00000380: a75e 5d3c f5e2 1cbd e89c 6fbd 1826 0dbd
00000390: bfff 87bc 2a74 d2bb 6b34 89bc 6c5f 1e3d
000003a0: 38f9 7bbd cfe1 243d 4a78 d13c 6fc5 4a3c
000003b0: 8618 ec3b cd3c 443c 069f 2b3c 53c5 183c
000003c0: 11e4 52bc 2800 4fbd ed26 a2bd 95a9 cd3c
000003d0: 3b7c 253d c185 3c3d 00f9 73bc e505 f6bc
000003e0: 2ca6 113d a43d 503c b9ed 373c 46f4 e1bc
000003f0: b526 81bc c8cc 8c3c 9f5d 6c3d c776 843d

fc1.bias f4 [130]
0.0051728017 -0.0588715 0.041420367 -0.019720217 0.0044184327 0.054128848 -0.00029383853 -0.021394508
0.057200853 -0.020238737 0.020703143 0.056126405 0.047803767 0.040683642 -0.040036965 0.002282354
-0.010802922 0.06275257 0.025207754 -0.036340863 0.0033603401 -0.0017189127 0.030771859 -0.03357747
0.068060815 -0.036226586 -0.03771936 0.05279776 0.0078641195 0.026174396 -0.04689586 0.06919877
0.019929383 -0.015922852 -0.014947929 0.032208137 0.035442494 -0.04793425 -0.013607099 0.011603688
0.046783343 -0.011503942 0.03674933 0.060751047 0.022382274 -0.014181569 -0.017549697 0.009098472
-0.016120791 0.03811353 0.016041884 0.0050615272 0.042426012 0.07938673 -0.015716838 0.0374552
-0.014445275 0.05323755 0.0017730057 0.02315057 -0.04399137 0.033537153 0.021956382 0.0018647356
0.049889058 0.037949506 -0.0077343727 0.08527923 0.017172992 0.025568852 0.06333829 -0.012933638
0.02111259 0.04543209 -0.021908514 0.010332281 0.0713407 0.03556937 0.053145435 0.041358046
0.061553326 0.03271114 0.08323466 -0.0033931937 -0.034581587 0.0071384646 0.02579074 -0.022593468
-0.016052106 0.02678435 -0.008009605 -0.0108964415 0.057712078 0.021635177 -0.007536227 -0.03126282
-0.0094781695 -0.011924255 0.006004828 -0.019905984 -0.024630468 -0.004685844 0.050771013 -0.0019197356
-0.013935858 -0.011946774 -0.010543734 0.0009843274 -0.047596008 0.05746964 -0.023139656 0.057436947
0.072556555 0.043937985 0.02924922 0.053358223 -0.035515334 -0.044777423 -0.025113948 0.014737727
0.019878523 0.014106262 -0.041569024 -0.010348026 -0.0030613176 0.04672948 0.058440086 -0.010046111
-0.017050518 -0.058148954
00000000: 9b80 a93b 3e23 71bd 67a8 293d 4b8c a1bc
00000010: 80c8 903b 36b6 5d3d 570e 9ab9 8943 afbc
00000020: 714b 6a3d b5cb a5bc a399 a93c cde4 653d
00000030: e2cd 433d e4a3 263d cdfd 23bd 8c93 153b
00000040: bdfe 30bc 6b84 803d 7e80 ce3c 28da 14bd
00000050: 2739 5c3b 244d e1ba 4415 fc3c 8788 09bd
00000060: 7863 8b3d 5462 14bd 9e7f 1abd 7742 583d
00000070: 82d8 003c b06b d63c e015 40bd 16b8 8d3d
00000080: f242 a33c a470 82bc 29e8 74bc aeec 033d
00000090: 262c 113d b456 44bd 4ff0 5ebc 651d 3e3c
000000a0: e49f 3f3d 087b 3cbc 7786 163d 17d6 783d
000000b0: 085b b73c d059 68bc 62c4 8fbc c211 153c
000000c0: c00f 84bc ef1c 1c3d 456a 833c 2bdb a53b
000000d0: e6c6 2d3d 8395 a23d 99c0 80bc a06a 193d
000000e0: e0ab 6cbc 9e0f 5a3d 3364 e83a 44a6 bd3c
000000f0: 4b30 34bd 415e 093d dfdd b33c 256a f43a
00000100: 7858 4c3d f170 1b3d 9f70 fdbb e0a6 ae3d
00000110: 60ae 8c3c c575 d13c 81b7 813d 9ce7 53bc
00000120: 4ff4 ac3c 0017 3a3d 7c79 b3bc ba48 293c
00000130: 131b 923d 30b1 113d 07af 593d 0e67 293d
00000140: 571f 7c3d 1efc 053d ef76 aa3d 5860 5ebb
00000150: 6ca5 0dbd c8e9 e93b 1a47 d33c f015 b9bc
00000160: b57f 83bc da6a db3c b83a 03bc fd86 32bc
00000170: 8063 6c3d 413c b13c 74f2 f6bb 710d 00bd
00000180: 534a 1bbc f35d 43bc 26c4 c43b e011 a3bc
00000190: d6c5 c9bc b58b 99bb 44f5 4f3d a39f fbba
000001a0: 3a53 64bc 67bc 43bc a0bf 2cbc 8c04 813a
000001b0: 08f4 42bd 4965 6b3d 608f bdbc 0143 6b3d
000001c0: 8898 943d 51f8 333d 0f9c ef3c 278e 5a3d
000001d0: 8778 11bd 8868 37bd c4bb cdbc 8276 713c
000001e0: 49d8 a23c f31d 673c 4844 2abd c48a 29bc
000001f0: 63a0 48bb 6967 3f3d df5e 6f3d 7298 24bc
00000200: 87ad 8bbc 992d 6ebd

fc2.weight f4 [10, 130]
-0.051001187 0.049521733 -0.026971057 -0.07305081 0.031243606 -0.15744984 0.048098482 0.05301864
0.15049861 -0.11197103 -0.03741211 -0.0016178441 -0.10049782 0.08716415 -0.04040176 0.15656221
-0.10125253 0.1921369 -0.115849644 -0.07643145 -0.041598015 0.041297015 0.049587235 0.068640344
-0.087983645 0.118026726 -0.06627314 -0.05492834 0.027544037 0.060899 -0.054235082 -0.08210622
-0.012982505 -0.18336913 0.039790455 -0.021593167 0.0034984532 -0.14421494 0.06916083 0.08210462
0.07728525 0.0061015934 0.09935949 -0.0355968 -0.13682343 -0.14461751 0.064505994 0.11057003
-0.07872168 -0.03243282 0.076595075 0.054342125 0.12061419 -0.065413356 0.0626928 0.15585077
0.11503153 -0.062710315 0.096935615 -0.040142164 0.15198055 0.12387562 -0.12089466 0.07231638
-0.14449206 0.04580526 -0.08386796 -0.07041731 0.014658654 0.10180377 -0.081360735 -0.022214148
-0.100526765 0.06819494 0.13290235 -0.09290217 -0.10674237 -0.07285493 0.08546612 -0.13466418
-0.11736404 -0.059359785 0.1313753 -0.16523015 0.14826173 -0.12172368 0.07235776 0.053077586
-0.1140692 0.105389364 0.11743111 -0.13552925 -0.055642843 -0.05835067 -0.07148429 0.042089023
-0.012915082 0.13843225 0.012491555 -0.004612095 -0.15912794 0.07958579 0.13241158 0.13124593
-0.18044165 0.0052785864 -0.11288211 -0.13907458 0.04692626 -0.11989843 0.051281415 -0.053976566
0.017727906 0.078705885 -0.054793123 -0.06274918 0.15279081 -0.11064475 0.065452516 0.08052947
0.09276489 -0.023089856 0.07840043 0.06803735 0.10770705 -0.071774386 -0.12105214 -0.0078010308
0.05689742 0.14598374 0.039959166 -0.055190563 0.20490527 0.11469736 -0.009652695 -0.020679306
-0.13343252 0.028113365 -0.11378955 -0.091579735 -0.03307536 -0.032496415 0.16979508 0.11718507
0.043942213 0.08704182 0.06285537 0.010440428 0.017249586 0.046211652 0.096954495 -0.039646696
0.06405852 0.017658537 0.08888993 -0.0022609385 -0.15295084 0.07577003 -0.120662406 0.1104791
0.007101818 0.09203144 0.09818028 -0.13439064 -0.050837744 0.18419951 -0.094230115 -0.067757204
-0.09761085 -0.15280198 -0.19517036 -0.09617549 0.014309085 0.13593408 -0.13173334 0.13724586
0.03139134 -0.11679548 0.033140965 -0.11574696 -0.07441369 -0.072790556 -0.0343015 0.13268444
-0.008063778 -0.102668405 -0.075483985 -0.08954694 -0.12965925 -0.064813174 -0.1018399 -0.15123865
-0.09784092 0.055870384 0.11622621 0.13433996 0.081489146 0.18952115 -0.20495862 -0.19655417
0.010391816 0.013444342 0.12923789 0.019180708 -0.12361555 0.03762261 0.15537478 0.078142814
-0.010807524 0.11950215 0.06993813 0.006104252 0.08544392 0.077744275 -0.00844444 -0.07895756
-0.07057581 0.10241739 -0.050499443 0.0075862743 -0.08931753 0.031003155 0.055043604 0.13038774
-0.19388622 -0.18079686 -0.09182139 -0.08344999 0.1511846 -0.019406416 -0.075827345 -0.11974999
-0.018183572 0.08130954 0.11387139 -0.09531469 -0.026578078 0.0634701 -0.03607585 0.06575364
-0.24160089 0.14083672 0.126144 0.09211277 -0.11635849 0.13415143 -0.07816627 -0.062179133
0.16496162 0.021320133 -0.15331987 -0.01334927 -0.019652793 0.08140183 -0.11811748 -0.16973104
00000000: 9fe6 50bd 4dd7 4a3d 68f2 dcbc aa9b 95bd
00000010: 97f2 ff3c 883a 21be ea02 453d 132a 593d
00000020: 4f1c 1a3e 1151 e5bd 713d 19bd d70d d4ba
00000030: cdd1 cdbd 1e83 b23d 517c 25bd d851 203e
00000040: 7d5d cfbd 89bf 443e 9442 edbd 1888 9cbd
00000050: ae62 2abd 0f27 293d fc1b 4b3d 4f93 8c3d
00000060: c530 b4bd ffb7 f13d 36ba 87bd 8afc 60bd
00000070: 08a4 e13c 3b71 793d 9b25 5ebd 4e27 a8bd
00000080: 93b4 54bc 1ec5 3bbe 51fb 223d 27e4 b0bc
00000090: 4e46 653b 15ad 13be 31a4 8d3d 7826 a83d
000000a0: bb47 9e3d e0ef c73b fd7c cb3d f3cd 11bd
000000b0: 711b 0cbe 9d16 14be b81b 843d 8a72 e23d
000000c0: d538 a1bd 47d8 04bd e1dd 9c3d d995 5e3d
000000d0: 9304 f73d 70f7 85bd 1565 803d 5897 1f3e
000000e0: a795 eb3d 446e 80bd 2e86 c63d 1c6c 24bd
000000f0: caa0 1b3e 80b2 fd3d 9f97 f7bd 9c1a 943d
00000100: baf5 13be 4c9e 3b3d f7c2 abbd f336 90bd
00000110: da2a 703c 7f7e d03d 75a0 a6bd 72fa b5bc
00000120: fae0 cdbd caa9 8b3d 8e17 083e 7e43 bebd
00000130: be9b dabd f734 95bd dc08 af3d 68e5 09be
00000140: 8f5c f0bd 3f23 73bd 3f87 063e 1832 29be
00000150: ecd1 173e 444a f9bd 4e30 943d e267 593d
00000160: 1d9d e9bd 61d6 d73d b97f f03d 2ec8 0abe
00000170: c0e9 63bd 1d01 6fbd 5b66 92bd 8a65 2c3d
00000180: c899 53bc 2fc1 0d3e 61a9 4c3c 0f21 97bb
00000190: 6ff2 22be e0fd a23d e796 073e 5565 063e
000001a0: b2c5 38be fef7 ac3b bc2e e7bd 9169 0ebe
000001b0: c035 403d 4f8d f5bd 760c 523d 8816 5dbd
000001c0: 1d3a 913c 8d30 a13d c16e 60bd a482 80bd
000001d0: 3275 1c3e b799 e2bd f80b 863d a3ec a43d
000001e0: 85fb bd3d f026 bdbc 6890 a03d 2b57 8b3d
000001f0: 8495 dc3d 73fe 92bd 2fea f7bd ca9f ffbb
00000200: 450d 693d c37c 153e 39ac 233d 800f 62bd
00000210: b0d2 513e 73e6 ea3d 5626 1ebc a667 a9bc
00000220: 89a2 08be 004e e63c 7f0a e9bd 288e bbbd
00000230: 077a 07bd f61a 05bd c3de 2d3e bafe ef3d
00000240: c0fc 333d fb42 b23d 51ba 803d 540e 2b3c
00000250: 014f 8d3c 6e48 3d3d 1490 c63d 9364 22bd
00000260: 1d31 833d a3a8 903c ec0b b63d 412c 14bb
00000270: 259f 1cbe 512d 9b3d da1d f7bd de42 e23d
00000280: 5eb6 e83b fb7a bc3d be12 c93d b39d 09be
00000290: 3d3b 50bd cc9e 3c3e b8fb c0bd 4ac4 8abd
000002a0: 33e8 c7bd 1f78 1cbe bdda 47be a8f7 c4bd
000002b0: a770 6a3c 4e32 0b3e 1be5 06be 2e8a 0c3e
000002c0: 3594 003d 7832 efbd d2be 073d be0c edbd
000002d0: 3466 98bd 3713 95bd bb7f 0cbd 6ede 073e
000002e0: f01d 04bc d043 d2bd 5997 9abd 6364 b7bd
000002f0: 65c5 04be c5bc 84bd 7091 d0bd 4ede 1abe
00000300: d260 c8bd 58d8 643d 0208 ee3d 6a90 093e
00000310: c8e3 a63d d511 423e ace0 51be 7f45 49be
00000320: 6f42 2a3c a845 5c3c f056 043e dc20 9d3c
00000330: 262a fdbd 2a1a 1a3d 911a 1f3e 5709 a03d
00000340: 0b12 31bc 8bbd f43d b93b 8f3d 2d06 c83b
00000350: 39fd ae3d 6438 9f3d 8c5a 0abc 80b4 a1bd
00000360: 0d8a 90bd 35c0 d13d 81d8 4ebd 4896 f83b
00000370: 1cec b6bd 54fa fd3c 6775 613d 5d84 053e
00000380: 1c8a 46be d022 39be da0c bcbd d4e7 aabd
00000390: 23d0 1a3e 34fa 9ebc 5e4b 9bbd 7c3f f5bd
000003a0: b7f5 94bc 9e85 a63d 6735 e93d 5934 c3bd
000003b0: 45ba d9bc 9dfc 813d 45c4 13bd d8a9 863d
000003c0: 3966 77be 8037 103e e52b 013e 9fa5 bc3d
000003d0: 5c4d eebd fe5e 093e a315 a0bd 8caf 7ebd
000003e0: b3eb 283e 8fa7 ae3c e2ff 1cbe e6b6 5abc
000003f0: e5fe a0bc 01b6 a63d 94e7 f1bd f9cd 2dbe

fc2.bias f4 [10]
-0.079014 0.29929844 -0.19810197 -0.046195645 -0.090582505 -0.12297813 -0.05774521 -0.03770221
0.025588343 0.0035078363
00000000: 18d2 a1bd a53d 993e 3edb 4abe a537 3dbd
00000010: 5283 b9bd f5db fbbd 3e86 6cbd a26d 1abd
00000020: a59e d13c bae3 653b
