proj5/task4/results/exp8_8.pth (torch, 89871 bytes, 8 tensors)

conv1.weight f4 [10, 1, 5, 5]
0.26228088 0.15431577 -0.047162924 0.3129194 -0.08458956 -0.073288076 0.025500547 0.12678212
0.21103373 -0.24835376 -0.13358223 0.099056765 0.09704206 0.2822035 -0.15961686 -0.11599168
0.107810885 0.0952113 0.2239312 0.12222921 -0.41909525 -0.22479203 -0.13778967 -0.025769142
0.084922865 -0.40162155 -0.31505743 -0.45764613 -0.18512556 -0.25624502 0.26775807 0.05363631
0.01722688 -0.06571016 -0.5051162 0.09662762 0.25965518 0.037391517 0.13256802 -0.08646295
0.025063198 0.051025942 0.22495835 0.15946268 0.2700327 -0.34375462 0.1613297 -0.020212378
0.023589507 -0.026246231 -0.28813028 0.36076707 -0.044236995 0.018633623 -0.14108227 -0.11307726
0.16048266 0.0066942843 0.028335053 -0.4387498 -0.14378366 0.1743752 0.11391313 0.004236956
-0.50772357 0.049024425 0.26231134 -0.012935311 -0.07735925 -0.43033716 0.09107258 -0.2487677
-0.20683397 -0.374503 -0.2397714 -0.24506831 -0.4448727 -0.30552915 -0.2846216 0.33466554
-0.40116614 -0.10783391 0.1913934 0.24533847 0.19129585 -0.4889297 0.21833736 0.013730327
0.11043687 -0.13808985 -0.30179167 0.027469277 0.084872656 0.20346026 -0.11512957 -0.19306755
-0.10120578 -0.084087886 0.15909305 0.0045560044 -0.37095416 -0.04343195 -0.02610858 -0.019769145
0.20404062 -0.38807464 -0.43496662 -0.35968006 -0.2909037 0.035396367 0.21431334 0.10611499
-0.1673089 -0.36987537 -0.17855142 -0.019522175 0.24427353 0.013946359 -0.20552617 -0.26847357
-0.02439518 0.048433974 0.22433524 0.0061618714 -0.30240157 0.08460505 0.08297656 -0.0742683
0.16043384 0.04836244 0.054712027 -0.028688816 -0.4352138 -0.077858806 -0.059146482 0.00040488728
-0.37441283 -0.35468268 0.08639741 0.01792921 0.21049927 -0.24022414 0.068492696 0.12738946
0.20612757 0.17288679 0.367325 0.3376473 0.0632656 -0.06857035 0.050326932 -0.20025727
-0.40045825 -0.4311401 0.04387192 -0.048264626 0.008584728 -0.097998194 0.087710164 0.10085061
0.24807248 0.5290857 0.50776976 -0.11377242 0.013726955 -0.15340045 -0.17037515 0.32885513
0.020338494 -0.20808795 -0.3419422 -0.51691985 -0.37726304 -0.06494235 -0.052966278 0.05228895
-0.102519505 0.029763633 0.00093342375 -0.15757218 -0.16695301 -0.080827124 0.27715293 -0.091190614
-0.19987912 -0.19360815 0.0140674915 0.31700215 -0.1269927 -0.29488242 -0.28238252 -0.020518266
0.3825726 0.20331128 -0.16373423 -0.12487869 -0.07212913 -0.007965723 0.07459442 0.2857681
-0.3464803 -0.3942162 0.045410194 0.13919853 0.13065046 0.039579492 -0.5558816 -0.5373892
0.023874776 0.24727796 0.45288154 0.06763178 -0.45108214 -0.31962848 -0.019421384 0.20927228
-0.025405975 -0.14921373 -0.15652645 -0.13971166 0.0930533 0.1589744 -0.12561913 -0.030638376
-0.37340674 0.1387117 0.22293507 0.06810896 0.11172946 0.35020283 -0.11549759 0.3315966
0.10482172 0.20490114 0.17433879 -0.5598246 0.1873707 0.22985342 0.055882465 -0.38049906
-0.57469445 -0.1515654 -0.15072578 -0.4302542 -0.502494 -0.079737276 -0.42332226 -0.5571465
-0.08110612 0.24911632
00000000: ae49 863e f404 1e3e e92d 41bd f936 a03e
00000010: 4b3d adbd 0f18 96bd 86e6 d03c 2cd3 013e
00000020: 3a19 583e 7350 7ebe c8c9 08be 46de ca3d
00000030: fdbd c63d fa7c 903e 9a72 23be 0c8d edbd
00000040: f4cb dc3d 24fe c23d 384e 653e 4f53 fa3d
00000050: a793 d6be e22f 66be bc18 0dbe cf19 d3bc
00000060: 0aec ad3d 57a1 cdbe 354f a1be 9850 eabe
00000070: 8e91 3dbe 8c32 83be 9617 893e bfb1 5b3d
00000080: 631f 8d3c 0c93 86bd 4c4f 01bf b4e4 c53d
00000090: 86f1 843e d927 193d e9bf 073e 7d13 b1bd
000000a0: 5651 cd3c 9400 513d 7b5b 663e 2f4a 233e
000000b0: ba41 8a3e 9b00 b0be 9d33 253e 6e94 a5bc
000000c0: c83e c13c 5602 d7bc d085 93be 76b6 b83e
000000d0: da31 35bd 8aa5 983c df77 10be 0d95 e7bd
000000e0: 9155 243e ba5b db3b ea1e e83c d0a3 e0be
000000f0: 063c 13be 6a8f 323e 494b e93d 2ad6 8a3b
00000100: 2cfa 01bf d6cd 483d ac4d 863e a0ee 53bc
00000110: 876e 9ebd 2755 dcbe 4384 ba3d f6bc 7ebe
00000120: 49cc 53be dbbe bfbe a286 75be 30f3 7abe
00000130: 5bc6 e3be 516e 9cbe ecb9 91be 4859 ab3e
00000140: a665 cdbe 06d8 dcbd a2fc 433e 023a 7b3e
00000150: 0fe3 433e fe54 fabe d493 5f3e 2af5 603c
00000160: ba2c e23d 6d67 0dbe 7084 9abe 4007 e13c
00000170: b7d1 ad3d e357 503e 0dc9 ebbd 80b3 45be
00000180: fa44 cfbd 4536 acbd 4ae9 223e 894a 953b
00000190: b4ed bdbe b3e5 31bd a9e1 d5bc e7f2 a1bc
000001a0: 06f0 503e b8b1 c6be f2b3 debe fc27 b8be
000001b0: 54f1 94be c8fb 103d f574 5b3e d152 d93d
000001c0: 0653 2bbe 4e60 bdbe 2fd6 36be f8ec 9fbc
000001d0: d722 7a3e 457f 643c 7475 52be 5e75 89be
000001e0: 67d8 c7bc b462 463d 23b8 653e 86e9 c93b
000001f0: 61d4 9abe 6a45 ad3d 9def a93d fa19 98bd
00000200: c548 243e b217 463d b819 603d cf04 ebbc
00000210: 58d4 debe 7074 9fbd 9543 72bd 0d47 d439
00000220: 0ab3 bfbe f898 b5be 20f1 b03d 47e0 923c
00000230: 1f8d 573e 51fd 75be e645 8c3d 6272 023e
00000240: 1b13 533e 3c09 313e 0612 bc3e 1be0 ac3e
00000250: 6591 813d 9d6e 8cbd 9d23 4e3d 3e10 4dbe
00000260: dd08 cdbe 65be dcbe 0bb3 333d 21b1 45bd
00000270: f6a6 0c3c 47b3 c8bd 63a1 b33d c48a ce3d
00000280: b606 7e3e 2972 073f 33fd 013f 8401 e9bd
00000290: 06e7 603c 0215 1dbe d376 2ebe b35f a83e
000002a0: ea9c a63c 0215 55be 0c13 afbe dc54 04bf
000002b0: 9f28 c1be 7f00 85bd 2bf3 58bd f02c 563d
000002c0: bff5 d1bd ddd2 f33c 02b1 743a 9a5a 21be
000002d0: bbf5 2abe b188 a5bd fde6 8d3e 25c2 babd
000002e0: 1dad 4cbe 3741 46be 567b 663c 1b4e a23e
000002f0: 600a 02be d4fa 96be 7194 90be ec15 a8bc
00000300: 8ee0 c33e d530 503e f2a9 27be 66c0 ffbd
00000310: 70b8 93bd aa82 02bc f6c4 983d 3250 923e
00000320: de65 b1be b5d6 c9be 0a00 3a3d 0f8a 0e3e
00000330: 3cc9 053e 1b1e 223d 424e 0ebf 5792 09bf
00000340: 0995 c33c 6f36 7d3e 17e0 e73e 8882 8a3d
00000350: 3df4 e6be 58a6 a3be 9819 9fbc 794b 563e
00000360: 3120 d0bc 7ccb 18be 7848 20be 9310 0fbe
00000370: bb92 be3d 2fca 223e 4da2 00be 55fd fabc
00000380: 2b2f bfbe 710a 0e3e 1749 643e b67c 8b3d
00000390: 6ad2 e43d c94d b33e 008a ecbd 08c7 a93e
000003a0: c5ac d63d 9bd1 513e de85 323e aa50 0fbf
000003b0: 1bde 3f3e b25e 6b3e 03e5 643d c6d0 c2be
000003c0: 2d1f 13bf f633 1bbe dc57 1abe 474a dcbe
000003d0: 72a3 00bf 4c4d a3bd b2bd d8be 27a1 0ebf
000003e0: f71a a6bd 5918 7f3e

conv1.bias f4 [10]
-1.2373627 -1.1246617 -0.8778235 -0.95538735 -0.36737108 -1.207708 -0.8440442 -1.151775
-0.9200431 -1.0505731
00000000: e761 9ebf eaf4 8fbf 0ab9 60bf 4494 74bf
00000010: 1018 bcbe 2d96 9abf 4813 58bf 5d6d 93bf
00000020: f287 6bbf 2e79 86bf

conv2.weight f4 [20, 10, 5, 5]
-0.080264 -0.043242164 -0.037747357 -0.060377985 -0.20377614 -0.0034786602 0.19598301 -0.04928765
-0.030931376 -0.016047895 -0.012637302 0.13003503 0.10574708 -0.023490928 0.04688668 -0.15046318
-0.2082826 0.05714592 0.19323131 0.08801276 -0.20843685 -0.23631781 -0.27176008 -0.4346918
-0.3413308 -0.12253883 -0.169999 0.092305996 -0.020878678 -0.061802637 -0.08686809 0.0180314
-0.0036132846 -0.02316177 0.057827473 0.017042767 -0.1211813 -0.077923976 -0.13299452 0.02719569
-0.15538496 -0.18318722 -0.17461735 -0.109057106 0.07915789 0.3175613 0.15266527 0.05096272
-0.06368412 -0.09031896 -0.1425468 0.021263 -0.14648716 -0.18290398 0.049299896 0.0014017792
0.06904719 0.04146958 -0.08747331 0.13276295 -0.24397929 -0.17121233 -0.06944406 -0.065264545
-0.17203502 -0.28950727 -0.19873428 -0.26902047 -0.28733647 -0.47341898 0.045233034 -0.08436883
-0.11219466 -0.22139475 -0.06925625 -0.16283922 -0.13055263 -0.1456235 -0.054457393 0.040182184
-0.18017133 -0.030776571 0.009875763 0.16444017 0.01719568 -0.07823313 0.18880369 -0.076213
0.10030382 -0.054306142 -0.0987373 0.025344156 0.047982212 0.0223581 -0.24098298 -0.22565092
-0.11264162 -0.15422575 -0.033255752 -0.20599854 -0.01690574 -0.072340764 -0.08304207 -0.086747445
-0.104806386 -0.104935125 0.0068668257 -0.13524744 -0.109766185 0.023479523 -0.099383235 -0.081937194
-0.09552418 -0.07938093 0.0059657213 0.06418046 0.070652194 0.07153875 0.021160731 0.035893727
0.1733765 0.10633348 0.31703925 0.15270612 0.06731667 -0.069953986 -0.12590045 0.059378807
0.085487574 0.08339748 -0.06016838 -0.044199713 0.09205457 -0.050298892 -0.009192251 -0.089440815
-0.108727954 -0.04945329 -0.013332016 -0.09765852 0.0018662467 -0.004906411 -0.1774093 -0.1198542
-0.11635066 0.1240887 0.029006783 0.04284376 0.21798769 0.13389044 -0.06080697 0.074988574
0.18264441 0.0066884207 0.17967728 -0.014262301 0.1203423 0.098680705 -0.0024555426 0.11100371
-0.03131239 0.048765812 0.0090565365 -0.10246088 0.15317392 0.08972515 0.04782083 0.023186745
0.02903263 0.1791738 0.05461685 0.12936714 -0.09267951 -0.093443476 -0.10183322 -0.0822736
0.03157334 -0.07372537 -0.0073180734 -0.16379605 -0.07351448 0.13716586 -0.018953161 0.0012790314
0.1012184 -0.11311514 0.045357656 0.08080164 0.0013176692 0.08292738 -0.20360972 -0.24260335
-0.20509541 -0.010664696 0.12223811 -0.042918637 0.10611033 0.02681072 -0.15569328 -0.34969556
-0.053375185 -0.047337934 0.0031484582 -0.2157399 -0.20409402 -0.154672 0.038493033 0.052186787
0.09272448 0.053394098 -0.16036256 0.036168627 0.15067883 0.050543986 0.022631688 -0.011244305
0.02759427 0.02397665 -0.07522737 -0.0031096982 0.15036951 0.18462521 0.35751864 0.2438055
-0.1419281 -0.03104665 0.044145584 -0.0066268686 -0.07127774 0.018540295 0.016776087 -0.0009721502
0.13847764 0.15377435 -0.064107865 0.008591378 -0.026345257 -0.120782584 -0.13243078 0.076900646
-0.02408139 0.11989968 0.12797658 0.057096116 -0.00071376027 0.07306392 -0.06039067 -0.03854362
0.038732816 -0.10667975 0.08004289 -0.1808505 -0.111943856 -0.16934828 -0.06663849 -0.06673658
00000000: 7461 a4bd b21e 31bd f99c 1abd e84e 77bd
00000010: b1aa 50be 3cfa 63bb c5af 483e d9e1 49bd
00000020: cc63 fdbc e076 83bc b00c 4fbc e727 053e
00000030: ed91 d83d 0c70 c0bc 3f0c 403d 0513 1abe
00000040: 0948 55be d711 6a3d 6ede 453e 0940 b43d
00000050: 7870 55be 4cfd 71be 2324 8bbe ec8f debe
00000060: e9c2 aebe a3f5 fabd 3814 2ebe ed0a bd3d
00000070: c309 abbc c324 7dbd e6e7 b1bd 96b6 933c
00000080: dbcc 6cbb c1bd bdbc 80dc 6c3d 469d 8b3c
00000090: e72d f8bd 9b96 9fbd b72f 08be 7fc9 de3c
000000a0: 3c1d 1fbe 6e95 3bbe e4ce 32be 5559 dfbd
000000b0: 881d a23d 6597 a23e 4954 1c3e 49be 503d
000000c0: d26c 82bd 26f9 b8bd caf7 11be be2f ae3c
000000d0: bb00 16be 2e4b 3bbe b0ee 493d e8bb b73a
000000e0: 9d68 8d3d 02dc 293d 3525 b3bd 03f3 073e
000000f0: b5d5 79be 4952 2fbe b038 8ebd 6ba9 85bd
00000100: f329 30be 4c3a 94be 0081 4bbe 0dbd 89be
00000110: c41d 93be f963 f2be 4646 393d 91c9 acbd
00000120: 50c6 e5bd 4eb5 62be 39d6 8dbd 53bf 26be
00000130: 97af 05be 541e 15be b70e 5fbd 1396 243d
00000140: d57e 38be 261f fcbc f4cd 213c 0163 283e
00000150: f4dd 8c3c b138 a0bd c155 413e 9015 9cbd
00000160: 176c cd3d 1e70 5ebd c836 cabd 8c9e cf3c
00000170: ff88 443d 5628 b73c 3ec4 76be 0911 67be
00000180: a6b0 e6bd 5bed 1dbe 2f37 08bd 48f1 52be
00000190: e87d 8abc 6527 94bd f611 aabd a5a8 b1bd
000001a0: bba4 d6bd 3ae8 d6bd 1c03 e13b 4e7e 0abe
000001b0: 18cd e0bd 2158 c03c 7089 cbbd b0ce a7bd
000001c0: 2ea2 c3bd 7892 a2bd 197c c33b 0c71 833d
000001d0: 19b2 903d e882 923d 4559 ad3c 4d05 133d
000001e0: 9c89 313e 5ec5 d93d f852 a23e fe5e 1c3e
000001f0: 53dd 893d 0944 8fbd 0cec 00be 3137 733d
00000200: 1c14 af3d 4ccc aa3d 1f73 76bd c20a 35bd
00000210: 1b87 bc3d 3606 4ebd 189b 16bc bf2c b7bd
00000220: c3ac debd 888f 4abd 876e 5abc 3101 c8bd
00000230: d99c f43a f5c5 a0bb c9aa 35be 1e76 f5bd
00000240: 4149 eebd 3722 fe3d a29f ed3c f07c 2f3d
00000250: 2a38 5f3e 931a 093e bb10 79bd 9c93 993d
00000260: 2307 3b3e 8a2a db3b 52fd 373e 6dac 69bc
00000270: 0676 f63d 1c19 ca3d 2bed 20bb ea55 e33d
00000280: 6c41 00bd a9be 473d de61 143c 03d7 d1bd
00000290: a0d9 1c3e d2c1 b73d c6df 433d 21f2 bd3c
000002a0: d7d5 ed3c 5679 373e ebb5 5f3d d278 043e
000002b0: c1ce bdbd 4b5f bfbd ef8d d0bd 107f a8bd
000002c0: 0c53 013d 54fd 96bd 73cc efbb 27ba 27be
000002d0: c28e 96bd 3575 0c3e a943 9bbc 2ca5 a73a
000002e0: 984b cf3d e9a8 e7bd f3c8 393d 557b a53d
000002f0: a4b5 ac3a d5d5 a93d 117f 50be 036d 78be
00000300: 8804 52be faba 2ebc f957 fa3d 74cb 2fbd
00000310: 5f50 d93d 28a2 db3c 0f6e 1fbe 4c0b b3be
00000320: f09f 5abd 6ce5 41bd 5d56 4e3b ecea 5cbe
00000330: 06fe 50be 5662 1ebe dfaa 1d3d d0c1 553d
00000340: 55e6 bd3d c5b3 5a3d 1536 24be 8e25 143d
00000350: 8d4b 1a3e 3607 4f3d 1766 b93c 093a 38bc
00000360: 610d e23c ae6a c43c cf10 9abd 14cc 4bbb
00000370: 77fa 193e 640e 3d3e af0c b73e 26a8 793e
00000380: 9a55 11be 8b55 febc 00d2 343d 3426 d9bb
00000390: 10fa 91bd d1e1 973c 016e 893c e5d7 7eba
000003a0: 15cd 0d3e 0677 1d3e fc4a 83bd dac2 0c3c
000003b0: 02d2 d7bc dc5c f7bd ef9b 07be 167e 9d3d
000003c0: 5646 c5bc f78d f53d 4b0c 033e 9edd 693d
000003d0: a41b 3bba 89a2 953d 355c 77bd eadf 1dbd
000003e0: 4da6 1e3d ea7a dabd 87ed a33d e030 39be
000003f0: d242 e5bd a369 2dbe c379 88bd 30ad 88bd

conv2.bias f4 [20]
-0.10137743 -0.14099313 0.030458875 -0.212192 -0.005243099 0.07073596 0.13220048 -0.08501205
-0.10783746 -0.105195984 -0.20297906 0.06642018 0.017072951 -0.048367806 0.194038 -0.188369
0.009652169 -0.0077990615 -0.20619704 -0.0059563196
00000000: f89e cfbd 8160 10be e484 f93c dc48 59be
00000010: 4dce abbb 04de 903d 905f 073e cc1a aebd
00000020: e3d9 dcbd fe70 d7bd bed9 4fbe 4e07 883d
00000030: 93dc 8b3c 521d 46bd e6b1 463e cee3 40be
00000040: 2224 1e3c 458f ffbb 5125 53be 3b2d c3bb

fc1.weight f4 [50, 320]
-0.053963628 -0.026141176 0.046057496 -0.014308587 -0.091930054 -0.08959749 -0.049797766 -0.020390555
-0.3159444 -0.09232752 -0.137351 0.029448295 0.07043263 0.0083745485 0.10414575 0.26288813
-0.093829416 -0.037424166 -0.18962015 -0.15211634 -0.058700524 -0.06793385 -0.1535922 -0.03530878
-0.021710427 -0.1668072 -0.036492806 -0.04996171 -0.03286004 0.050245047 -0.0142073445 0.1146814
-0.04943973 -0.016198067 -0.0025899198 0.0300861 0.042169977 -0.03447421 0.035865046 0.14245422
0.10349994 0.023784619 0.073650606 -0.0022807545 -0.036085986 -0.052665286 -0.103192054 -0.19668359
0.007378519 0.041991882 0.097840816 -0.1378526 0.017284185 -0.014408726 0.08936254 -0.14358327
0.03611979 -0.020745622 0.0019249823 -0.11876419 -0.1065693 0.06852436 -0.03938744 0.028777646
-0.079637736 0.12846823 0.022074621 0.090651244 -0.025654733 0.10470955 -0.038742237 -0.095539935
-0.022824852 0.11290584 0.11402038 0.05400594 -0.02213164 0.020181958 -0.046009704 -0.21468356
-0.055579927 -0.004520324 0.03433863 -0.13070229 -0.023545504 -0.022192905 0.11674424 -0.0070959562
0.05883482 0.07977672 0.078452006 0.10138019 0.053184826 -0.019393887 -0.17309795 -0.119550325
-0.13901737 0.021659754 0.024776766 0.039435778 0.010302149 -0.01680778 -0.1694447 0.092828244
0.037969183 -0.02274259 -0.01993622 -0.04068496 -0.06792746 -0.0019342173 -0.058230434 -0.23573096
-0.092964776 -0.09579861 0.09149303 -0.1459258 0.012520347 0.08507454 -0.037974674 -0.029537708
0.071680866 0.2276134 0.11068294 -0.21563417 -0.11178514 -0.10661706 -0.06471479 -0.12835754
-0.06117379 0.066736944 0.11083914 0.028097754 -0.08659204 -0.09285192 0.0041098716 0.114044204
-0.23925911 -0.018611608 -0.2305327 0.0042971396 -0.025872491 0.018723276 0.11415266 0.17100923
-0.1238415 -0.041480135 -0.1332346 -0.095757164 -0.073660776 -0.0119037 -0.07998619 -0.29490075
0.081086434 -0.091721445 0.11466937 -0.08652138 0.027208598 0.048099723 0.10736322 0.020591544
-0.029692614 -0.013689706 0.0054144757 -0.055892486 -0.026807463 0.1095837 -0.012210822 -0.072860256
0.1351116 0.041532714 0.023120396 -0.009300717 0.01585748 0.04741715 -0.03729849 0.25852135
-0.07236257 -0.032818925 0.04116808 -0.09745319 -0.052518792 -0.049718205 -0.08733616 0.02242838
0.10178091 0.07970014 -0.026195286 0.17507005 -0.052599605 -0.004544243 -0.07209824 0.06016748
0.06970378 0.026571464 0.00677926 0.051365927 0.0036953946 0.00091796834 0.0020735147 0.047029946
0.035193637 0.009971548 0.044225127 -0.0044302293 -0.07246074 -0.0097837355 -0.06645708 -0.01116005
-0.013770674 0.048525482 0.008492461 -0.027615868 -0.12195972 0.099340364 0.04979162 0.09867833
0.022380631 0.0667923 -0.027945204 0.06524405 -0.04335077 -0.0275113 -0.03370003 -0.028147487
0.04910907 -0.021233177 0.047629602 0.045057878 0.08704632 -0.031998627 0.22809747 0.068028264
-0.0327354 0.17162578 0.14761437 -0.1344036 -0.09601689 -0.0239551 -0.14951122 -0.2834412
-0.052620355 -0.06732841 -0.063158154 -0.18421254 0.063444555 -0.0062135644 0.06395541 -0.14254996
-0.041932404 -0.15828905 -0.057951022 -0.00057207176 -0.15517849 -0.03247603 0.14464062 0.22506788
00000000: f708 5dbd 0526 d6bc c9a6 3c3d 906e 6abc
00000010: d345 bcbd e47e b7bd bef8 4bbd 180a a7bc
00000020: 77c3 a1be 3616 bdbd bea5 0cbe 8d3d f13c
00000030: fc3e 903d 6735 093c 5e4a d53d 4699 863e
00000040: a329 c0bd 154a 19bd c92b 42be 63c4 1bbe
00000050: f66f 70bd e720 8bbd 4647 1dbe f09f 10bd
00000060: 11da b1bc 82cf 2abe 7b79 15bd a6a4 4cbd
00000070: 4098 06bd c0cd 4d3d ecc5 68bc 15de ea3d
00000080: 5081 4abd cfb1 84bc a5bb 29bb 2077 f63c
00000090: 6dba 2c3d d434 0dbd 3ae7 123d 85df 113e
000000a0: c7f7 d33d f6d7 c23c 21d6 963d b678 15bb
000000b0: e6ce 13bd 8eb7 57bd 5b56 d3bd 6c67 49be
000000c0: 81c7 f13b aeff 2b3d c460 c83d 3b29 0dbe
000000d0: 9097 8d3c 9412 6cbc b503 b73d 7e07 13be
000000e0: 58f2 133d b9f2 a9bc b04f fc3a a43a f3bd
000000f0: 0141 dabd 8056 8c3d b954 21bd 19bf eb3c
00000100: 1c19 a3bd 2d8d 033e d6d5 b43c 5ca7 b93d
00000110: e029 d2bc f671 d63d 2eb0 1ebd 71aa c3bd
00000120: 2ffb babc 2d3b e73d 8483 e93d 5535 5d3d
00000130: 6a4d b5bc a254 a53c ac74 3cbd 02d6 5bbe
00000140: c7a7 63bd 3a1f 94bb aaa6 0c3d d2d6 05be
00000150: 80e2 c0bc e5cd b5bc 9b17 ef3d 3285 e8bb
00000160: c8fc 703d fa61 a33d 72ab a03d 6ba0 cf3d
00000170: 55d8 593d eedf 9ebc 9740 31be cdd6 f4bd
00000180: 925a 0ebe cc6f b13c a5f8 ca3c 6987 213d
00000190: 58ca 283c 78b0 89bc e982 2dbe bc1c be3d
000001a0: 9385 1b3d ab4e babc 4951 a3bc 46a5 26bd
000001b0: 8d1d 8bbd 9085 fdba 0983 6ebd 7563 71be
000001c0: 5164 bebd 1032 c4bd b360 bb3d 936d 15be
000001d0: 2422 4d3c 8f3b ae3d 558b 1bbd 10f9 f1bc
000001e0: 6bcd 923d 7d13 693e bdad e23d 34cf 5cbe
000001f0: 9cef e4bd 0c5a dabd 3089 84bd 2970 03be
00000200: 5e91 7abd 61ad 883d a2ff e23d 432d e63c
00000210: 2b57 b1bd 2629 bebd 1aac 863b 0290 e93d
00000220: 5700 75be 5f77 98bc c410 6cbe 05cf 8c3b
00000230: 8cf2 d3bc 8e61 993c dfc8 e93d 0b1d 2f3e
00000240: 9da0 fdbd 13e7 29bd a76e 08be 551c c4bd
00000250: 76db 96bd bd07 43bc cdcf a3bd 3bfd 96be
00000260: a510 a63d 74d8 bbbd c6d7 ea3d 1f32 b1bd
00000270: 91e4 de3c 3704 453d 3fe1 db3d 99af a83c
00000280: ed3d f3bc ca4a 60bc ea6b b13b 85ef 64bd
00000290: 539b dbbc 6b6d e03d e60f 48bc c237 95bd
000002a0: b25a 0a3e 351e 2a3d fc66 bd3c 0962 18bc
000002b0: 8ce7 813c 7c38 423d 4dc6 18bd e95c 843e
000002c0: d432 94bd 236d 06bd dc9f 283d 8a95 c7bd
000002d0: f21d 57bd 51a5 4bbd 4ddd b2bd b9bb b73c
000002e0: 8272 d03d d439 a33d 7f97 d6bc 9045 333e
000002f0: af72 57bd e0e7 94bb 3ea8 93bd 2d72 763d
00000300: dbc0 8e3d 66ac d93c 8e24 de3b 1465 523d
00000310: 6f2e 723b d0a3 703a cee3 073b 79a2 403d
00000320: 3427 103d b45f 233c 6825 353d 752b 91bb
00000330: 4c66 94bd f64b 20bc a61a 88bd a4d8 36bc
00000340: 659e 61bc a8c2 463d f723 0b3c ac3a e2bc
00000350: 05c6 f9bd f672 cb3d 4cf2 4b3d dd17 ca3d
00000360: 9657 b73c 67ca 883d 57ed e4bc ac9e 853d
00000370: 9490 31bd 615f e1bc 0b09 0abd 8f95 e6bc
00000380: 9826 493d 33f1 adbc 4217 433d 9c8e 383d
00000390: 5745 b23d fe10 03bd 6292 693e 6752 8b3d
000003a0: 8e15 06bd abbe 2f3e 3928 173e 19a1 09be
000003b0: 81a4 c4bd 7c3d c4bc 7819 19be 341f 91be
000003c0: 7188 57bd 7ae3 89bd 1059 81bd 36a2 3cbe
000003d0: 38ef 813d 289b cbbb 0efb 823d 9ef8 11be
000003e0: 50c1 2bbd 8616 22be 0d5e 6dbd 16f7 15ba
000003f0: 1ce7 1ebe 9605 05bd ac1c 143e 3278 663e

fc1.bias f4 [50]
0.1762216 0.24790709 0.14742966 0.1711966 0.03104691 0.20752987 0.08402284 0.011534716
0.23202136 0.17557721 0.04132497 0.011287892 0.111932576 0.07125353 -0.035395786 0.07311003
-0.032844774 0.03650603 0.029411988 0.05704559 0.01867306 0.066526085 0.061996832 0.15445529
-0.03225487 -0.054343913 -0.030693531 0.104092665 0.091553956 0.08226888 0.08770915 0.04443347
0.012908735 0.1280997 0.23610124 0.087419845 -0.024345873 0.09596289 -0.0035750498 0.18322173
-0.03568346 0.10083517 0.09593858 0.35665375 0.20164587 0.16177897 0.084878385 0.13972929
0.2241784 0.107312426
00000000: 6f73 343e 5bdb 7d3e cdf7 163e 294e 2f3e
00000010: 1756 fe3c b682 543e 2b14 ac3d 1bfc 3c3c
00000020: 0297 6d3e 83ca 333e 5f44 293d daf0 383c
00000030: e83c e53d 5fed 913d 2cfb 10bd b6ba 953d
00000040: 3e88 06bd 5987 153d 69f1 f03c a3a8 693d
00000050: 3ff8 983c d43e 883d 64f0 7d3d 8729 1e3e
00000060: af1d 04bd b997 5ebd 0071 fbbc 892e d53d
00000070: a480 bb3d 967c a83d dba0 b33d dfff 353d
00000080: 297f 533c 912c 033e 86c4 713e 2d09 b33d
00000090: ff70 c7bc 3188 c43d 624b 6abb 7a9e 3b3e
000000a0: d228 12bd ab82 ce3d 727b c43d 529b b63e
000000b0: 417c 4e3e 63a9 253e b8d4 ad3d 3215 0f3e
000000c0: 068f 653e 9ec6 db3d

fc2.weight f4 [10, 50]
0.27247226 -0.051759545 -0.14759153 -0.26555192 0.27296257 -0.17104968 -0.22236183 0.35541198
-0.30558518 -0.34385645 -0.13497959 -0.21219774 -0.31822944 -0.21565652 -0.1435664 0.27210602
-0.01931225 -0.24409033 -0.00071958586 0.36164102 -0.2232139 0.3046699 -0.29083574 -0.1680577
-0.08870615 -0.16489922 -0.12139752 -0.18661013 -0.23087797 -0.29074278 0.36184937 -0.21111585
-0.30498475 -0.32277063 -0.29188633 0.29079753 -0.25194824 0.2873072 0.19650748 0.28077427
-0.19932574 -0.33221954 0.21492775 0.19947541 -0.2647055 0.3604933 0.23401846 -0.17722698
-0.22756648 0.17410685 0.27291948 0.25669327 0.06542648 0.33766738 -0.36165932 0.31533664
-0.23898184 -0.22197546 0.2821116 0.24710901 -0.17798969 -0.17204931 0.3058041 -0.16402909
-0.28808272 -0.2941437 -0.040790137 -0.20672461 -0.29619354 -0.31117278 -0.29845095 -0.21945944
-0.18645975 0.2512742 -0.19912975 -0.24896587 -0.247948 0.09500451 -0.057310153 0.28741413
-0.04008978 -0.05303767 -0.20069772 0.29076827 0.23420781 -0.30837396 -0.22740395 -0.27386853
-0.34272105 0.2891954 -0.4080209 -0.16006987 -0.28732863 0.2960294 0.3205624 0.23088461
-0.30510065 0.31111124 0.4255266 -0.28557643 0.24782081 -0.10159537 0.43358 -0.012604678
-0.21791488 -0.2242192 -0.158772 -0.18569963 -0.15335225 -0.031301092 0.29651088 0.014107582
-0.22448379 -0.2370049 0.23026891 -0.08862916 -0.2743256 -0.1667988 0.17946167 0.19943628
-0.3444658 -0.06989384 0.020514214 -0.07021036 0.22204965 -0.07985049 0.15834688 0.40179554
-0.13609087 -0.1462345 0.08743468 0.17500648 -0.36133653 0.22929457 0.31366736 0.1716283
-0.16519898 0.26614395 -0.10498666 -0.012781658 -0.17363401 0.26753652 -0.031925883 0.15340072
0.24511653 -0.19985159 0.19539623 0.4083 0.39699662 0.1255247 -0.108191125 0.28952888
0.31167486 -0.07362573 -0.20020029 -0.1826771 0.26569936 -0.06690052 -0.15020423 -0.2863121
0.06895599 0.41683453 -0.20557931 0.3511393 0.08444083 -0.08338651 -0.023008807 0.30238986
0.29292926 -0.17489284 -0.21970436 -0.10247629 -0.14402016 -0.25218087 -0.09094737 -0.2180378
0.22447824 0.36045933 -0.16390681 -0.20225142 0.02582271 0.33294854 0.27055 0.24181747
-0.06437681 -0.18295497 -0.033698488 0.029752146 -0.23786665 -0.17662378 -0.07717218 -0.09432867
0.25577024 -0.2389628 -0.08131141 -0.076287724 -0.22178097 -0.0033928936 0.18140839 0.3257547
0.002250158 -0.2677513 -0.26162472 -0.047675643 -0.21590798 0.15465152 0.2182041 -0.11817231
0.38827989 0.203105 0.2523664 0.01163978 0.31189334 -0.20948555 -0.20711674 -0.21588701
-0.11455689 -0.15519992 0.3045519 0.15500057 0.20502509 0.30668935 0.01158683 0.26522896
0.24113743 0.13655041 -0.07124129 -0.30821696 0.32441124 0.33945423 -0.11162232 -0.017218221
-0.07996088 0.15274331 0.28797865 -0.1669155 0.3342911 -0.3232264 0.3077197 -0.30964985
0.33687326 0.25241938 -0.16955057 -0.16020434 -0.15348022 0.10160845 0.15570475 0.04687179
-0.16254339 -0.32526213 -0.2497904 0.3532385 -0.106249355 0.037469793 0.18471916 0.04462521
00000000: 7c81 8b3e d101 54bd 3c22 17be 6cf6 87be
00000010: c0c1 8b3e a627 2fbe d2b2 63be 8ff8 b53e
00000020: a975 9cbe f40d b0be 1738 0abe 5d4a 59be
00000030: f8ee a2be 10d5 5cbe 1203 13be 7b51 8b3e
00000040: b934 9ebc d1f2 79be 97a2 3cba 0329 b93e
00000050: 2f92 64be b1fd 9b3e 6ce8 94be 5117 2cbe
00000060: 92ab b5bd 57db 28be 439f f8bd ba16 3fbe
00000070: 466b 6cbe 3ddc 94be 5244 b93e c12e 58be
00000080: f626 9cbe 3142 a5be 2072 95be 6ae3 943e
00000090: 5cff 80be ee19 933e 4239 493e a5c1 8f3e
000000a0: 0c1c 4cbe ae18 aabe 0516 5c3e 4843 4c3e
000000b0: 7b87 87be 9492 b83e 89a2 6f3e fd7a 35be
000000c0: 3007 69be 1149 323e 1abc 8b3e 4d6d 833e
000000d0: 51fe 853d bde2 ac3e 692b b9be ce73 a13e
000000e0: a8b7 74be 894d 63be ee70 903e 250a 7d3e
000000f0: ee42 36be b22d 30be 5b92 9c3e 3ef7 27be
00000100: 947f 93be 019a 96be 8f13 27bd 9eaf 53be
00000110: aea6 97be 0a52 9fbe 90ce 98be fab9 60be
00000120: 4eef 3ebe 03a7 803e abe8 4bbe e9f0 7ebe
00000130: 15e6 7dbe b991 c23d 0dbe 6abd f227 933e
00000140: 2e35 24bd 073e 59bd b483 4dbe 94df 943e
00000150: 2cd4 6f3e 31e3 9dbe 95dc 68be 7f38 8cbe
00000160: 2279 afbe 6b11 943e 1ee8 d0be 5be9 23be
00000170: bd1c 93be 2a91 973e c120 a43e 046d 6c3e
00000180: 2736 9cbe f949 9f3e 9fde d93e 1337 92be
00000190: bdc4 7d3e 3c11 d0bd 33fe dd3e da83 4ebc
000001a0: 1425 5fbe b899 65be 2195 22be 0b28 3ebe
000001b0: 5f08 1dbe 9335 00bd 46d0 973e 7d23 673c
000001c0: 14df 65be 6ab1 72be 9dcb 6b3e 3483 b5bd
000001d0: 6874 8cbe 4ecd 2abe cdc4 373e 0639 4c3e
000001e0: d25d b0be 8024 8fbd 6d0d a83c 73ca 8fbd
000001f0: fc60 633e a788 a3bd af25 223e 25b8 cd3e
00000200: 685b 0bbe 7fbe 15be f410 b33d e634 333e
00000210: 1a01 b9be 32cc 6a3e 0299 a03e 54bf 2f3e
00000220: ec29 29be 0544 883e 3f03 d7bd 296a 51bc
00000230: 1dcd 31be 8cfa 883e b7c4 02bd 1415 1d3e
00000240: d4ff 7a3e e5a5 4cbe f315 483e b30c d13e
00000250: 2443 cb3e 8c89 003e 4f93 ddbd 213d 943e
00000260: d993 9f3e 16c9 96bd 4e01 4dbe b50f 3bbe
00000270: bf09 883e 2403 89bd 23cf 19be 8097 92be
00000280: cc38 8d3d 566b d53e 6283 52be 88c8 b33e
00000290: 50ef ac3d 8cc6 aabd f77c bcbc d8d2 9a3e
000002a0: d3fa 953e 1c17 33be 2efa 60be 17df d1bd
000002b0: 057a 13be da1d 81be 9d42 babd 4d45 5fbe
000002c0: a0dd 653e 208e b83e 30d7 27be ff1a 4fbe
000002d0: 268a d33c 3b78 aa3e 8885 8a3e 009f 773e
000002e0: fdd7 83bd 8c58 3bbe 6d07 0abd c6ba f33c
000002f0: 5193 73be dddc 34be 730c 9ebd 642f c1bd
00000300: 51f4 823e aab2 74be 9986 a6bd bd3c 9cbd
00000310: 8d1a 63be 4f5b 5ebb 1fc3 393e 52c9 a63e
00000320: 6377 133b b316 89be adf3 85be 8947 43bd
00000330: fb16 5dbe f85c 1e3e e570 5f3e 5304 f2bd
00000340: 9fcc c63e c2fa 4f3e 2b36 813e c7b4 3e3c
00000350: 7cb0 9f3e 6183 56be 6916 54be 7c11 5dbe
00000360: ce9c eabd baec 1ebe 3aee 9b3e 78b8 1e3e
00000370: 19f2 513e 6306 9d3e b0d6 3d3c 17cc 873e
00000380: bbec 763e dfd3 0b3e f4e6 91bd 9dce 9dbe
00000390: 3b19 a63e f2cc ad3e 3e9a e4bd 3a0d 8dbc
000003a0: 88c2 a3bd be68 1c3e f071 933e e6eb 2abe
000003b0: 3428 ab3e ee7d a5be 708d 9d3e 6d8a 9ebe
000003c0: a77a ac3e 1d3d 813e aa9e 2dbe 9b0c 24be
000003d0: eb29 1dbe 1718 d03d 1171 1f3e a2fc 3f3d
000003e0: c671 26be c288 a6be 0ec9 7fbe addb b43e
000003f0: 4399 d9bd ed79 193d 0527 3d3e edc8 363d

fc2.bias f4 [10]
0.3738228 0.6271924 -0.078195676 0.18106638 -0.4611868 0.13541575 -0.31732747 -0.23498042
0.13692488 -0.34652805
00000000: b465 bf3e ae8f 203f 0e25 a0bd 7769 393e
00000010: ad20 ecbe 6daa 0a3e bf78 a2be b59e 70be
00000020: 0936 0c3e 206c b1be
