proj5/task4/results/exp8_16.pth (torch, 89871 bytes, 8 tensors)

conv1.weight f4 [10, 1, 5, 5]
0	0x3e1871bb	0.14887135
1	0x3e486213	0.19568662
2	0x3c50e062	0.0127488095
3	0x3e647b1e	0.2231259
4	0xbd9d2c7c	-0.076745
5	0xbe1ebec0	-0.15502453
6	0xbd449d69	-0.04800168
7	0x3e2c0f36	0.16802678
8	0x3e31ab29	0.17350449
9	0xbe3bb4d5	-0.183307
10	0xbbcf6b2e	-0.0063299155
11	0xbbf780ea	-0.0075532096
12	0x3d429a6d	0.047510553
13	0x3dba03dc	0.09082767
14	0x3d1d65a2	0.038427003
15	0x3bdcee97	0.0067423093
16	0x3e0cb149	0.13739504
17	0x3d3af25b	0.045641284
18	0x3d7b70b2	0.06138677
19	0x3e0357d9	0.1282648
20	0xbeb1820f	-0.3466954
21	0xbe5dd111	-0.21661784
22	0xbe326186	-0.17420015
23	0x3e191c10	0.14952111
24	0xbd65f231	-0.056139175
25	0xbe2f9bb8	-0.17149246
26	0xbdf989cd	-0.121844865
27	0xbe764f43	-0.24053673
28	0xbe1a472d	-0.15066214
29	0xbeaeb745	-0.341242
30	0x3e367046	0.17816266
31	0xbe766a88	-0.24064076
32	0xbd6d450a	-0.05792717
33	0xbe62dbbe	-0.22154137
34	0xbe20ce43	-0.15703683
35	0x3e63a168	0.2222954
36	0x3e523e73	0.20531635
37	0x3e4a5fda	0.19763127
38	0x3e397f27	0.18114911
39	0x3e65f4df	0.22456692
40	0x3c4055c4	0.011739198
41	0x3d99a5d6	0.07502334
42	0x3e4ff2a5	0.20307405
43	0x3e876bf7	0.26449558
44	0x3e7c7885	0.2465535
45	0xbe935c3c	-0.28781307
46	0x3d3a09a1	0.04541934
47	0xbd9dc479	-0.0770349
48	0xbd9cf3f0	-0.07663715
49	0xbd62d0a5	-0.05537476
50	0xbe2553b0	-0.16145205
51	0x3e0cb267	0.1373993
52	0xbd5f07e0	-0.05445087
53	0x3d404d43	0.046948683
54	0x3dac54dd	0.08414624
55	0xbe1635c2	-0.14668944
56	0x3e252c19	0.16130103
57	0x3cb79da8	0.022414044
58	0x3d56e848	0.052467614
59	0xbdc0e13f	-0.09417962
60	0x3cedcd27	0.029028488
61	0x3e845601	0.25846866
62	0x3d93301e	0.07186912
63	0xbdc5312b	-0.09628519
64	0xbe46f2d3	-0.19428568
65	0x3e12dbf9	0.14341725
66	0x3e8adf95	0.27123705
67	0xbe0c51cc	-0.13703078
68	0xbce0b5d9	-0.027430462
69	0xbe8ed4dc	-0.27896774
70	0x3e62893b	0.22122662
71	0xbc407fbe	-0.011749206
72	0xbd2fbefd	-0.04290675
73	0xbe5d176e	-0.21590969
74	0xbeb121d1	-0.34596112
75	0xbeabb7df	-0.3353872
76	0xbe9480cd	-0.29004517
77	0xbde2acc9	-0.110681124
78	0xbcd14ecd	-0.02555027
79	0x3e80e7e2	0.25176913
80	0xbe9b47d1	-0.3032823
81	0xbe48dcb1	-0.19615437
82	0x3d765666	0.06014099
83	0x3d9fddec	0.07806
84	0x3e89c3ff	0.26907346
85	0xbeb41025	-0.35168567
86	0x3d16143f	0.036640402
87	0xbcf9521e	-0.030434664
88	0x3e417b11	0.18894602
89	0x3e405d48	0.18785584
90	0xbe5a2209	-0.21302046
91	0xbdba6c14	-0.091026455
92	0x3ddea568	0.108713925
93	0x3e803674	0.25041544
94	0xbcd7a81e	-0.026325282
95	0xbe134a38	-0.14383781
96	0x3d0e47a8	0.034736305
97	0xbd90136a	-0.07034953
98	0x3dd4d7e6	0.10392742
99	0x3d3126cd	0.043249894
100	0xbe89ce7c	-0.26915348
101	0xbda3eaea	-0.08003791
102	0xbdafaa65	-0.08577422
103	0xbe1482f0	-0.14503074
104	0x3c43da6d	0.011953932
105	0xbe355bb8	-0.17710769
106	0xbe6cab6a	-0.23112264
107	0xbe0aa8ac	-0.13540906
108	0xbe40e3ba	-0.18836871
109	0xbdf51144	-0.11966184
110	0x3da28242	0.07935001
111	0xbd8305e5	-0.06397609
112	0xbcb2ba8c	-0.021817468
113	0xbe72a87a	-0.23697081
114	0xbe0a189d	-0.13485952
115	0xbd1778e2	-0.036980517
116	0x3da4971d	0.08036635
117	0xbe472ea6	-0.19451389
118	0xbe0ec55d	-0.13942476
119	0xbe0d6183	-0.13806729
120	0x3e257318	0.16157186
121	0x3c904413	0.017610585
122	0x3c51567b	0.012776966
123	0xbe6fc48b	-0.23414819
124	0xbea02ab8	-0.31282592
125	0xbdad2c82	-0.08455755
126	0x3da21552	0.07914223
127	0x3cd601b9	0.026123868
128	0x3e1d7cd4	0.1537965
129	0x3d7825c8	0.060582906
130	0xbbd9d8af	-0.006648145
131	0xbd2f4764	-0.042792693
132	0xbebdec71	-0.37094453
133	0xbe5082f4	-0.20362455
134	0xbe26b74f	-0.16280864
135	0xbe1ddba4	-0.15415817
136	0xbe838d8a	-0.25693923
137	0xbebbcbc1	-0.3667889
138	0xbdcbdd70	-0.09954345
139	0xbcb426a0	-0.021991074
140	0x3dd23ec4	0.10265878
141	0xbd8b9604	-0.068157226
142	0x3e6aa531	0.22914578
143	0x3d9aa4dc	0.07550976
144	0x3e82e840	0.25567818
145	0x3d8b6fed	0.068084575
146	0x3e6d67f4	0.23184186
147	0x3e953091	0.29138616
148	0x3e4ee3e3	0.2020412
149	0xbd87bfae	-0.06628357
150	0x3d5bafda	0.053634502
151	0xbe83f158	-0.25770068
152	0xbe92972d	-0.28630963
153	0xbe6a8cc3	-0.22905259
154	0x3e67763e	0.226037
155	0xbe067b4b	-0.1313297
156	0x3def3b4e	0.11681233
157	0x3e2b1b7f	0.16709708
158	0x3e47dce8	0.19517863
159	0xbcb0cacf	-0.021581082
160	0x3eb5085f	0.3535795
161	0x3e941683	0.28923425
162	0x3dc6d3aa	0.097083405
163	0xbe8f3227	-0.2796795
164	0x3cb3fd08	0.02197124
165	0xbe345201	-0.17609407
166	0xbe1015a6	-0.14070758
167	0x3e10b11b	0.1413006
168	0xbe102867	-0.14077912
169	0xbe44b5d7	-0.19209991
170	0xbec1f5a0	-0.3788271
171	0xbe084f9b	-0.13311617
172	0x3de6aa2a	0.11262925
173	0xbd93417e	-0.07190226
174	0xbdfbdbcb	-0.122977816
175	0xbc0ecb51	-0.008715467
176	0xbe4494a4	-0.19197327
177	0xbddf6ba2	-0.10909201
178	0x3d939d11	0.072076924
179	0xbdf6395f	-0.120226614
180	0x3da591a9	0.08084423
181	0x3e62e916	0.22159228
182	0x3dabe7e5	0.0839384
183	0xbe1fe606	-0.1561509
184	0xbeb45217	-0.3521888
185	0xbd0acfe4	-0.033889666
186	0x3e04b2fd	0.12958904
187	0x3e5eb220	0.21747637
188	0xbd95d62d	-0.073162414
189	0xbebf5dec	-0.37376344
190	0xbe4eb307	-0.20185481
191	0xbd36a883	-0.0445943
192	0x3ed8de8c	0.4235729
193	0x3ebbf939	0.3671358
194	0xbd96c83e	-0.07362412
195	0xbe59c86f	-0.21267866
196	0xbe304a02	-0.17215732
197	0xbdac81cb	-0.084231935
198	0x3e75a9e0	0.23990583
199	0x3df53e39	0.11974759
200	0xbebf4320	-0.373559
201	0xbe721db7	-0.23644148
202	0x3decd8f3	0.11564817
203	0x3e8a2c63	0.2698699
204	0x3e6a3473	0.2287157
205	0xbe374aca	-0.17899624
206	0xbf1fe5eb	-0.624602
207	0xbf12a3a7	-0.57280964
208	0xbe0c3ab1	-0.13694264
209	0x3e692e0b	0.2277147
210	0x3ebce07f	0.36890027
211	0xbd6effd9	-0.058349464
212	0xbf0b115d	-0.5432337
213	0xbef66ae3	-0.48128423
214	0xbe5a2b76	-0.21305642
215	0x3e92e254	0.286883
216	0x3e5b640e	0.21424887
217	0xbe1e2fd0	-0.15447927
218	0xbe89602b	-0.26831183
219	0xbeabbcb0	-0.33542395
220	0xbd17a27e	-0.0370202
221	0x3ebb187f	0.36542127
222	0x3dc2554b	0.094889246
223	0x3d6cba2a	0.057794727
224	0xbe968cae	-0.29404205
225	0x3cb6912b	0.022286018
226	0x3e41936e	0.18903896
227	0x3e024951	0.1272328
228	0x3d66ea72	0.05637593
229	0x3e388c95	0.18022378
230	0xbd3e10cf	-0.04640275
231	0x3e97a4ed	0.29618016
232	0x3e679ad9	0.22617663
233	0x3ebc203c	0.36743343
234	0x3ea734e4	0.3265754
235	0xbe03b045	-0.1286021
236	0xbd8b72c1	-0.06808997
237	0xbdc0f48e	-0.09421645
238	0xbe0e3ec5	-0.13891132
239	0xbe82e274	-0.25563395
240	0xbe5cf84a	-0.2157909
241	0xbe58f758	-0.21188104
242	0xbe77dddf	-0.24205731
243	0xbeb1bdb9	-0.3471506
244	0xbea62358	-0.3244884
245	0xbefbe138	-0.49195266
246	0xbed5b4e9	-0.41739586
247	0xbe978c45	-0.29599205
248	0xbdac3ac7	-0.084096484
249	0x3d818b0b	0.063253485

conv1.bias f4 [10]
0	0xbeb47b9c	-0.35250556
1	0xbea30766	-0.31841582
2	0xbebb3e03	-0.3657075
3	0xbed122e1	-0.40846923
4	0xbd82bc7c	-0.06383607
5	0xbed4cf11	-0.4156423
6	0xbe365e6e	-0.1780946
7	0xbf0b4eaf	-0.54416937
8	0xbe6e175b	-0.23251097
9	0xbecc51cb	-0.39906153

conv2.weight f4 [20, 10, 5, 5]
0	0xbd26c48d	-0.04071479
1	0xbd64e27b	-0.05588005
2	0xbd76bb82	-0.060237415
3	0xbdf7fcf0	-0.12108791
4	0xbe10cd83	-0.14140896
5	0x3bbed288	0.005823437
6	0x3cdd4bf8	0.027013764
7	0xbdbb1c1c	-0.09136221
8	0xbccf31c6	-0.025292289
9	0xbdfb0818	-0.12257403
10	0x3c8f8aa5	0.017522166
11	0x3d244462	0.040104277
12	0x3d67b14c	0.056565568
13	0x3d650169	0.055909548
14	0x3de917fb	0.11381527
15	0xbd81fa8d	-0.06346617
16	0xbe02f4af	-0.12788652
17	0xbd6400a5	-0.055664677
18	0x3c6800f2	0.014160382
19	0x3c822674	0.015887477
20	0xbd19e167	-0.037568476
21	0xbe3a829f	-0.1821389
22	0xbe42feef	-0.19042562
23	0xbe9892a2	-0.29799372
24	0xbe0eada8	-0.13933432
25	0xbc7e0930	-0.01550512
26	0xbcd15fab	-0.025558313
27	0x3db285de	0.087169394
28	0x3e157f8a	0.14599434
29	0xbd9ef225	-0.07761029
30	0x3d2f0a5d	0.042734493
31	0xba273498	-0.00063783815
32	0xbdb89b3c	-0.090139836
33	0xbcabfb5c	-0.02099388
34	0x3db86b32	0.09004821
35	0x3c12e6d8	0.00896617
36	0xbcb191e6	-0.021676015
37	0x3bf81ec0	0.007572025
38	0x3c505424	0.012715373
39	0x3de8f91c	0.11375639
40	0xbc8fa350	-0.017533928
41	0xbe06c806	-0.1316224
42	0xbe1e2c01	-0.15446474
43	0xbd6a1d4b	-0.057156842
44	0x3ce2f486	0.027704488
45	0x3e75f0a6	0.24017581
46	0x3ceceeb1	0.02892241
47	0x3a7ac3b3	0.00095659046
48	0xbca42149	-0.020035403
49	0xbda43dd0	-0.08019602
50	0xbc58be03	-0.013228896
51	0x3c999847	0.01874937
52	0xbd6794cc	-0.056538388
53	0xbcc55d9e	-0.024092492
54	0x3e3b1500	0.1826973
55	0xbce9fd1a	-0.028563071
56	0x3d59952c	0.053120777
57	0x3e024757	0.12722526
58	0xbc82dcb7	-0.015974386
59	0x3d9dbd44	0.07702115
60	0xbe250ce6	-0.16118202
61	0xbdab5fff	-0.08367919
62	0xbd1757fe	-0.03694915
63	0xbdb44d1b	-0.08803769
64	0xbe07f001	-0.13275148
65	0xbe7c3a10	-0.24631524
66	0xbe0bc50c	-0.13649386
67	0xbe654a9a	-0.2239174
68	0xbe8a0200	-0.2695465
69	0xbe8f258f	-0.27958342
70	0xbbe1557f	-0.006876647
71	0xbcb7c460	-0.022432506
72	0xbd791bec	-0.060817644
73	0xbdbfd9a5	-0.09367684
74	0x3d1d0d12	0.038342543
75	0xbd946719	-0.07246227
76	0xbcd65bf2	-0.02616689
77	0xbd8ef479	-0.06980223
78	0x3daa940e	0.083290204
79	0xbd9a23e1	-0.075263746
80	0xbcbcc9fa	-0.023045529
81	0xbcb8202b	-0.022476276
82	0xbd3fec0f	-0.046855982
83	0x3d2d471e	0.04230415
84	0xbe15987f	-0.14608954
85	0xbd9e00fc	-0.077150315
86	0x3dbe0fdd	0.092803694
87	0xbd97dea4	-0.07415512
88	0xbc338ca1	-0.0109588215
89	0xbe027e07	-0.12743388
90	0xbdd4e6da	-0.10395594
91	0xbbc75633	-0.006083274
92	0x3bd283f9	0.006424424
93	0xbae12043	-0.0017175752
94	0xbdfbf0c1	-0.123017795
95	0xbe495dde	-0.19664714
96	0xbda72cce	-0.08162843
97	0xbdcf08ae	-0.101090774
98	0xbd5012d1	-0.050799195
99	0xbd002f1a	-0.03129492
100	0xbd3f1665	-0.046652216
101	0xbd09660a	-0.033544578
102	0xbde4a679	-0.11164565
103	0xbded73dc	-0.11594364
104	0xbc484756	-0.012224039
105	0xbd49bb5a	-0.049250938
106	0xbc829c4d	-0.01594367
107	0xbda68001	-0.081298836
108	0xbe143cb5	-0.14476283
109	0xbd0e6cba	-0.03477166
110	0x3c8175e6	0.015803289
111	0xbcf65259	-0.030068563
112	0xbda7e836	-0.081985876
113	0xbdd19350	-0.10233176
114	0xbdc1ffae	-0.09472595
115	0xbad27925	-0.0016057832
116	0x3ba9634c	0.005169308
117	0x3da9043f	0.08252763
118	0x3d3b6409	0.045749698
119	0xbd681ec9	-0.056669984
120	0x3d5724b1	0.052525226
121	0x3ca7bee2	0.020476762
122	0x3dd09782	0.10185148
123	0x3d9b0b58	0.07570523
124	0x3db75a8c	0.08952817
125	0x3caad33c	0.020852678
126	0xbd8ee71f	-0.069776766
127	0xbc04a38a	-0.008095631
128	0x3dd55e09	0.104183264
129	0x3d860afb	0.06545063
130	0x3c377312	0.0111968685
131	0x3c84fd8f	0.016234187
132	0x3ca1d86d	0.01975652
133	0xbbff0602	-0.0077826986
134	0x3d8700cb	0.06591948
135	0xbcaafd3a	-0.020872701
136	0xbd7e1bd0	-0.062038243
137	0x3cfce592	0.030871186
138	0x3da25000	0.07925415
139	0x3d2cf51b	0.04222594
140	0x3d827d18	0.06371516
141	0x3d4d76d4	0.05016215
142	0xbd38fa58	-0.04516062
143	0xbd28c39f	-0.041202184
144	0xbcc7b4ab	-0.024378141
145	0x3dc9314a	0.09823854
146	0x3a10d973	0.00055255665
147	0x3c9e979f	0.019359408
148	0x3dcf66eb	0.10127052
149	0x3dd25966	0.10270958
150	0x3c39b759	0.011335217
151	0x3daf0673	0.08546152
152	0x3dabd88b	0.08390912
153	0x3d79c0e3	0.060974967
154	0x3d8b78d4	0.068101555
155	0xbd4fd731	-0.050742332
156	0x3cdca978	0.026936278
157	0x3d8ea49e	0.06964992
158	0x3d8b97c6	0.06816058
159	0x3d9da255	0.07696978
160	0x3c35881b	0.011079813
161	0xbd40e790	-0.047095835
162	0xbbe3d75f	-0.0069531645
163	0x3c7eb47e	0.015545962
164	0x3de19956	0.11015575
165	0x3d761403	0.06007768
166	0xbd83d9ca	-0.06438024
167	0xbda98543	-0.08277371
168	0xbd271aa5	-0.040796895
169	0x3d53037c	0.051516995
170	0x3db5c272	0.08874978
171	0x3c64ac16	0.013957044
172	0xbdd7dede	-0.105405554
173	0xbd7b42f5	-0.061343152
174	0xbddd2433	-0.1079792
175	0xbdcd5273	-0.100254916
176	0xbc8aee5b	-0.01695936
177	0xbd6a1ba3	-0.057155263
178	0xbd176c5b	-0.03696857
179	0xbd9841c4	-0.07434419
180	0xbda8888e	-0.08229171
181	0x3d4e3fe4	0.0503539
182	0xbdd6b355	-0.104834236
183	0x3da9bac1	0.082875736
184	0x3e2ca423	0.16859488
185	0xbdbe9e95	-0.09307591
186	0x3cf927d8	0.030414507
187	0x3d12e5f1	0.03586382
188	0x3d9e1708	0.077192366
189	0x3d8076be	0.06272648
190	0xbcc6f14d	-0.024284983
191	0xbe40fbf9	-0.1884612
192	0xbe400bae	-0.18754455
193	0xbd51d404	-0.051227584
194	0x3c7af7cc	0.015317868
195	0xbbd0f533	-0.0063768863
196	0xbba04fde	-0.0048923334
197	0x3d49ce04	0.049268737
198	0xbd941e29	-0.07232315
199	0xbe961ec6	-0.29320353
200	0xbd2facdb	-0.042889457
201	0x3be1163f	0.006869107
202	0xbd211220	-0.039323926
203	0xbe423698	-0.18966138
204	0xbdae4fb2	-0.085112944
205	0xbe13b64c	-0.1442501
206	0xbdd77d47	-0.10521942
207	0xbdebeb6c	-0.115195125
208	0xbda9c289	-0.08289058
209	0xbcef0332	-0.029176328
210	0xbd26032b	-0.040530365
211	0xbd2e24bc	-0.0425155
212	0x3da45f3f	0.08025979
213	0xbcc59a14	-0.024121322
214	0xbd85aab2	-0.06526698
215	0x3dffc464	0.124886304
216	0x3dac054c	0.08399448
217	0xbcdbb254	-0.026818432
218	0x3cbf6a94	0.02336625
219	0x3d5c3a8c	0.053766772
220	0x3e5ef3ac	0.21772641
221	0x3e591091	0.21197726
222	0x3e390613	0.18068723
223	0x3e182a47	0.14859878
224	0x3b67a99e	0.0035348902
225	0x3ac465fe	0.0014984009
226	0x3db82dfb	0.08993145
227	0xbcb6941f	-0.022287427
228	0x3c88598a	0.016644258
229	0x3be2b40e	0.006918437
230	0x3c861589	0.01636769
231	0x3c887881	0.016659023
232	0x3c8b8b22	0.017034117
233	0x3bd75dda	0.0065724673
234	0xbd020684	-0.031744495
235	0x3c880537	0.01660405
236	0xbd1422ab	-0.036165874
237	0x3a94f874	0.0011365549
238	0x3cd50f95	0.026008407
239	0x3cc5ec46	0.024160516
240	0x3d393378	0.0452151
241	0x3c44e49f	0.012017398
242	0x3d7733ee	0.06035226
243	0x3deb884a	0.115006045
244	0x3e1035ef	0.14083074
245	0x3e570151	0.20996596
246	0x3d722351	0.05911571
247	0x3bc56a93	0.0060246675
248	0xbc098ea4	-0.008395825
249	0x3c211d1e	0.009833602
250	0xbcd15ad8	-0.025556013
251	0xbe1c3062	-0.15252832
252	0xbd748db6	-0.05970546
253	0xbd4d43cb	-0.05011348
254	0xbd4345f8	-0.04767415
255	0xbc4e67ca	-0.012597987

conv2.bias f4 [20]
0	0x3cbc4324	0.022981234
1	0xbd708b73	-0.05872674
2	0xbcabc8d5	-0.020969788
3	0xbdaa9001	-0.08328248
4	0xbda7bffa	-0.081909135
5	0x3cab0e21	0.02088076
6	0x3d335b52	0.04378826
7	0xbd49bb24	-0.049250737
8	0xbcfd8843	-0.030948764
9	0xbd88f25b	-0.06686851
10	0xbc12c276	-0.008957496
11	0x3d468856	0.048469864
12	0xbd10b247	-0.03532627
13	0xbbee5f2a	-0.007274528
14	0x3d63a0bd	0.055573214
15	0xbdaa89eb	-0.08327087
16	0xbb8f47fe	-0.004372596
17	0xbd7399cc	-0.059472844
18	0xbbbea933	-0.00581851
19	0xbcb38dbc	-0.02191817

fc1.weight f4 [50, 320]
0	0xba891ab8	-0.0010460233
1	0x3c4125cc	0.011788797
2	0x3c94fa2e	0.018185701
3	0x3dbf2622	0.09333445
4	0xbe2e142b	-0.16999881
5	0xbd93a5e2	-0.07209374
6	0xbcee6e25	-0.029105255
7	0xbbfae35b	-0.0076564974
8	0xbe4a53fe	-0.19758603
9	0xba6f074e	-0.0009118215
10	0xbd3439fe	-0.04400062
11	0x3c262354	0.010140259
12	0xbdb8a194	-0.090151936
13	0x3d9b55ad	0.07584701
14	0x3e2e5d03	0.17027669
15	0x3e1b5ff9	0.1517333
16	0xbd7b7a9a	-0.06139622
17	0xbd25b2f1	-0.040453855
18	0xbdee7532	-0.11643447
19	0xbe0a4658	-0.13503397
20	0xbd933a79	-0.07188887
21	0xbe15344e	-0.14570734
22	0xbd41bb6c	-0.04729788
23	0x3d3080dc	0.04309164
24	0xbd451781	-0.04811812
25	0xbdb0c915	-0.08632103
26	0x3bd11c61	0.006381557
27	0x3cba2bc6	0.02272595
28	0xbb28c7bd	-0.002575382
29	0x3c678200	0.0141301155
30	0x3dadeeaa	0.08492787
31	0x3e18a04a	0.14904895
32	0x3bc3ad21	0.0059715663
33	0x3db7d71b	0.08976575
34	0x3d207368	0.03917256
35	0x3cdca764	0.026935287
36	0xbb3c7d21	-0.0028761106
37	0x39a89cd1	0.00032160294
38	0xbda57e39	-0.08080716
39	0x3ccb4ab9	0.024815904
40	0x3db490bd	0.08816669
41	0x3cddddfd	0.027083391
42	0xbda7fb94	-0.082022816
43	0x3c905fef	0.01762387
44	0xbdf3cca7	-0.11904269
45	0x3d03645d	0.032078136
46	0xbc93318c	-0.017967962
47	0xbe6bbcbc	-0.23021215
48	0x3d1ea036	0.038727008
49	0xbce4dc0f	-0.027936963
50	0x3d86afc5	0.06576494
51	0x3e18e4b5	0.14930995
52	0x3db0bb16	0.08629434
53	0x3d70e466	0.058811568
54	0x3dc34f9a	0.09536667
55	0x3d5d7ae6	0.054072283
56	0x3bd330e2	0.0064450363
57	0xbd8ec6ab	-0.06971487
58	0xbd8c4d1f	-0.06850647
59	0xbd9819de	-0.07426809
60	0xbdb6bf60	-0.08923221
61	0xbb65239f	-0.0034963859
62	0xbd4d9774	-0.050193265
63	0xbc2ef7da	-0.01067921
64	0x3c0e2fcb	0.008678387
65	0x3d74b71f	0.05974495
66	0x3e16bee9	0.14721264
67	0x3d667a21	0.056268815
68	0x3cf88efa	0.030341614
69	0xbd302bb6	-0.043010436
70	0x3d0fab59	0.03507552
71	0xbdbfcf90	-0.09365761
72	0xbd909f4f	-0.07061636
73	0xbc24bf0e	-0.010055317
74	0x3dcad9ba	0.09904809
75	0xbe0e8a7c	-0.13920015
76	0xbca4c691	-0.020114215
77	0x3d643223	0.055711877
78	0x3bda4038	0.0066604875
79	0xbd3eb005	-0.046554584
80	0x3daf6d37	0.08565753
81	0x3df8b717	0.121442966
82	0x3df36adb	0.118856154
83	0xbd237a86	-0.03991177
84	0x3d9c59fe	0.07634352
85	0x3c7e3ff5	0.015518178
86	0x3da276d5	0.07932822
87	0xbdb95aec	-0.09050545
88	0xbd24159d	-0.040059675
89	0x3ce6bb1e	0.028165396
90	0x3df1d57d	0.11808298
91	0xbdcdc3fa	-0.10047145
92	0x3d8e1539	0.06937642
93	0x3c4c9a45	0.012487953
94	0xbdb3dd9c	-0.08782503
95	0xbe013fec	-0.1262204
96	0xbd066ebe	-0.032820456
97	0xbc4b74b9	-0.012417966
98	0x3c8310c4	0.015999205
99	0xbd7b813d	-0.061402548
100	0x3de19da5	0.110163964
101	0x3db155bd	0.086589314
102	0xbddf7f1f	-0.10912918
103	0x3d75d794	0.060020044
104	0x3d665930	0.0562374
105	0xbb826483	-0.003979267
106	0xbd32dccf	-0.04366761
107	0x3d028266	0.03186264
108	0xbd5b4291	-0.05353028
109	0x3cf0e6e8	0.02940698
110	0x3d09a14e	0.033601098
111	0xbda92c69	-0.08260424
112	0x3cb3eee9	0.021964507
113	0xbd01f794	-0.03173025
114	0x3d8f0c6b	0.069847904
115	0xbd6593b1	-0.056049053
116	0xbd854d82	-0.06508924
117	0x3d5da4f8	0.054112405
118	0x3d8316b5	0.064008154
119	0x3db18b3b	0.08669134
120	0xbd00aa27	-0.03141227
121	0x3d64b58e	0.055837207
122	0x3db9f327	0.09079581
123	0xbd5eeff4	-0.054428056
124	0xbd9f284f	-0.0777136
125	0xbd937752	-0.07200493
126	0xbd5fbb43	-0.054621946
127	0x3c22a0d9	0.009926044
128	0xbb967f44	-0.004592808
129	0x3d5c0c3c	0.053722605
130	0x3d07d420	0.033161283
131	0xbc93fd22	-0.018065039
132	0x3d2fd94b	0.042931836
133	0xbd4b27a0	-0.049598336
134	0xbd03cb71	-0.03217644
135	0xbd6ab02b	-0.057296913
136	0xbdc611ef	-0.09671389
137	0xbde8b381	-0.11362363
138	0xbdd1c4c1	-0.10242606
139	0xbd71963c	-0.058981165
140	0xbd753791	-0.059867445
141	0xbcaa59da	-0.020794798
142	0x3d6ca961	0.05777872
143	0x3dc64bb4	0.09682408
144	0xbdad95b7	-0.084758215
145	0xbda48a0c	-0.08034143
146	0xbd33ee58	-0.043928474
147	0xbda3cf36	-0.07998507
148	0xbd926be2	-0.07149483
149	0xbddf7e65	-0.1091278
150	0xbd546311	-0.05185229
151	0xbe2d0769	-0.16897358
152	0xbd642bae	-0.05570572
153	0xbd487ba5	-0.04894604
154	0x3bec609d	0.0072136656
155	0x3d689c45	0.056789655
156	0x3c6f1f86	0.014594918
157	0x3d1a162d	0.037618805
158	0x3d9c7948	0.0764032
159	0x3dcf08f7	0.10109132
160	0xbdea11ad	-0.11429153
161	0xbdb2b8de	-0.08726667
162	0xbd6b0f1c	-0.057387456
163	0xbdf39350	-0.11893332
164	0x3cdd10a3	0.026985472
165	0xbd21a68e	-0.03946548
166	0x3c1e6275	0.009667029
167	0x3d2dec86	0.042461894
168	0x3e28aff6	0.16473374
169	0x3da1599d	0.078784205
170	0x3c00598d	0.007833851
171	0x3cb0ee26	0.021597933
172	0xbd58ca3a	-0.052927233
173	0xbd89ce0b	-0.06728753
174	0xbd0421fd	-0.032258976
175	0x3e5474d9	0.20747699
176	0xbc493a06	-0.0122819
177	0x3d79a824	0.060951367
178	0x3e1bd4d3	0.15217905
179	0xbe134771	-0.14382721
180	0xbc618abf	-0.01376599
181	0xbd83bd02	-0.06432535
182	0x3d46650e	0.048436217
183	0x3ca120c3	0.019668942
184	0x3ce7ecc3	0.028311139
185	0x3d23c621	0.039983872
186	0x3cac8441	0.021059157
187	0xbd462f34	-0.04838486
188	0xbd832b42	-0.06404735
189	0xbdb3c0d7	-0.08777016
190	0xbe06071b	-0.13088648
191	0x3cddc14b	0.027069708
192	0x3d00dce9	0.031460676
193	0x3c86d04e	0.01645675
194	0xbc3d0936	-0.011537841
195	0xbd32bf44	-0.043639436
196	0xbb50ce7c	-0.0031861356
197	0x3caf84aa	0.021425564
198	0xbc7b06ac	-0.015321415
199	0x3d3e6a1f	0.046487924
200	0x3c286bf9	0.010279649
201	0xbab4d027	-0.0013794944
202	0x3cbf30e3	0.02333874
203	0x3cb49110	0.022041827
204	0xbd2d593a	-0.04232142
205	0x3c8a4c94	0.016882218
206	0xbd460bd4	-0.048351124
207	0xbcdceb21	-0.026967587
208	0x3c93a6e1	0.01802391
209	0x3de2350c	0.11045274
210	0x3d8f43c5	0.06995348
211	0x3cc3a88b	0.023884078
212	0xbd9c1cfa	-0.07622714
213	0x3c28a371	0.010292874
214	0x3c8b13aa	0.01697715
215	0xbe013842	-0.12619117
216	0x3b2c8146	0.002632217
217	0x3d40239f	0.04690897
218	0xbd8f2ac9	-0.069905825
219	0xbe0b879e	-0.13625953
220	0xbc8fe1c1	-0.017563703
221	0xbca1cd89	-0.019751327
222	0x3c143950	0.0090468675
223	0xbcfeb3d3	-0.031091606
224	0xbd88c398	-0.066779315
225	0x3c232c72	0.009959327
226	0x3dc6d474	0.09708491
227	0xbaea3423	-0.0017868321
228	0x3db5f23b	0.088840924
229	0xbd13dd94	-0.036099985
230	0x3d843f87	0.064574294
231	0x3d5f15c5	0.05446412
232	0x3dd7b5ad	0.10532699
233	0x3c9cddbf	0.019148706
234	0x3d3a8468	0.04553643
235	0xbd83c361	-0.0643375
236	0xbd802fe9	-0.06259138
237	0x3cf7bbd8	0.030240938
238	0xbd0c2a80	-0.03422022
239	0xbe2675aa	-0.16255823
240	0x3cdd3ace	0.02700558
241	0x3c09172a	0.008367339
242	0xbc731d59	-0.01483854
243	0xbd09856c	-0.033574507
244	0xbd845318	-0.064611614
245	0xbb9ca08f	-0.0047798823
246	0xbca38967	-0.01996298
247	0xbdfac0b4	-0.122437865
248	0xbe1f8e4c	-0.15581626
249	0xbd9144d3	-0.07093205
250	0xbd1dc995	-0.03852232
251	0x3d65c26d	0.056093622
252	0xbddfa827	-0.109207444
253	0x3ce2aae9	0.027669387
254	0x3e0b2f4a	0.13592258
255	0x3e0bd69a	0.13656083

fc1.bias f4 [50]
0	0x3daa0fbc	0.08303782
1	0x3dc13111	0.09433187
2	0x3d72b6e5	0.059256453
3	0x3d9d80e2	0.07690598
4	0x3c3e83f3	0.011628139
5	0x3d5e25c1	0.054235224
6	0x3db884cf	0.09009706
7	0x3cb9433b	0.022615066
8	0x3e254326	0.16138896
9	0x3dd647ca	0.104629114
10	0x3ddcb5ee	0.10776888
11	0xbd88f701	-0.06687737
12	0x3d793504	0.060841575
13	0x3c7bd34f	0.015370204
14	0x3d9bed62	0.076136366
15	0x3d8ed85b	0.0697486
16	0xbd037ab2	-0.032099433
17	0x3cb0e0fd	0.021591658
18	0x3da34200	0.07971573
19	0x3d69e316	0.05710133
20	0x3d22af43	0.039717924
21	0x3de0faec	0.109853595
22	0x3d9073c1	0.07053328
23	0xbba7a241	-0.0051157777
24	0xbc8f748f	-0.017511634
25	0xbc7b3173	-0.015331614
26	0x3c3f7bee	0.011687262
27	0x3d970eff	0.07375907
28	0x3d1fbef5	0.03900047
29	0x3d5dfd9b	0.054196935
30	0x3caafc45	0.020872245
31	0xbc867c36	-0.01641665
32	0xbb62e484	-0.003462107
33	0x3db7496e	0.089495525
34	0x3e13e256	0.14441809
35	0x3c54ba49	0.012983867
36	0xbd5b9c96	-0.05361613
37	0x3ca88292	0.020570073
38	0xbca28c3d	-0.019842261
39	0x3d0f7cfa	0.035031296
40	0xbcb0ac20	-0.02156645
41	0x3dcf363c	0.10117766
42	0x3cf9b7af	0.030483095
43	0x3e4d5602	0.2005234
44	0x3e125f51	0.14294173
45	0x3db33859	0.08750982
46	0x3d49dc89	0.049282584
47	0x3cf346ec	0.029696904
48	0x3e15e3f9	0.14637746
49	0x3cc7e42c	0.024400793

fc2.weight f4 [10, 50]
0	0xbe1c7334	-0.15278322
1	0x3dd32695	0.10310093
2	0xbe2ec15b	-0.17065947
3	0xbdf84f78	-0.121245325
4	0x3e7742b1	0.24146535
5	0x3e970fad	0.29504147
6	0xbe5b7f3a	-0.21435252
7	0x3eba6ae9	0.3640969
8	0xbe877c6f	-0.26462123
9	0xbe884872	-0.2661777
10	0x3e7d2c59	0.24723949
11	0xbe0d346b	-0.13789527
12	0xbe90c969	-0.28278664
13	0xbe2a38f2	-0.16623285
14	0xbe6ae428	-0.22938597
15	0x3e8e7ac8	0.2782805
16	0x3db27e63	0.087155126
17	0xbe851168	-0.25989842
18	0xbe39333f	-0.18085955
19	0x3e63dac1	0.22251417
20	0x3dacc333	0.08435669
21	0x3e61b609	0.22042097
22	0xbeaaafbd	-0.33337203
23	0x3d6686db	0.056280952
24	0xbdfcacd0	-0.12337649
25	0xbe43a591	-0.19106127
26	0xbe9612b8	-0.29311156
27	0xbe541027	-0.20709287
28	0xbe74a30d	-0.23890324
29	0xbea93133	-0.3304535
30	0x3e56f1aa	0.20990625
31	0xbdd04a49	-0.10170419
32	0xbe58a6e3	-0.21157412
33	0xbe61d770	-0.22054839
34	0xbe6079c0	-0.21921444
35	0x3e86cb07	0.26326773
36	0xbe82b4f2	-0.25528675
37	0x3e604c32	0.21904066
38	0xbcb5a638	-0.022173986
39	0x3e0cbc3a	0.13743678
40	0xbe385dcf	-0.18004535
41	0xbe8530a9	-0.26013687
42	0x3e84242f	0.25808856
43	0x3e97f2d8	0.29677463
44	0xbe685403	-0.22688298
45	0xbdc524ac	-0.09626135
46	0x3e8a0a00	0.26960754
47	0x3eb4f5dd	0.3534383
48	0xbe2b6710	-0.16738534
49	0x3e930028	0.28711057
50	0x3e91f010	0.28503466
51	0x3e8fb378	0.2806661
52	0x3d2508d9	0.04029164
53	0x3ea0d269	0.3141053
54	0xbe19bd9d	-0.15013738
55	0xbda563e9	-0.08075697
56	0xbe362e89	-0.17791189
57	0xbe26091f	-0.16214417
58	0x3e9942cf	0.29933783
59	0x3e67a0ef	0.22619985
60	0xbe116088	-0.1419698
61	0xbe5c6481	-0.21522714
62	0x3eab9aa7	0.33516428
63	0xbdf913b5	-0.12161962
64	0x3e406850	0.18789792
65	0xbe37c2a0	-0.17945337
66	0xbdabcb1c	-0.083883494
67	0xbe7e48da	-0.24832478
68	0xbd7af3aa	-0.061267532
69	0xbe20316f	-0.15643857
70	0xbe627056	-0.22113165
71	0x3e4de33d	0.20106216
72	0x3e41ddf9	0.18932332
73	0xbe6c15d6	-0.23055205
74	0xbdbd27b5	-0.09236089
75	0xbc98fe2e	-0.01867589
76	0xbe48db92	-0.1961501
77	0x3e705658	0.23470438
78	0xbe06af8e	-0.13152906
79	0xbd98990d	-0.07451067
80	0xbc44e035	-0.012016346
81	0xbdba7b20	-0.091055155
82	0xbe2ad2e4	-0.16682011
83	0x3dfbd162	0.12295796
84	0x3e594ea1	0.21221401
85	0xbe84fb97	-0.25973198
86	0xbe07590f	-0.13217567
87	0xbe479de8	-0.1949383
88	0xbe1458f6	-0.14487061
89	0xbd3057fb	-0.043052655
90	0xbe9db806	-0.3080446
91	0xbd16f0eb	-0.03685085
92	0xbe27f4d0	-0.16401982
93	0x3e86ea96	0.2635085
94	0x3e835485	0.2565042
95	0x3e981907	0.29706594
96	0xbe8e99ef	-0.27851817
97	0x3dae4a54	0.08510271
98	0x3eab4939	0.33454302
99	0xbe42bb8c	-0.19016856
100	0x3eadd2fa	0.33950025
101	0xbdfd2321	-0.12360216
102	0x3eb35e75	0.35033002
103	0xbd57a36e	-0.052646093
104	0xbe48c4cf	-0.19606327
105	0xbdccf211	-0.10007108
106	0xbd8d1cb1	-0.06890238
107	0xbe34e912	-0.17667034
108	0xbe3c6483	-0.18397717
109	0xbe4dd64c	-0.20101279
110	0x3e82c585	0.2554132
111	0xbdca1bea	-0.098686054
112	0xbdca308a	-0.09872539
113	0xbe37ed53	-0.17961626
114	0xbe3cfdbf	-0.18456171
115	0xbdaef96e	-0.08543669
116	0xbe375295	-0.17902596
117	0xbcc02f26	-0.023459982
118	0x3d11b08d	0.035568763
119	0x3e45a181	0.1929989
120	0xbe8fa495	-0.28055254
121	0x3e12f458	0.14351022
122	0xbca1a72a	-0.01973303
123	0xbdf3a8cc	-0.1189743
124	0x3dcfa0f0	0.10138118
125	0x3e7b9b2f	0.24570917
126	0xbe0d69f8	-0.13809955
127	0x3e6c7eca	0.23095241
128	0xbda0ebb4	-0.07857457
129	0xbdc6b294	-0.0970203
130	0xbdf16425	-0.11786679
131	0x3e2e6f40	0.17034626
132	0xbe7075d1	-0.23482443
133	0x3e70427b	0.2346286
134	0x3e348250	0.17627835
135	0x3e4a0852	0.19729736
136	0xbd9b3f05	-0.075803794
137	0x3e2600be	0.1621122
138	0xbd98014d	-0.07422123
139	0xbdee6d3b	-0.11641928
140	0xbe254187	-0.16138278
141	0x3e231c62	0.15928796
142	0x3cb43ea2	0.022002522
143	0x3e278996	0.16361079
144	0x3e5a759a	0.21333924
145	0xbd9583ce	-0.073005304
146	0x3e00bc7e	0.12571904
147	0x3e88f174	0.26746714
148	0x3eaeb7b1	0.3412452
149	0x3c27b275	0.010235419
150	0xbe41cd26	-0.18925914
151	0x3e91de91	0.28490117
152	0x3eaa1486	0.33218783
153	0xbd6ea26e	-0.058260374
154	0xbe132afe	-0.14371869
155	0xbe374929	-0.17899002
156	0x3e681dee	0.22667667
157	0xbdd261a5	-0.102725305
158	0xbe0a5aba	-0.13511172
159	0xbeac411f	-0.33643433
160	0xbde354a5	-0.11100129
161	0xbd4ef734	-0.05052872
162	0xbe6f980c	-0.23397845
163	0x3e88f911	0.26752523
164	0xbe6bf21b	-0.23041575
165	0xbd2c2f71	-0.04203743
166	0xbe4393c6	-0.1909934
167	0x3e9821b7	0.29713222
168	0x3e6e600a	0.23278823
169	0x3e6651e6	0.2249218
170	0xbe4d049d	-0.20021291
171	0xbde93e31	-0.11388815
172	0xbdbf6d5d	-0.09347031
173	0xbe78c9d3	-0.2429574
174	0x3e417fff	0.18896483
175	0x3e7496e5	0.23885687
176	0x3e228df7	0.15874468
177	0x3e893d92	0.26804787
178	0xbdc90e2c	-0.09817156
179	0x3e918e34	0.28428805
180	0xbe528d8c	-0.20561808
181	0x3e89d695	0.26921526
182	0x3e86d597	0.2633483
183	0x3e84d3a8	0.2594273
184	0xbe600e3f	-0.21880434
185	0x3de796f7	0.11308091
186	0xbd82e78a	-0.06391819
187	0x3e3ec48b	0.18629663
188	0xbe06c8be	-0.13162515
189	0x3eac16a1	0.33611014
190	0xbe0a1c45	-0.13487346
191	0xbce61ba1	-0.028089346
192	0xbc3af8da	-0.01141187
193	0xbe1c5f0d	-0.15270634
194	0x3d851231	0.0649761
195	0xbe7eb6b8	-0.24874389
196	0xbe4b392b	-0.19846027
197	0xbe3c4bc0	-0.18388271
198	0x3da84a98	0.08217353
199	0xbc26ccdd	-0.010180679
200	0xbb047f7f	-0.0020217595
201	0xbe614f32	-0.22002867
202	0xbe587ed5	-0.21142133
203	0xbdac1fe9	-0.08404524
204	0xbe19b00f	-0.15008567
205	0x3e918d78	0.28428245
206	0x3e5860ed	0.21130724
207	0xbe3096bd	-0.17245002
208	0x3e896ff9	0.2684324
209	0x3e87b72c	0.26506937
210	0x3d26e6af	0.04074734
211	0x3e57ada5	0.21062334
212	0x3ea5092a	0.32233554
213	0xbdd6fcf0	-0.10497463
214	0x3d6545e3	0.055974852
215	0xbe80ba3a	-0.2514208
216	0xbd3557ca	-0.044273175
217	0xbde8aba0	-0.1136086
218	0x3d46de1e	0.04855167
219	0xbd64533b	-0.055743437
220	0xbde4fd49	-0.11181123
221	0x3e4ab363	0.19794993
222	0xbd1cb2df	-0.038256522
223	0x3e81d9e7	0.2536156
224	0x3e6f5dd5	0.23375638
225	0xbea2176d	-0.31658497
226	0x3e491e6a	0.19640508
227	0xbe70405a	-0.23462048
228	0x3e9a8832	0.30182034
229	0xbdf1c858	-0.11805791
230	0xbe350c07	-0.1768037
231	0x3e50a4dc	0.20375389
232	0x3e13dafc	0.14439005
233	0xbe8a6a36	-0.27034158
234	0x3e655b3b	0.22398083
235	0xbe33a805	-0.17544563
236	0x3eaeb773	0.34124336
237	0xbe8ffaec	-0.28121126
238	0x3eb500a0	0.3535204
239	0xbe999ece	-0.3000397
240	0x3e206b04	0.15665823
241	0x3e57b485	0.21064956
242	0xbe240dfd	-0.16020961
243	0xbe39047a	-0.18068114
244	0xbe12cc06	-0.14335641
245	0x3e2188c8	0.15774834
246	0x3e1ca9b4	0.15299112
247	0x3dafd1f7	0.085849695
248	0xbd9dce0c	-0.07705316
249	0xbe85b5b5	-0.26115194
250	0xbd941740	-0.07230997
251	0x3e83791a	0.2567833
252	0xbaef66ce	-0.0018264891
253	0xbcfc39bb	-0.030789247
254	0x3e2f090f	0.170933
255	0xbe1760b7	-0.14782988

fc2.bias f4 [10]
0	0x3e546ddb	0.20745032
1	0x3f1850fd	0.5949858
2	0xbdae6798	-0.08515853
3	0x3d3c72f6	0.046008073
4	0xbe574eac	-0.21026105
5	0x3deb515f	0.1149013
6	0xbe042529	-0.129048
7	0xbe40d6eb	-0.18831985
8	0x3c8e2833	0.017353153
9	0xbeb41357	-0.35171005
