proj5/task4/results/exp8_64.pth (torch, 89871 bytes, 8 tensors)

conv1.weight f4 [10, 1, 5, 5]
0.10106212 0.21111572 0.06458158 0.32930234 0.008337835 -0.02209716 0.07319391 0.3805419
0.30517453 -0.18300249 0.18750323 0.24228972 0.3825162 0.090609014 0.08701707 -0.01659563
0.2621464 0.164598 -0.00029001135 0.09831798 -0.14328623 -0.023924114 0.026536983 0.26502046
-0.10246333 -0.15466362 -0.15692247 -0.20352356 -0.06587977 -0.27831975 0.17029335 -0.21463367
0.09051693 -0.08372025 -0.19437388 0.2156648 0.16821368 0.33528903 0.12740569 -0.0637104
0.12322767 0.13543114 0.37548855 0.40878487 0.21378557 -0.16087069 0.14108567 0.1188128
0.2321719 0.031550325 -0.1499835 0.14004204 0.088928945 0.24021499 0.050870184 0.10785786
0.29384062 0.18471795 0.1461369 -0.2468687 0.17137535 0.221466 0.26301107 -0.15540978
-0.15218088 0.18556759 0.45721436 -0.019922374 -0.25006792 -0.3061032 0.37028334 0.2628865
0.15162586 -0.37839374 -0.44100976 -0.29271117 -0.22937474 0.06548191 0.17811705 0.30779144
-0.2686535 -0.20095631 0.17796734 0.09488771 0.26937103 -0.21441919 0.109898396 0.005630425
0.113723226 0.16620983 -0.07210609 -0.034622263 0.22621 0.26211283 -0.09534386 -0.11239335
0.24103777 0.062443893 0.049333602 -0.13918044 -0.1751034 -0.0015210549 -0.06670793 -0.18240376
-0.037809387 -0.1998223 -0.22744048 -0.16338 -0.22690512 -0.17504328 0.10755334 -0.043295734
-0.006592673 -0.24570173 -0.18340784 -0.12729138 -0.01966625 -0.23174234 -0.14117165 -0.17594649
-0.0064241327 -0.084969744 -0.048580892 -0.18746886 -0.19228312 -0.13830495 -0.09925142 -0.18327944
0.12958445 -0.01208525 0.1253251 -0.014145471 -0.2624311 0.0390228 -0.06276191 -0.074938975
-0.2054705 -0.27369365 -0.029697154 -0.031231264 0.16641168 -0.075238995 0.18921566 -0.12797317
0.017601755 0.17427455 0.29361346 0.3203429 0.27853018 -0.10673522 0.013449315 -0.14053363
-0.10268841 -0.18291044 0.21903591 -0.175098 0.13575888 0.11567075 0.15014927 -0.030702429
0.27908716 0.18030035 0.13153388 -0.14045374 0.13753334 -0.011324471 -0.060793936 0.22420087
0.03394564 -0.12353438 -0.1967823 -0.04923047 0.13120379 -0.043805905 -0.12752183 -0.11933531
-0.12799662 0.11971204 0.17324466 -0.22649676 0.090168715 0.23582053 0.14002062 -0.14251603
-0.07916076 0.17033857 0.21955442 0.116126 -0.07228333 -0.08674906 -0.05182083 0.0028064216
0.31059676 0.3691015 0.093789876 -0.14090031 -0.060908835 0.015301852 0.2082466 0.28422415
-0.23676856 -0.16557997 0.0753453 0.05423749 -0.016932113 -0.16091745 -0.28331938 -0.30697972
-0.12582438 0.003017412 0.23273385 0.055320576 -0.2453628 -0.2166514 -0.16360101 0.34998736
0.16434865 -0.025687985 0.0035096132 -0.18854378 -0.024453184 0.30195197 0.03053951 -0.001932965
-0.23003538 0.2586265 0.38270748 0.39407057 0.23452443 0.16377036 0.029450245 0.39211643
0.36829695 0.43378007 0.32801986 0.039797302 -0.08146509 -0.25015202 -0.24009122 -0.21424061
-0.13645977 -0.36134577 -0.321093 -0.28592435 -0.15589508 -0.4102772 -0.38181898 -0.14993006
-0.14076321 0.008320385
00000000: a8f9 ce3d b82e 583e 5943 843d 519a a83e
00000010: 6a9b 083c 1a05 b5bc b0e6 953d 63d6 c23e
00000020: d63f 9c3e 0165 3bbe d900 403e cc1a 783e
00000030: 2ad9 c33e 3891 b93d 0136 b23d 8ff3 87bc
00000040: 0e38 863e 618c 283e aa0c 98b9 f05a c93d
00000050: a0b9 12be 81fc c3bc 1664 d93c c3b0 873e
00000060: 4bd8 d1bd 2460 1ebe 49b0 20be 7b68 50be
00000070: f9eb 86bd ed7f 8ebe 6161 2e3e eec8 5bbe
00000080: f160 b93d 8675 abbd f209 47be 3cd7 5c3e
00000090: 3540 2c3e 01ab ab3e a376 023e 997a 82bd
000000a0: ca5e fc3d 76ae 0a3e 0940 c03e 404c d13e
000000b0: 9bea 5a3e 49bb 24be c378 103e 2054 f33d
000000c0: 78be 6d3e ea3a 013d 4695 19be 2e67 0f3e
000000d0: 6120 b63d ebfa 753e 415d 503d 95e4 dc3d
000000e0: 4772 963e b426 3d3e e9a4 153e 26cb 7cbe
000000f0: 057d 2f3e fcc7 623e 63a9 863e be23 1fbe
00000100: 4ed5 1bbe 6e05 3e3e 0018 ea3e 3f34 a3bc
00000110: e708 80be 8fb9 9cbe c795 bd3e 0f99 863e
00000120: cf43 1b3e d3bc c1be 08cc e1be 3dde 95be
00000130: 36e1 6abe 611b 863d 5164 363e d796 9d3e
00000140: f48c 89be 7ec7 4dbe 123d 363e 7d54 c23d
00000150: 00eb 893e b490 5bbe 6912 e13d 6e7f b83b
00000160: b9e7 e83d e932 2a3e 5cac 93bd 13d0 0dbd
00000170: 98a3 673e a733 863e a443 c3bd 7c2e e6bd
00000180: 9bd2 763e 2bc5 7f3d 0812 4a3d 5185 0ebe
00000190: 4e4e 33be 225e c7ba 2b9e 88bd 0dc8 3abe
000001a0: 04de 1abd 389e 4cbe 28e6 68be 164d 27be
000001b0: d159 68be 8c3e 33be ed44 dc3d de56 31bd
000001c0: 5907 d8bb 3c99 7bbe 44cf 3bbe ac58 02be
000001d0: 1e1b a1bc dd4d 6dbe 4d8f 10be 512b 34be
000001e0: 8881 d2bb 9e04 aebd c2fc 46bd d6f7 3fbe
000001f0: dee5 44be d09f 0dbe 5444 cbbd 9bad 3bbe
00000200: c9b1 043e 3601 46bc 3955 003e 68c2 67bc
00000210: 5e5d 86be 5fd6 1f3d 5189 80bd 9b79 99bd
00000220: dc66 52be 9321 8cbe 7247 f3bc b5d8 ffbc
00000230: d367 2a3e e716 9abd c0c1 413e 660b 03be
00000240: 8e31 903c 0775 323e 8154 963e fc03 a43e
00000250: 829b 8e3e ff97 dabd 845a 5c3c 0ce8 0fbe
00000260: 4d4e d2bd e04c 3bbe f34a 603e e44c 33be
00000270: 6004 0b3e c9e4 ec3d bbc0 193e a983 fbbc
00000280: 83e4 8e3e a8a0 383e d1b0 063e 1bd3 0fbe
00000290: 8ad5 0c3e 468a 39bc 1003 79bd ea94 653e
000002a0: 950a 0b3d 98ff fcbd 4d81 49be e4a5 49bd
000002b0: 495a 063e d26d 33bd 1595 02be 1266 f4bd
000002c0: 8c11 03be 962b f53d 0c67 313e c4ee 67be
000002d0: 60aa b83d f07a 713e 9161 0f3e b9ef 11be
000002e0: 091f a2bd 3c6d 2e3e e0d2 603e 78d3 ed3d
000002f0: 4809 94bd 7ea9 b1bd 1442 54bd f1eb 373b
00000300: 8a06 9f3e dffa bc3e e814 c03d 2c48 10be
00000310: 8b7b 79bd 9eb4 7a3c 993e 553e d485 913e
00000320: 7573 72be cc8d 29be a34e 9a3d 2128 5e3d
00000330: 37b5 8abc 8bc7 24be 3d0f 91be 722c 9dbe
00000340: 1bd8 00be c6bf 453b c851 6e3e d497 623d
00000350: 6340 7bbe ddd9 5dbe 0687 27be 8b31 b33e
00000360: 034b 283e 9c6f d2bc 8a01 663b 9f11 41be
00000370: 0b52 c8bc 7399 9a3e ff2d fa3c 8b5b fdba
00000380: 658e 6bbe b16a 843e 3cf2 c33e 9ec3 c93e
00000390: 2c27 703e 6bb3 273e a441 f13c 7cc3 c83e
000003a0: 6b91 bc3e 6c18 de3e 38f2 a73e 7f02 233d
000003b0: 2bd7 a6bd ed13 80be 79da 75be e461 5bbe
000003c0: 1cbc 0bbe 5002 b9be 4d66 a4be ad64 92be
000003d0: f6a2 1fbe da0f d2be c77d c3be 4487 19be
000003e0: 3b24 10be 3952 083c

conv1.bias f4 [10]
0.100675344 0.066693634 -0.077737175 -0.12096072 0.058283016 -0.1409113 0.1650084 -0.014671733
0.13594663 0.05238575
00000000: e02e ce3d ac96 883d ab34 9fbd 41ba f7bd
00000010: 2cba 6e3d 0d4b 10be f6f7 283e b561 70bc
00000020: 9835 0b3e 7192 563d

conv2.weight f4 [20, 10, 5, 5]
0.05994258 -0.031330675 -0.0013307655 -0.054015275 -0.096664086 0.024384066 -0.010192789 -0.04128195
-0.05630059 -0.117654465 0.04575691 0.010440196 0.07125752 0.112086646 0.12038266 0.0020567246
-0.11289561 -0.055631496 0.024681939 -0.0540691 0.011858022 -0.12745124 -0.20500715 -0.18348911
-0.06886504 -0.05821762 -0.076023564 -0.011453514 0.025319485 -0.07653503 -0.031408414 0.014316142
-0.060965218 -0.009389657 0.06345551 -0.015837459 -0.0063760197 0.044562694 0.09017756 0.0851542
0.014875104 -0.107053824 -0.15088408 -0.08844214 -0.034789167 0.23505005 0.087515965 0.032734245
0.022360742 -0.0256768 0.016000502 0.03495933 -0.0028665997 0.040442977 0.10654711 -0.0043840134
0.06360732 0.0922993 -0.03974533 0.021649187 -0.05408091 -0.053704135 -0.04315198 -0.06440727
-0.11838853 -0.063471995 -0.07787496 -0.14411609 -0.20520152 -0.15603861 0.0048271366 0.072472684
-0.056161318 -0.09636599 0.08372957 -0.063996874 -0.03614718 0.018760335 0.018341813 -0.015058567
-0.022981158 -0.020575045 -0.06212735 -0.051880825 -0.090565056 -0.063108005 0.03829629 -0.033445913
-0.041427515 -0.044608753 -0.06094204 0.02240238 0.07913479 0.03877215 -0.10443665 -0.10028516
-0.01838331 -0.04043712 -0.013641394 0.0872945 -0.020386545 -0.029403463 -0.06360339 -0.008587494
0.015846683 0.018611046 -0.0019318142 -0.08734088 -0.0837243 -0.014463769 0.06917386 0.024192834
-0.062867165 -0.050716404 -0.07553007 -0.0041165897 0.029407986 0.06577438 0.053961396 -0.04266921
0.04714392 -0.013888318 0.057961114 0.067842014 0.048244998 0.02667166 -0.07465437 -0.028507167
0.033562798 0.006182374 0.017570002 -0.00919929 0.08399522 0.07750575 0.08700109 -0.017025745
-0.063899375 0.010716429 0.044739705 0.008355555 0.021493325 0.07635338 0.0036759905 -0.00071347004
-0.014250519 0.0054267203 0.017291186 0.03536053 0.057194106 0.06720943 -0.041413963 -0.008848188
0.06481485 0.03999044 0.036867883 -0.0643729 -0.021196796 0.02784913 -0.02060129 -0.00011749749
0.0030920934 -0.00014715668 -0.012379566 0.08198036 0.1256066 0.020224439 -0.036868528 -0.091832764
-0.045615282 0.023942374 0.07196513 0.007219419 -0.07446814 -0.005215173 -0.07149184 0.016603218
-0.048043154 -0.04926184 -0.02457242 -0.042893205 -0.037627906 0.053222593 -0.0012011192 0.085107245
0.07195651 -0.042216145 -0.015766537 0.05827305 0.107085235 0.024297914 0.017286917 -0.1299399
-0.1456178 -0.021899203 0.006768774 0.098027155 0.0036694212 0.043724276 -0.026327716 -0.12647635
-0.035307568 -0.01099842 0.01812156 -0.09368351 -0.014247753 -0.0569208 -0.055394236 -0.011558492
0.07049495 0.061998483 0.058306783 0.0496633 0.07310343 0.024142362 0.004833283 0.08459436
0.035593815 -0.0030679558 -0.013178385 0.020580111 0.09919824 0.10489258 0.04730316 0.04006672
-0.01775394 0.035069138 0.037439354 -0.05175207 0.03407682 0.08588441 -0.009292881 0.031106843
0.039641123 -0.0028151944 0.0051320684 -0.029333496 0.039378203 0.094604716 0.052450873 0.114522986
0.013024656 0.021638345 0.12548031 0.2342281 0.23011847 0.06554492 -0.041506045 0.035868045
0.022419816 -0.020114588 -0.0022670634 -0.10180666 0.0020368122 -0.0025300093 -0.05806519 0.010869483
00000000: 5a86 753d 9854 00bd 156d aeba 1f3f 5dbd
00000010: d2f7 c5bd 18c1 c73c a8ff 26bc 4317 29bd
00000020: 739b 66bd d3f4 f0bd 996b 3b3d 5b0d 2b3c
00000030: 76ef 913d af8d e53d 2f8b f63d 1dca 063b
00000040: d035 e7bd dadd 63bd c731 ca3c 9077 5dbd
00000050: 2648 423c 9482 02be 65ed 51be 92e4 3bbe
00000060: 1d09 8dbd 9975 6ebd 3eb2 9bbd 85a7 3bbc
00000070: cf6a cf3c 66be 9cbd 1ca6 00bd 408e 6a3c
00000080: aab6 79bd 13d7 19bc f6f4 813d 8fbd 81bc
00000090: eeed d0bb 5f87 363d 03af b83d 5365 ae3d
000000a0: b5b6 733c 093f dbbd 5b81 1abe 2721 b5bd
000000b0: 167f 0ebd f6b0 703e 923b b33d 5814 063d
000000c0: e02d b73c 2758 d2bc 7c13 833c 8431 0f3d
000000d0: 90dd 3bbb 89a7 253d 5f35 da3d c5a7 8fbb
000000e0: 8e44 823d 6a07 bd3d 00cc 22bd a359 b13c
000000f0: f283 5dbd def8 5bbd 21c0 30bd f5e7 83bd
00000100: b075 f2bd 9bfd 81bd e87c 9fbd 2b93 13be
00000110: 5920 52be 96c8 1fbe f52c 9e3b 8f6c 943d
00000120: 6909 66bd 885b c5bd 697a ab3d cb10 83bd
00000130: 110f 14bd 46af 993c 9241 963c 35b8 76bc
00000140: fb42 bcbc ff8c a8bc 4079 7ebd fd80 54bd
00000150: 2c7a b9bd c53e 81bd 92dc 1c3d 95fe 08bd
00000160: e6af 29bd abb7 36bd 5c9e 79bd 3285 b73c
00000170: 6c11 a23d 8ccf 1e3d e2e2 d5bd 4e62 cdbd
00000180: 9898 96bc 65a1 25bd 2780 5fbc 75c7 b23d
00000190: af01 a7bc 88df f0bc 7e42 82bd 8fb2 0cbc
000001a0: e7d0 813c 3176 983c ee34 fdba c6df b2bd
000001b0: a577 abbd 72f9 6cbc 06ab 8d3d 0d30 c63c
000001c0: 80c0 80bd 01bc 4fbd 82af 9abd 75e4 86bb
000001d0: 04e9 f03c b8b4 863d a006 5d3d e9c5 2ebd
000001e0: fc19 413d d48b 63bc a268 6d3d c1f0 8a3d
000001f0: 8c9c 453d 867e da3c 64e4 98bd dd87 e9bc
00000200: 2579 093d 8395 ca3b f7ee 8f3c 9eb8 16bc
00000210: b005 ac3d 56bb 9e3d a12d b23d 9379 8bbc
00000220: addd 82bd f693 2f3c fb40 373d bde5 083c
00000230: c512 b03c 295f 9c3d e3e8 703b 2a08 3bba
00000240: 027b 69bc a1d2 b13b 3fa6 8d3c 34d6 103d
00000250: 5e44 6a3d 19a5 893d b0a1 29bd fef7 10bc
00000260: a6bd 843d 04cd 233d c702 173d f0d5 83bd
00000270: e7a4 adbc dc23 e43c 09c4 a8bc fc68 f6b8
00000280: b8a4 4a3b 124e 1ab9 aad3 4abc 52e5 a73d
00000290: 049f 003e b9ad a53c 7403 17bd d112 bcbd
000002a0: 17d7 3abd cc22 c43c 7462 933d e090 ec3b
000002b0: c182 98bd 0be4 aabb 506a 92bd 7903 883c
000002c0: e6c8 44bd c8c6 49bd 1a4c c9bc c9b0 2fbd
000002d0: b81f 1abd efff 593d df6e 9dba b54c ae3d
000002e0: ef5d 933d d6ea 2cbd d328 81bc b9af 6e3d
000002f0: 814f db3d 6b0c c73c 4b9d 8d3c f70e 05be
00000300: d51c 15be f565 b3bc 97cc dd3b 76c2 c83d
00000310: ac7a 703b 3a18 333d 39ad d7bc 0483 01be
00000320: ab9e 10bd b832 34bc aa73 943c 24dd bfbd
00000330: 686f 69bc c925 69bd 11e5 62bd d45f 3dbc
00000340: a85f 903d 1ff2 7d3d 18d3 6e3d bf6b 4b3d
00000350: 40b7 953d 34c6 c53c 8460 9e3b cf3f ad3d
00000360: d2ca 113d c20f 49bb 27ea 57bc 9f97 a83c
00000370: 7228 cb3d ecd1 d63d f5c0 413d 001d 243d
00000380: b670 91bc a8a4 0f3d 025a 193d fbf9 53bd
00000390: 2394 0b3d 2ae4 af3d 2b41 18bc c7d3 fe3c
000003a0: bb5e 223d 207f 38bb e92a a83b cd4c f0bc
000003b0: 0a4b 213d 1ec0 c13d bad6 563d 078b ea3d
000003c0: 5e65 553c e642 b13c e97d 003e 7ed9 6f3e
000003d0: 2da4 6b3e 6a3c 863d 3e02 2abd 5fea 123d
000003e0: c3a9 b73c 59c7 a4bc 0393 14bb 0380 d0bd
000003f0: 0a7c 053b 83ce 25bb c4d5 6dbd eb15 323c

conv2.bias f4 [20]
0.07017288 -0.061946273 -0.031603877 -0.060321826 -0.063792385 0.0035553593 0.029937033 -0.046756517
0.018270217 -0.06636004 0.010623796 0.02690497 -0.031764522 -0.004679344 0.06115058 -0.04310794
-0.014955369 -0.048285455 0.025623364 -0.0059659374
00000000: cdb6 8f3d 60bb 7dbd 1173 01bd 0514 77bd
00000010: 95a5 82bd 0801 693b 823e f53c c383 3fbd
00000020: 6cab 953c c6e7 87bd 6e0f 2e3c d067 dc3c
00000030: 841b 02bd 2f55 99bb 0879 7a3d f491 30bd
00000040: 5d07 75bc f8c6 45bd 17e8 d13c e97d c3bb

fc1.weight f4 [50, 320]
-0.008512758 0.0350115 -0.007735804 0.035795156 -0.0853483 -0.063447304 -0.021573752 -0.01675666
-0.15228297 -0.0010502685 -0.07895711 0.03823707 -0.035138912 0.07692901 0.07765792 0.15702693
-0.005400897 0.010777489 -0.05698019 -0.06740837 -0.017949216 -0.04381138 -0.018460326 0.008924969
-0.0076348586 -0.01543892 -0.013683205 0.03805377 -0.0074748877 -0.03142456 0.03786416 0.03669938
-0.0011375342 0.047414906 0.052956484 -0.015474005 -0.049094938 0.00909207 -0.021041486 0.032879267
0.09757123 -0.003876049 -0.024453012 0.01081695 -0.022877958 0.021348 -0.04071849 -0.08565401
0.03567181 -0.0015513314 0.042319067 0.015416984 0.036178827 0.026051482 0.07356434 -0.026880994
-0.01963915 0.00549957 -0.026401665 -0.06361653 -0.042583693 -0.0028200676 -0.04112773 0.07063238
0.014039051 0.061450697 0.11108959 0.035152916 0.046496596 0.036442988 0.039075766 -0.04415926
-0.038335565 0.0004980899 0.08194246 -0.023728276 0.01292652 0.0019990134 -0.019028297 -0.07368441
0.028356535 0.086262144 0.08662767 -0.039956436 0.002442854 -0.011398611 -0.08332088 -0.15024932
-0.080434434 -0.05712848 -0.023119394 -0.045370903 0.07779385 0.11872645 0.023553878 -0.045380056
-0.055675145 -0.00080913055 0.005857365 -0.009501001 0.054477867 0.06721813 -0.039208934 -0.0044707977
0.03646226 0.012835797 0.013066045 -0.0031579514 0.0152528295 0.0281665 0.03627148 0.00386745
-0.03274255 -0.07573064 0.04590098 -0.023802262 -0.062571086 0.046277065 0.07444741 0.022559794
-0.019674713 0.0792374 0.05825643 -0.015975526 -0.050601546 -0.048308477 -0.032637525 0.019252682
-0.038684186 0.022402251 -0.016969254 -0.014950909 0.011229816 -0.023123352 -0.037762888 -0.044325106
-0.027325854 -0.036756597 -0.081013 -0.012421388 0.010808155 -0.0127130905 0.06456594 0.056963354
-0.06447354 0.00892122 -0.0081216 -0.074819885 -0.06223659 -0.03906098 0.004411048 -0.033145647
-0.055710524 -0.032876432 0.010212826 0.02300162 -0.0031781476 0.0345812 0.06495939 0.07711078
-0.048722558 -0.016636249 -0.019195465 -0.055386826 0.011364651 -0.021798246 -0.011033046 -0.02980697
0.023799153 0.004514692 -0.011403802 0.031848345 0.015049537 -0.007268522 -0.037873816 0.1323525
-0.022308938 0.02436635 0.09365187 -0.051076252 -0.017563138 -0.029924233 0.0015432823 0.01655157
-0.00372379 -0.0064252242 0.056256693 -0.0006242669 -0.0616192 -0.03134275 -0.0828694 0.031488627
0.031436365 0.01635531 -0.012273067 -0.05115048 -0.0031080046 0.021718293 -0.016319318 0.044106863
0.012841578 -0.002574214 0.022187313 0.028452355 -0.041007992 0.017250558 -0.0510476 -0.0124902865
-0.0031474775 0.073219724 -0.011632198 -0.0047412994 -0.04815661 0.028297279 0.03394488 -0.018710366
0.016071245 0.03544917 -0.025780307 -0.08842821 -0.0037669472 0.013060955 -0.013964686 -0.03584352
0.002348886 0.019451488 0.05175249 -0.005706183 0.06491332 -0.009892726 0.028780907 -0.017681321
0.008165342 0.03142085 0.034742124 -0.008110876 -0.030048251 0.030623442 -0.032220084 -0.11595295
0.013363692 -0.012319571 -0.011054395 0.03740112 -0.001248741 0.05825485 0.0023347088 -0.0033879874
-0.08719083 -0.045745857 -0.037683513 -0.017313713 -0.08254688 0.003763245 0.1046221 0.110336654
00000000: 1879 0bbc 3868 0f3d a17c fdbb f19d 123d
00000010: 17cb aebd a9f0 81bd 70bb b0bc 4345 89bc
00000020: 11f0 1bbe 2aa9 89ba 44b4 a1bd 799e 1c3d
00000030: d2ed 0fbd f58c 9d3d 1e0b 9f3d abcb 203e
00000040: 02fa b0bb 1194 303c 0f64 69bd 660d 8abd
00000050: 3c0a 93bc 9073 33bd 1c3a 97bc 083a 123c
00000060: d62d fabb 86f3 7cbc 852f 60bc 45de 1b3d
00000070: e7ef f4bb 0ab7 00bd 7317 1b3d 1752 163d
00000080: 5019 95ba 2236 423d e6e8 583d ae86 7dbc
00000090: c617 49bd e8f6 143c 325f acbc 69ac 063d
000000a0: 6dd3 c73d 5005 7ebb af51 c8bc 9439 313c
000000b0: 8e6a bbbc 00e2 ae3c 6ec8 26bd 5f6b afbd
000000c0: 9b1c 123d 0b56 cbba c256 2d3d 8597 7c3c
000000d0: 4030 143d eb69 d53c e7a8 963d 8835 dcbc
000000e0: 48e2 a0bc bd35 b43b 4e48 d8bc 6249 82bd
000000f0: 3d6c 2ebd e2d0 38bb 8d75 28bd b6a7 903d
00000100: 0c04 663c bab3 7b3d f082 e33d 81fc 0f3d
00000110: 3773 3e3d 3e45 153d e90d 203d 57e0 34bd
00000120: c105 1dbd 3f92 023a 73d1 a73d cd61 c2bc
00000130: c1c9 533c e101 033b 3be1 9bbc dae7 96bd
00000140: f74b e83c 35aa b03d d969 b13d 5ca9 23bd
00000150: 4a18 203b 3dc1 3abc 23a4 aabd f5da 19be
00000160: cfba a4bd 8eff 69bd e264 bdbc d7d6 39bd
00000170: 6252 9f3d da26 f33d 10f4 c03c 70e0 39bd
00000180: 9f0b 64bd d51b 54ba 24ef bf3b 16aa 1bbc
00000190: 2f24 5f3d a9a9 893d 8c99 20bd c57f 92bb
000001a0: 7359 153d 3c4d 523c f712 563c a2f5 4ebb
000001b0: 01e7 793c 6fbd e63c 6791 143d 0b75 7d3b
000001c0: 0d1d 06bd aa18 9bbd aa02 3c3d f6fc c2bc
000001d0: 4525 80bd 058d 3d3d e277 983d 51cf b83c
000001e0: dd2c a1bc 3847 a23d 4b9e 6e3d 1bdf 82bc
000001f0: 9143 4fbd 1cdf 45bd edae 05bd cdb7 9d3c
00000200: 4f73 1ebd ed84 b73c 1b03 8bbc a8f4 74bc
00000210: 43fd 373c 2f6d bdbc 42ad 1abd 3e8e 35bd
00000220: 78da dfbc 168e 16bd 25ea a5bd 1483 4bbc
00000230: b014 313c 914a 50bc 263b 843d 6852 693d
00000240: b40a 84bd 4f2a 123c 7610 05bc 2b3b 99bd
00000250: cbeb 7ebd 68fe 1fbd 8d8a 903b bbc3 07bd
00000260: b830 64bd 70a9 06bd b253 273c e56d bc3c
00000270: 7848 50bb 04a5 0d3d 6e09 853d 42ec 9d3d
00000280: 4e91 47bd be48 88bc cf3f 9dbc 4cdd 62bd
00000290: cd32 3a3c 3c92 b2bc f3c3 34bc bf2d f4bc
000002a0: 71f6 c23c fbef 933b 03d7 3abc 6973 023d
000002b0: 5592 763c c82c eebb 9321 1bbd 6a87 073e
000002c0: 3cc1 b6bc f19b c73c 8dcc bf3d 5535 51bd
000002d0: 92e0 8fbc aa23 f5bc f647 ca3a 2897 873c
000002e0: d40a 74bb b08a d2bb 6b6d 663d d8a5 23ba
000002f0: 6a64 7cbd 4161 00bd 6fb7 a9bd 38fa 003d
00000300: 6bc3 003d 92fb 853c f914 49bc 2a83 51bd
00000310: aaaf 4bbb 90ea b13c 17b0 85bc 66a9 343d
00000320: 7b65 523c 25b4 28bb 2bc2 b53c ea14 e93c
00000330: fff7 27bd 0b51 8d3c 4a17 51bd 0fa4 4cbc
00000340: e945 4ebb 39f4 953d f994 3ebc e75c 9bbb
00000350: de3f 45bd b2cf e73c c909 0b3d 7b46 99bc
00000360: d8a7 833c 2633 113d 3931 d3bc d919 b5bd
00000370: e3de 76bb 9efd 553c 23cc 64bc a8d0 12bd
00000380: c5ef 193b ba58 9f3c 6bfa 533d effa babb
00000390: 46f1 843d 1a15 22bc f0c5 eb3c 6bd8 90bc
000003a0: edc7 053c 26b3 003d c24d 0e3d 7be3 04bc
000003b0: c027 f6bc 03de fa3c 35f9 03bd be78 edbd
000003c0: 63f3 5a3c 07d8 49bc 7e1d 35bc eb31 193d
000003d0: ccac a3ba a39c 6e3d ea01 193b ff08 5ebb
000003e0: 1b91 b2bd 0260 3bbd 075a 1abd 7dd5 8dbc
000003f0: 570e a9bd c6a0 763b 1d44 d63d 2ff8 e13d

fc1.bias f4 [50]
0.029172579 0.016091028 0.067318 -0.009983164 0.038163614 0.022959717 0.047291745 -0.0025147009
0.06083623 0.03521079 0.07175953 -0.050944407 -0.0024989196 0.0077558095 -0.022051256 0.0135389585
-0.040977392 0.023383187 0.05309062 0.0010149587 0.05266838 0.042363368 0.05136051 0.027871631
-0.021512149 -0.045796197 0.024382664 -0.008644157 0.049431264 0.01660477 0.0023130565 -0.038349748
0.027143145 0.021600708 0.078398004 0.00053075264 -0.022815512 -0.040889572 0.036224775 0.002067264
0.009916216 0.058443032 0.0028827593 0.09030588 0.09108259 -0.0003987846 0.051677212 -0.009591936
0.059068017 -0.0051733353
00000000: 55fb ee3c 55d1 833c 05de 893d 6d90 23bc
00000010: 7351 1c3d 0416 bc3c fdb4 413d aecd 24bb
00000020: 692f 793d 3039 103d a9f6 923d 15ab 50bd
00000030: eac4 23bb 7224 fe3b d6a4 b4bc 82d2 5d3c
00000040: e9d7 27bd 198e bf3c 8d75 593d 5d08 853a
00000050: cdba 573d 3685 2d3d 665f 523d 0c53 e43c
00000060: 3f3a b0bc cb94 3bbd 27be c73c 39a0 0dbc
00000070: 7078 4a3d ba06 883c a696 173b a014 1dbd
00000080: 4d5b de3c f8f3 b03c 228f a03d 3522 0b3a
00000090: 99e7 babc d37b 27bd 6e60 143d ef7a 073b
000000a0: a077 223c f661 6f3d adec 3c3b 4af2 b83d
000000b0: 8289 ba3d f713 d1b9 7cab 533d 7f27 1dbc
000000c0: 4ef1 713d 1585 a9bb

fc2.weight f4 [10, 50]
-0.03206369 0.15842766 -0.018038532 -0.10784834 0.046604827 0.15410078 -0.17078322 0.22248273
-0.12059121 -0.18499707 0.20662907 -0.020610387 -0.23384322 -0.15240751 -0.19783106 0.19010502
0.16116719 -0.20141722 -0.06625848 0.2019761 -0.04786145 0.13642201 -0.28117713 -0.06676197
-0.15914097 -0.08299326 -0.2160455 -0.15951471 -0.19490173 -0.18184963 0.21734722 0.08828846
-0.22291271 -0.1898474 -0.18318543 0.14831479 -0.23444167 0.09443613 -0.09072727 0.09707838
-0.0909277 -0.16336039 0.20715776 0.23738275 -0.21029791 0.184978 0.14645283 0.3119513
-0.15258813 0.14481404 0.19719312 0.19842668 0.17105503 0.33078027 -0.13564762 -0.050638102
-0.08478834 -0.086737484 0.20788361 0.21501152 -0.118897304 -0.17992474 0.23552752 -0.0037692315
-0.064805835 -0.15414721 -0.11443144 -0.11483172 -0.022408945 -0.15435106 -0.20513144 0.16203178
0.14984706 -0.029476443 -0.10032665 0.030784171 -0.10183022 0.1961361 -0.080382384 0.06720825
0.123309724 -0.135014 -0.020906411 0.13987073 0.18419601 -0.14368331 -0.014294178 -0.238738
0.19741578 0.13402465 -0.23927785 -0.06583408 -0.1423458 0.1757014 0.22574283 0.1503586
-0.27001238 0.017418882 0.25220785 -0.1728523 0.18772334 -0.058308255 0.26064414 -0.08440278
-0.23321086 -0.10797797 0.04855193 -0.10106359 -0.17102857 -0.120703325 0.19998081 -0.10585609
-0.13220924 -0.17316875 -0.022323791 -0.0139700435 -0.086572446 -0.012296726 0.20774134 0.18133841
-0.24004158 -0.035295818 -0.086969994 -0.13684256 0.13369709 -0.013283002 -0.119344026 0.17550302
-0.07672892 -0.069948435 -0.08895398 -0.010854251 -0.26710224 0.14688672 0.18323784 0.16947438
-0.17299312 0.07032495 -0.08825245 0.063448995 0.116829336 0.16534704 -0.0048940084 0.12547015
0.19783898 -0.10833701 0.10223567 0.25122675 0.25772503 0.14237289 -0.18021697 0.12399816
0.25710034 -0.055940956 -0.041744757 -0.09403632 0.25238368 -0.08763097 -0.070714496 -0.2895951
0.016159557 0.14746131 -0.11507627 0.2220891 -0.10797106 0.113243476 -0.09151266 0.22638176
0.16056918 0.13173221 -0.18495041 -0.009439972 -0.024875259 -0.21481441 0.116957895 0.021603387
0.123128854 0.18206504 -0.081764475 0.17483832 -0.19939284 0.17077714 0.1432501 0.13920555
-0.19705921 0.11431578 0.12556645 0.09867314 -0.1481354 0.11703576 -0.14081307 -0.057941724
-0.076319456 -0.14503446 -0.0445569 -0.049194332 -0.18053971 -0.08398219 0.17801008 0.08771705
-0.018401198 -0.1840425 -0.17341805 -0.10503574 -0.044487868 0.28105313 -0.07767212 -0.0896
0.19203706 0.14543205 -0.07477811 0.13220307 0.23260137 -0.06865644 -0.13395533 -0.20418182
0.03797816 -0.06453618 0.1336696 -0.05366299 0.11586399 0.19021022 -0.06210663 0.24821827
0.17344365 -0.13456404 0.12731268 -0.16835506 0.24498734 0.080351524 -0.08459568 0.18447874
0.07112343 -0.10625434 0.18572286 -0.24609344 0.1867195 -0.25484684 0.1938705 -0.1552063
0.09160509 0.13399959 -0.077810295 -0.17192224 -0.13079192 -0.05627433 0.12957288 0.07477293
-0.15054645 -0.16835937 -0.033063527 0.19800991 -0.0692269 -0.04155713 0.20462918 -0.058083884
00000000: 3755 03bd dc3a 223e 8bc5 93bc 97df dcbd
00000010: b4e4 3e3d 98cc 1d3e cce1 2ebe 83d2 633e
00000020: 86f8 f6bd df6f 3dbe 9296 533e 1dd7 a8bc
00000030: 9974 6fbe b710 1cbe 3a94 4abe e4aa 423e
00000040: 0309 253e 5140 4ebe 87b2 87bd d3d2 4e3e
00000050: 5e0a 44bd 36b2 0b3e 73f6 8fbe 80ba 88bd
00000060: daf5 22be 5ff8 a9bd 083b 5dbe d357 23be
00000070: 5294 47be ca36 3abe 4590 5e3e 95d0 b43d
00000080: 3b43 64be 5b67 42be f694 3bbe d5df 173e
00000090: 7a11 70be bb67 c13d 38cf b9bd 08d1 c63d
000000a0: 4d38 babd f247 27be 2a21 543e 7714 733e
000000b0: 5658 57be df6a 3d3e bbf7 153e 15b8 9f3e
000000c0: 1040 1cbe 224a 143e feec 493e 5d30 4b3e
000000d0: 0d29 2f3e 085c a93e 36e7 0abe e669 4fbd
000000e0: 82a5 adbd 6ca3 b1bd 71df 543e fb2b 5c3e
000000f0: 6e80 f3bd 313e 38be 202e 713e 3605 77bb
00000100: ecb8 84bd c4d8 1dbe 085b eabd e52c ebbd
00000110: f792 b7bc 340e 1ebe fa0d 52be a9eb 253e
00000120: 8271 193e 9578 f1bc 0f78 cdbd 162f fc3c
00000130: 5d8c d0bd e7d7 483e 859f a4bd 7ba4 893d
00000140: cf89 fc3d 1c41 0abe ec43 abbc 463a 0f3e
00000150: e19d 3c3e b821 13be 2132 6abc bc77 74be
00000160: 5d27 4a3e c23d 093e 4105 75be 05d4 86bd
00000170: 19c3 11be 11eb 333e 2129 673e 9bf7 193e
00000180: 103f 8abe 0bb2 8e3c 6321 813e 3100 31be
00000190: 8c3a 403e a3d4 6ebd 2673 853e 5ddb acbd
000001a0: d4ce 6ebe 8e23 ddbd 63de 463d 6dfa cebd
000001b0: 1d22 2fbe 4e33 f7bd c5c7 4c3e 14cb d8bd
000001c0: dc61 07be 2653 31be 62e0 b6bc 9ce2 64bc
000001d0: e54c b1bd 3578 49bc 25ba 543e c7b0 393e
000001e0: 76cd 75be 5992 10bd 531d b2bd 7520 0cbe
000001f0: e4e7 083e f3a0 59bc a46a f4bd 10b7 333e
00000200: 0d24 9dbd 2041 8fbd 812d b6bd 07d6 31bc
00000210: a0c1 88be 7969 163e b3a2 3b3e b18a 2d3e
00000220: 1c25 31be 8706 903d b3bd b4bd 8cf1 813d
00000230: 3844 ef3d bc50 293e eb5d a0bb 3f7b 003e
00000240: 4d96 4a3e cbdf ddbd ef60 d13d cba0 803e
00000250: 89f4 833e 33ca 113e cc8a 38be bff2 fd3d
00000260: a8a2 833e 5822 65bd 8dfc 2abd 1d96 c0bd
00000270: 6f38 813e de77 b3bd c3d2 90bd cf45 94be
00000280: 0c61 843c 1900 173e 1cad ebbd 536b 633e
00000290: ee1f ddbd 32ec e73d fd6a bbbd 9fd0 673e
000002a0: 3f6c 243e cfe4 063e a463 3dbe 1daa 1abc
000002b0: 33c7 cbbc 4ff8 5bbe 9f87 ef3d 96f9 b03c
000002c0: fb2a fc3d 426f 3a3e 2274 a7bd d108 333e
000002d0: a32d 4cbe 34e0 2e3e 27b0 123e e68b 0e3e
000002e0: e4c9 49be 641e ea3d 7e94 003e 2515 ca3d
000002f0: ceb0 17be 72b0 ef3d 4d31 10be 4d54 6dbd
00000300: 604d 9cbd ea83 14be 4c81 36bd ff7f 49bd
00000310: 67df 38be dbfe abbd 4648 363e ffa4 b33d
00000320: 1cbe 96bc a375 3cbe 8094 31be fa1c d7bd
00000330: e938 36bd 32e6 8f3e 8f12 9fbd 3480 b7bd
00000340: 5da5 443e 24ec 143e 4425 99bd 3e60 073e
00000350: 0e2f 6e3e bf9b 8cbd 962b 09be 0a15 51be
00000360: fd8e 1b3d 8b2b 84bd afe0 083e b9cd 5bbd
00000370: 194a ed3d 78c6 423e 8663 7ebd ee2c 7e3e
00000380: 369b 313e 28cb 09be 415e 023e 4565 2cbe
00000390: f6dd 7a3e 578f a43d 8040 adbd ffe7 3c3e
000003a0: 29a9 913d e09b d9bd 222e 3e3e ebff 7bbe
000003b0: 6633 3f3e 497b 82be fd85 463e 66ee 1ebe
000003c0: 739b bb3d 3037 093e 015b 9fbd 620c 30be
000003d0: 51ee 05be e97f 66bd c1ae 043e 8d22 993d
000003e0: d928 1abe 6666 2cbe 9f6d 07bd 1cc3 4a3e
000003f0: d5c6 8dbd cf37 2abd 508a 513e 5ee9 6dbd

fc2.bias f4 [10]
0.034569517 0.13433716 -0.059831616 -0.09607028 -0.06517059 0.13630988 0.111216344 -0.11482907
0.07797031 -0.14229438
00000000: c498 0d3d ae8f 093e ff11 75bd 7fc0 c4bd
00000010: 2978 85bd d194 0b3e 65c5 e33d 812b ebbd
00000020: e6ae 9f3d 9eb5 11be
