proj5/task4/results/exp8_128.pth (torch, 89871 bytes, 8 tensors)

conv1.weight f4 [10, 1, 5, 5]
0	0x3dfa82bf	0.12231969
1	0x3e6659f7	0.22495256
2	0x3dc9cf55	0.098539986
3	0x3eb766ae	0.35820526
4	0x3c22bb76	0.0099323895
5	0x3d4d7d9d	0.050168622
6	0x3dd09e38	0.10186428
7	0x3ee63622	0.44963175
8	0x3ed300e1	0.41211608
9	0xbddce201	-0.10785294
10	0x3e8a0f8c	0.26964986
11	0x3ea2677a	0.3171957
12	0x3ef09c35	0.46994177
13	0x3e4ad5d8	0.19808137
14	0x3e22f65b	0.1591429
15	0x3cca83de	0.024721082
16	0x3e9fe4a6	0.31229132
17	0x3e3fa7c9	0.18716349
18	0xbb9d2740	-0.0047959387
19	0x3de2f4bb	0.11081835
20	0xbe015724	-0.12630898
21	0x3c0e7c04	0.00869656
22	0xbc936507	-0.01799251
23	0x3e46cb30	0.19413447
24	0xbdfd2f8f	-0.12362587
25	0xbe00cbfe	-0.12577817
26	0xbdba3985	-0.09093002
27	0xbdd8e820	-0.10591149
28	0x3d5682f9	0.052371
29	0xbe50c858	-0.20388925
30	0x3e32f636	0.17476735
31	0xbe3b0c7f	-0.18266486
32	0x3e430f44	0.19048792
33	0x3d564df9	0.052320454
34	0xbde4dbc5	-0.1117473
35	0x3e433690	0.19063783
36	0x3e31f9a8	0.17380393
37	0x3ed2c5fc	0.41166675
38	0x3e582026	0.21106014
39	0xbca49ef3	-0.020095324
40	0x3e19cca6	0.15019473
41	0x3e40cf99	0.18829192
42	0x3ee9bc9b	0.45651707
43	0x3eeae47b	0.45877442
44	0x3e66d72f	0.22543024
45	0xbdac7e82	-0.08422567
46	0x3e6f5284	0.23371321
47	0x3e492683	0.19643597
48	0x3e7af775	0.2450846
49	0xbcc41b29	-0.023938732
50	0xbe23c38d	-0.15992565
51	0x3db1c3ef	0.086799495
52	0x3cc3e4bc	0.02391278
53	0x3e69f13e	0.22845933
54	0x3d108a21	0.03528798
55	0x3dd64e1e	0.104641184
56	0x3e72e16b	0.23718803
57	0x3e1f5a3c	0.15561765
58	0x3e27bee7	0.16381417
59	0xbe6d1ad8	-0.23154771
60	0x3e00f480	0.1259327
61	0x3e0daa8a	0.13834587
62	0x3e7da06b	0.24768226
63	0xbde0dcb8	-0.10979599
64	0xbdb5d879	-0.088791795
65	0x3e1970d7	0.14984451
66	0x3edea71e	0.43486875
67	0x3af82c6b	0.0018934136
68	0xbe52003b	-0.205079
69	0xbe82e73e	-0.2556705
70	0x3ec0111d	0.37513056
71	0x3e902037	0.28149578
72	0x3e5f1d85	0.21788605
73	0xbe9926c6	-0.29912394
74	0xbeb2c094	-0.3491255
75	0xbe537d35	-0.20653231
76	0xbe261eac	-0.16222638
77	0x3de342f6	0.11096756
78	0x3e37f039	0.17962731
79	0x3e9576d3	0.29192218
80	0xbe358145	-0.17725094
81	0xbe17fed9	-0.1484331
82	0x3e3d09e8	0.1846081
83	0x3d535765	0.051597018
84	0x3e620a01	0.22074129
85	0xbe08bfe4	-0.1335445
86	0x3e0dd3ed	0.13850375
87	0xbcb948af	-0.022617666
88	0x3d11afe6	0.03556814
89	0x3dbf405f	0.0933845
90	0xbc60efe6	-0.013729071
91	0xbbf7c13c	-0.007560877
92	0x3e608bad	0.21928282
93	0x3e50adcf	0.20378803
94	0xbe25e4b0	-0.16200519
95	0xbda0c6c8	-0.078504145
96	0x3e87c301	0.26515964
97	0x3cd20b2b	0.02564009
98	0xbce7381a	-0.028224993
99	0xbe471e13	-0.19445066
100	0xbe21f9bd	-0.15817924
101	0x3c9b8d34	0.01898823
102	0xbd6277f7	-0.05529019
103	0xbe3077a4	-0.1723314
104	0xbcfbe05c	-0.030746631
105	0xbe42a232	-0.19007185
106	0xbe58108a	-0.21100059
107	0xbe166fcd	-0.14691086
108	0xbe577e2d	-0.21044226
109	0xbe275f14	-0.16344863
110	0x3e017dd3	0.12645654
111	0xbc8de3b2	-0.017320488
112	0x3c8b89d1	0.01703349
113	0xbe6746d2	-0.2258561
114	0xbe2ce6f6	-0.1688498
115	0xbded6a8b	-0.11592587
116	0xbbba81c5	-0.0056917393
117	0xbe5a3bf2	-0.2131193
118	0xbdfcfe1f	-0.12353157
119	0xbe1fdcd7	-0.15611587
120	0xbbc02c46	-0.005864653
121	0xbda3ec92	-0.080041066
122	0xbd088bc8	-0.03333643
123	0xbe2ee3a5	-0.17079027
124	0xbe301b5f	-0.17197941
125	0xbe04a015	-0.12951691
126	0xbdb4d700	-0.088300705
127	0xbe351414	-0.1768344
128	0x3e0b7178	0.13617504
129	0xbd1a7561	-0.037709597
130	0x3e207511	0.15669657
131	0x3ccef5a4	0.025263615
132	0xbe5711bf	-0.21002863
133	0x3dbb4670	0.09144294
134	0xbd85e895	-0.06538502
135	0xbd80d1cb	-0.06290015
136	0xbe38bd1c	-0.1804089
137	0xbe71f240	-0.23627567
138	0x3ca6bc59	0.020353483
139	0xbd2c7143	-0.042100202
140	0x3e1b8e04	0.15190893
141	0xbde18c5a	-0.11013098
142	0x3e32e4de	0.17470118
143	0xbe0977eb	-0.13424651
144	0xbc416c5e	-0.011805622
145	0x3e2160e1	0.15759613
146	0x3e707366	0.23481521
147	0x3e895f61	0.2683058
148	0x3e7929a2	0.24332288
149	0xbe06a854	-0.1315015
150	0x3d2d4060	0.04229772
151	0xbdd0cd32	-0.10195388
152	0xbd6487d9	-0.055793617
153	0xbe33d177	-0.17560373
154	0x3e48db96	0.19615015
155	0xbe110d8d	-0.14165325
156	0x3e2555d4	0.16146022
157	0x3e0cf696	0.1376594
158	0x3e0db45b	0.13838331
159	0xbd36b716	-0.044608198
160	0x3e8983e9	0.26858452
161	0x3e3bd639	0.18343438
162	0x3e221765	0.15829237
163	0xbdd0d849	-0.10197503
164	0x3e12f15f	0.14349888
165	0xbb53deb9	-0.0032328798
166	0xbce3b397	-0.027795596
167	0x3e7fe45e	0.24989459
168	0x3d9329b9	0.07185692
169	0xbdcd9d1b	-0.10039731
170	0xbe1f14fc	-0.15535349
171	0xbba39fcb	-0.004993414
172	0x3e0f8ba8	0.14018118
173	0xbd509f2c	-0.050933048
174	0xbdf8dc76	-0.121514246
175	0xbdcdd423	-0.100502275
176	0xbde198a7	-0.11015444
177	0x3e197e65	0.14989622
178	0x3e3f2148	0.1866504
179	0xbe747bc6	-0.23875341
180	0x3db163d0	0.08661616
181	0x3e5fc9f2	0.2185438
182	0x3e0c74a9	0.13716377
183	0xbdb8b44a	-0.090187624
184	0x3a24d164	0.0006287305
185	0x3e46bfdd	0.19409128
186	0x3e628df3	0.22124462
187	0x3de6b045	0.112640895
188	0x3c0d0367	0.008606768
189	0x3cb35714	0.021892108
190	0xbaa1de95	-0.001234966
191	0x3cc2bd4a	0.0237719
192	0x3e9d3455	0.3070399
193	0x3ebf61cf	0.3737931
194	0x3df917d1	0.12162746
195	0xbdd2e272	-0.10297097
196	0xbcf56fd3	-0.029960549
197	0x3d401506	0.04689505
198	0x3e433df7	0.19066606
199	0x3e783167	0.24237595
200	0xbe4233b1	-0.18965031
201	0xbdf45a49	-0.11931283
202	0x3dcff8f7	0.10154908
203	0x3d19b8d8	0.037529796
204	0xbd2b5310	-0.04182726
205	0xbdfb6ff9	-0.122772165
206	0xbe5839bd	-0.21115775
207	0xbe87d250	-0.26527643
208	0xbdf01e41	-0.117245205
209	0x3c8c5b65	0.017133424
210	0x3e35ebad	0.17765684
211	0x3d8ec872	0.06971826
212	0xbe63d402	-0.22248843
213	0xbe30ea3c	-0.17276853
214	0xbdc91409	-0.098182745
215	0x3e912ec5	0.28355995
216	0x3df4824c	0.11938915
217	0xbce313bb	-0.02771937
218	0x3d63eace	0.05564385
219	0xbdf55f61	-0.11981083
220	0xbd1d7eb3	-0.038450908
221	0x3e8804cb	0.26566157
222	0xbc44b434	-0.012005854
223	0xbac3af47	-0.0014929556
224	0xbe524723	-0.20534949
225	0x3e7da001	0.24768068
226	0x3eb37ab8	0.35054564
227	0x3eafc506	0.34330004
228	0x3e1eac52	0.15495422
229	0x3db5bece	0.08874284
230	0xbc140b4f	-0.009035899
231	0x3eb2bfed	0.34912053
232	0x3ea73c7f	0.32663342
233	0x3ed4bbd3	0.41549549
234	0x3ea81a98	0.3283279
235	0x3d454de2	0.048169978
236	0xbd86567b	-0.065594636
237	0xbe6106d0	-0.21975255
238	0xbe384545	-0.17995174
239	0xbe1e231e	-0.15443084
240	0xbda6774e	-0.08128224
241	0xbe970437	-0.29495403
242	0xbe6b5422	-0.22981313
243	0xbe5fc9b1	-0.21854283
244	0xbde32991	-0.110919125
245	0xbeb2f4d9	-0.3495243
246	0xbea5975b	-0.32342038
247	0xbdc3aa25	-0.09553937
248	0xbe074b0e	-0.13212225
249	0x3bea101d	0.007143034

conv1.bias f4 [10]
0	0x3de76846	0.112991855
1	0x3d0a3e52	0.03375084
2	0xbcf2b67a	-0.029628027
3	0xbdc0dec6	-0.09417491
4	0x3ca9403c	0.020660512
5	0xbe1d4185	-0.15357025
6	0x3e2b6e13	0.16741209
7	0xbc325de4	-0.010886643
8	0x3e0eb0c7	0.13934623
9	0x3e00b011	0.12567164

conv2.weight f4 [20, 10, 5, 5]
0	0x3d6a2cd1	0.057171647
1	0xbd42e31e	-0.047579877
2	0x3bb8a54c	0.0056349393
3	0xbd48a0be	-0.04898142
4	0xbdbb48ec	-0.09144768
5	0x3d328ce6	0.043591402
6	0xbc71db94	-0.014761824
7	0xbcb26948	-0.021778718
8	0xbcd702c4	-0.026246436
9	0xbdd78dd8	-0.105251014
10	0x3d56d941	0.052453283
11	0xbc0730fc	-0.008251425
12	0x3dbb03e6	0.09131603
13	0x3e0f20a7	0.139773
14	0x3e16878a	0.14700142
15	0xbc786221	-0.0151601145
16	0xbde7548e	-0.112954244
17	0xbd5ee482	-0.05441714
18	0x3d16ae66	0.036787413
19	0xbcbcd9da	-0.023053098
20	0xbb1611cc	-0.0022898791
21	0xbe0df74a	-0.13863865
22	0xbe260e56	-0.16216406
23	0xbe21a433	-0.15785293
24	0xbd6187ae	-0.055061035
25	0xbd4314e5	-0.04762735
26	0xbda3fe37	-0.08007472
27	0x3bdef2a1	0.006803826
28	0x3d1ad99d	0.03780519
29	0xbda0df60	-0.078551054
30	0xbbd845d3	-0.0066001206
31	0x3cf7f8de	0.030270036
32	0xbc840a69	-0.016118245
33	0x3c912df2	0.017722104
34	0x3d87649d	0.06610987
35	0xbcdcb6f6	-0.026942711
36	0xbcbe96ea	-0.02326532
37	0x3cb7cced	0.022436583
38	0x3d9cb56a	0.076517895
39	0x3dac7017	0.08419817
40	0xbce1b159	-0.027550386
41	0xbdfd0d4e	-0.12356053
42	0xbe1dadcf	-0.15398334
43	0xbde1e88f	-0.11030685
44	0xbd568a83	-0.05237819
45	0x3e2c155a	0.1680502
46	0x3d664cd8	0.056225628
47	0x3d51c43e	0.05121254
48	0x3c6eca22	0.014574559
49	0xbc51e952	-0.012811976
50	0x3d388be2	0.045055278
51	0x3d107e89	0.035276923
52	0xbd0d458c	-0.034490153
53	0x3d27dbd9	0.040981147
54	0x3db42dc8	0.087977946
55	0xbc17ee7e	-0.00927317
56	0x3d0cce64	0.034376517
57	0x3d7f550b	0.062336963
58	0xbcb71758	-0.022349998
59	0x3c50d876	0.012746921
60	0xbd2b602a	-0.041839756
61	0xbd46a822	-0.048500188
62	0xbd00c0fd	-0.031434048
63	0xbd7424dd	-0.059605468
64	0xbdcd40db	-0.10022136
65	0xbd09b7ab	-0.033622425
66	0xbd916341	-0.07099009
67	0xbe104bae	-0.1409137
68	0xbe20276a	-0.15640035
69	0xbde188b9	-0.11012406
70	0x3cf3a01c	0.029739432
71	0x3d02bcb4	0.031918243
72	0xbd345c96	-0.04403361
73	0xbd470bd4	-0.048595265
74	0x3d905de5	0.07049159
75	0xbd6f1564	-0.05837001
76	0xbc948c78	-0.018133387
77	0x3cc08625	0.023501465
78	0xbc68d2fc	-0.014210459
79	0xbcb893de	-0.022531446
80	0xbc85a630	-0.016314596
81	0xbcc1dbf0	-0.023664445
82	0xbd448276	-0.04797598
83	0xbd8589e3	-0.065204404
84	0xbda88b27	-0.08229666
85	0xbd212e9a	-0.039351083
86	0x3d5c65a3	0.053807866
87	0xbcf760d3	-0.030197537
88	0xbd32adc4	-0.043622747
89	0xbcc4e935	-0.024036983
90	0xbc387e1a	-0.011260534
91	0x3d07d4af	0.033161815
92	0x3da7d592	0.08195032
93	0x3d675f02	0.05648709
94	0xbda8fb23	-0.082510255
95	0xbd5028e3	-0.050820243
96	0x3c0f816c	0.008758884
97	0xbc8199cd	-0.015820408
98	0xbc6f6092	-0.0146104265
99	0x3dcaf02c	0.099090904
100	0xbc182a1c	-0.009287383
101	0xbcb29cc4	-0.021803267
102	0xbd52ad03	-0.051434528
103	0x3be0077d	0.00683683
104	0x3d165cd5	0.036709625
105	0x3cb9a57f	0.022661922
106	0x3be80206	0.0070803193
107	0xbd963ff4	-0.07336417
108	0xbd9b8dda	-0.075954154
109	0x3af4df0e	0.0018682198
110	0x3d8c7f7a	0.06860252
111	0x3d06d0b5	0.032913882
112	0xbd698181	-0.05700827
113	0xbd03a9bf	-0.032144304
114	0xbd5b3c78	-0.053524464
115	0xbc1abf34	-0.009445
116	0x3d126ff6	0.035751306
117	0x3d835f8e	0.0641471
118	0x3d7fe616	0.062475286
119	0xbd3a7ae5	-0.045527358
120	0x3d5aee61	0.053449992
121	0xbc8784c0	-0.016542792
122	0x3d6ecca3	0.058300626
123	0x3da3dd11	0.080011494
124	0x3d26d223	0.040727746
125	0x3d491666	0.049093626
126	0xbd4e0126	-0.050294064
127	0xbc1cf684	-0.009580258
128	0x3d46b043	0.04850794
129	0x3bbd1893	0.0057707517
130	0x3bf5e134	0.007503653
131	0xbb3783ad	-0.002800207
132	0x3dbb51af	0.09146439
133	0x3db47f9d	0.08813403
134	0x3da86ef3	0.08224287
135	0xbcc7f23d	-0.0244075
136	0xbd79a148	-0.060944825
137	0x3bc3046e	0.005951456
138	0x3d1189f0	0.035531938
139	0xbbd231e5	-0.0064146393
140	0x3c58456e	0.013200147
141	0x3d80c6b3	0.06287899
142	0x3bef8456	0.007309477
143	0x3b65eaec	0.0035082651
144	0xbc8c7f41	-0.017150523
145	0xbc0a388a	-0.0084363315
146	0x3bbb5cef	0.0057178657
147	0x3d07bf3d	0.033141363
148	0x3cedb38c	0.029016279
149	0x3d4c519e	0.049882524
150	0xbd02bea3	-0.031920087
151	0xbc992789	-0.01869561
152	0x3d452676	0.048132382
153	0x3cc5af60	0.024131477
154	0x3cded33f	0.02720034
155	0xbd616e21	-0.055036668
156	0xbcad9f93	-0.021194255
157	0x3ce4903c	0.027900808
158	0xbcc42401	-0.02394295
159	0xbcaa5697	-0.020793242
160	0x3aaeea96	0.0013345059
161	0xba679d90	-0.00088354293
162	0xbc4696a3	-0.0121208755
163	0x3da63cf2	0.08117093
164	0x3df08ff9	0.117462106
165	0x3c72df1b	0.0148237
166	0xbcec44a8	-0.028841332
167	0xbdae6ba3	-0.08516624
168	0xbd2f1e12	-0.042753287
169	0x3cff3fed	0.031158412
170	0x3d5b8961	0.05359781
171	0xbc451456	-0.012028774
172	0xbd632159	-0.055451725
173	0x3c15ef21	0.009151251
174	0xbd8136c7	-0.06309276
175	0x3d102c4b	0.03519849
176	0xbd1d0dbf	-0.038343187
177	0xbcd8caaf	-0.026463835
178	0xbcb7fea6	-0.022460293
179	0xbd422488	-0.04739812
180	0xbcaae349	-0.020860331
181	0x3d9724c2	0.07380058
182	0x3cc55735	0.024089435
183	0x3ddb910f	0.10721027
184	0x3d94ef3b	0.07272192
185	0xbd118009	-0.035522494
186	0xbcfa64d4	-0.030565657
187	0x3d952f2c	0.07284388
188	0x3dfec3e8	0.1243971
189	0x3d1dbb1e	0.038508527
190	0xbc9f07ba	-0.019412864
191	0xbe02f448	-0.12788498
192	0xbe0d66a8	-0.13808692
193	0xbd0b40c5	-0.033997316
194	0x3ca9b889	0.020717876
195	0x3da7617e	0.08172892
196	0xba7ecda6	-0.0009719975
197	0x3d282215	0.04104813
198	0xbcb499b3	-0.022045946
199	0xbdcb0577	-0.09913152
200	0xbc39ecd1	-0.011347965
201	0x3c6ea73b	0.014566238
202	0x3ce716d5	0.02820913
203	0xbd5e9344	-0.054339662
204	0x3cf7e17a	0.030258883
205	0xbd00d2f3	-0.031451177
206	0xbd364934	-0.044503406
207	0xbb02b2eb	-0.001994307
208	0x3db0a62b	0.08625444
209	0x3db04878	0.08607572
210	0x3d8d9a8e	0.069142446
211	0x3d60b129	0.054856453
212	0x3d8ca691	0.068677075
213	0x3c904969	0.01761313
214	0x3bd3a49a	0.006458831
215	0x3d9504d2	0.0727631
216	0x3c6b08e0	0.014345378
217	0xbc4e9aa4	-0.012610111
218	0xbc31ff15	-0.010864039
219	0x3c61d55a	0.013783777
220	0x3da237b3	0.0792078
221	0x3d71dfcc	0.05905132
222	0x3cd07522	0.025446478
223	0x3d26404d	0.040588666
224	0xbcae60e8	-0.021286443
225	0xbc082563	-0.008309695
226	0x3d023afc	0.031794533
227	0xbcdd9447	-0.027048243
228	0x3d3f09ca	0.046640195
229	0x3d80e406	0.06293492
230	0x3c5df9bb	0.01354831
231	0x3cb6feb3	0.022338247
232	0x3d26c86c	0.04071848
233	0x3cc4a47e	0.024004217
234	0x3a883616	0.0010392095
235	0xbb55753f	-0.0032571105
236	0x3d8b5067	0.06802445
237	0x3e04400a	0.12915054
238	0x3d7187f8	0.05896756
239	0x3d436000	0.047698975
240	0x3c9e4884	0.019321688
241	0x3cfe8149	0.031067507
242	0x3e0256c0	0.12728405
243	0x3e53e077	0.20691095
244	0x3e4e6f34	0.20159608
245	0x3d1b048c	0.037846133
246	0xbd832582	-0.064036384
247	0xbcecdbe4	-0.028913446
248	0xbc50e475	-0.012749781
249	0xbb0cc6c0	-0.002148077
250	0x3b598126	0.003318855
251	0xbdab2416	-0.08356492
252	0x3b89d09d	0.004205777
253	0xbc3aafe4	-0.011394475
254	0xbd998d26	-0.07497625
255	0x3addd8a2	0.0016925524

conv2.bias f4 [20]
0	0x3da11fdd	0.078674056
1	0xbd798f22	-0.060927518
2	0xbd0f3efb	-0.034972172
3	0xbd70481b	-0.058662515
4	0xbd783d72	-0.060605474
5	0x3c6ea9a2	0.014566811
6	0x3ce463eb	0.027879676
7	0xbd2c15e4	-0.042013064
8	0x3c9dd276	0.019265395
9	0xbd909565	-0.07059745
10	0x3c3ef2fc	0.011654612
11	0x3cbde133	0.023178672
12	0xbcfc585e	-0.030803856
13	0xbc18ddcc	-0.009330224
14	0x3d6478ff	0.055779453
15	0xbd28f2ab	-0.04124705
16	0xbc8a8fc3	-0.016914254
17	0xbd625d9a	-0.055265047
18	0x3cfe975d	0.031078035
19	0xbb77008f	-0.0037689542

fc1.weight f4 [50, 320]
0	0xbcf1cd37	-0.0295168
1	0x3ce34eb1	0.027747484
2	0xbc1a909f	-0.009433894
3	0x3bda740c	0.006666666
4	0xbda44a4c	-0.080219835
5	0xbd86078e	-0.0654441
6	0xbccfc7c5	-0.025363812
7	0x3b00bc88	0.0019643623
8	0xbdfc3015	-0.123138584
9	0xbba77839	-0.005110767
10	0xbd5e68e7	-0.05429926
11	0x3cdd6239	0.027024375
12	0xbc9e3a3e	-0.019314881
13	0x3d63a0b9	0.0555732
14	0x3d210a78	0.039316624
15	0x3dcebe38	0.10094875
16	0x3b2d6de1	0.0026463198
17	0xbc98c5ea	-0.01864906
18	0xbd92eec8	-0.0717445
19	0xbdafeba8	-0.0858987
20	0xbcb868ec	-0.022510968
21	0xbcc1c5c7	-0.023653878
22	0x3c9b913c	0.018990152
23	0x3c97e07a	0.018539656
24	0x3c2628d5	0.010141571
25	0x3b97d305	0.00463331
26	0xbba74a83	-0.005105318
27	0x3d1576f8	0.03649041
28	0xbbc302e8	-0.005951274
29	0xbc0d7531	-0.008633898
30	0x3db24969	0.08705408
31	0x3cb872d1	0.022515686
32	0x3c3184fe	0.01083493
33	0x3d258039	0.040405486
34	0x3d6c82ef	0.057742056
35	0xbce5c865	-0.028049657
36	0xbd0173d9	-0.03160462
37	0xbc4e8c37	-0.012606672
38	0xbcfe8488	-0.031069055
39	0x3cd55062	0.026039306
40	0x3da6a2f1	0.08136547
41	0x39e122ae	0.00042941183
42	0xbd105ee5	-0.03524675
43	0x3cd67ef4	0.026183583
44	0xbcd5d684	-0.026103266
45	0x3d1330fb	0.035935383
46	0xbd10aa2c	-0.03531854
47	0xbd93ed8e	-0.07223044
48	0x3cd21680	0.025645494
49	0xbc18e907	-0.009332902
50	0x3d071bb0	0.03298539
51	0xbc3c6268	-0.011498071
52	0x3d80b608	0.0628472
53	0x3a9e5223	0.0012078922
54	0x3d38eae0	0.04514587
55	0xbcf6c973	-0.030125355
56	0xbd3e6bf6	-0.04648968
57	0x3a57e721	0.000823604
58	0x3c54d042	0.012989106
59	0xbcc5d6d1	-0.024150284
60	0xbd5b26de	-0.053503864
61	0xbc1c6b21	-0.009547026
62	0xbd3b438c	-0.045718715
63	0x3d2e6d61	0.04258478
64	0x3c352ec6	0.011058515
65	0x3d66f44b	0.05638532
66	0x3dc7e8e7	0.097612195
67	0x3d0aef31	0.033919517
68	0x3d3a014a	0.045411386
69	0x3d130549	0.035893712
70	0x3d135c1d	0.035976518
71	0xbc964d28	-0.018347338
72	0xbd1ebf57	-0.038756695
73	0xbbb4d536	-0.005518581
74	0x3d8ee3a7	0.06977015
75	0x3c3f6f0b	0.01168419
76	0x3bdb41ba	0.006691185
77	0xbcde0566	-0.027102184
78	0xbc67dcf3	-0.0141517995
79	0xbd931a4f	-0.07182752
80	0xb9b4c30b	-0.00034477594
81	0x3c15b7da	0.009138072
82	0x3d5a7faa	0.053344406
83	0xbd58cc81	-0.052929405
84	0xbce3430f	-0.027741937
85	0xbd5f940e	-0.054584555
86	0xbdbd97e1	-0.09257484
87	0xbe0a4cf6	-0.13505921
88	0xbd875e28	-0.06609756
89	0xbd58c477	-0.05292174
90	0x3c3a3a79	0.01136648
91	0xbd03ffc1	-0.032226328
92	0x3cf4ff99	0.029907035
93	0x3dd2a166	0.102846906
94	0x3d0233f6	0.031787835
95	0xbcd0505d	-0.025428945
96	0xbd223fc2	-0.039611585
97	0x3c698720	0.014253408
98	0x3b8f55ed	0.004374257
99	0xbb7378ef	-0.003715094
100	0x3d7768be	0.060402624
101	0x3da24a71	0.07924355
102	0xbcd62e00	-0.026144981
103	0xbbd46f91	-0.0064830263
104	0x3ccca0bc	0.024978988
105	0x3cb1144d	0.021616125
106	0x3cf37ab7	0.029721601
107	0x3cb89752	0.022533093
108	0x3c9a4233	0.018830394
109	0x3cdf9acb	0.02729549
110	0x3d29f90d	0.04149728
111	0x3cd343ee	0.025789227
112	0xbcb7b057	-0.022422953
113	0xbd837b74	-0.06420031
114	0x3d1ef3fe	0.038806908
115	0xbcc77d58	-0.02435176
116	0xbd62f755	-0.055411655
117	0x3d019d83	0.031644356
118	0x3d87671a	0.06611462
119	0x3c9d19ba	0.019177306
120	0xbb65425d	-0.0034982183
121	0x3d98f417	0.074684314
122	0x3d900ffc	0.07034299
123	0xba1f2101	-0.00060702866
124	0xbcf4347b	-0.02981018
125	0xbd2c5ac9	-0.042078767
126	0xbcba5337	-0.022744758
127	0x3cb1164b	0.021617075
128	0xbd34a8d8	-0.044106334
129	0x3d210d00	0.03931904
130	0x3ca42190	0.020035535
131	0xbc2754c6	-0.010213083
132	0x3cd95b7d	0.026532883
133	0xbc739f0e	-0.014869465
134	0xbc080154	-0.008301098
135	0xbd1d0fa4	-0.038344994
136	0xbc1bd56d	-0.009511334
137	0xbd42aeef	-0.04753011
138	0xbd807a0a	-0.06273277
139	0xbc298daa	-0.010348717
140	0x3cafae41	0.021445395
141	0xbc15b195	-0.009136577
142	0x3d30381d	0.043022264
143	0x3cf17e6b	0.029479226
144	0xbd546fd7	-0.05186447
145	0xbc9058b3	-0.01762042
146	0xbcb60e9e	-0.022223767
147	0xbdc01a9d	-0.09380076
148	0xbca9a7e5	-0.020709941
149	0xbcc255cb	-0.02372255
150	0xbba0bf07	-0.0049055847
151	0xbcb7147b	-0.022348633
152	0xbcfc262c	-0.03077992
153	0xbc87b022	-0.016563479
154	0x3d029b61	0.031886462
155	0xbcf4cce4	-0.029882856
156	0xbc2b6879	-0.01046192
157	0x3d8f7dd8	0.07006425
158	0x3d3eaad4	0.046549633
159	0x3b588409	0.0033037683
160	0xbd841b09	-0.06450469
161	0xbd0c179d	-0.034202207
162	0xbcb51c04	-0.022108085
163	0xbd7cbbf5	-0.061702687
164	0x3c7a6135	0.015281965
165	0xbcbd66b5	-0.023120264
166	0xbcdfd4b4	-0.027323104
167	0xbc6ecb8d	-0.0145748975
168	0x3c4f8df7	0.012668124
169	0x3bc98d51	0.0061508794
170	0xbca0cf7f	-0.019630192
171	0x3ba5b974	0.005057508
172	0x3c76eed8	0.015071593
173	0xbbfe62a8	-0.0077632256
174	0xbc1949ce	-0.009355975
175	0x3de96e0d	0.11397944
176	0xbc84b19d	-0.016197974
177	0x3cb64a11	0.022252114
178	0x3d9b0c6a	0.07570727
179	0xbd198b16	-0.03748616
180	0xbba26c71	-0.004956775
181	0xbd18712c	-0.037217304
182	0x3ce0dffa	0.02745055
183	0x3d12dadc	0.03585325
184	0x3c768282	0.015045764
185	0xbc49dfd8	-0.012321435
186	0x3d8d76aa	0.06907399
187	0x3c55b96b	0.013044695
188	0xbccf8edc	-0.025336675
189	0xbd1044d6	-0.035221897
190	0xbdbc12b0	-0.09183252
191	0x3cde5d33	0.02714405
192	0x3d0099d9	0.03139672
193	0x3c859448	0.016306058
194	0xbc48164c	-0.012212347
195	0xbd573e82	-0.052549846
196	0xbb5a77b0	-0.00333355
197	0x3caf4f8b	0.021400234
198	0xbc84f829	-0.016231613
199	0x3d37412c	0.044739887
200	0x3c553eb4	0.013015438
201	0xbb32eb6e	-0.0027300972
202	0x3cb602cf	0.022218136
203	0x3cec5d14	0.028852977
204	0xbd283d1e	-0.04107391
205	0x3c8ad221	0.0169459
206	0xbd5062bd	-0.050875414
207	0xbc495ce2	-0.012290211
208	0xbb3fe90c	-0.0029283194
209	0x3d80392f	0.06260907
210	0xbcc23f2a	-0.02371176
211	0x3b5c406a	0.003360773
212	0xbd22689a	-0.039650537
213	0x3cee8a47	0.02911867
214	0x3d0a4abb	0.033762675
215	0xbd24d000	-0.040237427
216	0x3ca9b777	0.020717366
217	0x3d5b4514	0.053532675
218	0xba4a40ff	-0.00077153736
219	0xbd9b5074	-0.075837046
220	0xbb5c873f	-0.003364995
221	0x3cf5a0d3	0.029983914
222	0xbc8ff89d	-0.017574603
223	0xbcbde137	-0.02317868
224	0x3c589b01	0.01322055
225	0x3cb91859	0.022594618
226	0x3d309a7d	0.04311608
227	0x3ce643cc	0.0281085
228	0x3d76ace0	0.06022346
229	0xbb46d361	-0.0030338394
230	0x3c50120d	0.012699616
231	0xbca8bb32	-0.020597074
232	0xbb11e7b2	-0.0022263345
233	0x3d1f9908	0.0389643
234	0x3d0d0f66	0.034438513
235	0xbce2deab	-0.027694067
236	0xbd0671eb	-0.032823484
237	0x3d22dfd5	0.039764244
238	0xbb0a67d8	-0.0021119025
239	0xbdae8834	-0.085220724
240	0x3d176855	0.036964733
241	0xbb4b5341	-0.0031024965
242	0xbcdbcf96	-0.026832383
243	0x3bba5f71	0.005687647
244	0xbc585f29	-0.013206282
245	0x3cb21b61	0.02174157
246	0xbd24723e	-0.040148012
247	0xbcfbd19d	-0.0307396
248	0xbd6ceab7	-0.05784103
249	0xbd416190	-0.047212183
250	0xbd2b2fa2	-0.041793473
251	0xbc8c781f	-0.017147122
252	0xbd5f9359	-0.05458388
253	0x3cbc6714	0.02299837
254	0x3dc7cba9	0.09755642
255	0x3dbde47d	0.09272096

fc1.bias f4 [50]
0	0x3ca6fc27	0.020383907
1	0x3c4fd64c	0.01268537
2	0x3d7cfe23	0.0617658
3	0xbcabb4f7	-0.020960314
4	0x3d086da5	0.03330769
5	0x3c33cd90	0.010974303
6	0x3d3bf5ef	0.045888837
7	0xbc78da30	-0.015188739
8	0x3d4501a1	0.048097257
9	0x3cbe4f9d	0.023231322
10	0x3d673fcf	0.056457337
11	0xbd58d50f	-0.052937564
12	0xbc003233	-0.007824468
13	0xbb96f6b5	-0.0046070465
14	0xbcda000c	-0.02661135
15	0x3c120695	0.008912702
16	0xbd4b99d7	-0.04970726
17	0x3d0b4500	0.03400135
18	0x3d5b20ee	0.0534982
19	0x3b0553ca	0.0020344132
20	0x3d5b393f	0.05352139
21	0x3d16676c	0.036719725
22	0x3d3cf8ae	0.046135597
23	0x3cc8cd80	0.024512053
24	0xbd092139	-0.03347895
25	0xbd4d3026	-0.050094746
26	0x3d0235f0	0.03178972
27	0xbc9583c5	-0.01825131
28	0x3d3ef3e6	0.04661932
29	0x3c406b34	0.011744309
30	0xbcb8a0f4	-0.022537686
31	0xbd187d5d	-0.03722893
32	0x3cae568e	0.021281507
33	0x3c3e6d54	0.011622746
34	0x3d964462	0.07337262
35	0xbc1bdd9e	-0.009513287
36	0xbca36b9f	-0.019948779
37	0xbd2bc41d	-0.041935075
38	0x3cd02ff4	0.02541349
39	0xbc7a7033	-0.015285539
40	0x3a6683a0	0.00087934174
41	0x3d6b29db	0.057412963
42	0xbaa4e94c	-0.0012581735
43	0x3da64ae4	0.08119753
44	0x3d84f0dd	0.064912535
45	0xbbd8b9fc	-0.006613968
46	0x3d3c2c4c	0.045940682
47	0xbc52738a	-0.0128449295
48	0x3d616217	0.055025186
49	0xbc6298e7	-0.0138304

fc2.weight f4 [10, 50]
0	0xbd4de6b1	-0.050268833
1	0x3e3bc047	0.18335067
2	0x3cdcef2c	0.026969515
3	0xbdbbf1e2	-0.09176995
4	0x3def410d	0.11682329
5	0x3df0fde7	0.11767178
6	0xbe23fd2f	-0.1601455
7	0x3e3f165c	0.18660873
8	0xbd7752b9	-0.060381625
9	0xbe28540c	-0.16438311
10	0x3e42a689	0.1900884
11	0x3d80be7c	0.06286332
12	0xbe625186	-0.22101411
13	0xbdfbdd4e	-0.1229807
14	0xbe1306b0	-0.1435802
15	0x3e18d159	0.1492361
16	0x3d275e5a	0.040861465
17	0xbe0ed8ca	-0.13949886
18	0xbda3f94b	-0.08006533
19	0x3e3a969d	0.18221517
20	0x3a9c7476	0.0011936564
21	0x3e4f0b13	0.20219068
22	0xbe7c161e	-0.24617812
23	0xbd9af5eb	-0.075664364
24	0xbe023f75	-0.1271952
25	0xbd832507	-0.06403547
26	0xbe504a61	-0.20340873
27	0xbde2ac12	-0.11067976
28	0xbe42b914	-0.19015914
29	0xbe291ec8	-0.16515648
30	0x3e437a14	0.19089538
31	0x3ccc50a6	0.0249408
32	0xbe33dc74	-0.17564565
33	0xbe4748af	-0.1946132
34	0xbe22ebce	-0.15910265
35	0x3dfd71ce	0.12375222
36	0xbe51cff0	-0.20489478
37	0x3e17785e	0.1479201
38	0xbd949ce6	-0.072564885
39	0x3de8bf0c	0.11364564
40	0xbd7c4211	-0.061586443
41	0xbe198ca4	-0.14995056
42	0x3e1087c2	0.14114287
43	0x3e5667b7	0.20938002
44	0xbe3f593f	-0.18686388
45	0x3e178c76	0.14799675
46	0x3de62824	0.11238125
47	0x3e929378	0.28628135
48	0xbe0e3549	-0.13887514
49	0x3e163a59	0.14670695
50	0x3e39bb99	0.18137969
51	0x3e266478	0.16249263
52	0x3e247dca	0.1606361
53	0x3e75eae0	0.24015379
54	0xbdc108f1	-0.094255336
55	0x3d9534aa	0.072854355
56	0xbc93643d	-0.017992133
57	0xbd463519	-0.04839048
58	0x3e2f9cb7	0.17149626
59	0x3e3db67b	0.18526642
60	0xbdede3b9	-0.116157
61	0xbe458154	-0.19287616
62	0x3e624029	0.22094788
63	0xbc0eacb3	-0.008708167
64	0x3d488fb3	0.048965167
65	0xbdba2e48	-0.09090859
66	0xbda43b89	-0.08019168
67	0xbdf6fc48	-0.120598376
68	0x3c3e9005	0.011631017
69	0xbe2a420a	-0.16626754
70	0xbe42e4d0	-0.19032598
71	0xbbbdd1f4	-0.0057928506
72	0x3e1df742	0.15426353
73	0x3e08d3a2	0.13361982
74	0xbe0105a4	-0.12599808
75	0x3c51f9ff	0.012815951
76	0x3d222986	0.03959038
77	0x3e2d0621	0.16896869
78	0xbcd1fbcf	-0.025632767
79	0x3c57bd90	0.013167754
80	0x3db8d717	0.090254
81	0xbd9ecdcb	-0.07754096
82	0xbdcc3072	-0.09970178
83	0x3dee0cd3	0.1162354
84	0x3e25ef6a	0.1620461
85	0xbe33b80c	-0.17550677
86	0x3cff04ac	0.031130157
87	0xbe6b18b3	-0.22958641
88	0x3b82b1ed	0.0039884956
89	0x3db37537	0.08762591
90	0xbe61282d	-0.21987982
91	0xbd415b34	-0.04720612
92	0xbe06d8bc	-0.13168615
93	0x3e3d1dc9	0.18468393
94	0x3e24b776	0.1608561
95	0x3e1cfc16	0.15330538
96	0xbe918552	-0.28422028
97	0x3d2e0342	0.042483576
98	0x3e8b39bf	0.27192494
99	0xbe1d8263	-0.1538177
100	0x3e462ead	0.19353743
101	0xbd8b9357	-0.06815212
102	0x3e6585ea	0.22414365
103	0xbd072323	-0.032992493
104	0xbe455c66	-0.19273528
105	0xbdff0afc	-0.12453267
106	0x3ca47a84	0.020077951
107	0xbd07648c	-0.033054873
108	0xbe2aebd4	-0.16691524
109	0xbe0a00af	-0.13476823
110	0x3e4d4530	0.20045924
111	0xbd8be534	-0.068308264
112	0xbdcada98	-0.09904975
113	0xbe2dfcc9	-0.16990961
114	0xbd20823f	-0.039186712
115	0xbc8e978f	-0.017406253
116	0xbd7623bf	-0.060092684
117	0x3df1a641	0.117992885
118	0x3e18544a	0.14875904
119	0x3e3c47d5	0.18386777
120	0xbe41f42b	-0.18940799
121	0xbc87ec1e	-0.016592082
122	0xbd9ae950	-0.07564032
123	0xbe19006a	-0.14941564
124	0x3e236823	0.15957694
125	0xbd4deea7	-0.050276425
126	0xbe23cec1	-0.15996839
127	0x3e1a3061	0.15057518
128	0xbd982fd5	-0.07430998
129	0xb88b2c2b	-6.6362634e-05
130	0xbd80ce85	-0.062893905
131	0x3d76ed57	0.06028494
132	0xbe5eb70d	-0.21749516
133	0x3e077210	0.13227105
134	0x3e0c285f	0.13687275
135	0x3e0725ff	0.13198088
136	0xbe18f1b2	-0.1493595
137	0x3e028e63	0.12749629
138	0xbce62c8f	-0.028097419
139	0x3dc012d1	0.09378589
140	0x3d340769	0.04395238
141	0x3e067c88	0.13133442
142	0x3ca4c732	0.020114515
143	0x3d8b62b4	0.068059355
144	0x3e294612	0.16530636
145	0xbdc30ea1	-0.095242746
146	0x3dcfa469	0.101387806
147	0x3e520f24	0.20513588
148	0x3e8a5780	0.27019882
149	0x3dcd9022	0.10037257
150	0xbe1aaf80	-0.1510601
151	0x3e028aa6	0.12748203
152	0x3e3e76dc	0.18600029
153	0xbd820375	-0.063483156
154	0xbd8676a5	-0.065655984
155	0xbc6a9f1c	-0.014320161
156	0x3e645c3c	0.2230081
157	0xbd283433	-0.041065406
158	0xbce45000	-0.027870178
159	0xbe75daae	-0.24009201
160	0x3bc8961e	0.006121411
161	0x3df61740	0.12016153
162	0xbdbf15f8	-0.09330362
163	0x3e567a58	0.20945108
164	0xbe02796c	-0.12741631
165	0x3d8a9acf	0.06767809
166	0xbcb6348f	-0.022241859
167	0x3e1393ac	0.14411801
168	0x3e3130e4	0.17303807
169	0x3e15d141	0.14630605
170	0xbe47f046	-0.19525251
171	0x3cd80b20	0.026372492
172	0xbd90ec11	-0.07076276
173	0xbe44da6d	-0.19223948
174	0x3deb28c7	0.11482387
175	0x3c23a0c3	0.009987059
176	0x3dec714a	0.11545046
177	0x3e3463cc	0.17616194
178	0xbd991fcf	-0.0747677
179	0x3e066385	0.13123901
180	0xbda29aeb	-0.079397045
181	0x3e1e61bb	0.15466969
182	0x3e0b2251	0.1358731
183	0x3e05ca6e	0.13065502
184	0xbe4a2864	-0.1974197
185	0x3df6cef3	0.12051191
186	0x3d54c178	0.05194232
187	0xbd41534e	-0.047198586
188	0xbdd5f2d1	-0.10446704
189	0x3df8df8d	0.12152014
190	0xbe0dcfc2	-0.13848785
191	0xbdadea07	-0.08491903
192	0x3d26556a	0.0406088
193	0xbe07dfc7	-0.13268958
194	0x3da8944c	0.082314104
195	0xbcb8a870	-0.022541255
196	0xbe3fcff1	-0.18731667
197	0xbd7d98eb	-0.061913412
198	0x3db2e054	0.087341934
199	0x3e10f8a4	0.14157349
200	0xbca3a4d4	-0.019976057
201	0xbe1c08eb	-0.15237777
202	0xbe49c2ab	-0.19703166
203	0xbdee0547	-0.116221
204	0xbde691b7	-0.11258262
205	0x3db437d4	0.08799711
206	0xbd7a671e	-0.061133496
207	0xbd67c4e6	-0.05658426
208	0x3e069d27	0.13145886
209	0x3dfd5614	0.12369934
210	0xbd17b18f	-0.037034567
211	0x3dfdf544	0.12400296
212	0x3e679cac	0.2261836
213	0xbd2cfbf1	-0.042232458
214	0xbe08a7b0	-0.13345218
215	0xbe1320ef	-0.14368032
216	0x3d4fa343	0.050692808
217	0xbe0db445	-0.13838299
218	0x3e1dfb3e	0.15427873
219	0xbd9eaee4	-0.077482015
220	0x3dc1a366	0.09454994
221	0x3e2c75fb	0.16841881
222	0xbd107107	-0.03526404
223	0x3e452af2	0.19254664
224	0x3e2e9681	0.170496
225	0xbe0d999a	-0.13828126
226	0x3defdbd9	0.117118545
227	0xbe255a4b	-0.16147725
228	0x3e6bfe91	0.23046328
229	0xbc4eb409	-0.012616166
230	0xbbfd24d4	-0.0077253375
231	0x3e32fe91	0.17479922
232	0x3d96bff2	0.073608294
233	0xbd9fb3ae	-0.07797943
234	0x3e2bbd55	0.16771443
235	0xbe417d57	-0.1889547
236	0x3e05da2d	0.13071509
237	0xbdfde4f9	-0.12397189
238	0x3e693a1f	0.22776078
239	0xbe1de13b	-0.1541795
240	0x3de41c62	0.11138226
241	0x3dfaefc2	0.122527614
242	0xbdb4f4e4	-0.08835772
243	0xbe1fe590	-0.15614915
244	0xbe13fe77	-0.1445254
245	0xbd622428	-0.055210263
246	0x3df06b50	0.11739218
247	0x3d87b1d3	0.06625714
248	0xbe13cf19	-0.1443447
249	0xbe176ceb	-0.14787643
250	0xbce5cdb6	-0.028052192
251	0x3e35f66e	0.17769787
252	0x3d1f660b	0.038915675
253	0xbd1472b6	-0.03624221
254	0x3e21c259	0.15796794
255	0xbded0a63	-0.11574247

fc2.bias f4 [10]
0	0x3c61edad	0.0137895765
1	0x3d5c1eda	0.05374036
2	0xbd52b064	-0.05143775
3	0xbd908f73	-0.07058611
4	0xbbf59e19	-0.0074956533
5	0x3df50764	0.119643
6	0x3e1dbab6	0.15403256
7	0xbde64008	-0.11242682
8	0x3d1393d0	0.036029637
9	0xbdf3e13f	-0.11908197
