proj5/task4/results/exp8_32.pth (torch, 89871 bytes, 8 tensors)

conv1.weight f4 [10, 1, 5, 5]
00000000: faef 073e 4fd9 6c3e 941c c53a 30d0 6c3e
00000010: f56f ebba 03e7 ccbd de1d d03b d947 803e
00000020: 7e85 2b3e 283c 78be d7e0 bf3d 5428 ca3d
00000030: 1082 843e e517 0b3c 856c 11bb 82d8 ba3b
00000040: c933 653e ba42 2b3e 4f81 e93c bcd8 393d
00000050: b5fe 13be 3fe1 9ebd 260a 8dbc e891 883e
00000060: 1fe4 b9bd 3b6a d5bd ccf8 0ebe cf74 95be
00000070: e556 36be 1da0 a2be 2120 0f3e 7cfd 91be
00000080: d309 d5bd 1f0f 86be aa7d 6bbe aa30 423e
00000090: ffd6 e23d ad90 363e 0213 733c 89f5 ee3c
000000a0: 2b95 ea3d b498 d83d ab1e 843e 2d03 c33e
000000b0: 6458 a73e e0fc 39be 5069 d63d 14ba d33c
000000c0: b6c5 1a3e 15d4 ad3d 8019 05be 9c9c cb3d
000000d0: 9363 6f3c 898d 273e 1e99 923d d719 d23c
000000e0: ad5a 3c3e cdd4 fa3d 6a62 ec3d a85b 4bbe
000000f0: ebea 033e d488 5e3e c5ad 443e ed79 43be
00000100: 9e80 25be db79 133e 14df cb3e a56b b2bd
00000110: de34 75be 7680 a6be 28c5 823e 4602 023e
00000120: e2aa e33d e1e5 b6be 64b9 09bf f157 bfbe
00000130: 89b8 8bbe d6a1 f9bc 919f 8a3d 7c3f 933e
00000140: 7ae2 babe 8dda 57be f711 d83d 79b6 883d
00000150: fab4 923e 56a5 b4be 419d ab3d 4b36 9bbc
00000160: 44b6 013e ac79 503e b72c 3bbe b420 81bd
00000170: 74cf 353e d43f 943e c4f9 03bd 870e 11be
00000180: d8c1 463e b682 043d a67e c83d 327c acbd
00000190: 02a5 4ebe 7db7 d4bc bccd 9abd 19b9 45be
000001a0: f6db 61bd 4dad 57be 075e 70be 88be 1fbe
000001b0: bbc9 65be c189 2abe 08ce cf3d 32ed 5dbd
000001c0: f9f1 8ebc 7205 7fbe f70f 3abe 3e9b a0bd
000001d0: a04e 6f3c a98e 66be 2542 14be e89b 3bbe
000001e0: 7d3b 2e3d 85ac 27bd 3f39 28bd 1070 53be
000001f0: 8675 6fbe e492 bbbd 1543 8abd 33ab a8bd
00000200: 5942 8d3e 1e66 d63d c104 e73d 8277 94bd
00000210: e006 9fbe 4287 eb3c 5df7 92bd fb82 3ebd
00000220: 88bc 87be e91e bbbe d058 13be 57e2 1cbe
00000230: 6327 7d3e 8dc0 7ebd 99aa f83d dfff 4ebe
00000240: 1a86 16bd 6e98 3b3e e8b6 893e b323 a53e
00000250: 5831 953e c09f 16bd 2bab 463d f954 0bbe
00000260: 855f e1bd ac7e 5cbe eed1 1c3e 3ea4 2bbe
00000270: 380c 0f3e bf4a 073e d5bb 163e 0900 dbbc
00000280: 0168 973e 4d1d 463e 1e51 bd3d 54c7 51be
00000290: 3a9d e13d cea5 a0bc fadc ccbd 234c 263e
000002a0: d2c3 fcbc efca 28be 793d 9ebe ab81 0cbe
000002b0: 7b63 f13d e664 6bbd 0bf7 0fbe 4f72 40be
000002c0: 348a 24be 9b32 703d 4f9c f03d f542 6cbe
000002d0: 136c b63d 3852 8b3e 360c 233e 66c8 ffbd
000002e0: fd8c 06be 5b09 d73d eefb 313e c365 1e3e
000002f0: b8b6 29bd 7962 22be fec5 16be b299 4dbd
00000300: b990 9d3e d45f c73e c727 bd3c fd67 70be
00000310: 9c9a 33be 70fe ddbd d0e7 253e 1c79 6b3e
00000320: 4362 8cbe 27f5 4bbe 530d 783d 115f b63d
00000330: 53f7 a63d bec4 13be 8839 d5be 9471 e1be
00000340: 6991 45be 375d b53c 102e bc3e 1e68 203c
00000350: 8f50 b2be cc37 9ebe 6dbe 6bbe 8b05 dc3e
00000360: 5e97 483e a335 c3bd 5233 e4bd 5eac 94be
00000370: 4e28 fc3c 4e08 c93e 877a 883d 7a3d 0abd
00000380: 94b2 99be 4e8c 3a3e 131b a83e 0788 963e
00000390: 012b 2f3e 998f 383e 762e 3dbd a983 c33e
000003a0: 050c a53e 5e0d c83e 934c 903e af04 b63c
000003b0: 42a5 f3bb 9225 25be 1249 52be 79c5 82be
000003c0: e2f5 1bbe bead a7be 5fa4 9cbe f4db 8ebe
000003d0: 9cd5 54be b805 00bf b951 e2be e2b0 5cbe
000003e0: 0550 eabd 374e 84bc
0.13275138 0.23129772 0.0015038424 0.23126292 -0.0017962443 -0.100049995 0.0063512167 0.25054815
0.16750142 -0.24241698 0.09369057 0.09870973 0.2588048 0.008489584 -0.0022189927 0.0057020793
0.22383036 0.16724673 0.028504042 0.04537271 -0.14452632 -0.07757806 -0.017216753 0.26673818
-0.09076714 -0.104206525 -0.13962096 -0.2919068 -0.17806585 -0.31762782 0.139771 -0.28513706
-0.104022644 -0.2618341 -0.22997156 0.18963876 0.110761635 0.17828627 0.014836075 0.029169815
0.11454233 0.10576001 0.25804648 0.3808836 0.32684624 -0.1816287 0.104693055 0.025845565
0.15114483 0.08487717 -0.12998009 0.0994198 0.014611143 0.16362585 0.07158111 0.025647087
0.18393965 0.1224762 0.115422085 -0.19859183 0.12882583 0.21731883 0.19206913 -0.1908948
-0.16162345 0.14401953 0.39818633 -0.08711938 -0.23945948 -0.32519883 0.25541043 0.1269618
0.11116578 -0.3572226 -0.5379851 -0.3737178 -0.27289227 -0.030472677 0.06768716 0.28759372
-0.36500913 -0.21079464 0.105503015 0.06675429 0.286537 -0.3528239 0.08379603 -0.018946787
0.12667185 0.20358914 -0.18278776 -0.06305066 0.17754918 0.28954947 -0.032220617 -0.14165698
0.19409883 0.03235122 0.09789781 -0.08422126 -0.20180133 -0.0259664 -0.07558772 -0.1930889
-0.05514141 -0.21062203 -0.23473369 -0.15600026 -0.22440235 -0.16654111 0.10146719 -0.054181285
-0.017449366 -0.24904421 -0.18170153 -0.0784211 0.014606148 -0.22515358 -0.14478357 -0.18321192
0.0425372 -0.04093601 -0.04107022 -0.20648217 -0.23384675 -0.091588765 -0.06751076 -0.08235779
0.27589682 0.10468696 0.112802036 -0.07249357 -0.31059933 0.02875102 -0.07176087 -0.04651163
-0.26511025 -0.3654702 -0.14389348 -0.15320717 0.24722056 -0.06219535 0.12141914 -0.20214795
-0.036748983 0.18319866 0.2689736 0.322538 0.2913921 -0.036773443 0.048503082 -0.13606633
-0.11004547 -0.21532696 0.15314457 -0.16761872 0.13969505 0.13212107 0.1472009 -0.026733415
0.29571536 0.19347115 0.092439875 -0.20486194 0.11016317 -0.019610312 -0.100030854 0.16239981
-0.030855093 -0.16483663 -0.30906275 -0.1372134 0.117865525 -0.05746927 -0.14059083 -0.18793605
-0.16068345 0.05864201 0.117485635 -0.23072417 0.08907332 0.27211165 0.15922627 -0.12489395
-0.1313972 0.10499831 0.1738126 0.15468507 -0.04143402 -0.15857877 -0.14723966 -0.050195403
0.30774477 0.389403 0.023090256 -0.23477168 -0.17539448 -0.10839546 0.1620171 0.22995418
-0.27418718 -0.19917737 0.060559582 0.08904851 0.08152642 -0.1443052 -0.41645455 -0.44031966
-0.19293751 0.022139175 0.36753893 0.0097904485 -0.34827086 -0.30901945 -0.2302186 0.4297298
0.19588992 -0.09531715 -0.11142601 -0.29037756 0.030780938 0.39264148 0.06663995 -0.033750035
-0.30019057 0.18217584 0.32833156 0.29400656 0.17106248 0.18023528 -0.046186887 0.38186386
0.32235733 0.39072698 0.28183421 0.02221903 -0.0074354718 -0.16127613 -0.20535687 -0.25541285
-0.15230516 -0.32749742 -0.30594155 -0.27902186 -0.2078461 -0.50008726 -0.44202974 -0.2155185
-0.11441044 -0.016150577

conv1.bias f4 [10]
00000000: 6cc0 10bd 89cf bd3b b933 cdbd 6302 47be
00000010: 25a4 563d 3d15 11be d82f ae3d 92cf 09be
00000020: 23a9 f73d dd53 a4bd
-0.035339758 0.0057925624 -0.10019631 -0.19434504 0.052402634 -0.14168258 0.08505219 -0.13458088
0.12092807 -0.08023808

conv2.weight f4 [20, 10, 5, 5]
00000000: 5181 263d 7b68 56bd 6803 99bd 1f7b abbd
00000010: dbcd 02be 2584 0b3d f240 1f3b 382a d3bc
00000020: 62c6 0cbd 9799 e2bd ce56 523d e8d2 d43c
00000030: dbdd 963d 0b9e cf3d fc24 f93d 020f a93b
00000040: 898d ffbd b120 5bbd 51e8 a13c 2e97 a3bc
00000050: 8320 df39 b3be 22be 87cf 62be 4a6d 61be
00000060: 44ab acbd a767 cfbd ed64 2bbd c3f3 703d
00000070: c504 e63d 7ea3 643c 2b1f afbb 50f7 d33c
00000080: a14e cfbd 5763 0abd 136b d93d d7ca d43b
00000090: 3f6e 01bc d2b5 be3c a0b5 c33d 889f e53d
000000a0: 1978 3fbd 7b1c 1abe b88e 23be 2526 babd
000000b0: 7352 19bd afb7 463e e3a8 903d a192 313d
000000c0: 566c 2a3d f94c 9dbc 1cc3 933d 490a 203d
000000d0: 0186 cabb d0bc 623d 1a2b be3d e35f 263b
000000e0: 26e4 b73d d757 103e 38d4 41bd 3ac8 003d
000000f0: d7ff a6bd e843 ffbc 23a0 8ebd 7ce6 dcbd
00000100: d882 e1bd 5691 b8bd 5087 a6bd 3c91 3ebe
00000110: e227 7fbe 21e4 61be 30fd 1abc dfab a13d
00000120: 8551 1bbd eb73 05be 41c4 133d c6fa a2bd
00000130: aa29 a0bc 367c 303d 80f1 5e3d 22ec 19bb
00000140: be80 cebc 5459 133d 9856 37bd ef46 1fbc
00000150: 308e 63bd 6559 a6bd 3452 253d ec62 29bd
00000160: 4225 d2bc 2576 c9bc af1c 0abe 19d3 74bc
00000170: f06c 903d e5c4 5c3c 728a 0fbe b6da 31be
00000180: ea72 84bd f438 68bd aa84 8bbc 2152 d83c
00000190: 4861 58bd f156 50bd e42a acbd 6965 31bd
000001a0: 304d 7ebb 6f28 6bbc 42eb 7dbc ce46 aabd
000001b0: dc5c dbbd 4c70 e0bc 5f1b 533d 7c58 2c3c
000001c0: a2bd 59bd 5f18 4fbd 9e4d afbd 448e 913b
000001d0: db6b a83c 093e a43d be87 613d 7907 2fbd
000001e0: fb66 6e3d 63f3 853b be12 b53d 895a 893d
000001f0: d555 833d 7e09 2b3d b33f 85bd 5381 aabc
00000200: 34c3 2c3c 82d2 a53b f6e0 1f3d 3ad0 c33a
00000210: 0bee 6b3d 5a50 bd3c 744b 803d 1a8a 20bc
00000220: e3e6 b6bd 42d7 6839 b77b 813d f24b 923c
00000230: 0c2b 713d a693 d73d cb5f 16bc 6f9a f4bc
00000240: a00c 1dbd 6436 0fbc 93b1 0ebb e970 863c
00000250: f0db 553d bf50 b83d c342 3cbd e2fe 0b3c
00000260: 2b23 a53d 9b3a 7b3d b72f 923d 7743 81bd
00000270: b6d1 1ebb 6e19 423d bafb 00bc 705a 7a3c
00000280: 3c3d 463c 90e6 08bb 168f 48bc 57d5 2d3d
00000290: 2714 e13d 7d7d 0e3d e2d0 34bd eb3d a2bd
000002a0: b989 08bd 231d 543d d0b4 983d 1ef9 8f3c
000002b0: a703 adbd e0bf 3ebd dd6e bcbd fa88 cab9
000002c0: e98a 04bd 4b74 56bd 22ca 133b c1ca f1bc
000002d0: b532 50bd 6496 823d 5057 88bd 56ce c03d
000002e0: bce5 da3d 1703 5cbd 008b 6a3c 354e cf3d
000002f0: 6c3a ed3d 5269 753c d483 673c 47b2 0ebe
00000300: 3146 0bbe 3216 123c 94cc 363d e42c bf3d
00000310: a01d 9abb 9ff2 143d c0d7 fcbc 2158 27be
00000320: ba1c 84bd 7516 cabc 4e7c 2e3c f44c debd
00000330: a8a1 79bd 1042 d4bd 06a4 60bd d9e6 02ba
00000340: 9044 8b3c 8ab6 e2ba 9054 9d3c bf3a 2f3d
00000350: d4fd c73d 8f0f 263d 837f a93b a622 ac3d
00000360: ba71 7c3d 8c77 1dbc 4b48 a4bc 4e1c 8a3c
00000370: a970 0e3e 0c9e 303e 0918 c23d c6b5 b73c
00000380: 1519 8cbd de81 413d 308c 2a3d aab6 a8bd
00000390: 75a0 a3bc 6408 163c fb7a bb3c d499 3d3d
000003a0: b9a7 3a3d 0765 c03c 6f7f e4bc 8408 38bd
000003b0: 413d 073d e6e3 8f3c 400e f6bc ba73 9f3d
000003c0: 270c b8bc 1f5f 263b 2169 cb3d 73d1 443e
000003d0: e126 543e 2abe a93d d466 38bd 6e11 833c
000003e0: 76a5 053d 3bd9 65bd 607b 23bb 0240 cdbd
000003f0: fcd0 2abb 3d6f 98bd 918f 98bd 3a84 c8bc
0.04065067 -0.052345734 -0.07471353 -0.08373093 -0.1277384 0.03406157 0.0024300185 -0.025776967
-0.03436888 -0.11064451 0.051352315 0.025979474 0.07366534 0.10137566 0.12165257 0.00515926
-0.124781676 -0.053497974 0.019764097 -0.019969549 0.00042558098 -0.15893058 -0.22149478 -0.22014347
-0.08431104 -0.10127192 -0.041844297 0.05882622 0.112313785 0.013954995 -0.0053442917 0.025874764
-0.10122419 -0.033786144 0.10616126 0.006493907 -0.00789982 0.023280058 0.095561266 0.11212069
-0.046745393 -0.15049927 -0.15972412 -0.09089307 -0.037432145 0.19406007 0.070634626 0.043352727
0.041607223 -0.019201742 0.072149485 0.03907231 -0.0061805253 0.055355847 0.09285565 0.0025386743
0.08979063 0.14096008 -0.04732153 0.03144095 -0.08154266 -0.03116031 -0.069641374 -0.10786149
-0.110112846 -0.09012096 -0.081312776 -0.1861009 -0.24917558 -0.2205968 -0.009459779 0.0789411
-0.03791954 -0.130325 0.036075834 -0.079579875 -0.019551117 0.043087207 0.05442953 -0.0023486693
-0.025207873 0.03597386 -0.044760317 -0.009721502 -0.055555522 -0.081225194 0.040361598 -0.041354105
-0.025652532 -0.024592469 -0.13487504 -0.014942908 0.07052028 0.013474678 -0.14017656 -0.17368588
-0.064672306 -0.05669494 -0.017031033 0.02640635 -0.05282715 -0.050864164 -0.08406618 -0.043309603
-0.0038803332 -0.014352902 -0.015497984 -0.08314286 -0.10711071 -0.027397297 0.051539775 0.010519143
-0.053159364 -0.05056035 -0.08559726 0.004442008 0.020559242 0.08019645 0.055061094 -0.042731736
0.05820368 0.004087852 0.088414654 0.06706721 0.064128555 0.0417571 -0.0650629 -0.02081362
0.010544587 0.005060495 0.0390329 0.0014939376 0.057600062 0.023109604 0.062643915 -0.009798551
-0.08930757 0.00022205434 0.06322425 0.01785848 0.058878943 0.105262086 -0.009178112 -0.029858796
-0.03834212 -0.008740995 -0.0021773323 0.016411262 0.052211702 0.08999776 -0.045962106 0.0085446555
0.080633484 0.061335187 0.07138007 -0.06311696 -0.0024233884 0.047387533 -0.007872516 0.015280351
0.01209956 -0.002088938 -0.012241146 0.042439785 0.10990172 0.034787644 -0.04414452 -0.07921966
-0.033334468 0.0517856 0.07456362 0.017574843 -0.08447962 -0.046569705 -0.09200833 -0.00038630498
-0.032359038 -0.052357 0.00225509 -0.029515626 -0.050829608 0.06376341 -0.066572785 0.094143555
0.106883496 -0.053713884 0.014315367 0.10122339 0.11583409 0.014978724 0.014130551 -0.13935195
-0.13600995 0.008916425 0.044628695 0.09334734 -0.0047032386 0.036364194 -0.030864596 -0.16342212
-0.06450792 -0.024668911 0.010649754 -0.108545214 -0.060945183 -0.10364163 -0.054843925 -0.00049935054
0.017000467 -0.0017296833 0.019205362 0.042780634 0.09765211 0.04054218 0.0051726713 0.08405046
0.061631896 -0.009611022 -0.020054003 0.0168592 0.13910164 0.1724779 0.094772406 0.022425544
-0.068407215 0.04724299 0.0416376 -0.082379654 -0.019973973 0.009157274 0.02288579 0.04628928
0.04557011 0.023485674 -0.027892796 -0.044929996 0.0330174 0.017564725 -0.030036092 0.07785745
-0.022466732 0.0025386286 0.09932161 0.19220524 0.20717956 0.08288224 -0.04501994 0.015999522
0.0326285 -0.05611537 -0.0024945363 -0.10021974 -0.0026064506 -0.07443092 -0.07449258 -0.024477113

conv2.bias f4 [20]
00000000: d362 833d 06e9 5ebd 7458 04bd 6efc 9fbd
00000010: 766e 60bd 1574 0bbb 234d 193d 7224 51bd
00000020: 3ed5 20bb 76b3 86bd 229d 3f3c 70a1 2e3d
00000030: 8f5b 03bd 21da 2cba 5e4d 6d3d 9046 4fbd
00000040: 9bee 6abc 4c5e 20bd c9f0 033d 30a7 26ba
0.064153336 -0.054421447 -0.032310918 -0.07811819 -0.054792844 -0.0021278907 0.03742708 -0.051060148
-0.0024541165 -0.06577198 0.011695178 0.042634428 -0.03206974 -0.0006593783 0.05793511 -0.050604403
-0.014339115 -0.03915243 0.032212052 -0.00063573103

fc1.weight f4 [50, 320]
00000000: d723 95bd b06e a1bc 0f14 1a3c 1657 063d
00000010: ea24 e3bd d315 b4bd a8f0 89bb 1822 d9bc
00000020: 9d73 3abe b668 44bc 36e5 b3bd 0aa8 5a3c
00000030: 59dd a4bc ac50 c83d b7d8 e93d 7412 313e
00000040: 5be1 ab3a 37dc d0bc 31a8 40bd 7e98 3fbd
00000050: 3c08 2abd 7ce1 dfbd 177e e2bd 8eea 20bb
00000060: 38a5 63bd 4ebc 36bd 7125 6abd 9d8f ea3b
00000070: bbff 49bc 79d2 fcbb 436a d73d 4e3f 333d
00000080: 0b35 da3c 782a 5c3d 0da0 9b3d c63a 12bc
00000090: d95b 28bd 4fee 413a c507 84ba b5af 943d
000000a0: 3042 9a3d 27c5 153d 0a57 7d3c 3c50 e43c
000000b0: 3796 bfbc 990d f83c e6bc bcbd 388a 15be
000000c0: 5a41 e13c 9654 aebc 77fa 1b3c 88e5 3f3c
000000d0: 9ff7 ba3c f38b 063d 0a91 2a3d a8c1 8bbd
000000e0: 321b 9cbc 62cc 5b3a f7ac 68bc cdfa a6bd
000000f0: 872b dbbd aea4 95bd 3ad6 5bbd cfec 313d
00000100: fcd0 b33b 5ff4 913d 4428 be3d 1346 d43c
00000110: 02a3 6f3d 1e08 f83c 8c8f 07bb b9c1 88bd
00000120: 73fb cf3c a077 523d 28ac d53d 0447 883c
00000130: 0f3f ea3c d5f6 e63c f54a 8bbd 5b2c 1cbe
00000140: 026f 783d aa6d 033e 926a 973d b27f 62bd
00000150: e397 473d 1e03 e03c 560d 22bd 45d0 fcbd
00000160: 0f5a 8bbd 9efd 01bd 6a23 9e3c 42cf a2bb
00000170: 27d7 c43d f50c e53d b605 463d 5c02 6cbd
00000180: 1935 32bd 73f5 31bc 7cf4 a53b 07c7 acbb
00000190: 0ff1 733d 9a9f f03c d702 57bd 8766 273d
000001a0: 0b3f 393d 9649 a0bc c2e0 9d3b e83c 1838
000001b0: ba65 10bc 897d a13c 34dc ad3c 4d96 48bd
000001c0: ef68 e3bb b444 94bc 0bd6 da3c b6d9 b9bd
000001d0: 705e adbc 11b8 483d 1f3a d73c 43dc 803d
000001e0: cf7c 85bc 182c 2a3d 8926 893d f3eb 073d
000001f0: 16bf 07bd 27d6 4bbd 030e dfbc 8c45 0c3d
00000200: 4256 5fbd 0744 033d edc5 a13c 6eca cbbc
00000210: 0aa6 14bc e74f 443c 3c82 893d ed07 6bbc
00000220: b9ab 80bd ea93 bebd dc51 6dbd d4e1 99bc
00000230: dc93 d3bc 609b e0bc 410f c33d b589 a03d
00000240: 940c 94bd f597 a03c 955c 8e3b 1591 12bd
00000250: 8600 b4bd 5b59 27bd dbc1 acbc 5a7b a5bc
00000260: 549a 4abd af43 28bd 7b17 9cbd ee88 4abd
00000270: 8878 643c 0b72 2b3d 81be b03c 60ae c33d
00000280: 9d89 97bd 757e 58bd b9da 22bd 0bea 37bd
00000290: 3d51 323b ed10 5cbd 2666 1ebd 79cc b4bd
000002a0: 94f9 c2bc 70e6 693c 6d81 d0bc c283 053d
000002b0: 33ce fd3b 3156 923d bdfe 413d 6a58 483e
000002c0: ab1b 963b c084 0d3d 9548 c53d e142 61bd
000002d0: 668d 91bb 8303 cab8 ef44 203c 9f6d 95bc
000002e0: 5c6c 25bb 85e3 9a3c 034c 0f3d 946b 493d
000002f0: 442a 6bbd 1642 95bc b075 adbd 382a 433d
00000300: 7d23 003d d0d6 853c c3ce 48bc 6868 4cbd
00000310: 58ad 50bb 2c2b af3c 08f9 84bc 52dc 333d
00000320: c60f 4c3c fa52 27bb 1e8d b43c e156 e13c
00000330: d7ad 28bd 1da3 8c3c 125f 4fbd 35d6 67bc
00000340: e9b3 2dbc 79eb 4a3d fbc7 8abc aa2a aa3c
00000350: 29a7 90bc dffd c53c 7ae0 823c 67e7 1c3d
00000360: 8f16 a63d a210 1c3d 690c 1bbd 7e4b ffbd
00000370: 701c b63b cded 3cbb 6d2d 84bd 75e4 bbbd
00000380: 0efe 123c c711 3f3d 1875 d63d f292 5a3c
00000390: b841 963d 6247 013c 8423 883d 98ab b7bc
000003a0: 9e83 fe3c 11f3 e23d 80d0 b33c 5313 0bbc
000003b0: fa48 d6bc efbd fd3b 60ae 07bd 5617 19be
000003c0: 0b64 ff3b ae23 cebc 097c aabc 88bd e83c
000003d0: c484 29bd ee63 b2ba 59ab 273b 499d 3a3c
000003e0: b9fb dfbd f723 21bd c882 b4bc 2d32 12bd
000003f0: 5549 dfbd ea3c c5bc 3451 cd3d 8d8f 243e
-0.072822265 -0.0197061 0.009404196 0.032797895 -0.11091025 -0.08793225 -0.0042095967 -0.026505515
-0.18208165 -0.011987856 -0.08783953 0.013345728 -0.020125078 0.09781012 0.11418288 0.17292196
0.0013113426 -0.025495632 -0.0470354 -0.046776287 -0.04151176 -0.109316796 -0.11059206 -0.0024553868
-0.055577487 -0.044613175 -0.057164613 0.0071582333 -0.012329037 -0.00771552 0.10518315 0.043761544
0.026636621 0.05375144 0.07598887 -0.0089251455 -0.041103218 0.00073978765 -0.0010073116 0.07260076
0.075321555 0.036564972 0.015462646 0.02787029 -0.023387058 0.030279921 -0.09215717 -0.14603508
0.027496982 -0.021280568 0.009520165 0.011712439 0.022823153 0.03284831 0.041642226 -0.068240464
-0.019055936 0.00083846424 -0.014201394 -0.08153305 -0.107016616 -0.07306801 -0.0536711 0.04343873
0.0054875594 0.07126688 0.09285024 0.02591232 0.058505066 0.030277308 -0.0020684926 -0.06677575
0.025388455 0.051383615 0.10433227 0.016635425 0.028594522 0.02819387 -0.06801406 -0.15251295
0.06065274 0.12834802 0.073933735 -0.05529756 0.048728835 0.027345236 -0.0395635 -0.12344412
-0.06804287 -0.03173601 0.019303996 -0.0049685547 0.096113496 0.11184112 0.04834529 -0.057619438
-0.04350767 -0.010861742 0.005064545 -0.0052727493 0.059556063 0.029372979 -0.052492943 0.040869262
0.045226138 -0.019566339 0.004818053 3.6296347e-05 -0.008813316 0.01971318 0.021223165 -0.048971463
-0.0069399993 -0.018099166 0.026713392 -0.09074728 -0.021163195 0.049003664 0.026272831 0.062920116
-0.016294865 0.041545957 0.06696803 0.033184003 -0.033141218 -0.04976478 -0.027228361 0.034246013
-0.05452562 0.032047298 0.019747699 -0.0248768 -0.00907279 0.011981941 0.06714293 -0.014345151
-0.062827535 -0.09305556 -0.057939395 -0.018784441 -0.02582734 -0.027417839 0.09524394 0.078387655
-0.072289616 0.019603709 0.0043445327 -0.035782892 -0.08789162 -0.0408567 -0.021088531 -0.02020042
-0.049463585 -0.041080173 -0.07621666 -0.049446993 0.0139447525 0.041856807 0.021575214 0.09554744
-0.073992945 -0.052854974 -0.03975937 -0.044900935 0.0027209066 -0.05372708 -0.038671635 -0.088280626
-0.023800649 0.014276132 -0.02545234 0.032596357 0.007745528 0.07145346 0.047362078 0.19564977
0.004580935 0.03455043 0.096329845 -0.05499542 -0.004441905 -9.632765e-05 0.00978206 -0.018240748
-0.002524159 0.018907318 0.0349846 0.04917486 -0.057413355 -0.018219989 -0.08469713 0.047647685
0.031283844 0.016337782 -0.012256327 -0.049904257 -0.0031841602 0.02138289 -0.016232029 0.043911286
0.012454933 -0.0025531636 0.022039946 0.027507247 -0.04118141 0.017167622 -0.050627775 -0.014150192
-0.010601976 0.04954097 -0.016941061 0.020772297 -0.017657833 0.024168907 0.01597618 0.03830662
0.081097715 0.0381018 -0.037853632 -0.12465571 0.0055575892 -0.0028828264 -0.06453977 -0.09174434
0.008971704 0.046647813 0.104715526 0.013340699 0.073367536 0.007890554 0.06647399 -0.02242069
0.03106862 0.110815175 0.021950006 -0.008488494 -0.026157845 0.007743589 -0.03312528 -0.14950308
0.0077939085 -0.025163498 -0.020811098 0.028410688 -0.04138638 -0.0013610104 0.002558431 0.011390039
-0.10936684 -0.03934094 -0.022035018 -0.035692383 -0.10902659 -0.024076898 0.10025254 0.16070385

fc1.bias f4 [50]
00000000: b8c8 5c3d 57d5 c53c 7704 d43d 496c 9a3c
00000010: 47d0 173d e09d ef3c 167f 7d3d c8e3 9d3a
00000020: 3f24 a73d 9217 9e3d 1f43 983d a3ba 76bd
00000030: ae20 983c 50fc 9c3c 8b62 80bb b077 a13c
00000040: 4f4b 1fbd bf6a 023d 8dad 693d 460d 013d
00000050: 612d 5a3d 051d 633d 153f 863d dc5b 923c
00000060: dac0 f3bc 4833 9dbc a050 e13c f681 583c
00000070: 28c2 563d b081 5a3c b781 d43c dde1 04bd
00000080: 4ad4 123d 6c3e 643d 94a5 c73d c2b9 9a3c
00000090: ece3 cebc 0d09 aebb 40cc 443d 89fb 013d
000000a0: d27f 943b 471b ab3d 1296 193b 8f1f e93d
000000b0: 5f32 d53d a0c6 183d 3872 723d c94d 0fbb
000000c0: 178e ad3d df60 2a3c
0.053902358 0.02414958 0.10352414 0.018850463 0.037063863 0.029250085 0.061888777 0.0012046034
0.0816121 0.077193394 0.07434677 -0.060236584 0.01857027 0.01916328 -0.0039179972 0.019710392
-0.03889018 0.031840082 0.057050277 0.0315068 0.053265933 0.055447597 0.06555001 0.017866068
-0.029755045 -0.019189492 0.027504265 0.013214579 0.052431256 0.013336584 0.02594076 -0.032441963
0.035846986 0.055723593 0.097483784 0.018887404 -0.025255166 -0.0053111375 0.04804635 0.031734023
0.004531839 0.08354812 0.0023435396 0.113829724 0.10409998 0.0372988 0.05919096 -0.0021866432
0.08474367 0.010399072

fc2.weight f4 [10, 50]
00000000: e490 2e3e 7763 003e fb14 66bd 5fdd f3bd
00000010: 73cc 643e 76c6 3f3e 9221 5dbe 94cc 8a3e
00000020: 5ba9 41be b47f 3bbe cac6 623e 0c4d c63c
00000030: 6810 7abe 7e0b 1cbe dfa1 4cbe cc39 823e
00000040: e43e b2bc d01e 70be 51ed 6fbd 2755 723e
00000050: 6889 0ebb 2934 383d 0b1b a4be f766 a2bd
00000060: f37b f0bd 96b5 0dbe 17ae 83be 902c 20be
00000070: 9faf 73be a84e 4cbe a2c2 583e 6fd3 683d
00000080: 3038 55be d8fc 47be d06f 58be 21a5 483e
00000090: ffcc 75be 9b22 5d3e a09a 5cbd d83e afbd
000000a0: 4dec 1fbe a295 3cbe 2d79 823e 6907 873e
000000b0: fde9 84be 681b 473e 2e5e 473e 3622 883e
000000c0: 7e18 33be 9c76 443e 7864 3a3e b26b 663e
000000d0: 1b69 143e da9c c23e 678e 4ebe 1521 f7bd
000000e0: 5755 b3bd 73cb 08be d14b 873e 805f 573e
000000f0: 88c1 20be 2628 3cbe e268 753e 1afd bdbd
00000100: cb39 35be c7f6 49be a780 f7bd 8ae5 65be
00000110: f0a8 83bd a8ad 02be c63c 71be 6a81 4d3e
00000120: f290 3f3e faa4 03be befe 04be 57d6 af3d
00000130: b634 4abe c07f 603e 37f5 aabd 06ea dcbc
00000140: 2ee5 2c3e f4f7 ccbd 338e f6bd df45 3a3e
00000150: 7962 4b3e ab27 42be 95fb 44bd 7945 49be
00000160: 4781 413e 21b5 2f3e 22f2 8dbe 0333 47bd
00000170: 7c81 3abe 9698 763e 1fa4 373e 46b0 3c3e
00000180: 36c2 91be 55ae a43d 3d68 953e d6af 3dbe
00000190: 60b5 4f3e 6709 17bd 2d68 983e 51b1 f4bd
000001a0: 37d7 4fbe 2554 a3bd 83ff 76bb a9a1 f2bd
000001b0: 03bd 43be 683a fabd ee09 6a3e 526b a4bd
000001c0: ff37 10be c815 40be 75cd 11bd def8 afbc
000001d0: c67c a2bd 6e7e e5bd ce5d 663e 99ce 5a3e
000001e0: 06d8 86be fe12 923d 558d 11be 1b05 18be
000001f0: 09b0 513d dfaf 033e 0bb9 10be c9c8 683e
00000200: f92f 70bd 7856 b73b 9185 08be af0c f83d
00000210: 44cc 86be 4b44 4c3e f05f 553e 49eb f33d
00000220: 24d3 3fbe d691 2e3e 7652 08be ff2a a83d
00000230: 3de6 d73d 10e2 143e c1ba 30bd e06f 20bd
00000240: 43ee 583e c852 23be 5402 e83d 38f1 893e
00000250: 927b a33e 604e e23d fbb1 67be 0776 503e
00000260: a0d7 a03e 20d0 febd 03b7 e6bd 0d96 cdbd
00000270: 7cba 8e3e 716c 1bbe bf86 ecbd 46ee 97be
00000280: 39ea 06bd b4c5 463e 1010 2cbe fc4a 853e
00000290: 30af 13be 5179 7b3b ffd3 a9bd f040 813e
000002a0: 31b6 763e c467 313e ff4d 41be 7afc 8ebd
000002b0: 7bfd 04be d70d 2cbe d30a 413e 3395 a33d
000002c0: 9727 2a3e 8dde 473e 94fb b8bd 283d 6a3e
000002d0: d34b 5abe 3c78 383e 55da 443e 14e2 0a3e
000002e0: 20f5 7abe 4821 db3d 10e8 083e e1bc b6bc
000002f0: a0d1 33be 1e5b 2e3e eaa4 15be d841 75bd
00000300: 2e2b 17bd e906 14be 2a03 e93d 0424 11bd
00000310: a2e0 48be 67f9 9abd 184a 0c3e 050b 1f3e
00000320: 46a2 cc3c 8200 37be 8c15 4ebe 874e 74bc
00000330: 29c1 45be 3b18 9d3e 2f2b afbd 3e8b b2bd
00000340: 2684 923e fc8c 3b3e 3c23 8b3c a614 093e
00000350: 0201 913e 4b0b 0abe 3e05 a2bd 55b1 40be
00000360: 0952 f93c dc02 94bc e550 973d 6f40 59bd
00000370: 775f 1b3e 5fc9 6b3e 307d a63d f010 843e
00000380: 4eee 603e 7eb8 4bbe a77f 233e ab05 24be
00000390: 93c5 8e3e 21a0 82bd ec69 00be ba51 313e
000003a0: 61fd e03d 1774 08be 864a 523e 41d0 85be
000003b0: 6f77 4d3e 6922 08be 9fd7 803e 8323 68be
000003c0: 569b 263e 5b56 3c3e 5941 fabd 6a67 3dbe
000003d0: 48f3 2cbe 4544 96bd 46e8 0c3e dc55 033e
000003e0: dee8 d4bd 3237 45be ddb0 c4bd 530d 673e
000003f0: 5b11 9ebd 776d 31bd d4ec 553e 5f24 65bd
0.17047459 0.12537943 -0.056172352 -0.119074576 0.22343616 0.1872805 -0.21594837 0.27109206
-0.1891226 -0.18310434 0.22146145 0.02420666 -0.24420321 -0.15238759 -0.19983624 0.2543472
-0.021758504 -0.23449254 -0.058575932 0.23665296 -0.002174938 0.04497162 -0.32051882 -0.07929795
-0.117423914 -0.13838801 -0.25718758 -0.15641999 -0.23797463 -0.1995188 0.21167997 0.056842264
-0.20822215 -0.19530046 -0.21136403 0.19594242 -0.24003981 0.21595232 -0.0538584 -0.08556908
-0.15617485 -0.18416455 0.25483075 0.2637284 -0.2595977 0.19444048 0.1946952 0.265886
-0.17489812 0.19185871 0.18202388 0.2250202 0.1449322 0.38010293 -0.2017151 -0.12066857
-0.08756512 -0.1335886 0.2642503 0.21032524 -0.15698826 -0.1837469 0.23965791 -0.09276791
-0.17697828 -0.19723044 -0.12085085 -0.22450843 -0.06428707 -0.12761557 -0.2355834 0.20068899
0.18707636 -0.12855902 -0.12987801 0.08585804 -0.1974667 0.21923733 -0.08347552 -0.02696706
0.168843 -0.10008231 -0.12038841 0.18190716 0.19861783 -0.18960445 -0.04809149 -0.19655408
0.18896972 0.17158939 -0.27723795 -0.048632633 -0.18213457 0.24081644 0.17933701 0.18426618
-0.28468484 0.08041064 0.2918109 -0.18524107 0.20284033 -0.0368742 0.2976698 -0.11947883
-0.20296942 -0.07975034 -0.0037688918 -0.118472405 -0.19115071 -0.12218171 0.2285535 -0.08028282
-0.14083861 -0.18758309 -0.03559633 -0.021480974 -0.07933955 -0.11205755 0.22496721 0.21367873
-0.26336688 0.07132529 -0.1421407 -0.14845698 0.05119327 0.12860058 -0.14133088 0.22732843
-0.0586395 0.0055950247 -0.13332202 0.12111794 -0.26327717 0.19947927 0.20837379 0.119101115
-0.18732888 0.1704782 -0.13312706 0.08211326 0.10541961 0.14539361 -0.043146852 -0.039169192
0.2118464 -0.15949547 0.11328569 0.26941848 0.31930214 0.11050105 -0.22626488 0.20357524
0.3141451 -0.124420404 -0.112653755 -0.100383855 0.2787665 -0.15178086 -0.11549138 -0.29673976
-0.032938216 0.19411355 -0.16803002 0.2603377 -0.14422297 0.003837187 -0.08292388 0.25244856
0.24092938 0.1732474 -0.1887741 -0.0698175 -0.1298732 -0.16802154 0.18851785 0.07987442
0.16616665 0.1951849 -0.0903236 0.22874892 -0.21317987 0.18014616 0.19223912 0.13562804
-0.2450757 0.10699707 0.13369775 -0.022306861 -0.17560434 0.17026946 -0.14613691 -0.059877247
-0.036906414 -0.14455761 0.113775566 -0.035434738 -0.1961694 -0.07567101 0.1370014 0.15531547
0.024979722 -0.17871287 -0.20125407 -0.0149113005 -0.19311966 0.3068255 -0.085531585 -0.087179646
0.28616446 0.183155 0.016984574 0.13386783 0.2832108 -0.1348087 -0.07911156 -0.18817647
0.030434625 -0.01806777 0.07388476 -0.053039964 0.15173136 0.23026036 0.08129346 0.25794172
0.21965906 -0.19894597 0.15966664 -0.16017787 0.27885112 -0.063781984 -0.12540406 0.17316332
0.10985828 -0.13325535 0.20536241 -0.26135448 0.20065092 -0.13294376 0.25164506 -0.22669797
0.16270193 0.18392317 -0.12219495 -0.1849648 -0.1688968 -0.0733724 0.1376048 0.12825722
-0.103959784 -0.19259337 -0.096040465 0.22563677 -0.07718154 -0.043317284 0.20891124 -0.05594289

fc2.bias f4 [10]
00000000: 1e7f e73d f2f3 763e 4287 92bd 42ac 53bd
00000010: 4a8d 6abd f8d7 e23d b0c8 2d3d 41ff 0bbe
00000020: 61d3 943d e191 7cbe
0.113035426 0.24116495 -0.07154705 -0.05167795 -0.05726365 0.11076349 0.04242772 -0.1367159
0.0726688 -0.24665023
